lightning_logs/version_19/checkpoints/epoch=2-step=138.ckpt (torch, 273474 bytes, 24 tensors)

conv1.weight f4 [10, 1, 5, 5]
00000000: 6ebe 30be 65ac 46be 6813 873d 2c18 913c
00000010: 9980 8cbe 6509 9abe 82f6 0bbe f825 8fbe
00000020: 2bed d7bc 4b0a 283d eb0b 303c 2a8b 40bd
00000030: 6afe cfbd bc8d e1bd 8569 073d 9a98 a83d
00000040: 49bb 63be 9997 22be 4ef7 b7b9 7bab 97be
00000050: 32ec 6ebc a86e 23be 0e52 7dbd ebd3 12be
00000060: 6e36 40be 62c8 babe 34fc 64be 79d8 e5bd
00000070: f863 c33b b463 2bbb 8b1e 80be c9b5 2dbe
00000080: eaea 33be e1ff ae3c 324b 61be 4faa 85be
00000090: 6882 bf3a 290b 25be f1ae 513d 21e5 14be
000000a0: 5844 2dbe d992 813a 051a edbd bfb2 8abe
000000b0: 8382 7abe 4572 d73b caca 94bd 6647 47be
000000c0: e469 ddbc 086a 88be 2af3 9ebe 411f eb3b
000000d0: 1cc3 14be 08c9 babd 4ad8 c43c 0af1 18be
000000e0: 47fd 753d 7f60 bcbd 9ee7 a4be 95ef c2bd
000000f0: e1a7 b9bd 42e7 75be ce8f 83be 145f 83bd
00000100: 3f8e 83be fed9 1abe 2b20 073c a3eb 90be
00000110: da88 213d 75ec 80ba 33ec 53be 73ab be3d
00000120: a31c 50be 879b bcbc 5fa2 04be 856d 9dbe
00000130: 163a 9dbd 1151 33be 86dc 75be d4bc 80be
00000140: 7ddf 87be f920 823d 6b38 61be 409f 443d
00000150: fb89 84be 04fc 45bd 2fd0 c53c bf92 e03d
00000160: 1dff 82bd 5c87 773c 4662 b6bd 2602 eabd
00000170: 95ae 6abe 1828 8dbe e397 aa3b 85e6 d73d
00000180: b29a a1bd 41af 7abe bf77 01bb f1e5 2dbc
00000190: c070 6dbe 00c8 8dbe 0c78 263c c4b9 89be
000001a0: 1eb7 0f3d 63ff 3cbb 81f2 51be 7633 82be
000001b0: bd9f 31be ea8e 1abe 5802 883b af36 c3bd
000001c0: 2a6e 03be 93d7 15bc 6b7a 9bbd 42ee 29be
000001d0: 1f52 32bd a16c 0dbd a4e1 38be 5366 ecbc
000001e0: 803a b03d bf65 8abe 23ae cb3d d957 c4bd
000001f0: a68c 76be 09d2 74bd be74 57be 3a9a 42be
00000200: 7483 a0be b962 ddbd 7dc9 f2bd 4a34 25be
00000210: dc32 22be a227 8cbe ce78 99be 561f 97be
00000220: 54b8 58be ab4d 123d 3986 29be e8b1 8b3d
00000230: 963b 28be 7cc2 31be d049 3ebd 2d30 f6bd
00000240: 21ce 503d 3696 70be a052 fa3b fa3a 623d
00000250: 8972 d0bd a340 f9bd 9d9e 8ebe c9b7 0dbe
00000260: 06f4 01be c858 ab3d 9ee9 853c fdbc d2bd
00000270: 9282 db3d c4a5 3cbe 9fe9 c43d f3b9 48be
00000280: ccc1 a8be b28b 4ebc d19c 1abe b264 ffbc
00000290: c9d5 f53c 776b 98be 22b4 ba3d ecce 3b3d
000002a0: 52b0 48be 7aae 643d 63ab cdbd cbbc 9abc
000002b0: 51a3 f5bd ba16 81be c500 08be 0b41 3b3e
000002c0: 7b43 263e 9eca 19be cfa6 5cbe 241e 89be
000002d0: 374c d73d 9616 20be 355d cbbe 9883 7dbe
000002e0: d25c 60be 7f9b 393e 8842 0abe f61b 12be
000002f0: fd7c a8bd 7c4e a8bd bff6 af3d 4f1d acbd
00000300: 61c3 a2bd 2692 8f3c 5b0b 98be 188c 85be
00000310: 0279 17be 1b36 e0bd abd9 143e 2f9d 14bd
00000320: 27ef 72be 95bc 2cbe 601c 84bd fe2e 89be
00000330: 48c4 3ebd 95ac 52be 9f50 8cbe 14ec 12be
00000340: 32da 8bbe 699a 92bd 891a 74be 4cec 05bd
00000350: 9a77 c8bd b44a f4bd a2a1 3cbe 8502 46be
00000360: 3d97 ee3c 9137 0d3d 7bc3 8abe 1fa3 dd3d
00000370: a4bc 883d 6716 0abe 7257 0cbe 7ec3 19bc
00000380: 6370 86be 487e b2bd 90f8 7cbe 16dc 25ba
00000390: 8554 a53d a6e4 31be d371 433c 28c1 b0ba
000003a0: ed89 06be 7ddc 6abd 0b90 9a3d b7f6 a8bd
000003b0: 67de e3bd 2cec 58bd 73e1 85be b009 1ebe
000003c0: e65c 1ebe 3106 3fbe aa0a cf3d 3ab6 c63b
000003d0: c594 18be 6607 adbd 6986 803d 67da b13d
000003e0: bf26 223c 36a0 62be
-0.17260143 -0.19401701 0.06595498 0.017711721 -0.27441862 -0.30085292 -0.13668254 -0.27958655
-0.026358208 0.04102544 0.010745029 -0.047007717 -0.101559475 -0.11013362 0.033059616 0.082322314
-0.22239412 -0.15878142 -0.00035088736 -0.29623017 -0.014582681 -0.15960181 -0.06184583 -0.14338653
-0.18770763 -0.36481005 -0.22361833 -0.112229295 0.005962845 -0.0026151957 -0.25023302 -0.16963877
-0.17570081 0.021362247 -0.22001341 -0.26106498 0.0014611008 -0.16117539 0.051192228 -0.1454053
-0.16920602 0.0009885683 -0.115772285 -0.27089497 -0.24463849 0.0065749013 -0.072652414 -0.1946083
-0.027028032 -0.26643395 -0.31044894 0.0071753566 -0.14527553 -0.09120375 0.024028916 -0.14935699
0.060055997 -0.09198093 -0.3220796 -0.09518353 -0.090652235 -0.24013999 -0.25695652 -0.06414619
-0.25694463 -0.1512222 0.008247416 -0.28304777 0.039437152 -0.0009836095 -0.20695572 0.09310045
-0.20323424 -0.02302338 -0.12952565 -0.3074762 -0.07677095 -0.17511393 -0.24009904 -0.25144064
-0.26537696 0.06353945 -0.21994178 0.048003435 -0.2588652 -0.048336044 0.024147121 0.109654896
-0.06396315 0.015107956 -0.08905463 -0.11426191 -0.2291816 -0.27569652 0.0052060946 0.10542015
-0.07890834 -0.24480917 -0.0019755212 -0.010613904 -0.23187542 -0.2769165 0.010160457 -0.2689954
0.035086744 -0.0028838746 -0.20502664 -0.25429887 -0.17346092 -0.1509358 0.00415067 -0.095319144
-0.12834993 -0.009145635 -0.07591709 -0.16594794 -0.043535348 -0.034527425 -0.18054825 -0.028857386
0.08604908 -0.2703075 0.09945323 -0.09587068 -0.2407709 -0.059770618 -0.21040627 -0.19004145
-0.3135029 -0.108098455 -0.11854837 -0.16133228 -0.15839714 -0.27373987 -0.2997498 -0.29516095
-0.21164066 0.0357186 -0.16555108 0.06821042 -0.1642898 -0.17359346 -0.04645711 -0.120209076
0.05097783 -0.23494801 0.007639244 0.055232026 -0.10178096 -0.121705316 -0.27855387 -0.1383964
-0.12690744 0.08366543 0.016346749 -0.10289953 0.10718264 -0.1842261 0.09614872 -0.19602184
-0.32960355 -0.012606548 -0.15098883 -0.031175945 0.030009167 -0.2976949 0.09116389 0.045851633
-0.19598511 0.055830456 -0.10042455 -0.018888852 -0.11994041 -0.25212651 -0.13281544 0.1828653
0.1623668 -0.15018699 -0.21548007 -0.26780808 0.10512584 -0.15633616 -0.3971955 -0.2475723
-0.21910408 0.18125723 -0.13501942 -0.14268479 -0.082269646 -0.08218095 0.08591985 -0.08404028
-0.07947422 0.017525744 -0.29696164 -0.26083446 -0.14792255 -0.1094782 0.14536159 -0.036282714
-0.23724042 -0.16868813 -0.064507246 -0.26793665 -0.046573907 -0.20573647 -0.2740526 -0.14347869
-0.27314907 -0.07158358 -0.23838247 -0.032696053 -0.09788437 -0.11928311 -0.18421033 -0.19336899
0.02912485 0.03447682 -0.27102265 0.108221285 0.06676605 -0.13485108 -0.13705233 -0.009384988
-0.2625762 -0.087154925 -0.24704194 -0.0006327046 0.080727614 -0.17372379 0.011928993 -0.00134853
-0.13138552 -0.05733918 0.07547005 -0.08250182 -0.11126404 -0.052959606 -0.26148567 -0.15433383
-0.15465125 -0.18654706 0.10109456 0.0060642036 -0.14900501 -0.08448677 0.06275637 0.08684235
0.009896933 -0.22131428

conv1.bias f4 [10]
00000000: 1423 27be afd1 273e 39da 32be 9b6b 76be
00000010: 1d61 ebbd caa4 84be 4b39 e1bd 8d13 9f3e
00000020: 541c adbd fa58 44be
-0.16321975 0.16388582 -0.17466058 -0.24064486 -0.11493132 -0.25906974 -0.10997256 0.31069604
-0.08452669 -0.19174567

conv2.weight f4 [20, 10, 5, 5]
00000000: bcfa b5bd 7537 45be 3219 b6bd 8842 91bd
00000010: 4b65 8cbd f971 4abe 5525 f2bd 0523 c9bd
00000020: ab9d 38be 2125 e6bd 1678 febd 7dd5 d6bd
00000030: d82d f3bd 7cb5 e2bd 8af8 b6bd e9df 1bbe
00000040: f9d8 e3bd e893 d8bd 3ccd 3ebe 7ad5 09bd
00000050: a475 6abd 37d5 31be aec8 fcbd 0062 3ebd
00000060: efa5 63bd dfe6 eabd 2993 08be dd12 0dbe
00000070: 7a35 88bd 194a c0bd cb47 0bbe c2fc aebd
00000080: f7df fdbd 4fe9 cabd f913 45be 0d6c 78bd
00000090: 1b0c d2bd e628 f5bc 2dd6 bdbd dfaa 12bd
000000a0: 416d bebd 3728 0dbd dae4 4fbd 8e86 fcbd
000000b0: 5ba9 5dbd 3e97 1abe 35f9 bebd 50ec 27bd
000000c0: 7b30 15be 5862 5dbd 31c0 5dbd 3f0f 04be
000000d0: 3fb3 dcbc 3768 0abe 92a8 e6bd a3b8 3ebe
000000e0: a728 09be 9391 efbc c80e e8bd 5c44 77bd
000000f0: 6255 2abd 317a 56bd c339 e7bd 6233 b4bd
00000100: 7eb0 09be e4b6 13be f466 e3bd 1376 17be
00000110: 8e90 84bd 1e70 c1bd 4087 eebd ca82 d2bd
00000120: b3a5 58bd ab91 30be 8421 f6bd 2aef 82bd
00000130: 3ee2 05be fb5a a3bd d7a4 efbd ce1f e9bd
00000140: 42f9 c4bd 4ab4 e2bd 8803 b9bd a372 bfbd
00000150: c45e 04be 13db c3bd 97c1 01be 2347 c4bd
00000160: efaa 19be 9946 bebd 1b2e e9bd e91c 8cbd
00000170: 7679 53bd e9eb 9fbd 42f8 83bd d2e0 2abd
00000180: ee6a 06bd 3688 80bd f3a7 1ebe 808c 1cbd
00000190: 6372 31be f9d6 9abd 149a 91bd 0ea8 18be
000001a0: 61ec a6bd 8330 e5bd 5170 29be a74c 04be
000001b0: aa6b 1dbe 0eb9 61bd ca6a 98bd 5c54 e3bd
000001c0: 6726 c7bd e352 94bd 8cee 76bd 38fc 30bd
000001d0: 0ad7 14bd 285a 02be 89e5 c0bd cd9e 69bd
000001e0: c4d6 13be c9ef 09bd 0a26 cdbd 71f5 10be
000001f0: 1c1c b3bd ec29 4abd 295c b9bd cd75 28be
00000200: 801a 31be d478 08be 6137 4dbe eb1f 0cbe
00000210: 6908 05be 2f8e 0abd 1564 debc 3a00 cdbd
00000220: c4bb f6bc 4e7c 2fbd b4dd f2bd 47fd 3dbe
00000230: 4a82 91bd 21d7 b4bd 1a5e d6bc 196b 52bd
00000240: c858 0ebe 5f37 81bd 905b 4dbc da3b c7bd
00000250: a63e 11be 2758 3ebe 2e41 81bd 21a9 8dbd
00000260: 4f56 d4bd 38e8 a4bd 3f13 0cbe fd13 0fbe
00000270: 3562 a0bd 09fd fbbd f458 5dbd e3d2 02be
00000280: 78e2 fabd 50b6 9ebd 110f c4bd 28a8 0bbe
00000290: 5310 11be 9ce0 9cbd fec5 58bd c5c3 88bd
000002a0: 6b51 f5bd ad5d 86bd 185e cdbd dad5 b9bd
000002b0: 8f2d 13be 83e1 15be 06f5 03bd 1170 ccbd
000002c0: e16b c1bd 0d5b 98bd fbdd a2bd 7e23 ecbd
000002d0: ec45 aabd 80e7 9ebd 88c9 52bd e447 26be
000002e0: a307 ebbd d519 92bd c214 91bd 310a 9ebd
000002f0: 761b 1dbd 6fb2 ccbd 4fb9 d9bd 34c0 83bd
00000300: 2824 dcbd 6ae5 a2bd eac5 e3bd f7bd 9cbd
00000310: a8c7 f2bd 3e02 34bd af33 c1bd 4ec1 1dbd
00000320: c05e c6bd 6960 dfbd ef49 46be 9659 d1bd
00000330: 59dd d6bd 5e28 a9bd 004c 07be 3f16 3cbe
00000340: 9c35 83bd 7ab4 b6bd 9e35 f3bd 5314 0bbe
00000350: 11dd 50bd e0ad 21bd 482e 8abd 362c c6bd
00000360: 2015 00be 61d6 dcbd e2bb c1bd 939b a2bd
00000370: d2b2 76bd b3f5 14be 26f8 b5bd 52af f3bc
00000380: 09a9 07be 974f 15be 9010 59bd 1b25 a3bd
00000390: 1e6a 6ebd 4302 1dbe 5872 b9bd 0071 dcbd
000003a0: 5861 f5bd 4b20 1fbe 22b8 63bd 4be5 f4bd
000003b0: 6870 4cbd 4f49 e8bd 7a62 07be 5379 30bd
000003c0: 5f7c 1dbe 8a02 0bbe f837 b4bd 93f2 66bd
000003d0: 51ea 17be 6cf3 04be 5339 7fbd 95b8 18be
000003e0: b9b4 35bd 6f7f b7bd 059f 09be 979f 84bd
000003f0: dd3d 0abd f002 6ebd 7ea7 0dbe 2de1 09be
-0.088857144 -0.19259436 -0.088915244 -0.07092768 -0.068552576 -0.1977004 -0.11823527 -0.098211326
-0.18028896 -0.112375505 -0.12425248 -0.104899384 -0.118739784 -0.11069772 -0.08934124 -0.15222134
-0.111253686 -0.10575086 -0.18632978 -0.033650853 -0.057241097 -0.17366491 -0.12342964 -0.04648018
-0.05557817 -0.114698164 -0.13337387 -0.13776727 -0.06650825 -0.09389133 -0.13601606 -0.085443035
-0.123962335 -0.09907781 -0.192459 -0.06064992 -0.10256215 -0.029926728 -0.092693664 -0.035807487
-0.09298182 -0.03446218 -0.05075536 -0.12330352 -0.054116588 -0.15096757 -0.09324876 -0.04099685
-0.14569275 -0.054048866 -0.054138366 -0.12896441 -0.02694094 -0.13516317 -0.11262621 -0.18625121
-0.13394414 -0.02924422 -0.11330944 -0.060367927 -0.041585334 -0.052362625 -0.11290314 -0.08798863
-0.13446233 -0.14425236 -0.11103621 -0.14791135 -0.06472884 -0.09445213 -0.11646891 -0.10278852
-0.052892398 -0.17243068 -0.12018111 -0.06393273 -0.13074586 -0.079763375 -0.117013626 -0.113830194
-0.09617855 -0.11069544 -0.09033877 -0.09348037 -0.12926775 -0.095632695 -0.12671505 -0.09583881
-0.15006612 -0.09290809 -0.11385747 -0.06841452 -0.051629506 -0.07808668 -0.06443836 -0.04171831
-0.03281682 -0.0627598 -0.15493755 -0.03821993 -0.17328791 -0.07560534 -0.07109466 -0.14907858
-0.081505544 -0.111908935 -0.16546752 -0.12919866 -0.15373102 -0.055108123 -0.074422434 -0.11100075
-0.097241215 -0.07242372 -0.06028609 -0.043209285 -0.03633789 -0.12729704 -0.0941878 -0.05703621
-0.14437395 -0.033675943 -0.10017021 -0.14156128 -0.08745596 -0.049356386 -0.09050781 -0.16451187
-0.17295265 -0.13327342 -0.20040657 -0.1368405 -0.1299149 -0.033827003 -0.027147332 -0.10009809
-0.03011883 -0.042843156 -0.11858693 -0.18553649 -0.07104929 -0.08830095 -0.026167918 -0.051371668
-0.13901055 -0.06309389 -0.012534037 -0.09728213 -0.14184055 -0.18588315 -0.0631126 -0.069170244
-0.103680246 -0.08052105 -0.13679217 -0.13972469 -0.078312315 -0.12304122 -0.05403991 -0.1277576
-0.12250227 -0.07749617 -0.09573186 -0.13638365 -0.14166383 -0.07660028 -0.052923195 -0.06677965
-0.1197842 -0.06560836 -0.100277126 -0.09073992 -0.14372848 -0.14636807 -0.032216094 -0.099823125
-0.094444044 -0.074392416 -0.07952496 -0.11530207 -0.08314118 -0.07758999 -0.051461726 -0.16238362
-0.11476066 -0.07133833 -0.07084037 -0.077167876 -0.038356267 -0.09994971 -0.10631048 -0.06433144
-0.10749084 -0.079539135 -0.111217335 -0.076534204 -0.11854488 -0.04394745 -0.09433686 -0.038514428
-0.09686041 -0.10907061 -0.19364141 -0.10222165 -0.104914375 -0.082596526 -0.13212585 -0.18367861
-0.064067096 -0.08921142 -0.11875461 -0.13581972 -0.050992075 -0.03947246 -0.06747109 -0.09676401
-0.12508059 -0.10783077 -0.09459664 -0.0793983 -0.06022913 -0.14546852 -0.08885221 -0.029746685
-0.13248076 -0.14581142 -0.05299431 -0.07966062 -0.05820667 -0.15332894 -0.090550125 -0.107637405
-0.119814575 -0.15539663 -0.055595525 -0.11957797 -0.049911886 -0.113421075 -0.1322116 -0.043084454
-0.15379475 -0.13575187 -0.08799738 -0.05638368 -0.14835478 -0.12983483 -0.062310528 -0.14914162
-0.044361804 -0.08959853 -0.13439567 -0.06475752 -0.033750404 -0.05810827 -0.13833424 -0.13464804

conv2.bias f4 [20]
00000000: 76f4 8ebd 8e36 b6bc 2449 09be 5b9b 4fbe
00000010: ea57 4e3e fa14 cbbd a5df fcbd 754c 85bd
00000020: 08df b7bd dca1 07be 6a7d 5dbd 8b8d dbbd
00000030: 22ec cebd b287 a0bd ba4d 18be a1a4 d3bd
00000040: eb82 a1bd 8aa0 15be a0c5 93bd 4474 a2bc
-0.06980221 -0.02224281 -0.13406807 -0.20274107 0.20150724 -0.0991611 -0.12347344 -0.06508724
-0.08978087 -0.13245338 -0.054074682 -0.107203566 -0.101036325 -0.07838382 -0.148734 -0.10334135
-0.07886299 -0.14612022 -0.07215428 -0.01983083

fc1.weight f4 [50, 320]
00000000: 551f 03be ed53 58bd 00ff 48bd 8fb8 77bd
00000010: 4d76 42bd 2ee9 03be 62c5 f0bd 8fd0 8bbd
00000020: dc85 e3bd 1e8e cbbd 005e 8abd 0674 22be
00000030: e308 64bd 6927 22be f6f4 e6bd bb0e a2bd
00000040: 5124 dfbd 19fe 16be 1eff d2bd 6c0a 0dbe
00000050: 703e a1bd a9eb 0fbe 4a73 50bd d566 18be
00000060: bda4 9cbd f087 9e3c 534c 74bd 7b6b 12be
00000070: fd4b afbd e682 f8bd c57e 0abe 6c5a 9cbd
00000080: b0fa 1ebb cecd 39bd 484b 243d 26e4 333d
00000090: a8d7 28bd 9c4b 9abc de38 c8bc 246c df3c
000000a0: 667b 16bd 9e42 bdbc 42ad a2bc c462 4a3d
000000b0: 06a4 623d 7039 51bc 180d 093c 080c f8bb
000000c0: 42d7 b83d 89d9 29bd 93d5 a13d 5a53 613d
000000d0: 87f9 803d c8a3 ce3d aac3 1c3e 8a6e f43d
000000e0: 0b29 dc3d 932e 183e f762 c13d ea35 a7bc
000000f0: dc26 1f3e b3fc 653d 4eee 973d d03f 1cbc
00000100: ae10 e7bd 2f1d 52be bf39 eabd 6904 0bbe
00000110: a43d 45be 3708 4bbe 47f0 92bd 6c86 3fbe
00000120: f300 4abe 0935 8bbd adae 1cbe 5ff6 38be
00000130: 1bff babd fb89 6cbe 0000 43be e1c3 e2bd
00000140: 6c71 023d 305c 633b d06c 273d a212 d0bc
00000150: 589d ea3c b8c3 673c 45a5 e4bc e2bc 163d
00000160: 2096 ad3c 5029 18bb 1641 98bc 5a71 ebbc
00000170: 3678 273d bc8f eb3c 2ec0 2fbd c8f6 333c
00000180: c494 c6bc 6625 483d 3cb3 11bd 3c69 573d
00000190: 18b0 59bc 244c 3abd 7e20 4fbd 2c87 233d
000001a0: f00f 3bbd 144c 08bc 8cc5 b0bc d08f 013c
000001b0: 1806 dc3c caad 14bd 3415 4a3d 1881 31bc
000001c0: 07be 093e c071 263b 9301 a23d 469f 1b3e
000001d0: 2977 f8bc f24c ba3d bcc6 5c3d 4778 903d
000001e0: 7451 d1bc e8d5 123e d192 db3d 7dde eb3d
000001f0: 00f4 c93b 8778 e03d 6597 153e c9d3 183e
00000200: 4665 03bd b0b5 03bd d892 42bd f68b 8b3d
00000210: 17d7 91bd 123b 84bd ee6f 873d 57ca d13c
00000220: fc53 c33c 6f47 793d ecfb b93b 90d6 733d
00000230: 1ae3 1e3e a335 a1bd 482c 78bc f2fb be3d
00000240: 2ee1 2c3d d028 5cbc 02da 84bc 0409 12bd
00000250: 5877 903c c918 2fbd 6672 513d 669b 2a3d
00000260: 886c 1fbd 006d 693b d603 5ebd 9822 30bc
00000270: 80cd dcbb e084 863c 346d 273d b820 583c
00000280: 08f0 da3c 7435 59bd 5431 f1bc b0e9 dc3c
00000290: 4eea 323d a06a 6f3c 9638 263d e887 933c
000002a0: 5863 b13b 5764 0bbd a89c e9bb a092 813c
000002b0: 40d6 f93b d226 0cbd f0f2 0bbb 1e7d 333d
000002c0: 249b 31bc d030 fcbb a61c 61bd b07a f73c
000002d0: 2840 dfbb 9a54 01bd 54fc 2abd 0e9f 3b3d
000002e0: 985a 3d3c 4892 743c 6055 aebc 678f 40bd
000002f0: 2009 0a3b c0f6 5d3c faab 54bd 0613 253d
00000300: 9c3a 16bd d84d 823b e0c0 14bd 7ade abbc
00000310: b616 1e3d bfc2 01bd a07c 273d a042 49bd
00000320: 662f e2bc e64e f9bc 9222 2ebd 5f0e f7bc
00000330: bc76 623d b07d 3f3d 043e c4bc 5a17 4e3d
00000340: 0aaf 87bc c17d 2dbd b06a ff3c 6032 f93c
00000350: 2c87 77bc 2011 2bbd 4ecb 543d 14ae 0dbd
00000360: b3f3 63bd 30e2 63bd d2a3 563d 8c41 0c3d
00000370: 1810 50bd 300f 393c 25b0 36bd 7841 c9bc
00000380: 9061 5e3d 6cc7 f33c d2e0 39bd c69c 41bd
00000390: e86e 15bd d0a5 4c3b 1f9e d1bc 41af 47bd
000003a0: f080 643c 0048 c839 987c b73c b22f bfbc
000003b0: 30ba 213d c925 63bd 0c01 1c3d e5f0 24bd
000003c0: 5367 e3bd 2d03 073e e372 f63d ffa2 743d
000003d0: ee9b 5bbd b394 af3d 14f8 993c b358 8c3d
000003e0: 38ee 093d 9fe9 1e3e e0bf c23d b699 bb3d
000003f0: 9a04 413d 414a 013e f080 fb3c cb5f b83d
-0.12804921 -0.052814413 -0.049071312 -0.060478743 -0.0474761 -0.1288192 -0.11756398 -0.06826889
-0.11109516 -0.09939216 -0.0675621 -0.15864572 -0.055672538 -0.15835346 -0.11277191 -0.07912966
-0.10895599 -0.14745368 -0.10302566 -0.13773507 -0.07873237 -0.14054741 -0.0508912 -0.14882977
-0.07648609 0.01935193 -0.0596431 -0.14298813 -0.085594155 -0.12134342 -0.13524921 -0.07634434
-0.0024258308 -0.045362286 0.040110856 0.04391875 -0.04122129 -0.018834881 -0.024441179 0.027273245
-0.036738776 -0.023103055 -0.019858006 0.049410596 0.055332206 -0.012770042 0.008364938 -0.0075697936
0.09025432 -0.041467223 0.07902064 0.05501113 0.062975936 0.100898325 0.15309015 0.11935146
0.10750016 0.14861517 0.09442704 -0.02041145 0.15542167 0.056149196 0.074185 -0.009536698
-0.11282478 -0.20518945 -0.114367954 -0.13575901 -0.19261795 -0.19827352 -0.071747355 -0.18703622
-0.19726925 -0.06797225 -0.15301009 -0.18062733 -0.09130689 -0.2309951 -0.19042969 -0.11072517
0.03184645 0.00346924 0.040875256 -0.02539951 0.02863948 0.014145784 -0.027910838 0.036801226
0.02118975 -0.0023217984 -0.018585723 -0.028740574 0.040886126 0.028755061 -0.042907886 0.01098413
-0.024240859 0.04886379 -0.03557132 0.052590594 -0.013286613 -0.04548277 -0.050568096 0.03992383
-0.045669496 -0.00831892 -0.021578573 0.007907823 0.026858374 -0.03629855 0.049336627 -0.010834001
0.13451396 0.002539739 0.079104565 0.15197477 -0.030330257 0.090967074 0.053900465 0.07054191
-0.025551535 0.14339411 0.107213624 0.11517046 0.0061631203 0.10960489 0.14608534 0.1492454
-0.032079004 -0.032155693 -0.047503322 0.06813805 -0.07121103 -0.06456579 0.06613146 0.025609178
0.023843758 0.06085914 0.0056757834 0.059530795 0.1551632 -0.078715585 -0.015147276 0.093253985
0.042206936 -0.013437465 -0.016217235 -0.03565313 0.017635033 -0.042748246 0.05113449 0.041652106
-0.038921863 0.0035617948 -0.054202877 -0.010750435 -0.0067383647 0.016420782 0.04087563 0.0131913945
0.026725784 -0.053029492 -0.029442467 0.0269669 0.04368048 0.014612824 0.04058131 0.018009141
0.005413454 -0.03403124 -0.0071292706 0.015816987 0.0076244175 -0.03421671 -0.0021354519 0.043820493
-0.010840211 -0.0076962486 -0.054958962 0.03020987 -0.006813068 -0.031574823 -0.041744545 0.045805983
0.011557244 0.014927454 -0.021280944 -0.04701176 0.0021062568 0.013547599 -0.051921822 0.040301345
-0.036676988 0.003976565 -0.036316752 -0.020980109 0.038595878 -0.031679865 0.040890336 -0.049135804
-0.027610492 -0.03043313 -0.042513438 -0.03015822 0.055289015 0.046750724 -0.023955353 0.05031524
-0.016562957 -0.042356256 0.031178802 0.030419528 -0.015107911 -0.04176438 0.0519517 -0.034589842
-0.05565233 -0.05563563 0.052402325 0.034242198 -0.0507966 0.011295125 -0.04460158 -0.02456735
0.05429226 0.029758178 -0.04538042 -0.04726865 -0.03648272 0.0031226762 -0.025588093 -0.04875112
0.013946757 0.00038200617 0.022398278 -0.023338173 0.039484203 -0.055455957 0.038086936 -0.040268797
-0.11103692 0.13184805 0.12033632 0.059725758 -0.053615503 0.08573284 0.01879505 0.068528555
0.03367445 0.15518807 0.095092535 0.091601774 0.04712353 0.12625982 0.03070113 0.09002646

fc1.bias f4 [50]
00000000: 48c1 a5be 1130 b2be 7d18 b7bd cb0f e1be
00000010: 063d 0c3e a05f ccbe dc07 2dbd 1eda 39be
00000020: 6c6f cabc 3280 7b3d cbc9 8fbe e264 32be
00000030: b1ed 4fbe 8f2a 51bd 4444 14be 9e6c eebd
00000040: 4ec9 8bbe 0506 11be 3f2f 67be 5f69 97be
00000050: e492 3fbe b342 dbbd 4516 0dbe 590d afbd
00000060: 4891 053b e41f 8fbe 2b62 e4bd aced 70be
00000070: 1c82 1abe 84ef a9be 7442 28be 700d b9bd
00000080: b0b0 e7bd ccbc a9bd 9f7e eebd 5912 49bd
00000090: cc2f 29bf c735 e6bd 75a4 4ebe 1a1a 68be
000000a0: d5fb 0cbe 7a9b 04bd 5a59 1cbe d1a9 25bd
000000b0: 3014 17bf ae9e 7abd 476a 0bbe 183c 8abe
000000c0: a949 5bbe bffe 5cbe
-0.32374024 -0.34802297 -0.08940218 -0.43957362 0.13695154 -0.39916706 -0.042243823 -0.18149611
-0.024711333 0.061401553 -0.28083643 -0.17421296 -0.20305516 -0.051065978 -0.14479166 -0.11641811
-0.2730202 -0.14162453 -0.22576617 -0.2957258 -0.18708378 -0.10706081 -0.13778026 -0.08547468
0.0020380784 -0.27954018 -0.111515366 -0.23528165 -0.15088695 -0.33190548 -0.164316 -0.09035766
-0.11312997 -0.08287963 -0.11645245 -0.049089763 -0.6608856 -0.11240726 -0.20179923 -0.22666207
-0.13767941 -0.032374837 -0.1526846 -0.040445153 -0.5901518 -0.061186485 -0.1361476 -0.26998973
-0.21414818 -0.21581553

fc2.weight f4 [10, 50]
00000000: 0ca1 823d f313 b43e 44fe fcbd f3b9 b73d
00000010: d2be 8b3d 5058 e6b8 585c 1cbf 5475 7bbd
00000020: 4d7c 86be d266 92be 7b5c e33e 7448 08be
00000030: bd3e 253b 31b7 323d 589d 6e3e 5bca a93d
00000040: e8db 133e aabe dbbd 3916 6bbf c809 9dbe
00000050: 1ed3 f0be 1486 71be 861c 6dbe 7f88 5b3d
00000060: ca43 55bf 5eb2 74be bae7 2f3e 3639 82be
00000070: 9ebe 2a3f efe6 6f3e d901 093e 6776 5bbf
00000080: 580c 8fbd 79ec 013e cba6 c33e 7de0 833c
00000090: 96df ffbc fb2d 3bbf 1575 5abf 5f95 96bb
000000a0: e6a9 203d f3ef 0b3f 9586 d9bc db55 d53b
000000b0: 2a35 733e 62f8 eebd fff8 0f3a b745 353d
000000c0: 46ab 89be 9b44 02be 63a3 7dbe cf78 cbbe
000000d0: 3e9b 0d3e 64e5 3ebe 555e 52bf 91ef d9be
000000e0: 145c d43e 3760 61bd 33a5 c1be 0e2b 543e
000000f0: d267 17bf 3ee3 06bf 50e7 68be a8e1 48bf
00000100: 947a b8bc 2542 163d 6968 b0bd 7512 98be
00000110: 9aa0 a1be a36f 79be accf 05bf e2a4 673c
00000120: bab9 093e ba25 26bd 1d15 333f 6ff4 663d
00000130: 962a c83b 92ba b7bd e73e 19be c383 0ebf
00000140: 2610 0cbf f81f d5be d7a7 5bbe 2270 24be
00000150: 6769 4fbf 8dc5 293f 10f3 49be c379 03bf
00000160: 52a6 44be 2f38 4bbe 4314 733d 1089 b5be
00000170: 2c20 753d bf00 4abe 2aeb 0cbf f755 83be
00000180: fbb8 6ebe 2a8b 9ebd 3b95 84be cabf 61be
00000190: 12f2 77bd 2431 f6bd 3ac5 afbd 8f92 4fbb
000001a0: 9412 9dbe 5e7d 793e b5b2 f83d f387 56bd
000001b0: f22c 31bc b9f0 74be 6c51 183e 700c d13e
000001c0: 1de8 65bd 3711 1f3e b2b9 81bc 6664 303d
000001d0: 596b d03d b59c 983b e433 b63d 40f7 62be
000001e0: 3f45 3dbd 6a48 51be 9960 053e 0dc7 353c
000001f0: 020d de3e 09cb 7e3d a077 c2bd dc6f 69bd
00000200: 0cc3 823d afbe 52bd 0796 a2be 5c1f 2d3e
00000210: 45be f4bb c7b1 d83d f8a5 3bbe 0922 2b3d
00000220: a8f0 77bd 5fa7 afbd 997d cf3c deaf b9bd
00000230: 00c1 3434 f64a debd e244 d6bc b367 babd
00000240: 5da5 623e 5787 283b 309f a6bd 7729 643e
00000250: c0d5 083b d82b 1cbd 12d2 6dbe 5594 be3e
00000260: a532 f53c 41dd 11be 8dd5 b6be 1bc3 60be
00000270: 5488 8a3e 2113 78bd 9626 df3e 90bf 3f3e
00000280: 17bf 903c 1319 acbe 046e 333e ce8b 7f3e
00000290: 96ee febd eef9 31be 6876 633d 291c 6e3b
000002a0: 6447 4c3d e927 7abe ad61 03bf b7db 79be
000002b0: c318 22be 2ceb 3abe d2c8 153e 908f 42be
000002c0: 982a ed3d 347b c53b 751a 27be 2ded 973e
000002d0: 9188 61bd 19b3 9abe 070f eebd 0b34 50be
000002e0: b937 4b3d 55f3 79bd 8bdd 8dbd 58d1 18bf
000002f0: 0d19 88be 0c3d 07be 8428 60be 8d85 c9be
00000300: 934a 5ebe d533 79be c4a9 26bc cc22 333d
00000310: 2b84 4abe eeee b83d 246a 9c3a 7df9 d0bc
00000320: d9d5 d4bd 30e4 c63d c71e 41bd 4592 323d
00000330: a417 3bbe 2115 e13d f3fe a2be 94b9 a6bd
00000340: 465d 323c 31d7 08be 2b7e bebe 22bf dd3c
00000350: 4997 923c 61cb a0be 806b 4b3d c200 71bc
00000360: 4473 dbbc 0060 9c3d 4dee 9c3e dd48 233e
00000370: 6b8a e73e 1627 673c d055 10bd d758 8ebd
00000380: d4b0 89be 4149 2bbd 4647 e23c a79e d73d
00000390: d873 49bd 3f84 5e3e 09bc 18bf 8eec 563e
000003a0: 8c64 e93d cbe7 fc3c 88fe 50bf b829 a3be
000003b0: 1fb7 fd3d 321e 983e 179a a43e 1a74 93bd
000003c0: 9777 7d3c eeb6 913d aa9c 85bd 04b6 cabb
000003d0: cd44 f6bd 850a 31be 4bd0 50bd 0b50 b1bd
000003e0: 7b2e 00be 4f2e c5bc 1455 013c c4b4 9b3e
000003f0: 4e6d 263d 8d58 bc3c 3d16 c23d 3dac 013e
0.063783735 0.3517147 -0.12353185 0.08971014 0.068235055 -0.00010983704 -0.61078405 -0.06139119
-0.2626671 -0.2859407 0.44406494 -0.13308889 0.0025214397 0.043631736 0.2330221 0.08290549
0.14439356 -0.10729726 -0.91830784 -0.30671525 -0.4703607 -0.23586303 -0.23155412 0.05359697
-0.8330656 -0.23896167 0.1717824 -0.25434273 0.6669711 0.23427938 0.13379611 -0.8572754
-0.06984776 0.12687863 0.3821319 0.016098255 -0.031234544 -0.73117036 -0.85334903 -0.004595443
0.039224528 0.5466301 -0.026553432 0.006510479 0.23750749 -0.11668469 0.00054921204 0.04425594
-0.26888484 -0.12721483 -0.24769358 -0.39740607 0.13828751 -0.18642193 -0.8217519 -0.42565587
0.414765 -0.0550234 -0.3782135 0.20719549 -0.5914279 -0.52690494 -0.22744489 -0.78469324
-0.022519387 0.036684174 -0.08613665 -0.29701582 -0.31567842 -0.24358992 -0.5227001 0.014138432
0.13449755 -0.040563323 0.6995409 0.056385454 0.0061085923 -0.08971132 -0.14965402 -0.556698
-0.5471214 -0.41625953 -0.21450745 -0.160584 -0.81020206 0.66317064 -0.19721627 -0.5135767
-0.19204071 -0.19845651 0.059345495 -0.35456133 0.059845135 -0.19726847 -0.5504633 -0.25651523
-0.23312752 -0.07741387 -0.25895104 -0.22045818 -0.06053359 -0.120210916 -0.0858254 -0.003167305
-0.30678236 0.2436423 0.12143461 -0.052375745 -0.010813938 -0.23919953 0.1487481 0.40829802
-0.056129564 0.1553391 -0.015835617 0.043064497 0.10176725 0.004657353 0.08896616 -0.22164631
-0.046208616 -0.2043778 0.1302513 0.011094821 0.433693 0.06220535 -0.09495473 -0.056991443
0.063848585 -0.05145138 -0.31755087 0.16906494 -0.007468971 0.10580783 -0.18325031 0.041780505
-0.060532242 -0.085768454 0.025328444 -0.09066747 1.683402e-07 -0.108541414 -0.026155893 -0.0910181
0.22133394 0.0025715434 -0.08135831 0.22281443 0.0020879358 -0.03812775 -0.23224667 0.37222543
0.029931376 -0.14244558 -0.357098 -0.21949427 0.27057135 -0.060565118 0.43584126 0.18725419
0.017669244 -0.3361288 0.17522436 0.24955675 -0.124478504 -0.17380497 0.055532843 0.0036332703
0.04987277 -0.24429287 -0.51320916 -0.24400221 -0.15829758 -0.18253773 0.14627388 -0.19000077
0.1158039 0.00602665 -0.16318686 0.29673138 -0.05506188 -0.30214766 -0.1162396 -0.20332353
0.04961369 -0.061023075 -0.069270216 -0.59694433 -0.26581612 -0.13206881 -0.21890455 -0.39359704
-0.21708135 -0.24336179 -0.010172311 0.043734357 -0.1977698 0.09029947 0.0011933488 -0.02550959
-0.10392351 0.09711492 -0.047148492 0.043596525 -0.18270737 0.10990358 -0.31835136 -0.08140865
0.010886496 -0.13363339 -0.37205634 0.027068678 0.017894404 -0.31405166 0.049663067 -0.014709653
-0.026788361 0.07635498 0.3065056 0.15945764 0.45222792 0.01410844 -0.035238087 -0.069505386
-0.26892722 -0.041817907 0.027621876 0.105283074 -0.049182743 0.21730135 -0.5966192 0.20988676
0.11396131 0.030872246 -0.81638384 -0.31867766 0.12388443 0.29710537 0.3214881 -0.07199879
0.015470407 0.07114969 -0.06524022 -0.0061862487 -0.120248415 -0.17289169 -0.050979894 -0.08657845
-0.12517731 -0.024069933 0.007893819 0.3041135 0.040631585 0.022991443 0.09476898 0.1266336

fc2.bias f4 [10]
00000000: 24bb 04be 3ba4 8e3e 3375 333d cea9 1b3d
00000010: 18e2 88bd acfc 64be c093 6bbd 734d c1bd
00000020: ffc0 203e 411d 4bbd
-0.12962013 0.27859673 0.04381294 0.038003735 -0.06683749 -0.22362012 -0.057513952 -0.094386004
0.15698622 -0.049588446

exp_avg f4 [10, 1, 5, 5]
00000000: 37e7 c930 d65a 1931 537e 8b31 e66b 9731
00000010: f08c 7231 bb20 3c31 372a 9331 c1e2 bb31
00000020: d9b3 cf31 7f97 ba31 5cbb dd31 a052 ec31
00000030: bca5 ed31 2bef e531 c62a bf31 9b4c 0e32
00000040: d578 fe31 39e8 d631 e9fc a331 ffcb 3c31
00000050: c3ea ed31 392a d531 2090 a531 7a60 3831
00000060: 6c34 d230 9e19 8439 30f5 1f3a d982 aaba
00000070: 9f99 c6bb 80d0 5937 18f6 68b8 d249 35b7
00000080: f612 5539 4bb2 2e3b ac1c a23b 4286 003a
00000090: 1c2c 9539 39ad 8638 1abf 963a e42e 7d3b
000000a0: d5a9 373b 8c54 4d3a 5cc0 9039 b4ec 8238
000000b0: fa2a e5ba fc14 1d3b 5a91 fa3a 32fb 4d3b
000000c0: 0095 163b c4b0 cf3b 3edb 6531 7f6a b331
000000d0: 7c60 a431 ed39 9931 8015 c531 857c 9531
000000e0: 324b ad31 a46c 5c31 4cbb 2931 0767 a831
000000f0: e165 9031 1957 4e31 5aba 0231 a8fe 8331
00000100: 02a2 dd31 afc4 9831 9053 9931 976c 9e31
00000110: 85e2 0e32 d70f 2632 b8dc b831 55d4 ee31
00000120: a57a 0432 ade1 2c32 70af 2432 fb0c 6231
00000130: e33c b531 293c b931 ab82 9831 e3ac 7a31
00000140: b7d2 9731 652c f431 2269 f731 eb24 e531
00000150: 6d12 ac31 41b2 e831 f42a 1432 7505 1532
00000160: cc6f ff31 183e f631 e67c 0732 f49f 0732
00000170: 8bfb e431 8c64 e531 3fdf 0f32 53cb e131
00000180: 63c3 c431 6f1a a731 6ffb d431 7476 0532
00000190: 7b10 1f32 2606 f931 0dd5 2e32 aaeb 5332
000001a0: e125 ad32 214d 6132 ef86 3532 200a 4732
000001b0: 8524 9332 469b be32 e928 9c32 3c0c 9632
000001c0: d934 ab32 92c0 cd32 164f cc32 eb40 b532
000001d0: c359 cd32 35f3 e332 5e0b cf32 f8cc af32
000001e0: 2c0b c932 6f29 ca32 d2b8 e132 a39c b132
000001f0: da87 6c32 f388 a230 4645 1a30 8ae6 4c2f
00000200: 9921 792f 6507 cf30 8b63 ed2f ce7d 7f2f
00000210: 185f 712f 8278 4430 8c19 4631 5aea 8f2f
00000220: 8e9f d72f 9877 ab30 3a5f 5231 cec5 e131
00000230: bcf1 8e30 e58c f030 d8b5 8931 b4da de31
00000240: 1abe 0832 446e 3a31 4943 9231 cbe7 db31
00000250: a405 f931 fb41 d831 e810 2f32 908f 6a32
00000260: 723d 32b6 60d2 8e38 29c8 8fb7 a8da 5c32
00000270: 1a7f a232 a3eb 5bb6 71e9 b238 0a05 c636
00000280: 4df1 6832 f40c b732 618a e032 fe4c 9f38
00000290: acd8 9138 a49b 8b32 033b d432 7bf5 e332
000002a0: b8f2 7437 0afe b638 d5f6 a232 a194 c332
000002b0: 4304 b032 7081 1936 655b 2437 671a 79bd
000002c0: 1058 34bd 39e3 54bc f562 e6ba 29b8 e1bb
000002d0: e3ad 62bd cf73 cdbc d65b 3b39 f67a 523a
000002e0: 34d4 0aba 6c2b 13bd 4227 c6bb fba9 243c
000002f0: abcf c13a 68ef a0bb 8e44 84bc 7e54 c5bb
00000300: 6cf7 983b 4ca4 c53a b496 8bbc 015c 973c
00000310: 0262 c8ba 6ca3 2cbc 4990 e5bc e10f 6bbd
00000320: 4356 a930 fc87 af30 8a29 4031 0d7c a031
00000330: 3f2e 1132 70be 6e30 a2ee c530 42bf 9531
00000340: b129 ee31 1e2d 2932 d02d 4e31 9adc cf31
00000350: 58b9 1d32 8692 3032 74bd ce34 18aa 1c32
00000360: e89d 5a32 71e1 6332 f18e 4632 a582 d537
00000370: abe9 6c32 4303 7632 831b 5932 59c0 3c32
00000380: beac 1232 5612 8132 5d13 9032 c6b0 c632
00000390: 3bd6 d932 57c5 f735 2adc 9b32 cbd9 b632
000003a0: cfae d232 9193 dc32 6566 bd32 be2a 9832
000003b0: c6e0 b633 2d11 8436 449d 05b5 077f 9f32
000003c0: 7571 8e32 72fe f137 24a2 1839 4d35 b838
000003d0: 9865 17b6 9610 2237 7558 ce38 c505 4639
000003e0: c8e7 bb38 29c4 0ab7
1.469039e-09 2.2316065e-09 4.059794e-09 4.406945e-09 3.5295749e-09 2.7376206e-09 4.2830623e-09 5.4681952e-09
6.044939e-09 5.4305356e-09 6.453247e-09 6.8778974e-09 6.9164496e-09 6.6919674e-09 5.5636944e-09 8.282906e-09
7.40611e-09 6.2546204e-09 4.772677e-09 2.747356e-09 6.924297e-09 6.203916e-09 4.818517e-09 2.6830365e-09
1.529441e-09 0.00025196088 0.00061019044 -0.0013008966 -0.0060607935 1.2982753e-05 -5.5542303e-05 -1.0805628e-05
0.00020320326 0.0026656564 0.0049472656 0.00049028185 0.0002845236 6.421883e-05 0.0011501045 0.0038632685
0.0028024812 0.0007832728 0.0002760914 6.2429724e-05 -0.0017484121 0.0023968806 0.0019116804 0.0031430242
0.0022976995 0.006338211 3.344851e-09 5.221693e-09 4.783997e-09 4.4594715e-09 5.735899e-09 4.350627e-09
5.0435114e-09 3.2075969e-09 2.4699203e-09 4.9011564e-09 4.202534e-09 3.0026455e-09 1.9023418e-09 3.841553e-09
6.4503647e-09 4.4461426e-09 4.462386e-09 4.6107504e-09 8.316992e-09 9.666073e-09 5.3801976e-09 6.950851e-09
7.711297e-09 1.006303e-08 9.585946e-09 3.2894707e-09 5.2747153e-09 5.391048e-09 4.4386375e-09 3.6478063e-09
4.418634e-09 7.1063817e-09 7.2005983e-09 6.6689743e-09 5.0079536e-09 6.772354e-09 8.6245e-09 8.674182e-09
7.4341866e-09 7.1666015e-09 7.886433e-09 7.894403e-09 6.6642705e-09 6.676208e-09 8.374456e-09 6.571477e-09
5.7265637e-09 4.863345e-09 6.1985967e-09 7.768552e-09 9.258765e-09 7.247553e-09 1.0176575e-08 1.23354e-08
2.0157076e-08 1.3114261e-08 1.0566267e-08 1.1585627e-08 1.712966e-08 2.2189521e-08 1.8179394e-08 1.7467862e-08
1.9931052e-08 2.3952712e-08 2.378469e-08 2.1100695e-08 2.390596e-08 2.6536876e-08 2.410314e-08 2.046589e-08
2.340456e-08 2.3534737e-08 2.6277494e-08 2.0676742e-08 1.3767897e-08 1.1825975e-09 5.6123317e-10 1.8635596e-10
2.2658354e-10 1.5063334e-09 4.3180778e-10 2.323681e-10 2.1952606e-10 7.1475637e-10 2.8827314e-09 2.6178065e-10
3.9221643e-10 1.2475878e-09 3.0613152e-09 6.5708496e-09 1.0400565e-09 1.7502343e-09 4.007898e-09 6.485914e-09
7.959466e-09 2.712924e-09 4.2568087e-09 6.4000907e-09 7.247495e-09 6.2939285e-09 1.0190185e-08 1.3653235e-08
-2.6559833e-06 6.810273e-05 -1.7140135e-05 1.2855402e-08 1.8917081e-08 -3.2770702e-06 8.531183e-05 5.9014465e-06
1.3559043e-08 2.1309894e-08 2.613996e-08 7.596052e-05 6.954497e-05 1.6252507e-08 2.4706884e-08 2.653791e-08
1.4600046e-05 8.725755e-05 1.8971528e-08 2.2768576e-08 2.0491035e-08 2.287412e-06 9.796441e-06 -0.060816195
-0.044029295 -0.012993627 -0.0017577099 -0.0068884087 -0.055341613 -0.025079636 0.00017867921 0.0008029187
-0.0005295903 -0.035930082 -0.0060471604 0.010050292 0.0014786621 -0.004911352 -0.01614597 -0.006022035
0.004668167 0.0015078872 -0.017039634 0.018476488 -0.0015287998 -0.01053701 -0.028022902 -0.05738819
1.2320885e-09 1.2771575e-09 2.796329e-09 4.670716e-09 8.450626e-09 8.6854524e-10 1.440146e-09 4.3582142e-09
6.9314514e-09 9.847353e-09 3.0002987e-09 6.0495724e-09 9.180745e-09 1.0277864e-08 3.8508335e-07 9.11907e-09
1.2725174e-08 1.32643985e-08 1.1557618e-08 2.5452415e-05 1.3790138e-08 1.4319826e-08 1.2637318e-08 1.0986775e-08
8.5375955e-09 1.5025915e-08 1.6772612e-08 2.3130621e-08 2.5359546e-08 1.8460368e-06 1.8144494e-08 2.128663e-08
2.4526711e-08 2.5678476e-08 2.204906e-08 1.7714566e-08 8.5159215e-08 3.935906e-06 -4.977521e-07 1.8567802e-08
1.658257e-08 2.8847924e-05 0.00014556252 8.783732e-05 -2.2559889e-06 9.659814e-06 9.839322e-05 0.00018884901
8.9600275e-05 -8.271113e-06

exp_avg_sq f4 [10, 1, 5, 5]
00000000: fe4e 1835 ed15 ae35 117e a436 3c20 cc36
00000010: 7b90 8336 e8eb 0436 e50a 9a36 a5b8 0537
00000020: 03ce 2d37 9d65 0c37 7658 4c37 5144 5037
00000030: 578c 4a37 4cd0 4537 b847 0437 ae0a aa37
00000040: e067 7237 6298 2937 c8e6 ca36 5244 0436
00000050: 6da4 7737 d97c 2d37 00ba d436 e0c9 1036
00000060: 766a 1a35 b62d a937 83a1 1d37 003c b737
00000070: b0f9 1738 a259 4938 df12 5c37 e92d 9f37
00000080: 8dab 1338 19c5 4e38 961f 0738 c4cd 1e38
00000090: fd41 8c38 0051 8538 b986 5d38 5333 e737
000000a0: ac0b ff38 0ede fc38 59e7 9938 9cf3 f337
000000b0: 975f 7337 102b 9739 db0e 0f39 8bc8 6938
000000c0: af32 1338 5174 5638 e890 3236 3991 de36
000000d0: ed0a c336 dd8b a936 978d 0a37 49d8 9836
000000e0: 3c05 cb36 f75d 2536 5644 c735 4ae0 c636
000000f0: 5c29 8f36 1f7b 1136 4d65 6335 f8a7 7136
00000100: f88f 2937 05f7 a036 734f a336 4c18 a736
00000110: 8664 8c37 ea23 bf37 07f0 ec36 4efa 4637
00000120: 2d54 6f37 44bf cc37 d4d1 b837 d212 1c36
00000130: c50f e136 404e f036 3d50 ad36 de5b 6a36
00000140: 5d09 9136 f3e1 4837 861c 5037 7915 3b37
00000150: 2268 d736 c5e7 3e37 3613 9c37 3d09 a137
00000160: d48c 6937 b9b5 6337 ea48 8437 3453 8737
00000170: 51b5 4337 fbd8 4137 2ef6 a137 c44a 3c37
00000180: b06d 1737 a037 d936 1875 3337 cc36 8c37
00000190: 7f3e b537 b3f0 4b37 c475 cb37 8349 1838
000001a0: d743 cf38 29c9 3838 2ff2 dd37 7943 0638
000001b0: 2dfc 9638 f5b7 0139 d90a b238 e38e a038
000001c0: 210b d438 88ae 1939 1135 1939 2465 f738
000001d0: b23e 1d39 09dd 4139 ab64 1f39 51c5 e638
000001e0: 7d49 2039 d2de 1e39 114a 4239 d148 eb38
000001f0: 645a 5238 4faa bf34 9258 9c33 133c f531
00000200: d686 4f32 da87 0d35 36db 5b33 e07a 6532
00000210: e775 4b32 f86a 0134 1c31 fe35 13b7 9532
00000220: 36dc 4233 bd71 f934 b68b 2c36 7e1d 3737
00000230: 168c aa34 6eac 7b35 fd36 a236 24e7 4437
00000240: 2df3 8c37 0024 1536 51be b836 8b80 3f37
00000250: 6836 6e37 6d92 2e37 47ce cf37 4aaf 3838
00000260: 9052 bc38 361e 2439 8151 1a39 bb94 2538
00000270: d65d bc38 4005 1339 d96a 4a39 651a 1b39
00000280: ad44 3c38 0d5d f138 748e 3139 5385 3f39
00000290: 1af4 0d39 58a5 8f38 d7a6 2139 22a1 3539
000002a0: 95b9 f838 8b8c bf38 e515 c238 f2ba 0839
000002b0: 978c d638 43b1 5c38 1366 4238 86d0 863b
000002c0: 8ca0 383b 2fc5 803a 9ca4 053a 5e8f 083a
000002d0: b146 623b 8104 7a3a 41f2 4139 c9f6 2539
000002e0: e68b 3e39 4f54 103b 9f10 f639 c7e1 aa39
000002f0: d7a3 ac39 d051 9239 bdee b33a 376e eb39
00000300: 71fa 0b3a fc5e 093a e8a2 d239 ed0e 853a
00000310: 8758 0b3a b9b4 2f3a ff9b 573a 50c4 653a
00000320: fffe c934 95cf ea34 161f 0036 fd02 a236
00000330: 10ac 8c37 2584 5a34 2e45 1535 742b 8f36
00000340: cb52 2f37 d195 bf37 93a4 2836 82f2 1737
00000350: 8896 a637 f2e8 d037 8773 f137 fa38 b237
00000360: 21f4 2c38 9f5e 3e38 7c26 1038 f3d9 1838
00000370: ac1f 5938 d333 6438 4d20 3338 52d6 0938
00000380: 1ce8 aa37 16c4 7d38 aa5d 9f38 7899 1239
00000390: ea21 2e39 576a f738 97e7 ba38 e14b ff38
000003a0: 8ea0 2339 a5bb 3039 0d8f 0739 8d2b b838
000003b0: 6623 0639 7348 3139 0375 1539 5caa c238
000003c0: 5a97 a138 958b 2039 cd67 6e39 f54b 3539
000003d0: 3434 9338 1718 dc38 d4f9 4f39 f3f8 6d39
000003e0: 6bdf 1339 2df9 4438
5.673936e-07 1.2970391e-06 4.902257e-06 6.0834263e-06 3.920924e-06 1.9806848e-06 4.590826e-06 7.970409e-06
1.0359569e-05 8.368309e-06 1.2179944e-05 1.2413672e-05 1.2072814e-05 1.1790613e-05 7.884511e-06 2.0270552e-05
1.4448509e-05 1.0108664e-05 6.0469356e-06 1.97093e-06 1.4760631e-05 1.0340672e-05 6.3397456e-06 2.1575179e-06
5.752439e-07 2.0167656e-05 9.395534e-06 2.184324e-05 3.6233745e-05 4.800561e-05 1.3117416e-05 1.8975656e-05
3.52073e-05 4.929779e-05 3.2215925e-05 3.786177e-05 6.6880115e-05 6.3570216e-05 5.2815976e-05 2.7561246e-05
0.000121615216 0.00012057657 7.3387004e-05 2.9081297e-05 1.4506185e-05 0.00028833048 0.00013643077 5.57383e-05
3.5094734e-05 5.1129904e-05 2.6608413e-06 6.6330217e-06 5.812725e-06 5.0528747e-06 8.258407e-06 4.555132e-06
6.050481e-06 2.464161e-06 1.4846544e-06 5.9269705e-06 4.266547e-06 2.167835e-06 8.47115e-07 3.600957e-06
1.0106705e-05 4.7971284e-06 4.8670277e-06 4.9798164e-06 1.673611e-05 2.2785698e-05 7.061291e-06 1.1859998e-05
1.4265109e-05 2.440776e-05 2.2032218e-05 2.3256766e-06 6.7073584e-06 7.161667e-06 5.1651427e-06 3.492219e-06
4.322427e-06 1.1973537e-05 1.2404407e-05 1.1151068e-05 6.419622e-06 1.1378846e-05 1.8605595e-05 1.9196998e-05
1.3920671e-05 1.3572565e-05 1.576958e-05 1.6131999e-05 1.1665122e-05 1.1554216e-05 1.9307332e-05 1.1223081e-05
9.02584e-06 6.4735796e-06 1.0696494e-05 1.6714817e-05 2.1605983e-05 1.2155785e-05 2.4254325e-05 3.6308087e-05
9.883165e-05 4.4056364e-05 2.6458029e-05 3.201093e-05 7.199529e-05 0.00012370928 8.489722e-05 7.656009e-05
0.00010111021 0.00014656235 0.00014610986 0.00011796717 0.00014996043 0.00018488256 0.00015200923 0.00011004008
0.00015286166 0.00015151061 0.00018528874 0.00011219236 5.0152084e-05 3.5700438e-07 7.280427e-08 7.137268e-09
1.2079644e-08 5.2724283e-07 5.1189282e-08 1.3357493e-08 1.1842963e-08 1.2052976e-07 1.8938767e-06 1.7429135e-08
4.5369426e-08 4.646262e-07 2.571132e-06 1.0914517e-05 3.1766893e-07 9.3755705e-07 4.8343777e-06 1.1736327e-05
1.6802538e-05 2.2223685e-06 5.505783e-06 1.1414416e-05 1.4198573e-05 1.0405301e-05 2.4772378e-05 4.403227e-05
8.979917e-05 0.00015651513 0.00014716947 3.947758e-05 8.982017e-05 0.00014020968 0.00019304025 0.00014791785
4.4886652e-05 0.000115091076 0.00016933103 0.00018264847 0.00013537743 6.849569e-05 0.00015416309 0.00017321532
0.00011860129 9.133768e-05 9.254719e-05 0.00013039613 0.00010230502 5.2617175e-05 4.634827e-05 0.0041142134
0.0028171865 0.000982439 0.0005098076 0.00052093517 0.0034526999 0.00095374143 0.00018496161 0.00015827561
0.00018171928 0.0022022908 0.0004693316 0.00032593144 0.00032928467 0.00027908245 0.0013727766 0.0004490481
0.0005339748 0.0005240289 0.00040175696 0.0010151543 0.0005315621 0.000670265 0.00082248444 0.00087649096
3.7624702e-07 4.3736932e-07 1.909158e-06 4.828324e-06 1.6769423e-05 2.0350906e-07 5.5607495e-07 4.2667907e-06
1.045009e-05 2.2838738e-05 2.5129746e-06 9.056765e-06 1.9858839e-05 2.4904006e-05 2.8783235e-05 2.1245785e-05
4.123536e-05 4.5387653e-05 3.4368117e-05 3.6442605e-05 5.176633e-05 5.44077e-05 4.2707008e-05 3.2862947e-05
2.0373664e-05 6.050252e-05 7.599157e-05 0.00013980817 0.00016606567 0.00011797685 8.912308e-05 0.00012173481
0.00015604703 0.00016854571 0.00012927894 8.781916e-05 0.00012792423 0.00016907025 0.00014253338 9.282373e-05
7.70527e-05 0.00015310787 0.00022736118 0.00017289801 7.01923e-05 0.000104949046 0.00019834127 0.00022694822
0.00014102242 4.6962105e-05

exp_avg f4 [10]
00000000: 256c 3632 ee86 963d 7ce2 8132 3fdf 6032
00000010: 4f73 4133 be35 1532 c261 c538 f881 643c
00000020: 7460 0238 b866 4539
1.06183835e-08 0.073499545 1.512057e-08 1.3089276e-08 4.5041187e-08 8.685161e-09 9.411901e-05 0.013947003
3.1084244e-05 0.0001882565

exp_avg_sq f4 [10]
00000000: 1c68 0d38 1ced aa3b 3368 6c38 e571 3c38
00000010: fd95 0c3a eb01 a837 db23 df39 ddb6 063c
00000020: a486 4939 b943 0a3a
3.371398e-05 0.005216254 5.6363828e-05 4.4928765e-05 0.0005362926 2.0028054e-05 0.0004256059 0.008222309
0.00019219011 0.00052743737

exp_avg f4 [20, 10, 5, 5]
00000000: e27a cd30 5c6a f330 2a89 1d31 f401 1c31
00000010: c2b8 0a31 bd6e b730 2e9c e730 74ad 0331
00000020: 52b6 ff30 e9db db30 3491 9530 0420 fa30
00000030: 50ac fc30 42a7 e930 1590 f430 2831 c230
00000040: ad55 1c31 871d 3831 fce4 fd30 8f54 ed30
00000050: 9e6b 1231 81ff 1831 c480 1131 1222 ea30
00000060: 3ee4 cc30 f63d 3731 e830 5331 8e56 8431
00000070: fc68 9331 11c5 7531 0442 1d31 d899 5031
00000080: 6d9a 6a31 2288 8531 66a6 6831 22d4 2b31
00000090: 08b0 4631 a05f 6a31 3506 6c31 5c96 8b31
000000a0: f9a8 3331 b31e 5e31 6f67 6a31 1874 5e31
000000b0: 0bee 8331 04d9 2431 c819 2631 1106 0731
000000c0: 6bff 1b31 4985 4131 85ff 8230 7ea3 8a30
000000d0: 9e56 8730 c037 5030 ac6f f72f c0d4 8a30
000000e0: 7505 a930 91b0 8130 39b7 6630 a55d 6730
000000f0: 4eb4 7730 8d50 9a30 a54d 8030 00b1 8c30
00000100: 4edd 1c30 9717 8930 bdc3 7f30 40e1 6730
00000110: 44a1 3d30 8cb0 0a30 8ee8 4b30 69d8 2f30
00000120: 2d53 5430 d483 1230 3c5f e32f 193c 1531
00000130: 3d90 1e31 4c39 3c31 03bd 4831 610c 3b31
00000140: 0689 cc30 adb3 1a31 dd57 2131 0539 3731
00000150: 34d6 e830 3359 dd30 166d 1e31 f1cf 3231
00000160: 2c84 2b31 21bd 0331 6235 0031 802d 1b31
00000170: 5514 5831 1d76 2131 4976 1a31 3759 cd30
00000180: f23b e130 5a43 f330 4161 d030 94ec fd30
00000190: 1706 1931 c427 3131 1537 5431 9974 5631
000001a0: e5a9 2b31 c6c8 1531 f02e 2131 45b8 2c31
000001b0: 0258 3931 e7fc 3231 7c8a 1231 7b4b 3b31
000001c0: ff2e 2b31 9cb1 5631 c7eb 4231 4322 2f31
000001d0: de20 4a31 88d1 3331 70bc 3c31 891c 3b31
000001e0: 84ee 0731 9c78 0931 b398 0331 8e02 0131
000001f0: 0cbc 0d31 558b 6c30 4094 8630 2e92 7430
00000200: 9fec 0430 9f2b b22f c876 6330 900f 3a30
00000210: 36bd 0c30 8bbc b42f 5594 d82f 7181 4930
00000220: 7c64 1e30 d741 1930 6ddc 4b30 0e92 ca2f
00000230: 26bc 4630 5a09 e12f 8681 0730 17a0 da2f
00000240: db3a 9c2f 55cd ce2f 829b 952f 37ae b72f
00000250: 44c4 6d2f f416 262f 7eeb f731 24f9 2932
00000260: c476 2832 2acd 0f32 37be e331 dc4b 0732
00000270: 4375 3132 d9e6 3132 37e2 0332 b0b3 d231
00000280: c002 0d32 da6e 3d32 c9ff 3132 d4a6 0332
00000290: c76d d431 3fac 1732 b4f9 3d32 f7ff 3432
000002a0: 578f 0d32 fc3c ef31 698d 1a32 10c7 2b32
000002b0: 86d8 1c32 10d3 0d32 f634 c931 9a5c 6032
000002c0: 2ebe 8332 b094 9532 363d 9132 b334 7d32
000002d0: 3493 6632 423f 8832 eb22 a032 1ee7 9932
000002e0: 1bf2 8432 52ac 6332 3207 8932 ccde 9e32
000002f0: d335 a332 9809 8532 1480 7032 f131 8a32
00000300: 6785 9b32 892c a532 fd1e 8632 de03 6b32
00000310: 8303 8432 a40a 9432 1ff0 9632 44b6 8732
00000320: 7201 ad30 a43c df30 026c df30 2717 d930
00000330: e896 bf30 b3c7 a730 c398 c230 e483 9d30
00000340: 8cc7 a130 1680 b230 3049 b730 a999 d130
00000350: aefe a330 c7cc a730 5ad5 c630 2e4d d230
00000360: 2031 c430 5b4b b330 cc0f 9030 a0d2 b230
00000370: 9a7e a030 3a07 8930 7af4 4530 f658 4130
00000380: 19c1 8930 fde1 d831 f3e4 1f32 76cf 4132
00000390: e4c4 2432 940e f731 c95d f131 07a0 1b32
000003a0: 66c3 4532 ad64 2132 fea8 0132 3d9d fd31
000003b0: b614 2932 50fc 4332 2641 2832 1368 0132
000003c0: df96 0c32 64f3 2e32 ce87 3132 fa0d 2b32
000003d0: a543 0c32 b4d2 f431 29f8 0b32 929d 1132
000003e0: 4e12 1932 9920 ef31 0f5a e330 2d51 1031
000003f0: 6e2c 2731 3afd 2331 a83d f430 5d46 1c31
1.4950639e-09 1.7710806e-09 2.2924476e-09 2.2702098e-09 2.0186666e-09 1.3346476e-09 1.6851851e-09 1.9161606e-09
1.860551e-09 1.5996849e-09 1.0882446e-09 1.8198993e-09 1.8384387e-09 1.7000519e-09 1.7794287e-09 1.4129329e-09
2.2749689e-09 2.6792308e-09 1.8473254e-09 1.7268053e-09 2.130697e-09 2.2264148e-09 2.1173472e-09 1.7035424e-09
1.4907824e-09 2.6665226e-09 3.0732341e-09 3.8515457e-09 4.2901984e-09 3.5764212e-09 2.2884032e-09 3.0355434e-09
3.4139263e-09 3.886286e-09 3.385503e-09 2.5004359e-09 2.8912854e-09 3.4105838e-09 3.4346048e-09 4.0625263e-09
2.6143978e-09 3.2322702e-09 3.4110277e-09 3.2371243e-09 3.839664e-09 2.39885e-09 2.4170834e-09 1.9648534e-09
2.2700657e-09 2.816096e-09 9.531368e-10 1.0087289e-09 9.847161e-10 7.5749185e-10 4.5008386e-10 1.0101289e-09
1.2297919e-09 9.436169e-10 8.393389e-10 8.417039e-10 9.0114305e-10 1.1227869e-09 9.335294e-10 1.0236647e-09
5.706696e-10 9.974767e-10 9.304662e-10 8.435741e-10 6.898697e-10 5.0454996e-10 7.418145e-10 6.3972166e-10
7.724335e-10 5.330183e-10 4.1358728e-10 2.1716515e-09 2.3074016e-09 2.739017e-09 2.9211271e-09 2.7219118e-09
1.4881898e-09 2.2512083e-09 2.3478528e-09 2.6662417e-09 1.6941102e-09 1.6105218e-09 2.3054034e-09 2.602061e-09
2.4958906e-09 1.9170516e-09 1.8656796e-09 2.2581332e-09 3.1443694e-09 2.3495723e-09 2.2477187e-09 1.494107e-09
1.6387942e-09 1.769972e-09 1.5161633e-09 1.8475412e-09 2.2267892e-09 2.5779494e-09 3.088137e-09 3.1207377e-09
2.498035e-09 2.179648e-09 2.3455264e-09 2.513404e-09 2.697107e-09 2.6046167e-09 2.1324515e-09 2.7254987e-09
2.491049e-09 3.1242058e-09 2.836474e-09 2.5485327e-09 2.9413552e-09 2.6167033e-09 2.7464715e-09 2.7228302e-09
1.9780666e-09 2.0004682e-09 1.9149808e-09 1.8773423e-09 2.0625093e-09 8.60543e-10 9.791918e-10 8.8974417e-10
4.835758e-10 3.2409006e-10 8.275092e-10 6.768852e-10 5.120059e-10 3.2875777e-10 3.9395567e-10 7.330732e-10
5.762286e-10 5.575464e-10 7.4164214e-10 3.6847364e-10 7.2299355e-10 4.0933906e-10 4.929678e-10 3.976772e-10
2.8418054e-10 3.761708e-10 2.7213437e-10 3.3411293e-10 2.1624752e-10 1.5105767e-10 7.2154185e-09 9.893743e-09
9.805891e-09 8.370344e-09 6.6281944e-09 7.875283e-09 1.0329418e-08 1.0355245e-08 7.676639e-09 6.1322325e-09
8.2079055e-09 1.1026453e-08 1.0360915e-08 7.663136e-09 6.1824923e-09 8.828521e-09 1.1058024e-08 1.0535579e-08
8.239872e-09 6.9627486e-09 8.996133e-09 9.998772e-09 9.129627e-09 8.25527e-09 5.855891e-09 1.3059571e-08
1.533689e-08 1.7413498e-08 1.6908057e-08 1.4738521e-08 1.3421232e-08 1.586125e-08 1.864233e-08 1.7916644e-08
1.547692e-08 1.325232e-08 1.5952171e-08 1.8494937e-08 1.9000174e-08 1.54876e-08 1.399896e-08 1.6088025e-08
1.810504e-08 1.922878e-08 1.5613745e-08 1.367968e-08 1.536842e-08 1.7234306e-08 1.7571493e-08 1.5798953e-08
1.2587817e-09 1.6242621e-09 1.6256083e-09 1.5795408e-09 1.3939969e-09 1.2207607e-09 1.4158775e-09 1.1460739e-09
1.1771006e-09 1.2987609e-09 1.3335804e-09 1.5250424e-09 1.1932195e-09 1.220905e-09 1.4467034e-09 1.5301447e-09
1.4274839e-09 1.3045381e-09 1.0481869e-09 1.3011068e-09 1.1677515e-09 9.970116e-10 7.2015605e-10 7.033941e-10
1.0022944e-09 6.3121193e-09 9.307075e-09 1.128125e-08 9.590824e-09 7.1903035e-09 7.0246853e-09 9.0585734e-09
1.1511338e-08 9.394324e-09 7.547213e-09 7.381145e-09 9.841804e-09 1.1407863e-08 9.7937e-09 7.532452e-09
8.183377e-09 1.0183474e-08 1.0333634e-08 9.956688e-09 8.164453e-09 7.125289e-09 8.14729e-09 8.475938e-09
8.909934e-09 6.9595214e-09 1.654202e-09 2.10009e-09 2.4326954e-09 2.3863564e-09 1.777086e-09 2.2740985e-09
