lightning_logs/version_12/checkpoints/epoch=2-step=138.ckpt (torch, 273474 bytes, 24 tensors)

conv1.weight f4 [10, 1, 5, 5]
00000000: fa84 0fbe a748 77be ead3 6cbe 8a49 73be
00000010: af07 aebe e603 ddbe 3538 c4be 468c 4ebe
00000020: 0fe6 a6be 722f f9be bda6 99be 897b b63d
00000030: c420 71bd ac42 c7be 92ca abbe 0d73 1ebe
00000040: 0723 033e c106 543e 54fb 0ebf dd18 02bf
00000050: 4b27 d93e f12b fe3b 5df8 883e 2dac 083e
00000060: d0a8 893e 88af 9fbe b658 cfbd acb2 45bd
00000070: 0a78 113e 224d 083e 60a6 84be 09bd abbe
00000080: 8ec9 41be 1d88 b33d 83da 373e e972 a5be
00000090: c120 323e 1c51 19be 75ed cc3d bdc2 973e
000000a0: 494e bcbe 347c e0bb 0f10 893c a560 d6bd
000000b0: ef42 4b3e 21ce 8abe cd77 43be 9974 3abe
000000c0: b7b5 863c 3d51 b13c b0d8 e0bd 4a16 e1bd
000000d0: f9a2 62be f27a c4bd 9fcf 02be 33b8 b6bd
000000e0: bff1 9dbe 4f10 733a 61dd 48be 24bb 56be
000000f0: da11 c4bb a1e7 febd 29a2 dcbd ef35 c6bd
00000100: f091 74be a695 5ebd 193f 8cbd 31c5 f03c
00000110: b558 b1be 209d 63bd 9088 84be c7ef 6abe
00000120: 6151 98be 9366 53bd 00c5 483c d2b4 3ebe
00000130: a8ac 0bbe 7810 9dbc 6ebf 3bbc 6162 b53c
00000140: 4caa 93be 5002 38be 21ee 39bd 96ea 6abe
00000150: f453 50be c58d 1dbe 3593 ce3c 58e7 99bb
00000160: 5304 31be 285a 42be 61a8 5c3c 5435 6cbb
00000170: f0ce f13d 4a08 903d 5924 22be 2498 b7bd
00000180: 3ecd 793c e8b4 1bbd 3559 18bd ea44 503d
00000190: 3682 9abd 97de 27be aaf9 b9be 6ba2 84be
000001a0: 64eb 8bbd 46d4 1e3d 664e a4bd 2a24 98be
000001b0: d324 a1be d497 2e3d 042c 55be c930 4dbe
000001c0: d059 45be 9e4d 14bd d50a 0c3d 7bfe 9abd
000001d0: becf 9bbc 04f6 c63c ba06 b0be 2a42 65be
000001e0: ce81 80be ad5e 4abd 2b19 d0bb 4d80 f2bd
000001f0: 138f 203d 7231 84be 4509 443b 94e0 653e
00000200: bdd4 433e 7c42 f13e 8004 55be 46e2 523e
00000210: 0ed1 85bd dd05 c2bc 3e0c 473e 8181 edbd
00000220: 824c 06be b06c d2bd 2339 e0bd 1f3a 943e
00000230: 5194 9bbe 2098 28bd 508c 52bd 9e42 0bbf
00000240: 29b9 d0be d734 a8be 6325 9bbe 07b5 02be
00000250: cf9f e5be 5774 8ebe 621b 30be d1d7 3ebe
00000260: 925c 333c cc51 6abe 87f4 483c 0e85 bfbe
00000270: a860 933b ec80 43be 8265 62bd 0a47 cebd
00000280: 72fd 5f3d e4fa 09be e36a 2abe 7306 41be
00000290: 9224 a2bc f30b 543e f39c 453e d7bc 86be
000002a0: 10ad 1b3d 1a9a c23c 0bcb 663d b8a2 5d3d
000002b0: 9357 55be 7c81 58be d812 b3be 5906 e93d
000002c0: 0368 be3d d88d 56bb 3bcb cfbe 25e1 57be
000002d0: 9647 6a3d fa87 0abd 8753 cabe fabf 95bd
000002e0: fc88 49be a41a b73e 0ae0 0a3e 412e 66be
000002f0: a247 bbbd 99e8 29be cf57 2c3e a784 3fbe
00000300: df8f 143e 573d 86be e939 2fbe 39fa 2c3e
00000310: 9d0c 57bd edaf 09be 62fe bb3d 7078 53be
00000320: 7aff 263d d279 e7bd 5196 47be 75cb c3bb
00000330: 74e3 12bd 2131 d1bb 7cdf b6bd 31fc ad3d
00000340: 06a7 85be 1151 6ebe 2658 6ebe 1f9d 5dbe
00000350: 8a7c f5bd 9be4 59be 5fd9 53be 925f 10be
00000360: 6090 7abe 6cb2 bdbe 98ac 30be a0d3 58bd
00000370: 6391 d9bd d0c1 90bd abf2 7e3d 34b3 f53c
00000380: 395a 94be ef20 9abe 833b 48bd 97bc 13be
00000390: 4a5c ba3c 864e bb3b 77a7 9abe 090b a2be
000003a0: fac0 debd a12a 9cbd f3e5 3abe 2c90 b2bc
000003b0: 4bfd 3b3d a963 28be 97fe 8abd 28e0 a3be
000003c0: 3130 2abe 78c0 98be 6be0 be3c 0ec2 97bd
000003d0: 78bf bebc 78b4 5abe f844 4cbd 78ec 81bd
000003e0: 99e1 67be 391c 2bbe
-0.1401557 -0.24148808 -0.23127714 -0.23758522 -0.33990237 -0.43167037 -0.38324133 -0.20170698
-0.32597396 -0.4866901 -0.30010024 0.08910281 -0.05886914 -0.38918054 -0.33552986 -0.15473576
0.1280633 0.20705701 -0.55852246 -0.5081919 0.4241279 0.007756703 0.26751986 0.1334693
0.26886606 -0.31188607 -0.10124342 -0.048266098 0.14205948 0.13310674 -0.25908184 -0.3354266
-0.18924543 0.08766196 0.1795445 -0.32314232 0.17395307 -0.14972347 0.10006229 0.2964076
-0.36778477 -0.0068507437 0.01673129 -0.10467652 0.19849752 -0.2711039 -0.19088669 -0.18208541
0.01644407 0.021645183 -0.1097883 -0.109905794 -0.22132482 -0.095937625 -0.12774514 -0.08921852
-0.308485 0.00092721445 -0.196157 -0.20969826 -0.0059835734 -0.124465235 -0.10773117 -0.09678256
-0.23883796 -0.054341935 -0.068479724 0.029390903 -0.3463799 -0.055569768 -0.2588544 -0.2294303
-0.29749587 -0.051611494 0.012254 -0.18623665 -0.13640082 -0.019172892 -0.011459215 0.022141637
-0.28840864 -0.17969632 -0.045393113 -0.2294105 -0.20344526 -0.15386112 0.025216678 -0.004696768
-0.17286806 -0.18979704 0.013467879 -0.0036042528 0.11807048 0.07032831 -0.15834178 -0.089645654
0.015246687 -0.038014323 -0.03719445 0.05084697 -0.07544367 -0.16393505 -0.3632329 -0.25905165
-0.068320066 0.03877666 -0.08022766 -0.2971509 -0.31473407 0.042625263 -0.20817572 -0.20038141
-0.19272542 -0.036206834 0.034190018 -0.075680695 -0.019019958 0.024287231 -0.34380132 -0.22388521
-0.25099033 -0.049406696 -0.0063506565 -0.11840878 0.039198946 -0.25818974 0.0029912752 0.22448951
0.19124122 0.47121036 -0.20802498 0.20594129 -0.06534015 -0.023684436 0.19438264 -0.115969665
-0.13115123 -0.10274637 -0.10948398 0.28950593 -0.30386594 -0.041160703 -0.051403344 -0.54398525
-0.40766266 -0.32852814 -0.3030196 -0.12764369 -0.44848487 -0.27823135 -0.17197946 -0.18637015
0.010947363 -0.22882766 0.012265331 -0.374062 0.0044976063 -0.19092149 -0.055272587 -0.100721434
0.054685064 -0.13474613 -0.16642337 -0.18850116 -0.019792829 0.20707683 0.19298153 -0.26315948
0.038006842 0.023755122 0.05634598 0.05411026 -0.20834188 -0.21143144 -0.34975314 0.11378164
0.092971824 -0.0032738354 -0.4058474 -0.2108198 0.057197176 -0.033821084 -0.3951685 -0.07312007
-0.19681162 0.35762513 0.13562027 -0.22478582 -0.09144522 -0.16592635 0.16830371 -0.18702947
0.14508007 -0.26218674 -0.17111935 0.16892327 -0.052502263 -0.13446017 0.09179379 -0.20651412
0.040770985 -0.11302532 -0.19490935 -0.0059751817 -0.035861447 -0.0063840305 -0.08929345 0.08495367
-0.2610399 -0.23273112 -0.23275813 -0.21641968 -0.119866446 -0.21278612 -0.20688389 -0.14098957
-0.24469137 -0.37050188 -0.1725334 -0.052936196 -0.106234334 -0.07068217 0.062243145 0.029992677
-0.28975084 -0.3010325 -0.04888488 -0.1442741 0.022749085 0.005716148 -0.3020589 -0.31649044
-0.10876651 -0.07625318 -0.18251781 -0.021797262 0.045895856 -0.16444267 -0.067868404 -0.32006955
-0.16619946 -0.29834342 0.02330037 -0.0741006 -0.023284659 -0.21357906 -0.04987046 -0.06343931
-0.22644652 -0.16709985

conv1.bias f4 [10]
00000000: 35dd b6bc 60a5 38be 54ca 32be c52b 14be
00000010: a8aa 8fbe f355 75bd 1a48 6abd c57b 48be
00000020: 0a96 1bbe ad74 9ebd
-0.022322277 -0.18031836 -0.17459995 -0.14469822 -0.28059888 -0.05989642 -0.057197668 -0.19578464
-0.15193954 -0.07737098

conv2.weight f4 [20, 10, 5, 5]
00000000: 82cc 0fbe a6d9 b6bd 58d5 0abe bf70 6dbe
00000010: 4ef7 a7bd d93c 21be 2a91 36be 6cbe 42be
00000020: 9ab9 2abe e02b 0dbe 48c2 1abe 0fff 29be
00000030: 3b5c 30be 632d 14be 8686 73bc b20d 03be
00000040: 1b38 c2bd 8283 10be 52e2 c6bc 9fe6 4fbd
00000050: b445 0fbe 16bd 35be 98cd 60be 0642 57bd
00000060: 8466 1dbe 8969 05be 2890 ffbd d42b 08be
00000070: ac2d 6bbe 2144 30bc 3832 20be d608 3dbe
00000080: 5dfe 11be 2081 80bd cd07 19bd 3538 2abe
00000090: 9853 acbd e447 1cbe de42 18be b97a 34bd
000000a0: 12e1 d6bd a61c a1bd c583 39be 1b5c f03c
000000b0: d0da c2bd 29ba a0bd 5bb4 05be a2fe d1bd
000000c0: 0d4b a83d d746 0dbd 1cb9 dc3d 5752 723d
000000d0: 657c b33d d2f5 04be b02b 65be d37b 2cbe
000000e0: 0d79 eb3d 38ec 0abe d78e 08be 0af9 063d
000000f0: f1ac b43d 7d0c 103e 6788 efbd 1202 f1bd
00000100: 4a91 443d 7935 be3d f8de 18be ba37 25be
00000110: a1c2 f0bd b5e4 1a3e af41 6abd 4a4d abbd
00000120: 2f55 0abe cae4 df3d 1005 1b3e b8d1 33be
00000130: d974 b3bd 1034 1bbe 796b 0abe 9fad 283c
00000140: 1020 44be d802 37be b474 4abe 7cc0 30be
00000150: 499b 28bd e068 a7bd a59e aabd 4397 bbbd
00000160: ce12 cabd e4a4 15bd 88c0 eebd 37cc 1dbe
00000170: 7480 04be 82ed f2bb 8af0 efbd 50d6 0ebe
00000180: 8a93 d7bd 044c 98bd c37c 65bc d7ee f4bd
00000190: 3dfc 0a3e c95b 1dbe 1b2f 11be e437 29be
000001a0: cbcb bf3c e732 25be 3008 04be c739 1dbe
000001b0: 0889 5d3d f49f c03d c629 04be fe26 20be
000001c0: 81aa b6bd 4ed2 a4bd 3101 e33d af30 8ebd
000001d0: 604f e8bd 8275 18be 777d 0bbd 8248 44bc
000001e0: 00f1 8dbd 7e78 3bbd 8278 883d 9664 b0bd
000001f0: 7cce 0bbe d0bf 3abe 6a93 2b3e 772e 7f3d
00000200: c5ef 103d 8e7a ccbc 590c b1bd 1c01 40be
00000210: 964c ccbd cdfd bfba fb04 82bb 971b 113e
00000220: b40f 55be e3b7 9fbc 80b9 61bd 6cbc 7bbd
00000230: 4849 0ebe 0f6a 1bbe 7bb7 25be e7b9 04be
00000240: 02e3 f0bd 55f5 10be 587c 31be a184 e0bd
00000250: 1420 14bd a974 42be a4c5 2abe d551 b5bd
00000260: dcb6 28be 4217 3fbe 14c1 28be ac43 e2bd
00000270: 5f88 2cbe 708b 0fbe aff1 10be 3dd1 38bd
00000280: 353f 2abe 9d8b b7bd 7c03 f3bd d3a9 0ebe
00000290: 9440 51bd 50a4 1fbe 85e9 f7bd 5608 c7bd
000002a0: 73c0 07be 1118 3abd 42ba 36be 6b76 26be
000002b0: c577 3cbe 44f6 dbbd 2a3d c6bb 23f1 34be
000002c0: 6428 5bbe bcc7 64be 6a25 2abe d8ac 03be
000002d0: 1ea1 1ebe 46f3 e1bd 8566 c7bd 06b5 47be
000002e0: 6feb 84bd faa9 17be 9d79 60be 322e bfbd
000002f0: bb78 25be 68d9 29be 8b3b 3dbe 2c00 ccbd
00000300: a412 0cbe 6f2f 63be 2bc9 4fbe c90f f6bd
00000310: 4735 48be 1b00 1ebe 21cd 13be fd87 82bd
00000320: 0596 c3bd f813 123e 6713 35be 9099 0ebe
00000330: 2b34 3c3d 76ca 1cbe cb8b 3abe 9414 053e
00000340: c43d 4e3e 6666 4b3c f2e5 87bd a695 8abd
00000350: ae6a 8ebd d996 353e 48d9 ebbd 628f 9ebd
00000360: 2b89 aa3c 8887 4d3e 57dd e1bd 60ac 41be
00000370: 9f42 8e3d 079a a8bd 9b8d 5ebe ca41 62be
00000380: c715 21be bc38 f4bd fcd3 f5bd 6821 2dbe
00000390: 7796 2dbe 284f 41be 2888 e8bd 882f 49be
000003a0: 5031 e3bd 6ea2 15be 9477 71bd 4adf 0739
000003b0: b222 b4bd 9396 19be 745c 81bd 9588 cc3d
000003c0: f66e aebd 7d8a 3dbe e045 dcbd 632d 02bd
000003d0: 5630 fb3d e847 01be 0d64 a8bd 0722 57bd
000003e0: 732a ad3d a408 e8bd 5085 49be 2bfe 4dbe
000003f0: d428 98bd 1281 35be 52e3 2fbe 5b0e 38be
-0.14042857 -0.08928232 -0.13557947 -0.2318754 -0.082014665 -0.15745868 -0.17828813 -0.19017953
-0.16672364 -0.13786268 -0.15113175 -0.16601203 -0.17222683 -0.14470439 -0.014863616 -0.12798193
-0.094833575 -0.14112666 -0.02427784 -0.050757047 -0.13991433 -0.17747912 -0.21953428 -0.0525532
-0.15371138 -0.1302854 -0.124786675 -0.13297969 -0.22966641 -0.010758431 -0.15644157 -0.18460402
-0.14257188 -0.06274629 -0.037360955 -0.16623004 -0.08414382 -0.15261799 -0.14869258 -0.04406235
-0.104921475 -0.078667924 -0.18116672 0.029340794 -0.095143914 -0.07848007 -0.13057081 -0.102536455
0.0821744 -0.034491386 0.10777494 0.059160557 0.08763961 -0.12984398 -0.22379947 -0.1684411
0.11497698 -0.13566673 -0.13335739 0.032952346 0.088220485 0.14067264 -0.116959386 -0.11767973
0.04799012 0.09287543 -0.14928806 -0.16134539 -0.117558725 0.15126307 -0.057191547 -0.08364351
-0.13509057 0.1093231 0.1513865 -0.1756047 -0.08762521 -0.15156579 -0.1351756 0.010295301
-0.19152856 -0.17872179 -0.19771081 -0.17260927 -0.041163716 -0.081743 -0.0833104 -0.0915971
-0.09866868 -0.036534205 -0.11657816 -0.15409933 -0.12939626 -0.007413567 -0.11715801 -0.13948941
-0.10526188 -0.07436374 -0.014006796 -0.119596176 0.13572784 -0.15367045 -0.14178126 -0.16525227
0.023412606 -0.16132699 -0.12893748 -0.15354072 0.05408576 0.09405509 -0.1290656 -0.15639874
-0.0891924 -0.08047925 0.110842116 -0.069428794 -0.113432646 -0.14888576 -0.0340552 -0.011980178
-0.06930733 -0.045769207 0.0666361 -0.08612935 -0.13652986 -0.18237233 0.16755453 0.06230017
0.035384912 -0.024960782 -0.08644933 -0.18750423 -0.09975545 -0.0014647782 -0.003967879 0.14170681
-0.20806772 -0.019496864 -0.055108547 -0.06145899 -0.13895142 -0.15177177 -0.16183273 -0.12961541
-0.11762048 -0.14156087 -0.1733259 -0.10962797 -0.036163405 -0.18989815 -0.16676956 -0.08853499
-0.16476005 -0.18661216 -0.16479903 -0.11048064 -0.16848896 -0.14018035 -0.14154695 -0.04512142
-0.16625674 -0.08962176 -0.11865899 -0.1393197 -0.051086977 -0.15590024 -0.12105087 -0.09718387
-0.13257007 -0.045433108 -0.17844489 -0.1625611 -0.18405063 -0.10740331 -0.006049772 -0.17670111
-0.21402127 -0.22341818 -0.16615835 -0.12858903 -0.15491149 -0.11032729 -0.09736351 -0.19502649
-0.06490218 -0.14810935 -0.21921392 -0.09334983 -0.16159336 -0.1658684 -0.18479745 -0.0996097
-0.13678986 -0.22186063 -0.20291583 -0.120147295 -0.19551574 -0.15429728 -0.14433719 -0.06373594
-0.09550098 0.1426543 -0.17683183 -0.13925767 0.04594819 -0.15311608 -0.1821739 0.12996131
0.20140749 0.01241455 -0.066356555 -0.067668244 -0.06953941 0.17733325 -0.115160525 -0.07742192
0.02081736 0.20071232 -0.11028545 -0.18913412 0.06946301 -0.082325034 -0.21733706 -0.22095409
-0.15730964 -0.11924884 -0.120033234 -0.16907275 -0.16951929 -0.18877852 -0.11354095 -0.19647038
-0.1109339 -0.14612743 -0.05895193 0.00012957785 -0.0879568 -0.14998846 -0.06316462 0.099869885
-0.08517258 -0.1850986 -0.10755515 -0.031781565 0.12265079 -0.12625086 -0.08222208 -0.052522685
0.08455362 -0.11329773 -0.19679761 -0.20116489 -0.07429662 -0.17725018 -0.1717656 -0.17974226

conv2.bias f4 [20]
00000000: e882 67be 5b78 b7bd 6b19 f9bd 7622 01be
00000010: b990 0dbe 3090 26be f4be 19be 8c5b d3bd
00000020: fc12 bfbd fe61 b6bd cd45 3dbe a2ce 53be
00000030: 6a38 72bd 3523 7abe 4f77 c3bd ce40 e6bd
00000040: a6f6 883e 0c3e 173d 7497 d6bd ce3e 84bd
-0.2260853 -0.08958503 -0.12163051 -0.12610802 -0.13824739 -0.1626594 -0.15014249 -0.103201956
-0.09329793 -0.08905409 -0.18483658 -0.20684293 -0.059135832 -0.24427493 -0.09544241 -0.11242829
0.26750678 0.036924407 -0.10478106 -0.064572915

fc1.weight f4 [50, 320]
00000000: 5d92 d63d b4af fabd db10 0abe c188 b9bd
00000010: 9c4c bfbd 7e51 03be 8036 2cbe 2250 dd3d
00000020: 21e4 23be 75b1 c1bd f917 28be fccd 0abe
00000030: 0435 1fbe def1 25be d762 14be f040 b4bd
00000040: 1454 083e 1455 273e 5d91 fbbd 92f6 bcbd
00000050: 3ae0 123e 067b 203e 051a 01be 6fbf cdbd
00000060: 98d2 e93d 7590 0fbe c4e2 c6bd c24a 9dbb
00000070: 7012 21be c4bc 0ebe c26a 30be 77ca ecbd
00000080: a28d dabd f65c 98bd 440d 31be ca4e 9fbd
00000090: 5382 8bbd 23a7 8cbd 8afe 1fbe 0e50 9fbd
000000a0: 4dcf 2abe c6bc 24be 8612 10be bf3f 96bd
000000b0: f717 0bbe a7eb cabd 17b4 01be d04a cebd
000000c0: 4273 b2bd 93c0 8ebd a072 b3bd f0a7 99bd
000000d0: 1efb 8ebd 2291 ccbd b526 a5bd dd43 93bd
000000e0: 81cd c3bd f57f 0dbe c0cb 9fbd 4ecc e3bd
000000f0: 5e8b afbd 46a3 0cbe 4331 30be f619 1ebe
00000100: 6649 f03d 9b0b 21be 0ad7 12be dc5c bcbd
00000110: 16a0 0f3e ffb9 0bbe 14a3 fabd 3529 893d
00000120: 2bed fbbd d209 fabd 3760 1ebe 453c 8ebd
00000130: e130 17be 94c4 e5bd 742f a43d b673 dfbd
00000140: a1df 9f3d 16e4 f63d 5d0f 143e 8fa5 2a3e
00000150: 9ed2 e9bd b25e 083e 4c6d 053e 154d bb3d
00000160: 3cd0 d6bd e196 933d d07a 0dbe 2d97 f3bd
00000170: 520e d33d 0763 133e 51e1 22be 9b64 0e3e
00000180: 938d 1cbe 6068 9a3d 7c45 e63d 3fde fabd
00000190: 657a 12be 569c 5d3d 1029 d43d 1853 09be
000001a0: d85c e9bd 999b 11be 567d 023e 679f 8abd
000001b0: d5fa febd 2744 11be b228 adbd 3c68 dabd
000001c0: 8f66 bbbd 591c d7bd a5b6 1abe cc9b 28be
000001d0: 0296 0ebe d12b 2bbe 2962 2cbe b72c b3bd
000001e0: a169 fdbd 158e f9bd ee6e 26be 6904 babd
000001f0: 5476 9cbd 57e9 aebd f83c 1dbe 9b8f eabd
00000200: a44e 93bd 1ff6 4dbc f365 4f3b 3049 b4bc
00000210: 7941 49be 5578 ecbd 90bb 03bd 677a e3bc
00000220: df6e 21bd 8fd7 a9bd a7f0 afba 07c5 0f3c
00000230: 132b a9bd 2991 17be 66dd 16be ee6e c1bc
00000240: 2ca9 32be 592c cdbd eb18 edbd 4c99 b3bd
00000250: 6f34 2fbe 27b0 9cbd 1615 b0bd e0d0 04be
00000260: 71ab 0abe 1d61 c2bd 1584 0dbe 0caf 09be
00000270: d973 1cbe 2797 8bbd 834e a9bd 3af1 e3bd
00000280: 742d edbd 55a6 1fbe d2d3 9abd 7a8f cbbd
00000290: 3430 d1bd b292 cabd 33bc 2dbe 5b9f 15be
000002a0: 189a a8bd 79d0 0cbe decd 96bd be2c 2ebe
000002b0: 150e 9fbd 0087 84bd 929d 31be 5ba7 9fbd
000002c0: f6b4 d6bd 9c1a bebd 619b 0cbe 1bf3 a3bd
000002d0: 5674 dcbd b829 25be 0301 92bd 8f7b f5bd
000002e0: b4bb 08be 88aa d8bd f423 e8bd 2206 8d3d
000002f0: b092 333e 2a28 01be f289 d4bd 6091 05be
00000300: 9a12 30be 2b01 2cbe 5176 0bbe fd49 0dbe
00000310: fdbb 9abd 0a3f e6bd 860b 88bd bb9d 98bd
00000320: 6763 e9bd ec7d 10be 4164 f3bd c20f 0fbe
00000330: 3ce7 33be 46b6 d6bd 89f0 c7bd c597 0cbe
00000340: 2471 8ebd 61d5 e9bd 1c5c fbbd e45f 09be
00000350: 5c47 88bd 40b6 b8bd a5a5 23be ba1a 26be
00000360: 6e37 29be 5184 8ebd 9f15 97bd 7c4d bcbd
00000370: 2dde bdbd 7d7e 21be ca82 a2bd b9f4 fdbd
00000380: 7690 24be eae5 11be 71a3 2ebe ab09 553b
00000390: 0a04 1ebe 7634 f3bd 07f8 41be 0a48 4fbe
000003a0: e68d 40be f06f 10be d7e3 47be 19b4 32be
000003b0: ea30 0ebe f0d0 c8bd aa98 ddbd 856c aebd
000003c0: 96a9 06be bb03 23be acbf 0f3e 10d0 1bbe
000003d0: 943a 89bd eb57 d9bd 597d 2dbe 0a2a f5bd
000003e0: 6f05 20be e1e3 cbbd 77e9 17be 9925 f23d
000003f0: 385d a2bd b222 25be 9a65 a6bd a4c5 aebd
0.10477135 -0.12240544 -0.13482992 -0.09059287 -0.09340784 -0.12824056 -0.16817665 0.108063
-0.16004993 -0.09457675 -0.16415395 -0.1355514 -0.15547568 -0.16205546 -0.1449083 -0.08801448
0.13313323 0.16341048 -0.12283585 -0.09226717 0.14343348 0.1567193 -0.12607582 -0.10046279
0.11417121 -0.1401995 -0.09711221 -0.0048001716 -0.1572969 -0.13939196 -0.17228225 -0.115620546
-0.106715456 -0.07439606 -0.17290217 -0.077787 -0.06811967 -0.06867816 -0.15624443 -0.07778941
-0.16680641 -0.16087636 -0.14069566 -0.07336377 -0.1358336 -0.09908228 -0.12666355 -0.10072863
-0.0871339 -0.06970324 -0.08762097 -0.07502735 -0.069814906 -0.099886194 -0.080640234 -0.07190678
-0.09560681 -0.13818343 -0.07802534 -0.111229524 -0.08571504 -0.13734159 -0.17206292 -0.15439591
0.1173275 -0.15727083 -0.14339843 -0.09197399 0.14025912 -0.1364517 -0.12238136 0.06697313
-0.123010956 -0.12208904 -0.1546639 -0.06945089 -0.1476474 -0.11219135 0.080168635 -0.10910742
0.07806326 0.12055223 0.14458986 0.16664718 -0.11417125 0.13317373 0.13029975 0.091455616
-0.10488936 0.07206512 -0.1381638 -0.11894069 0.10305466 0.14393245 -0.15906264 0.13905565
-0.15288381 0.07539439 0.11243722 -0.12249421 -0.14304502 0.05410417 0.103593946 -0.13410604
-0.11394662 -0.14219512 0.12743124 -0.06768685 -0.12450186 -0.14186154 -0.08455028 -0.106644124
-0.09150421 -0.10503454 -0.15108736 -0.16465682 -0.13924411 -0.16715933 -0.1683432 -0.08748763
-0.12373663 -0.12185303 -0.16253254 -0.090828724 -0.07639757 -0.085406 -0.15355289 -0.11453172
-0.07192734 -0.012570887 0.003164646 -0.022007555 -0.19653882 -0.11546389 -0.032161295 -0.027768327
-0.039412376 -0.08293068 -0.001342316 0.008775002 -0.08260169 -0.14801468 -0.14732894 -0.023612466
-0.17447346 -0.10018224 -0.11577018 -0.087694734 -0.17109846 -0.07650786 -0.08597772 -0.12970304
-0.13541962 -0.09491179 -0.13819917 -0.13445681 -0.15278567 -0.068159394 -0.08266928 -0.11129995
-0.11580935 -0.15590794 -0.07559933 -0.09939475 -0.10214272 -0.09891261 -0.16966324 -0.1461157
-0.08232516 -0.13751401 -0.07363485 -0.17009255 -0.07766358 -0.06471062 -0.17345265 -0.077955924
-0.10483734 -0.09282419 -0.13731147 -0.08005353 -0.10764377 -0.16129196 -0.07129099 -0.119864576
-0.13352853 -0.10579401 -0.113349825 0.06885935 0.17536426 -0.12612978 -0.103778735 -0.13043737
-0.17194596 -0.1679732 -0.13619353 -0.13797756 -0.07555387 -0.112424925 -0.06642823 -0.0745196
-0.113959126 -0.14110535 -0.11884356 -0.13970855 -0.17568678 -0.10483985 -0.09762675 -0.1372977
-0.069551736 -0.11417652 -0.12273428 -0.13415486 -0.06654236 -0.090191364 -0.15981157 -0.16221133
-0.16525051 -0.06958831 -0.07377171 -0.091944665 -0.09270892 -0.15770908 -0.07935102 -0.12400193
-0.16070732 -0.14247862 -0.17054535 0.0032506983 -0.15431228 -0.118752405 -0.18942271 -0.20242324
-0.1880413 -0.14105201 -0.19520508 -0.17451514 -0.13885847 -0.09805477 -0.10820134 -0.08516792
-0.1315063 -0.15919392 0.14037961 -0.15216088 -0.06700626 -0.10612472 -0.16942348 -0.11970909
-0.15627073 -0.09955574 -0.14835154 0.118235774 -0.07927936 -0.16126516 -0.08124848 -0.08533791

fc1.bias f4 [50]
00000000: 6324 8dbe 7aa8 a6bd a9b9 07be 5ef0 6bbd
00000010: a89b 0dbe 129d 7c3d dcc6 ce3c 4be9 613e
00000020: 0ba7 fa3d 3e41 38be bbae 24be dc7b 04be
00000030: 3b59 2cbe ecc7 17be 003e bf3d 18d8 b5be
00000040: 1b3e 61bd cd47 3dbe 6b46 71be e1d0 e2bd
00000050: 9b4e 1bbe 1f35 9bbe c1bd 28bd f97f 093d
00000060: 5e4f 283d ced6 f0bd f464 a1bd 0470 2cbb
00000070: 22a8 35be 5fa9 0fbe 6f38 e93c 043a 2abe
00000080: 44d6 cd3d 8288 86bd d9b6 24be 84b2 d9bd
00000090: 1ad5 bdbd 4161 3bbe 9908 45be fc60 98bd
000000a0: 56fe 08be 6dfa d1be b6d5 39be c557 05bc
000000b0: 18fc 9bbd f9d0 cb3e d2d8 1d3d e90f b8bd
000000c0: 9c25 95bd c08a 5abe
-0.27566823 -0.08137603 -0.13254417 -0.05760228 -0.1382891 0.06167323 0.025241308 0.2206165
0.12238892 -0.17993638 -0.1608228 -0.12937874 -0.16830914 -0.14822358 0.093379974 -0.3551643
-0.05499087 -0.18484421 -0.23562019 -0.11074997 -0.15166704 -0.30313966 -0.04119659 0.03356931
0.041091315 -0.11759721 -0.078805834 -0.0026311884 -0.17739919 -0.14029454 0.028469292 -0.16623694
0.100506335 -0.065690055 -0.16085376 -0.10629752 -0.092691615 -0.18298818 -0.19241561 -0.07440373
-0.13378271 -0.41011372 -0.1814793 -0.008138602 -0.076164424 0.3980787 0.038536854 -0.089874096
-0.07282564 -0.21341991

fc2.weight f4 [10, 50]
00000000: 3ee3 aabe b3dd 693e 895b 0b3d 69be 1fbf
00000010: 016e b6be 6f72 9cbe 16f5 a83e 2463 0d3f
00000020: f20b 143f b322 d0be bc5c b63d 1c83 343e
00000030: 567a 053e b83b c83b 82a5 30bf 5672 50bf
00000040: 6fe5 fc3e 922e 3cbe 0c07 a93e a65e d63d
00000050: 7cff 44be 80cd 4d3d 7764 fabe 9b84 04be
00000060: 658b c2bd fda9 99be 5c28 7dbe a84e 20bf
00000070: 86fb 1f3e 32b7 6cbe 7c58 fcbe 929a 983d
00000080: 1ce3 01be 4ff0 b33e 4639 7fbe c474 3d3e
00000090: 3c17 313c 1716 d2be 919b d1bd b84f 79bf
000000a0: 8587 d43c 2e11 fdbe 2606 673e 85df 43bf
000000b0: 1ce0 9ebc 7efc cd3c b9b6 c5bd d61b 9f3e
000000c0: 1625 d03e 2e5b 803e 4c92 093e 41b2 a43d
000000d0: 83e6 5ebe c4d6 bdbd 534a c73d ecf4 0cbf
000000e0: a305 20bf 8309 a8be 06b6 71be 4ae8 fd3d
000000f0: 8d61 fcbe 685e aabd 0ee6 05bc 9cc2 ffbd
00000100: 6e9a c73e fc39 db3d 636d 2cbe 05df 75bd
00000110: 4448 78be a2aa 093e 6744 1b3d cad8 9e3d
00000120: dca0 b5be cd9f 3c3e 75fa 3fbf e2d6 95bf
00000130: c676 b1bd e76b b1be 4d54 c3bf 0d85 933d
00000140: 9543 483e 005c b9bd b6eb 57be b03a 8dbe
00000150: 7cf7 00bf d4b4 16be b596 6f3b fca3 8a3e
00000160: f76c 12be 3735 0abe 12b7 2ebd d363 c53d
00000170: 36fe b8be c5ae 073f 28ab 2dbe 3fb2 cebd
00000180: f848 70be 023f d3be a3bd 67be cabb ecbe
00000190: 4808 833d 3551 963e 7c36 c9bd f731 11bf
000001a0: 1252 38bc 648a 9fbe 6731 8fbe 0185 a73d
000001b0: 3b18 b6be 3f65 963e 4845 e0be f4a2 54bd
000001c0: cfd7 efbd 1290 08bc 76ec 233e e088 94bd
000001d0: 3e62 d3bd da61 cf3e 8151 a93e 3cbc c0bd
000001e0: 207f 32be 65cd b33d 3548 18bf 4df6 2bbe
000001f0: cc2d 53bc 34ae 01bf f2ca 4cbd 899d dc3d
00000200: a9b5 803d 26dd 08bc 9dd0 c8bc 34a9 f8bc
00000210: 36cc bfbd 61fa fe3d 1750 9fbe b1bd 06be
00000220: 5ac7 56be a009 06bd 51ae 19bd 51bf 08bf
00000230: c7d3 373e 01d8 3ebe 1925 aabe d6df bbbc
00000240: b751 da3e 5e3b 73be 4568 363e 5555 9e3e
00000250: 4e39 613c 7a6d 993e 755a 6a3d 69a2 83be
00000260: 6b02 30be 5a69 68be 8c39 aebd f5ce bebd
00000270: 9059 d4bd 4d25 533d 1689 103c ce9c d7bd
00000280: 855f 04be 5ba4 6dbe d70b d73c 6c19 2dbd
00000290: 8377 bebe 8cd9 c33e e186 aebe d972 c93d
000002a0: 74ac 643d efd1 543a acc2 203e 482d 3c3e
000002b0: 0b43 92be 814f b1bd 7b3d c8be d77d c83e
000002c0: 0f99 23bf 0938 0abe e6eb d1be d74e 033e
000002d0: 5c90 803e c967 b23c e05e 94be 40ab ebbe
000002e0: b8da 833e ab5d 0f3c 2bd2 c7bb ddb7 e1be
000002f0: f082 b43e 2eb2 c13e 9afa b33d 8ce5 093e
00000300: 9841 b6be c731 87be 3a64 a43d dfb8 eebd
00000310: 037e 8abd 05e0 f33d a4fd 64be 8b61 b43e
00000320: 650f 163e 933a efbe abe7 ab3d d792 943e
00000330: cea5 2a3e cbbe 7cbe 6ba4 bc3d 2b47 04bf
00000340: 981e adbe 3030 6abe bb41 523e d2b7 273d
00000350: 48ce 523d e63c abbc 66b9 eb3c 5019 0dbf
00000360: eb65 9dbe aa75 3cbc 0ed7 6bbc 4712 57bd
00000370: a060 81bd 645c eebe c367 533e bda9 55bd
00000380: 2741 2b3d b0f2 9dbe 5b6b 6dbe 38ee a73d
00000390: 1976 20bf 0f97 c9bd ca67 06bf 6028 41be
000003a0: 4d52 24be c4be a3be cb8e 6cbe 402e 40bd
000003b0: ddc7 3ebe 2612 f43c 98ec 30be c984 823d
000003c0: 4b65 01bd 17c4 02be bc5c a73e 4ecb 913b
000003d0: 4e4c a8bd 4e9f 1ebc ee52 cebd cf50 20be
000003e0: 7cc8 10bf c48a bc3e c7bf 9dbe 3a40 98be
000003f0: 04f6 e8bc 6f81 92be 231a 56be a91e 903e
-0.33376497 0.22838478 0.03402284 -0.6239992 -0.356308 -0.30556056 0.32999486 0.552294
0.5783073 -0.40651473 0.089044064 0.1762814 0.13034949 0.0061106347 -0.69002545 -0.8142446
0.49393794 -0.1837714 0.3301319 0.104672715 -0.19238085 0.05024481 -0.48904774 -0.1294121
-0.09499244 -0.30012503 -0.24722427 -0.6262002 0.15623292 -0.23116758 -0.49286258 0.07451357
-0.12684292 0.35144278 -0.24924192 0.18501574 0.010808762 -0.41032478 -0.1023475 -0.97387266
0.025943527 -0.4942717 0.22560939 -0.7651294 -0.019393973 0.025144812 -0.09653992 0.31075925
0.40653294 0.25069565 0.13434714 0.08041812 -0.2176762 -0.09269479 0.09730973 -0.5506122
-0.625086 -0.32819757 -0.23604593 0.12397821 -0.49293175 -0.08318788 -0.008172525 -0.12488291
0.38985008 0.10704419 -0.16838603 -0.06002714 -0.24246317 0.13443998 0.03790703 0.07756193
-0.35474288 0.18420334 -0.7499154 -1.1706202 -0.08665232 -0.34652635 -1.5260102 0.07203112
0.1955703 -0.09050751 -0.2108601 -0.27583838 -0.5037763 -0.14717418 0.0036558334 0.27078235
-0.1429938 -0.13496862 -0.04265506 0.096381806 -0.36131448 0.5300105 -0.16959822 -0.100925915
-0.23465335 -0.4125901 -0.22630934 -0.46237022 0.06398064 0.2935883 -0.09824845 -0.56716865
-0.011250036 -0.3116027 -0.27967378 0.08179665 -0.3556536 0.2937412 -0.43802857 -0.051913217
-0.11711084 -0.00833513 0.16008171 -0.07252669 -0.103214726 0.40504342 0.33069995 -0.09410903
-0.17431307 0.0877941 -0.5948518 -0.16793175 -0.012889337 -0.5065644 -0.04999823 0.10772235
0.06284649 -0.008353507 -0.024513537 -0.03035412 -0.09365122 0.124501 -0.3111579 -0.13158299
-0.20974484 -0.032724023 -0.037519757 -0.53416926 0.1795188 -0.18637086 -0.33231428 -0.022933882
0.42640468 -0.23753116 0.17813213 0.30924478 0.013746573 0.29966336 0.057215173 -0.25709847
-0.17188422 -0.22696438 -0.0850707 -0.09316818 -0.10368645 0.051549245 0.008821746 -0.10527955
-0.12927063 -0.23207228 0.026250763 -0.042260572 -0.37200555 0.38251913 -0.3408728 0.098363586
0.055828527 0.0008118441 0.15699261 0.18376648 -0.28566775 -0.08657742 -0.39109406 0.39158508
-0.63905424 -0.13497938 -0.4100029 0.12823044 0.25110137 0.021778004 -0.28978634 -0.4602909
0.25752807 0.0087503595 -0.006098052 -0.4408559 0.35256147 0.37831253 0.08788033 0.13466471
-0.3559692 -0.26405165 0.08026929 -0.11656355 -0.06762316 0.11907963 -0.22362381 0.3523067
0.1465431 -0.46724376 0.083937965 0.2901828 0.16664812 -0.24682157 0.09211048 -0.51671094
-0.33812404 -0.22869945 0.20532887 0.04094679 0.051466256 -0.020903062 0.028774928 -0.5511675
-0.3074182 -0.011502663 -0.014394535 -0.052507665 -0.06317258 -0.46554863 0.2064505 -0.05216383
0.04181018 -0.30849218 -0.23185484 0.081997335 -0.626802 -0.09843265 -0.5250212 -0.18863058
-0.1604702 -0.3198148 -0.23101346 -0.046919107 -0.1863093 0.02979381 -0.17277753 0.06372983
-0.03159074 -0.12770115 0.32687938 0.0044492846 -0.08217679 -0.009681536 -0.10074411 -0.15655826
-0.56555915 0.3682462 -0.30810377 -0.297365 -0.028437622 -0.28614375 -0.20908408 0.28148392

fc2.bias f4 [10]
00000000: 717e 52be 7284 033e 1a41 afbc 7ff9 103e
00000010: c1b5 02be 336f bbbd 1ed1 59be ca97 253e
00000020: ee72 913d d5a7 b9bd
-0.20556046 0.12843493 -0.021393348 0.14157675 -0.12764646 -0.09152069 -0.21271178 0.16171184
0.07101999 -0.090652145

exp_avg f4 [10, 1, 5, 5]
00000000: a999 8e3b cb35 ff3a 7156 ff3b 4440 023c
00000010: df09 393b b805 5eb9 9e32 d23b 5e4d 0f3c
00000020: 7d91 893b 3cf8 97b7 b084 273c ba46 8a3c
00000030: 300f 1c3c 5623 463a 801f b5ba 63f8 a53c
00000040: 376f a43c 4635 563c 60f3 7db9 62e8 41bc
00000050: d67c 273c 1bfe a13b 3231 e63a bcf4 76bb
00000060: e063 a9bc c01b 9bbb 8a20 a5bb 0430 9b3b
00000070: b8a2 293c e16b e4bc 6078 893a 3078 87ba
00000080: e9b5 573b 8b05 e23b 80cb f9bc f669 0e3b
00000090: 1838 09bb 10ae 56ba b28e 30bb ae87 10bd
000000a0: 9aee c43b 4047 d838 6877 f53a 5f6e 33bc
000000b0: ce3b 2abd db47 3a3c c8f8 173b a46c 96bb
000000c0: 054b 72bc d682 c9bc dae2 cbad 8e4d bb2e
000000d0: b244 542f 238a 1430 0af6 3a30 7468 2fae
000000e0: 3dfb 032f 919f 0b30 8951 3b30 6465 0330
000000f0: 629e 9eae 63ca 6b2f be41 1c30 8023 3b30
00000100: 18ce ab2f fdf3 0c2f 1a8b bd2f c9cd 0030
00000110: 0369 cf2f 8a67 452f f413 8e2f d720 b52f
00000120: 6095 9a2f 2a43 ee2e f0a5 93ae 7f42 adb3
00000130: 1bcc 8731 85dd 6a35 ad58 1836 a124 e035
00000140: 98bd 7231 8ebe 87b3 1257 8b33 d81e 2431
00000150: 5beb b832 a051 6cb4 5409 52b6 a2f2 df35
00000160: 7090 4535 2998 c7b0 1c46 d835 9f3a 6e36
00000170: c42a 55b8 ca48 29b8 d866 7135 2e00 3535
00000180: a4a1 44b8 5185 7ab8 359a c4b7 58bb 3eb8
00000190: a047 1931 8a3d c430 603f 2730 0dcf a930
000001a0: bd4c 5831 7d4c 0f31 7b89 cd30 b6c5 9030
000001b0: 1588 2b31 af29 9731 062d 1231 705f 2131
000001c0: c5ef 5331 c7c9 a131 19bc ae31 a458 4e31
000001d0: 586a 9831 782f c531 171b bb31 3c9b 9a31
000001e0: f365 7b31 dc0e c331 f685 e131 3637 c131
000001f0: 76cf 8d31 ea83 383b 765e 0ebc b6e6 99bc
00000200: 28e1 a5bc 6941 ddbc 7dd2 633c 8105 0ebc
00000210: 546e 1abc 7204 19bc ac5f 13bc c2eb 2e3c
00000220: 2e6b 823b ff4d a6bb 817e 28bc acbe 30bb
00000230: 4bb4 b33b bca6 5fba 6e43 cbbb d8d7 a7bb
00000240: 90fe 81bb 30e7 973b a64b 633b bbb0 623a
00000250: 2c9b 913a 8c58 ef3a 3cf5 473b 2e9f d63a
00000260: 0734 433a c2d5 8739 bd06 ea38 5b2b 5a3b
00000270: 9028 1f3a 57cb 9238 9ffa 4cb8 5ffe a839
00000280: 4ba9 67bb 7a2e 4ebb 56b6 c7b8 6de1 4d37
00000290: 77c1 4e39 4467 14bc 7645 b7bb 3100 a339
000002a0: 9760 04b9 c8b4 d036 0b40 ecbb ec91 7dbb
000002b0: e0a5 f2ba fe93 bdb9 b541 1238 1359 033c
000002c0: 9f04 b93c aebe 823b e409 09bb 0a1f 113b
000002d0: 6c63 d93a d747 713c 08ce b2ba af70 d5b8
000002e0: 53c8 393a 6554 72bb 20df e03a cea5 d5bb
000002f0: b005 d238 5f19 1f3a e0ed 9eb9 10ea 6c3a
00000300: 2bf6 5dbc 94b8 68bb b184 c53a ab43 0e3c
00000310: 544b dcba 1775 80bc 105d 50bc 5860 2cbb
00000320: f336 cb30 c75d 9c30 04f9 7130 7603 6730
00000330: 897f 4130 1004 9a30 ec12 5d30 b8f6 4230
00000340: 37b0 f22f 328d 892f ae47 852f 0765 952f
00000350: cff4 9f2f 2e43 702f fc37 792f 06c8 ce2d
00000360: d29b 882e 6705 7a2f ff09 b32f 47c2 0130
00000370: be39 192f c368 0a30 7356 8630 353b 7330
00000380: caaf 4e30 6e60 8830 0fc8 0531 6ac6 8531
00000390: 7e6e c731 72ea b031 7e54 bc30 6a24 3331
000003a0: ec31 ab31 f3f2 bd31 c4ec 8931 65a3 4f31
000003b0: 1e66 9831 7b90 bb31 eddd a831 d887 5431
000003c0: d190 6031 c968 9631 20f1 c231 fda9 9931
000003d0: 3969 5931 6ed3 4f31 3569 9431 278e 9f31
000003e0: 7779 6131 b63f 4b31
0.004351814 0.0019470988 0.007792287 0.007949892 0.0028234643 -0.000211737 0.0064147254 0.008746473
0.0041982518 -1.8116196e-05 0.010224506 0.016879428 0.009525105 0.0007558366 -0.0013818592 0.020260042
0.020072563 0.013074225 -0.00024218624 -0.01183519 0.010222634 0.004943622 0.0017562269 -0.0037682494
-0.020677507 -0.0047335327 -0.0050392793 0.0047359485 0.010353737 -0.027883472 0.0010488145 -0.0010335501
0.0032914823 0.0068976334 -0.030492544 0.0021730638 -0.0020937975 -0.00081893895 -0.0026940522 -0.035285644
0.006009889 0.00010312954 0.0018727602 -0.0109516075 -0.04156094 0.011369671 0.0023189057 -0.0045905877
-0.014788394 -0.02459852 -2.317917e-11 8.517552e-11 1.9305693e-10 5.403839e-10 6.801605e-10 -3.9883166e-11
1.2003638e-10 5.0794663e-10 6.814607e-10 4.7801607e-10 -7.2131426e-11 2.1445028e-10 5.6845895e-10 6.808065e-10
3.1251157e-10 1.2819608e-10 3.4477737e-10 4.6858567e-10 3.7727696e-10 1.795383e-10 2.5843827e-10 3.2947042e-10
2.8118574e-10 1.0834918e-10 -6.7142625e-11 -8.068036e-08 3.952221e-09 8.7494146e-07 2.270138e-06 1.6699961e-06
3.5323406e-09 -6.321089e-08 6.48853e-08 2.3882674e-09 2.1527446e-08 -2.2008908e-07 -3.1297868e-06 1.668541e-06
7.3598403e-07 -1.4522402e-09 1.6113659e-06 3.5498886e-06 -5.0822986e-05 -4.036053e-05 8.9929154e-07 6.7428016e-07
-4.688058e-05 -5.9728805e-05 -2.3436829e-05 -4.5474007e-05 2.2305144e-09 1.4278367e-09 6.084431e-10 1.2355216e-09
3.1475758e-09 2.0852717e-09 1.4954787e-09 1.0533572e-09 2.4961129e-09 4.3994173e-09 2.127139e-09 2.3482833e-09
3.0840834e-09 4.708656e-09 5.0854507e-09 3.0027332e-09 4.435872e-09 5.738851e-09 5.445496e-09 4.499638e-09
3.6583259e-09 5.6769363e-09 6.5635914e-09 5.623316e-09 4.1272257e-09 0.0028154799 -0.008689513 -0.01878677
-0.020248964 -0.027008729 0.013905165 -0.008668304 -0.009425718 -0.009339439 -0.008994978 0.010676326
0.003980062 -0.005075216 -0.010284067 -0.0026969118 0.005484139 -0.000853162 -0.0062031066 -0.005122166
-0.003967114 0.004635714 0.003468254 0.0008647551 0.0011108867 0.0018260642 0.0030511161 0.0016374344
0.00074464123 0.00025908469 0.000111592446 0.0033290002 0.0006071413 6.9996975e-05 -4.88708e-05 0.00032232978
-0.003534871 -0.0031460808 -9.523022e-05 1.2271438e-05 0.00019717762 -0.009057824 -0.005592997 0.00031089925
-0.00012624483 6.2199288e-06 -0.007209783 -0.0038691713 -0.0018512569 -0.00036159152 3.4870307e-05 0.008016842
0.022585211 0.003990016 -0.0020910436 0.0022143745 0.0016585416 0.014726601 -0.0013641724 -0.000101776204
0.00070870406 -0.0036976573 0.001715634 -0.0065200096 0.0001001464 0.0006069149 -0.0003031334 0.00090375636
-0.013547461 -0.0035510408 0.0015069452 0.0086831255 -0.0016807117 -0.015680833 -0.0127175 -0.0026302543
1.4785811e-09 1.1377147e-09 8.802916e-10 8.404223e-10 7.039423e-10 1.1206129e-09 8.042622e-10 7.09274e-10
4.4144752e-10 2.502048e-10 2.424349e-10 2.7174726e-10 2.9095878e-10 2.185174e-10 2.2666308e-10 2.3508317e-11
6.212243e-11 2.2739287e-10 3.2567013e-10 4.720601e-10 1.3935783e-10 5.0352983e-10 9.774354e-10 8.8487023e-10
7.5192175e-10 9.922709e-10 1.9467767e-09 3.8933665e-09 5.8042238e-09 5.1489275e-09 1.3702814e-09 2.6068627e-09
4.9824305e-09 5.528244e-09 4.014142e-09 3.0215344e-09 4.4353916e-09 5.458842e-09 4.9146736e-09 3.0927279e-09
3.2678609e-09 4.3774873e-09 5.673556e-09 4.4722115e-09 3.1637468e-09 3.0242648e-09 4.3193276e-09 4.64367e-09
3.2810854e-09 2.9576603e-09

exp_avg_sq f4 [10, 1, 5, 5]
00000000: 528a 2538 c2c8 c237 e38c 9438 b32a 2f38
00000010: 767b f937 3962 c437 6929 0238 073a ad38
00000020: df12 c837 465c 1d37 7e7e 0b39 188a 1439
00000030: 65cc f438 1fed f437 bd7e 6b38 d75e 043a
00000040: ccbd 043a d555 b139 abe9 3839 360a cc39
00000050: 6884 703a 76c7 693a f9f4 693a fcc4 433a
00000060: 944b 953a bf23 6039 1014 a239 072c 483a
00000070: e417 f83a 552c 163b ab4e 2d39 e2d1 6839
00000080: 6934 033a 3797 e73a aa43 353b 6d4a 7339
00000090: 2c6b 9f39 6e92 fe39 5f09 e13a a163 363b
000000a0: cba1 0639 9f9a 0a39 526f 103a 6b64 d13a
000000b0: 782f 0b3b c09f 6638 faca 2e39 3ccc 5b3a
000000c0: 8cd7 d23a 64b9 be3a 25d0 652f 3d5e 2731
000000d0: ac60 2d32 3cf4 4e33 35b5 8633 e179 f730
000000e0: 66df b930 8bd4 d532 edab 5d33 5c97 d932
000000f0: cce1 b331 516e 8c31 1ea3 1633 2a01 7733
00000100: b993 6a32 e4c7 3c31 5659 3832 2fdc 1333
00000110: ae4e c932 079b 0d32 42f4 e931 b528 6b32
00000120: 653f 6f32 cd6b a031 a59f 1b30 c0c6 8836
00000130: 2afd e536 26a2 5837 5168 7d37 c10f 8237
00000140: 8415 8b36 68de 1a37 6a54 8a37 234e 6137
00000150: 306f 3737 bbfb 2c37 3e78 ad37 7872 ce37
00000160: d732 9537 f71a 4a37 ee5c ac37 51d3 0138
00000170: 7f07 1638 8a73 e537 8547 a637 3f88 bb37
00000180: 619f fe37 4fa4 0738 e4ee 0138 e2d8 0938
00000190: 8afb 8035 994b c034 e146 5933 b155 6334
000001a0: 0adc c135 28ab 6635 efa7 db34 56cb 3c34
000001b0: aaff 8b35 755a 6436 a418 6035 8a1e 8535
000001c0: 7fd7 d835 22ad 8136 0f4f a436 93c2 e635
000001d0: 1f07 6e36 6252 c136 98c5 ac36 752a 8336
000001e0: 5199 2a36 73a1 bc36 e349 0137 6625 c736
000001f0: 5ef4 7b36 cc89 ff39 4bfa 3b3a 7d04 913a
00000200: bd1d c53a 0ac3 d23a ec08 253a 5ef9 5b3a
00000210: 6c97 7c3a 8117 8b3a 02d7 903a c507 073a
00000220: 4e90 ef39 3dc0 e939 51ed d839 8f95 033a
00000230: d507 2139 d5a4 e038 a479 8a38 e83d 5d38
00000240: 83c2 7539 bc60 2e38 fce7 f537 d35f ef37
00000250: af90 2d38 8dcf 6039 c689 6a37 9473 2c37
00000260: b709 f736 292e b036 f7e4 d636 2cb0 7037
00000270: a410 6137 eead fa36 6f40 f436 a87c 0637
00000280: 72a0 0a38 0b84 8a37 64a3 0437 2d06 fc36
00000290: 8476 0937 e355 8638 6c5c c037 5642 f936
000002a0: 0fde dd36 88d0 bd36 9600 7b38 0a36 b837
000002b0: 1587 9136 b441 2336 200d d735 5cac 983a
000002c0: 81e2 9e3a 1741 e639 2ff3 8338 a462 1938
000002d0: a0b7 a33a 59fe 663a 9e4b 1b39 612c 4138
000002e0: c500 2438 4149 b23a 5124 1f3a 5001 9d38
000002f0: 41e4 0638 863d ed37 170e 9c3a cf51 c039
00000300: f956 9238 98ee c237 403f c837 5a1e 7b3a
00000310: e827 e339 eea3 fa38 7c02 9938 15cc 7938
00000320: 8e05 5f35 e8dd fe34 7a62 a634 7870 9734
00000330: dd8e 5534 3897 fd34 7cf8 4d34 4060 1e34
00000340: fc60 7233 1dee a832 288e d432 5d6c 3f32
00000350: 4be5 3e32 9b5d 2732 838c 0932 86a0 e72f
00000360: 05d4 1330 fe6a aa31 8d18 3332 1528 1133
00000370: db70 cb32 e581 8e33 5c66 1034 411d 0b34
00000380: 3208 fc33 5bbb 4d34 8c15 7135 a2b8 6536
00000390: aefb dd36 8c7c ca36 9b41 9834 dfa6 ab35
000003a0: 60ee a736 7df1 d736 1304 6b36 16e8 ce35
000003b0: d354 7936 525c cc36 54b7 b836 5331 1a36
000003c0: 4a3e 0e36 a8d8 8336 af11 e036 8d18 9736
000003d0: fccd 2e36 72ba 0a36 5b11 8936 6679 9b36
000003e0: 7680 2336 c50c 1336
3.9467886e-05 2.3220087e-05 7.083432e-05 4.1763018e-05 2.9740604e-05 2.341076e-05 3.103298e-05 8.260091e-05
2.3850645e-05 9.379413e-06 0.00013303195 0.00014165824 0.00011672898 2.9197485e-05 5.61464e-05 0.00050495326
0.00050636823 0.0003382402 0.00017634656 0.0003891752 0.00091750035 0.00089179666 0.00089247484 0.00074680126
0.0011390322 0.00021375621 0.00030913996 0.0007635955 0.0018928018 0.0022914608 0.00016527872 0.00022203432
0.0005005063 0.0017668967 0.002765874 0.00023202012 0.00030406693 0.00048555754 0.001716893 0.002783038
0.00012839508 0.00013218306 0.0005509752 0.0015975361 0.002123801 5.4985052e-05 0.00016669548 0.00083846203
0.0016085966 0.00145511 2.0901376e-10 2.4355267e-09 1.0091906e-08 4.8185242e-08 6.2728226e-08 1.8006255e-09
1.3524015e-09 2.4893117e-08 5.1611938e-08 2.5330955e-08 5.235256e-09 4.087078e-09 3.507295e-08 5.7510228e-08
1.3654181e-08 2.7471225e-09 1.0730522e-08 3.442636e-08 2.3435259e-08 8.242529e-09 6.8089614e-09 1.3688056e-08
1.3926045e-08 4.6688684e-09 5.661554e-10 4.0762534e-06 6.854204e-06 1.2912356e-05 1.5104263e-05 1.5504544e-05
4.1450276e-06 9.230898e-06 1.649019e-05 1.3429238e-05 1.0933538e-05 1.03106095e-05 2.06792e-05 2.4610417e-05
1.7785858e-05 1.20464165e-05 2.0547272e-05 3.09528e-05 3.5769768e-05 2.735273e-05 1.9822046e-05 2.2355582e-05
3.0353376e-05 3.2339532e-05 3.097848e-05 3.2865333e-05 9.609951e-07 3.581779e-07 5.0588714e-08 2.1172197e-07
1.444366e-06 8.593074e-07 4.0914117e-07 1.7582838e-07 1.0430715e-06 3.40273e-06 8.348236e-07 9.91816e-07
1.6155972e-06 3.864655e-06 4.8967845e-06 1.7192964e-06 3.5468909e-06 5.761439e-06 5.1490024e-06 3.909047e-06
2.5421216e-06 5.6216318e-06 7.706202e-06 5.935016e-06 3.7544155e-06 0.00048740057 0.00071707804 0.001106396
0.001503877 0.0016079855 0.000629558 0.00083913456 0.0009635601 0.0010611863 0.0011050405 0.0005150999
0.00045693148 0.00044584452 0.00041375545 0.00050195394 0.00015357074 0.00010711855 6.60301e-05 5.274816e-05
0.00023437482 4.1574924e-05 2.9314302e-05 2.8535642e-05 4.138116e-05 0.00021439623 1.3979565e-05 1.0278909e-05
7.3623046e-06 5.2505825e-06 6.404352e-06 1.4346133e-05 1.34149195e-05 7.4708287e-06 7.2792677e-06 8.016046e-06
3.305119e-05 1.651237e-05 7.905855e-06 7.510904e-06 8.19343e-06 6.4056156e-05 2.293122e-05 7.428501e-06
6.6121643e-06 5.656915e-06 5.984361e-05 2.1959673e-05 4.3370624e-06 2.4327137e-06 1.6022568e-06 0.0011648047
0.0012121947 0.00043917514 6.291863e-05 3.656991e-05 0.0012490638 0.00088117045 0.00014810122 4.6056117e-05
3.9101364e-05 0.0013602154 0.000607078 7.486588e-05 3.2160668e-05 2.828125e-05 0.0011906055 0.00036682046
6.9780224e-05 2.3237706e-05 2.3871311e-05 0.0009579413 0.00043326546 0.00011951463 7.296071e-05 5.9556292e-05
8.3082057e-07 4.7472645e-07 3.099156e-07 2.8207774e-07 1.9889144e-07 4.7234948e-07 1.9182511e-07 1.4749912e-07
5.6433223e-08 1.9666055e-08 2.4744693e-08 1.1142302e-08 1.1111591e-08 9.741963e-09 8.006398e-09 4.2132714e-10
5.3779586e-10 4.959815e-09 1.04247535e-08 3.3796898e-08 2.3683631e-08 6.636018e-08 1.3448283e-07 1.2956026e-07
1.1736155e-07 1.9160272e-07 8.981085e-07 3.423113e-06 6.6156126e-06 6.0345683e-06 2.835994e-07 1.2789059e-06
5.0047383e-06 6.4356122e-06 3.50201e-06 1.5415742e-06 3.7153266e-06 6.0904213e-06 5.5049695e-06 2.2976499e-06
2.1195906e-06 3.9293263e-06 6.677779e-06 4.5030088e-06 2.604792e-06 2.0672128e-06 4.0849386e-06 4.6334926e-06
2.4363667e-06 2.191214e-06

exp_avg f4 [10]
00000000: 1cc9 043c debd 08bd 8830 2430 575d 6eb8
00000010: 739b 0832 6723 fcbc 72f9 52bc 8fe5 dabb
00000020: 07ae 2531 ca32 6732
0.008104589 -0.033384196 5.973182e-10 -5.683055e-05 7.951587e-09 -0.0307786 -0.012876855 -0.0066801975
2.4109583e-09 1.3457518e-08

exp_avg_sq f4 [10]
00000000: 4a62 be3b 61ea 813b 3876 4d33 1d5e 0739
00000010: 5ace 5137 237e 323b e8a7 d938 b46e 1f3b
00000020: 93d7 d735 7e2e 0138
0.005810057 0.0039647077 4.78378e-08 0.00012909663 1.2505416e-05 0.0027235828 0.00010378641 0.0024327459
1.6081489e-06 3.0799296e-05

exp_avg f4 [20, 10, 5, 5]
00000000: 0621 ae2f ff00 fb2f 169a 2d30 8c51 2430
00000010: 2def b92f 1dab 972f 40e0 0630 f5e2 1c30
00000020: a165 0b30 a8c8 e22f 4484 2330 4641 4230
00000030: 6501 6330 4b85 b82f f0f6 1a2f 2c7d ef2f
00000040: 5d53 2830 3539 5230 a5e8 b72f dbd9 182f
00000050: 332c d72f 05dc 0c30 a757 6c2f 1aed e52e
00000060: 040e b02f 88a0 8e2f 257a 2e2f 9584 7e2f
00000070: d105 0e30 2c1e c42f 4fdc 282f 2d54 c72f
00000080: cb19 1d30 38e3 1830 3494 fb2e adea 772e
00000090: 3aad 1330 cc83 6030 f6e8 1f30 fac5 552f
000000a0: 6778 0130 eda3 7e30 2213 3130 3032 652f
000000b0: aedd 332f 6b88 4430 bf0b 6830 939e bd2f
000000c0: 3ad0 30ae c865 982f f78b 91ae efac 9cae
000000d0: 1e90 bead ac7e d82e 8c8a 092e 365b e02d
000000e0: 6d40 a1ae b7af e12e 5d84 122f 3b73 86ae
000000f0: 557d feae 280b 03af 3599 9a2f c4c6 142e
00000100: 2d78 a1ae 5fc8 93ab c2ea 882f 3869 cf2f
00000110: 2003 672e 6616 5aae c156 812f 09ae a72f
00000120: 95d2 bc2d 2d36 96af 8862 edae c507 802f
00000130: 0bb8 982f 5988 1a30 34a0 2c30 005f 1230
00000140: 1c16 d22e f2d0 5a2f 5ba0 ff2f b93e 1830
00000150: a1d6 5130 d47c ee2f 268f 2930 7450 8530
00000160: c60f 0e30 9643 9f2f 92e3 9c2e 2dca 9d2f
00000170: fea7 5f30 7f60 0430 2b70 a22f 60fa 282f
00000180: 78b4 d12f c525 ea2e 2d32 cb2e 1a5c fd2f
00000190: 57b2 4cae dbbd e92e daf7 8b2f 2975 a62f
000001a0: 11a9 042f aa51 062f 8793 892e 35a8 da2f
000001b0: ed65 b02e 33ed 3bae 5eaf 2c2f edb2 1b30
000001c0: 9c37 d72f a325 6b2e dc75 bcae 2f5e ca2f
000001d0: 729a 0930 7265 4c2f 3bdf 972e 45c6 c22a
000001e0: b04e b32f 1401 2d2e 3095 0daf a089 e52e
000001f0: 80ea 872f 6328 342e 2a86 c8ae da8e 97ae
00000200: 87a6 97ac 1ca3 0b2f e52d fe2e fc97 042f
00000210: 9105 cc2e c29c 862f 04b6 932f e747 81ae
00000220: 624b aa2e 4c23 442f 4a7a ba2f 37ef 952f
00000230: 6b75 272f 927e 942f c289 882f adf7 522f
00000240: 9195 002f 0a3b a12f 1736 992f 7c97 612f
00000250: 979a e62e ea61 4f2f c95f df2f c863 c02f
00000260: 6052 382f 496b a32f e67c f02f 4abd 872f
00000270: 21c1 8c2f 9440 3d2f daac 3f30 2c83 0c30
00000280: 8583 b62f 554b 942f 6e3e 3830 27f2 9930
00000290: 249d 2930 ea1f 1f30 aded 2330 abd3 5930
000002a0: e252 5d30 6f44 af2f 22d1 2b30 9bc3 1730
000002b0: c8ab 6330 7b88 d82f 1cf1 982e 0d68 a02f
000002c0: 26eb cf2f cbbb bf2f 962d e42f 13b4 2430
000002d0: ee32 e22f e074 1830 02e3 fb2f 8c2b 4d30
000002e0: c79a 2230 4d05 a92f 51a6 e42f 0728 f22f
000002f0: 79d2 8e30 833c 6c30 c1e9 0f30 09c7 1930
00000300: 0af7 0c30 3411 5e30 f4cf 3a30 c45d 1530
00000310: 8f5c f62f ced8 2b30 8b08 3030 f4e0 1030
00000320: dffe 682d b301 8ead 1535 262e f825 7d2e
00000330: 67df aaad 2a3d e92c 0923 ba2d d01f bbac
00000340: b662 90ae f0aa 25ad 19e4 642c ee99 2a2e
00000350: 0b96 402d d99d 53ae f9fe f22d 9723 b02d
00000360: b297 b5aa b9e8 79ad c2bd 3e2e 1b14 852e
00000370: 8124 c8ac e44e 632d e3d3 ff2d 3b57 912e
00000380: ea3a af2e a22a 702f fd1c fb2e 89d9 822f
00000390: 011c fe2f fc58 5c2f 103b 7c2e 5889 f82e
000003a0: 74ed d52f aa95 9e2f 360f 3b2f 7596 122e
000003b0: 1259 e82f 007b 4830 e003 892f feb5 d8ae
000003c0: ff5e 042e c6d5 f92f 56d8 2d30 cf10 482e
000003d0: e4eb ebad b610 ea2f 14e3 3d30 7617 d92e
000003e0: b94a 67af e08a 082f eb78 7f2f 03ff b82f
000003f0: 0ff7 b92f 11fa ce2f 4d0e 0830 5d0f a22e
3.167388e-10 4.5657342e-10 6.3156e-10 5.977874e-10 3.3821249e-10 2.7588323e-10 4.9067594e-10 5.7074995e-10
5.071233e-10 4.1251735e-10 5.9487015e-10 7.066955e-10 8.25841e-10 3.3564115e-10 1.4093948e-10 4.3562787e-10
6.123651e-10 7.647885e-10 3.345281e-10 1.3901717e-10 3.9139678e-10 5.124437e-10 2.1495215e-10 1.0455832e-10
3.2024172e-10 2.5943714e-10 1.5868602e-10 2.3148268e-10 5.1667565e-10 3.567363e-10 1.535778e-10 3.62577e-10
5.715292e-10 5.5620175e-10 1.1440485e-10 5.6369732e-11 5.372446e-10 8.167802e-10 5.817492e-10 1.9442573e-10
4.710103e-10 9.2637614e-10 6.4419414e-10 2.0845259e-10 1.6358712e-10 7.1498246e-10 8.44178e-10 3.4491573e-10
-4.020271e-11 2.772096e-10 -6.618699e-11 -7.124778e-11 -2.16645e-11 9.845044e-11 3.1273248e-11 2.5506357e-11
-7.332877e-11 1.02630286e-10 1.3325648e-10 -6.1140835e-11 -1.1572846e-10 -1.1918344e-10 2.8121297e-10 3.3827843e-11
-7.34278e-11 -1.0500592e-12 2.490506e-10 3.7727843e-10 5.2526095e-11 -4.9587355e-11 2.3526606e-10 3.0500782e-10
2.1466643e-11 -2.7323335e-10 -1.0795015e-10 2.3288585e-10 2.777941e-10 5.6218635e-10 6.28009e-10 5.3249494e-10
9.553622e-11 1.9901217e-10 4.649817e-10 5.538641e-10 7.6338763e-10 4.3380644e-10 6.168527e-10 9.69989e-10
5.1681714e-10 2.8969954e-10 7.134483e-11 2.8701788e-10 8.136566e-10 4.815845e-10 2.9547328e-10 1.5368462e-10
3.814511e-10 1.0647797e-10 9.240284e-11 4.6085874e-10 -4.6542627e-11 1.06293384e-10 2.5460062e-10 3.0278471e-10
1.2065395e-10 1.2216242e-10 6.256245e-11 3.9773487e-10 8.021659e-11 -4.2729553e-11 1.5705612e-10 5.664294e-10
3.9147785e-10 5.3466242e-11 -8.570186e-11 3.6810507e-10 5.005979e-10 1.8589733e-10 6.906339e-11 3.45989e-13
3.261582e-10 3.9336603e-11 -1.2876877e-10 1.04381614e-10 2.472298e-10 4.0963132e-11 -9.118779e-11 -6.8920605e-11
-4.3101664e-12 1.2699924e-10 1.1558735e-10 1.2059326e-10 9.277835e-11 2.448584e-10 2.6868474e-10 -5.879013e-11
7.7440956e-11 1.7838636e-10 3.3920095e-10 2.7272914e-10 1.5230277e-10 2.7010977e-10 2.483614e-10 1.9187381e-10
1.1694669e-10 2.932768e-10 2.786897e-10 2.0517449e-10 1.048665e-10 1.8861326e-10 4.0631523e-10 3.4995495e-10
1.6763968e-10 2.9725758e-10 4.374449e-10 2.4690855e-10 2.5603078e-10 1.7212393e-10 6.973103e-10 5.111811e-10
3.3199057e-10 2.697457e-10 6.702753e-10 1.1201039e-09 6.170515e-10 5.7889216e-10 5.963681e-10 7.924494e-10
8.0517115e-10 3.188094e-10 6.2506633e-10 5.521145e-10 8.2826235e-10 3.9387146e-10 6.9549894e-11 2.9177763e-10
3.7820164e-10 3.4876133e-10 4.150535e-10 5.9918753e-10 4.1145348e-10 5.546337e-10 4.5817933e-10 7.464045e-10
5.915521e-10 3.0744687e-10 4.1591133e-10 4.4047985e-10 1.039168e-09 8.594229e-10 5.235528e-10 5.594392e-10
5.1282767e-10 8.0787577e-10 6.7961925e-10 5.4339133e-10 4.4812906e-10 6.2517536e-10 6.404057e-10 5.270657e-10
1.3244266e-11 -1.6144286e-11 3.7791176e-11 5.7559263e-11 -1.9425973e-11 6.629049e-12 2.116131e-11 -5.3183916e-12
-6.5658964e-11 -9.41712e-12 3.2527368e-12 3.8790242e-11 1.0947253e-11 -4.8116042e-11 2.7625445e-11 2.0024689e-11
-3.2257319e-13 -1.4205686e-11 4.3369537e-11 6.051711e-11 -5.6883946e-12 1.2920973e-11 2.908424e-11 6.609332e-11
7.968544e-11 2.1843019e-10 1.1419308e-10 2.380143e-10 4.622223e-10 2.0040497e-10 5.7350624e-11 1.13021315e-10
3.8913195e-10 2.8846375e-10 1.7012955e-10 3.333019e-11 4.2263842e-10 7.293437e-10 2.4922908e-10 -9.854871e-11
3.00977e-11 4.544473e-10 6.3244465e-10 4.5489664e-11 -2.6821163e-11 4.2576226e-10 6.9080497e-10 9.872185e-11
-2.1035874e-10 1.2418466e-10 2.3235074e-10 3.3650602e-10 3.382685e-10 3.7648865e-10 4.9496834e-10 7.369636e-11
