lightning_logs/version_15/checkpoints/epoch=2-step=138.ckpt (torch, 273474 bytes, 24 tensors)

conv1.weight f4 [10, 1, 5, 5]
00000000: afed 303d 7a37 66be 33e5 cfbd 46bc af39
00000010: 2910 91bd 6d3f 2cbe 63d0 cdbc f1d8 aebd
00000020: 6777 9fbe 0137 fdbd a8f1 23bd 9c1d 24be
00000030: d745 0abe 1e2b a0be 940f 3cbe a45b 9cbd
00000040: ad18 62be b2f1 76bd fa37 a9be 5056 8ebe
00000050: a2e5 bbbd 5e1d debc 7aa8 1fbd 8682 62be
00000060: b3b1 66be a1bc 70bd d431 543d cb17 9abe
00000070: 7d13 40bd fcb7 1ebe b217 57be 18e2 a43a
00000080: 801e 86be f102 eebd 01b6 7fbe 99b0 aabc
00000090: 0da9 a5bc dcba df3c 7928 0a3d 0c0a 70be
000000a0: caa2 78be d8f3 dd3c 32ce 88be 2a21 8dbe
000000b0: 1c76 c83c 85af ff3b d0ec 9bbe ff0c c03c
000000c0: 3fac 26be 8179 41be 17e4 92be 725c 7cbe
000000d0: 224b acbc 7d4b 98be b51a 5fbe baf5 63be
000000e0: a716 d9bb 5cde e13c 8565 4fbe 7543 d1bd
000000f0: c1a7 1abe 2abe 6dbe 6147 8ebb 6b02 3abe
00000100: acdf 56be eece 8ebe 93a6 5f3d 8839 70be
00000110: e6e0 233d 0ad6 f6bd e732 433d 0ed0 06be
00000120: d5f0 5fbe c000 abbd 123e 90bd d81b d8be
00000130: d602 bcbd f5ed 64be f354 c9be 9fd8 4dbe
00000140: 639c e8be 5d90 24be adb2 2bbe 0d06 86be
00000150: 4cba dcbd dccd d4be ed4a 03be 5191 97bd
00000160: 1b44 4ebd 71de d1bd 7c3e 81bd 5430 2bbe
00000170: d0e1 8abe 2ea5 bebd 8aa4 60be 0b46 bd3d
00000180: 563f a13d 3dc5 e83c 0f57 38be 52c4 58be
00000190: 8671 acbd 6d34 043d 8c39 05be f5bf b93e
000001a0: 42db 873e 75a4 5cbe 13d8 163e 90da 613e
000001b0: 8cbd a0bc 2368 ed3c 6b0c 34be 801d 1f3e
000001c0: bd9d 923d 4855 13be 7b7c 3cbe 86fc eebe
000001d0: 3ebe 3fbe 9041 ddbe a194 cbbe 85e0 d6be
000001e0: 270a 11bf 753a 04bf cd2e f1be 8358 80be
000001f0: 7656 02bd 11f3 31be fa1a df3c eeff 49be
00000200: 0cdf 32be dd55 5cbe 14da 8dbe a893 a9bd
00000210: 7a50 3abe a740 9bbe 76a1 acbe ed28 44be
00000220: ef77 2dbe 1c88 95be 291c ccbd a368 fabe
00000230: 2efd 983d b59e e3be b205 55be 6805 a2be
00000240: d272 d3be 6a47 9e3e 28ee 753e 1b11 5c3e
00000250: e864 d7bc 8ddf e73b 33c8 49be 52ea a4be
00000260: a5ac 1dbe a79d 573c 5057 42be 9d9e 61be
00000270: ed7b 52bd 1d05 563d bfe4 d43c 0af8 b13c
00000280: a7ca 2dbe cae3 143d 5b55 72be 0030 343d
00000290: 07b4 503d afe5 a2bd 2d56 2ebe e42f 42be
000002a0: 0677 03be b434 6d3d ff63 023d 9741 84be
000002b0: f4b2 a63c 0b28 37be 2d92 65be 504e 533e
000002c0: 74c4 253e 8407 ecbc 1d3c 403e cf78 bf3e
000002d0: 5ed2 e73b 671c 72be b87d c0bd b93c 41bd
000002e0: 0868 8ebd 5ae8 493d 7a8c 6dbd 336f 07be
000002f0: 6b51 afbe 3d59 61be fe23 e4bc 5e11 ee3c
00000300: dc1f 8dbc 6b74 d0be 443c db3c 3fd5 45be
00000310: 3456 7dbe d52d 9cbe 25c0 7cbe b951 94be
00000320: 8c11 963d bdbd 64be b74f 8b3c dc6b aabc
00000330: ed8a 3ebe 28c1 83be ef08 953d 1ff2 29be
00000340: 8030 5abe 6a19 babe ed35 b2bd f6ef e13d
00000350: 481c 07be d362 86be abea ee3c 80e0 cebd
00000360: c1cc 63be 8661 d0bd 7d76 a3be f389 743d
00000370: 030d efbe 168b 26be 52d5 3dbb 2852 94bd
00000380: a163 933e a3fc b1be 4369 1cbe 9bb3 81be
00000390: 4f8b dabc 0295 95be f404 64bd d7f6 a33b
000003a0: 241c 0c3c a50b dcbd 2e50 a0be 9668 43bb
000003b0: 03a7 f8bd 3b5d 37be c15d f1bd b22a ef3d
000003c0: 1659 7bbe cfab 2cbe 9ed8 69be 2c8c 86be
000003d0: 3815 6ebd 13c9 2bbe a00d 92be b863 cb3c
000003e0: df1e 023d e2e3 f3bd
0.043195423 -0.224821 -0.10151138 0.00033518876 -0.070831604 -0.1682107 -0.02512378 -0.08537472
-0.31145784 -0.12364007 -0.040025383 -0.1602692 -0.13503204 -0.31282896 -0.18365318 -0.076346666
-0.22079726 -0.060289092 -0.3305052 -0.27800226 -0.09174658 -0.027113613 -0.03897903 -0.22120103
-0.22528724 -0.05877364 0.051805332 -0.30096278 -0.046893585 -0.15499872 -0.21005133 0.0012579588
-0.26195145 -0.11621655 -0.24971773 -0.020836161 -0.020222211 0.027310781 0.033730004 -0.23441333
-0.24280849 0.027093813 -0.26719815 -0.27564365 0.024470381 0.007802906 -0.3045411 0.023443697
-0.16276644 -0.18894006 -0.28689644 -0.2464464 -0.02103192 -0.29745093 -0.21787532 -0.22261706
-0.006625015 0.02757185 -0.2025357 -0.102179445 -0.15103056 -0.23217073 -0.004342005 -0.18164985
-0.20983762 -0.2789225 0.054602217 -0.23459446 0.0400094 -0.120525435 0.047655966 -0.13165304
-0.21869214 -0.083497524 -0.07043089 -0.42208743 -0.091802284 -0.22356398 -0.39322624 -0.20102166
-0.45431814 -0.16070695 -0.16767378 -0.2617649 -0.10777721 -0.41563308 -0.1282155 -0.07400764
-0.05035792 -0.102475055 -0.06310746 -0.16717654 -0.27125406 -0.09308849 -0.21937767 0.09241875
0.078734085 0.028414363 -0.1800196 -0.2116864 -0.084200904 0.03227656 -0.13010234 0.36279264
0.26534468 -0.2154711 0.14730863 0.22056031 -0.019621633 0.02898032 -0.17582862 0.15538597
0.071589924 -0.14388001 -0.1840686 -0.46677035 -0.18724915 -0.43214083 -0.39761832 -0.4196817
-0.56656116 -0.516517 -0.4710602 -0.2506753 -0.031820737 -0.17377879 0.027234543 -0.19726536
-0.17467898 -0.21517129 -0.27705443 -0.08280116 -0.18194762 -0.30322763 -0.33716935 -0.19156237
-0.16940282 -0.29205406 -0.099663086 -0.48907956 0.07470165 -0.4445702 -0.20802954 -0.3164475
-0.41298538 0.3091386 0.2401663 0.214909 -0.026293233 0.00707621 -0.19705276 -0.32210022
-0.1539789 0.013160146 -0.1897862 -0.22033162 -0.051387716 0.05225097 0.02598798 0.02172472
-0.16971837 0.03635005 -0.23665373 0.04399109 0.050952937 -0.07953965 -0.17025061 -0.18963581
-0.12838373 0.05791159 0.031833645 -0.2583129 0.020349003 -0.17886369 -0.22419043 0.20635343
0.16188222 -0.028812177 0.18772931 0.37396857 0.0070746383 -0.23643647 -0.09398979 -0.04717705
-0.06953436 0.049293853 -0.057995297 -0.13226013 -0.34241804 -0.22006698 -0.027849194 0.029061016
-0.017227106 -0.4071382 0.026762135 -0.19319628 -0.24739915 -0.30503717 -0.24682672 -0.289686
0.073275656 -0.22338004 0.017005784 -0.020803384 -0.18607683 -0.25733304 0.072770946 -0.16596268
-0.21307564 -0.36347514 -0.08701692 0.11032097 -0.13194382 -0.26247272 0.029164633 -0.10101414
-0.22246076 -0.10174851 -0.31926337 0.05970187 -0.46689615 -0.16263995 -0.002896626 -0.072422326
0.28786948 -0.3476306 -0.15274529 -0.2533234 -0.026677756 -0.29215246 -0.055668786 0.005003791
0.008551631 -0.107444085 -0.31311172 -0.0029816977 -0.1214123 -0.17906658 -0.1178546 0.11678065
-0.24545702 -0.16862415 -0.22836539 -0.26278818 -0.058125705 -0.16775922 -0.2852602 0.024827823
0.031767722 -0.119086996

conv1.bias f4 [10]
00000000: 1867 96bd 89c5 89bd 3fb1 58be 6464 4c3e
00000010: be58 21bd 516a fbbd cb87 7ebe e5cd cc3d
00000020: 3ccc 11bd 6087 21be
-0.07343882 -0.0672713 -0.21161364 0.19960171 -0.03939127 -0.122761376 -0.24856488 0.10000209
-0.035595164 -0.15774298

conv2.weight f4 [20, 10, 5, 5]
00000000: 9193 1ebe 70b3 3cbd a5ee f0bd 8739 f1bd
00000010: 530b acbd e4ec 3dbe 2b13 60bd 7c97 1fbd
00000020: 7205 b2bd ebdf 3dbe 3185 0cbe bd58 19bd
00000030: 35a6 37bd e5ac b6bd 6307 04be 9520 c8bd
00000040: 1764 c9bd 8b31 9dbd 4bbc 37bd bad1 c2bd
00000050: 8bd1 04be 62a9 5cbd 0e58 bbbd faef 37be
00000060: ee1b 28be a227 b5bd 6757 75bd 7868 b9bd
00000070: 3860 76bd fb76 4cbd ea6e f0bd f53a babd
00000080: e292 d6bd fea4 ebbd b992 d1bd 578f cdbd
00000090: 3c79 98bd fee0 05bd 3564 12be 6bff 29bd
000000a0: a7a0 89bd f73e 02be 2bee 8ebd 9d02 d1bd
000000b0: 63b2 f4bd f51d 03be 8a28 14be 0235 b2bd
000000c0: 2895 20be 46fb abbd e219 dabc 4181 05be
000000d0: 0a96 1e3d 6309 49bd 0e8c c9bd c7a4 d7bb
000000e0: b981 efbd 04e2 123d ddb8 b7bc aeb0 853d
000000f0: c4e3 c03b 75b3 663d 038d 96bd baa0 123d
00000100: db77 b63c 15a2 30be a1e2 683a abac d03d
00000110: 99e5 df3d 0f65 ca3d 0e21 21bd e0a0 efbd
00000120: c9aa 6c3c 9f99 223e 5a93 263e e17b dcbd
00000130: 1ca5 a6bd 0815 95bd fcc1 a2bd 6064 16be
00000140: 84dc 68bd 4794 b7bd f6fa 75bd d7ac dfbc
00000150: 6655 97bd 2745 e6bd cb0d abbd 44cd debd
00000160: fba2 c9bd 4bb9 d8bd 9e0e 1cbd 9905 bdbd
00000170: d30d 1dbe d3ba 30be 4e84 1dbd 8bcb 58bd
00000180: e0b1 6abd 2b8c 13be b2cd 9cbd 85a7 19be
00000190: 5bfe 10be b85c 3bbd 4b42 d8bd 4779 39bd
000001a0: 57aa 923d c3b4 a5bd 03d2 4abd 8bb1 0ebe
000001b0: a09e 5bbe 2c0a d6bc 5777 44bd 6cbe d8bd
000001c0: 0e56 3fbe 0858 e3bd ad08 8bbd b7f4 5ebd
000001d0: 4fa6 b2bd d83c 12be 7874 d5bd eb14 1fbe
000001e0: 8165 f8bd c52e 94bd 124f fbbd 1ffc 52bd
000001f0: cb4c 0ebe f74c efbd 6803 fcbd 5a51 e0bd
00000200: 9a35 13be 8b84 0ebe a18b 19be 27d8 abbd
00000210: 3be8 12be da61 13bd 0b7f 12be 82ab 43bd
00000220: bc7d 75bd bc6b 02be 91b6 91bd 8f2b 25bd
00000230: 7f61 1dbe 128c f4bd 0230 46bd 0dd6 b4bd
00000240: b2e1 6ebd 1c32 dfbd 0bc7 01be 5dbf 9bbd
00000250: 040a 03be aed8 1abe d17d d0bd 01c6 08be
00000260: 9944 adbd c386 2ebd 7bf0 9ebd aae4 15bd
00000270: d961 cbbd e18d 14be da54 f0bc 1d04 eabc
00000280: a135 f7bd ea50 b9bd 65d6 7dbd f8b7 b2bd
00000290: dad3 d0bb 0322 adbd fad0 a7bd 5f03 9cbd
000002a0: a741 21be 09b7 95bd 1acb 2abe 9da0 04be
000002b0: d566 a1bd 41d4 bbbd 054b 93bd d610 0cbe
000002c0: 26a3 2ebe 869c 96bd 0455 d8bd 4dc8 47be
000002d0: c4e0 9fbd 0e9d 9cbd 9526 e4bd 55bf 1fbe
000002e0: 699a c1bd d84e 7bbd bff9 afbd fae7 d0bc
000002f0: 151c cebd 39fc 65bd c2a8 72bd a394 f3bc
00000300: e998 58bd f938 0ebe 8e24 c9bd 0b17 c1bd
00000310: e036 b5bd e66b aabd 2686 47be be41 d8bd
00000320: c621 b8bd 9ca3 b8bd c97d 94bd b866 1abe
00000330: 976e 77bd 3cfc c0bd eb1e 32bd d111 92bd
00000340: c5cf 0abe 9ab0 fdbd f757 1bbe 4805 bebd
00000350: 4a52 10be 2953 0fbe 2f61 eabd 43a6 97bd
00000360: 9d9a 56bd 0922 13bd fb3b a6bd 58f4 9cbd
00000370: f40c 3dbd b0e4 32bd 1a31 8abd e51a a8bd
00000380: 75ca a4bd 74ff 26be f7bd 5abe fb44 27be
00000390: fa78 00be 3658 f5bd 2a36 13be bf8b d7bd
000003a0: ef2d 06be 4529 15be aa18 63bd 946a 22be
000003b0: 2abe d1bd 6470 e2bd 9dcd e4bd 6276 d9bd
000003c0: 8b18 4abd a090 94bd dfc7 50bd 3347 06be
000003d0: ddf0 13be dc90 2dbe 2882 2bbe 9cb5 18be
000003e0: d89b 05be 3967 1cbe 2fc2 df3d 1952 b5bd
000003f0: 9780 9abd c969 00be 9913 00be 6977 6a3d
-0.1548598 -0.046069562 -0.11764268 -0.117785506 -0.084005974 -0.18547398 -0.05470578 -0.038962826
-0.08692445 -0.18542449 -0.13722683 -0.037438143 -0.04483624 -0.08919696 -0.12893443 -0.097718395
-0.09833544 -0.07675465 -0.044857305 -0.095126584 -0.1297056 -0.053872474 -0.091476545 -0.17962638
-0.16416904 -0.0884545 -0.059897806 -0.09053129 -0.060150355 -0.049918156 -0.11739905 -0.090932764
-0.104772344 -0.11506079 -0.10233063 -0.100371055 -0.074449986 -0.032685272 -0.14296038 -0.04150335
-0.06720095 -0.12719332 -0.06979021 -0.102055766 -0.11948087 -0.12804396 -0.1446859 -0.08701517
-0.15681899 -0.08397536 -0.02662367 -0.13037588 0.038717307 -0.049081217 -0.098411664 -0.0065809223
-0.116946645 0.035860077 -0.022427017 0.065278396 0.005886527 0.056323487 -0.073511146 0.035797812
0.022273948 -0.1724933 0.0008883868 0.10189184 0.10932464 0.09882557 -0.039338164 -0.11700606
0.014445015 0.15878914 0.16267148 -0.107658155 -0.08136961 -0.07279402 -0.07947156 -0.14686728
-0.056850925 -0.089638285 -0.060053788 -0.027304096 -0.07389335 -0.112436585 -0.0835224 -0.10878995
-0.09845539 -0.10582217 -0.038099878 -0.09229583 -0.15337305 -0.17258768 -0.038456254 -0.05292849
-0.05729854 -0.14408939 -0.07656421 -0.1500531 -0.14159529 -0.04574272 -0.105595194 -0.045281675
0.07161396 -0.08091118 -0.04951669 -0.13934915 -0.2144723 -0.026127897 -0.047965374 -0.10583195
-0.18685171 -0.11100775 -0.06788764 -0.054432597 -0.08723127 -0.14281023 -0.10422605 -0.15535323
-0.12128735 -0.07235483 -0.12270941 -0.051509973 -0.13896482 -0.11684602 -0.12305337 -0.109530166
-0.14375916 -0.13917749 -0.1499467 -0.08390837 -0.14346401 -0.03598199 -0.14306276 -0.047770984
-0.059934363 -0.1273641 -0.071149 -0.040324744 -0.15369223 -0.11940779 -0.048385628 -0.088298894
-0.05832071 -0.108982295 -0.12673585 -0.07604859 -0.1279679 -0.15121719 -0.101802476 -0.13356782
-0.084603496 -0.042608988 -0.07760712 -0.036595024 -0.09930772 -0.14507248 -0.029337335 -0.028566414
-0.12070776 -0.09048636 -0.06197204 -0.087264955 -0.006372911 -0.08453753 -0.08194156 -0.076178305
-0.157477 -0.07310302 -0.1667904 -0.12951894 -0.07880942 -0.091713436 -0.07192043 -0.13678297
-0.17054424 -0.07354073 -0.105630904 -0.19510002 -0.078065425 -0.07647143 -0.111401714 -0.15600331
-0.094532795 -0.061354488 -0.08592557 -0.02550124 -0.1006395 -0.05614874 -0.05924297 -0.029733961
-0.0528802 -0.13888921 -0.098214254 -0.09428223 -0.08848357 -0.08321361 -0.19484767 -0.10559414
-0.08990817 -0.09015581 -0.07250554 -0.15078247 -0.0604082 -0.0942311 -0.043486517 -0.071323045
-0.1355582 -0.123872 -0.15170275 -0.09278351 -0.14093891 -0.13996567 -0.114443175 -0.07404759
-0.052393544 -0.03592113 -0.08116909 -0.07663792 -0.04615493 -0.043675125 -0.06747647 -0.08208255
-0.08046428 -0.16308385 -0.21361528 -0.16334908 -0.12546149 -0.119797155 -0.1437613 -0.10524701
-0.1310346 -0.14566524 -0.055443443 -0.15860969 -0.10241349 -0.11056593 -0.1117203 -0.10618283
-0.049339812 -0.072541475 -0.050971862 -0.13113098 -0.14447351 -0.1694979 -0.1674887 -0.14913028
-0.13047731 -0.15273751 0.109257095 -0.088535495 -0.07544058 -0.12540354 -0.12507476 0.057242785

conv2.bias f4 [20]
00000000: 3c55 dfbd 301d dabd aa50 30be bcce 13be
00000010: 5c08 8cbd 0e24 dbbd 1694 e5bd 5b48 97be
00000020: b642 03be 2fc3 8bbd f6f3 e8bd ff31 97bd
00000030: 593b 95bd f395 92be 47d2 b5bd be90 b1bd
00000040: ccc0 ce3e 7e76 11be 538f 52be 1c2c 1bbe
-0.10904929 -0.10650098 -0.17218271 -0.14434332 -0.06837532 -0.10700236 -0.11209886 -0.2954739
-0.12818417 -0.06824338 -0.11374657 -0.07382583 -0.0728671 -0.28630027 -0.08877998 -0.086701855
0.40381467 -0.14205357 -0.20562486 -0.15153545

fc1.weight f4 [50, 320]
00000000: 672c 13be 3204 07be 5c01 0bbe 99c9 27be
00000010: 46b0 ddbd 8604 a0bd 0d24 d9bd 63ca bbbd
00000020: 3f9a ccbd 9bfe d7bd 116a bfbd bbdf f7bd
00000030: 77a8 0bbe 5eeb 26be 064d d5bd 33cc d0bd
00000040: 66bc 3dbe 55f3 c7bd ab8d 81be 3df0 31be
00000050: c4b8 c53e 3d34 75bd 3937 debe 0cfe b13e
00000060: 239a 523e a80e 2c3e b418 4dbd 7ae1 163e
00000070: 2ab2 5ebe 762b 19bd c856 083f dafc ffbc
00000080: 7e62 18be 89d1 b3bd 29d9 c4bd 65c8 c8bd
00000090: 4ca7 86bd cd1d 09be 28ef bebd 78fa d4bd
000000a0: 2afa 3bbe 0772 aabd aad4 83bd 1f94 0ebe
000000b0: af74 04be bf93 febd 1ff3 86bd a34e 67bd
000000c0: abaf 2d3b 356d 4abb f380 bebb f9b4 72bd
000000d0: acdc cfbd 444c 42bd 5073 25be 477d 66be
000000e0: 6bee b4bd a973 14be 82d2 24be 4122 acbd
000000f0: 54ac 35be 7575 76bd 7178 9ebc cd73 c4bd
00000100: 33dd 89bd 149f e0bd d393 c1bd b06b 07be
00000110: 66ac 2fbe 121a 71bd fd11 ddbc b3bf e9bd
00000120: e8ab 36bd 3e63 e4bd cbb4 3ebe 6efc c3bd
00000130: 19e7 acbd 1f78 10be 89c7 c4bd f300 a4bd
00000140: 18cd 213d e47a cc3c fede e5bc 68dd d23c
00000150: da9f be3d e8ed c53b 00cf 1fb9 2a78 60bd
00000160: 67e3 313e 7da0 91bd a07a af3a e450 d1bd
00000170: 97d6 f63d fa40 0cbe 4746 b33d 0065 a639
00000180: ef31 0abe 1420 32be c641 f3bd 3342 28be
00000190: 657e 49be aa1a 07be 2332 65bd a094 52be
000001a0: 501e 46bd 54d0 f5bd b60c 17be 3955 d7bd
000001b0: c6b8 36be 4b37 a2bd b510 48be f25d fabd
000001c0: 748b 1bbe 5fd6 a1bd c572 103e 8f37 2cbe
000001d0: e237 aebd d95f d4bd aecb b53d e6ae dfbd
000001e0: 25b1 01be c367 93bd d3ef 023e 1e17 633d
000001f0: 6223 e4bd 40c5 213e 9a19 fbbd bed0 1b3d
00000200: 008d 113c 1902 5fbd 6852 253c a9f9 0c3e
00000210: 0cd5 3ebd b17e 9ebd acd7 8a3d fa84 173e
00000220: fa3b 923d 8a40 03be b117 f63d f413 e53d
00000230: 1f62 babd f624 07bd c7dd 223e 3c34 083e
00000240: 6453 e2bd ac45 2e3c 5f6c 38be 6719 f3bd
00000250: d113 e0bd cd38 10be 0c93 bcbd 24d4 29be
00000260: d3b2 0abe 9897 01be 16f0 31be 117d 10be
00000270: f41c 22be c37f 4fbe 0dde 48be 60a1 17bc
00000280: 9634 20be 2b7f 45be 39c9 13be 0031 35be
00000290: a78f 3fbe 426d c7bd a346 2ebe cf3f 0bbe
000002a0: c8dd 8bbd 7207 29be c66d 19be 8d1b 1bbe
000002b0: 4cc1 e7bd 020e 14be 65ca 19be 52e2 31be
000002c0: 02c3 96bd 48f3 08be 0c56 0abe 1521 cabd
000002d0: 2eaa 31be 651f bcbd ee4e b0bd 1916 17be
000002e0: 4a91 0bbe d41a 98bd ac1a 29be dd3c 29be
000002f0: 4d3e aebd 5a00 1abe c2a3 cbbd da32 06be
00000300: a1e2 223d a5c2 8cbe 68fe afbe ac7b 23bf
00000310: cb50 263f 0d3e 653e 430a bb3d 8b0f da3e
00000320: 0ac1 40be 2877 53bd d7e5 523e d454 333e
00000330: cc9a 573e f552 80be 9029 15bf 3fa3 e4bc
00000340: 70e6 24be 22e0 05be de24 a6bd 1448 cf3c
00000350: d26b bebd 174e 0f3e c576 063e 108e 373c
00000360: 25f0 17be f6f1 b93d 0657 01be 33b6 48bd
00000370: 3dfc 16be 25a5 d63d d421 5dbd e8e3 103d
00000380: 0945 18be 3fd3 73be e9fd babe 7641 d7be
00000390: 2607 42bd 1b25 eb3c 60a4 a8bd 6800 a03c
000003a0: 6458 bb3e 5f99 4c3e ca07 c73d 704c ba3e
000003b0: 31f3 f5be a747 98be c209 03bf 8a15 0ebf
000003c0: e447 d1bd d730 17be a787 fbbd e2af b0bd
000003d0: e953 c8bd db81 0abe 2108 a8bd f0c5 dabd
000003e0: fd19 04be 5b92 97bd 8ba2 c9bd be5e e8bd
000003f0: 5610 b4bd efd9 b1bd 8721 95bd 50ee 1ebe
-0.14372407 -0.13185194 -0.13574737 -0.16385497 -0.10824637 -0.07813363 -0.10602579 -0.091694616
-0.099903576 -0.10546609 -0.093464024 -0.1210322 -0.13638483 -0.16300723 -0.10415082 -0.10195198
-0.185289 -0.09763209 -0.25303397 -0.173768 0.38617527 -0.05986427 -0.43401507 0.34764135
0.20566611 0.16802466 -0.050072387 0.1473445 -0.21747652 -0.037394963 0.5325742 -0.031248499
-0.14881322 -0.087802 -0.096117325 -0.09803847 -0.06574878 -0.13390274 -0.09322959 -0.103993356
-0.18357149 -0.0832253 -0.06437047 -0.13923691 -0.12935136 -0.12430524 -0.065893404 -0.05647148
0.0026502411 -0.0030887846 -0.005813712 -0.05925462 -0.10149512 -0.047436014 -0.1615727 -0.22508727
-0.08834537 -0.14497246 -0.16095927 -0.08404971 -0.17741519 -0.06017061 -0.01934454 -0.095924
-0.067316435 -0.10967842 -0.09452023 -0.13224673 -0.17155609 -0.058862753 -0.026986117 -0.11413517
-0.044597536 -0.111517414 -0.18623655 -0.095696315 -0.08442516 -0.14108323 -0.09608371 -0.080079935
0.039502233 0.024960943 -0.028060433 0.02574034 0.09307833 0.0060403235 -0.00015240535 -0.054802097
0.17371903 -0.07110689 0.0013387986 -0.10220507 0.120526485 -0.13696662 0.08753639 0.00031737238
-0.1349561 -0.1739505 -0.1187778 -0.16431503 -0.19677122 -0.13193765 -0.055956017 -0.20564508
-0.048368752 -0.12002626 -0.14750943 -0.10514302 -0.17843923 -0.079207025 -0.19537623 -0.1222495
-0.15189916 -0.07902216 0.14106281 -0.16818069 -0.085067526 -0.10369844 0.088767394 -0.10922031
-0.12665232 -0.07197525 0.12786798 0.05544197 -0.11139561 0.15797901 -0.122607425 0.03804087
0.008883715 -0.05444536 0.010090448 0.13767113 -0.046589896 -0.07739008 0.067794174 0.1479682
0.07140346 -0.12817588 0.120162375 0.111854464 -0.09100746 -0.032994233 0.15904914 0.13301176
-0.11051062 0.010636728 -0.1801009 -0.118700795 -0.1094128 -0.14084168 -0.092077345 -0.16584831
-0.13544779 -0.12655485 -0.17376742 -0.14110209 -0.15831357 -0.20263581 -0.19615956 -0.009254783
-0.1564506 -0.19286792 -0.14432229 -0.17694473 -0.18707143 -0.09737636 -0.17019133 -0.1359856
-0.06829411 -0.16506746 -0.14983281 -0.15147229 -0.11316165 -0.14458469 -0.15018614 -0.1737149
-0.073614135 -0.13374054 -0.13509387 -0.09869591 -0.17350075 -0.091856755 -0.08608805 -0.14754523
-0.13629642 -0.07426992 -0.16514081 -0.16527124 -0.08507977 -0.15039197 -0.09943344 -0.13105336
0.03976691 -0.27492252 -0.34373784 -0.63860583 0.6496703 0.22386952 0.09132817 0.42589983
-0.18823639 -0.051627308 0.2059549 0.17512828 0.21055144 -0.2506329 -0.58266544 -0.027909873
-0.1610353 -0.13073781 -0.081125006 0.025302924 -0.09297909 0.13994633 0.13131244 0.011203304
-0.14837702 0.090793535 -0.12630853 -0.049001884 -0.14744659 0.104807176 -0.05398734 0.0353736
-0.14870085 -0.23811053 -0.36521843 -0.4204213 -0.0473701 0.028704217 -0.08234477 0.019531444
0.36590874 0.19980381 0.097182825 0.36386442 -0.48037103 -0.29742166 -0.51186764 -0.55501616
-0.1021879 -0.14764725 -0.12281733 -0.08627297 -0.097816296 -0.13526098 -0.082046755 -0.10682285
-0.12900539 -0.07400962 -0.09845456 -0.11346196 -0.08792178 -0.08684146 -0.072817855 -0.15520597

fc1.bias f4 [50]
00000000: 7af7 dd3b cbf7 48be b079 983e cff7 6fbe
00000010: 3309 3cbe c32f 80be 9420 a63d c9b8 6a3e
00000020: b7ca 51bd e01a 37be 9902 f8bd 7bee b63e
00000030: f6dc 9bbd 30d6 ce3d b2a2 003f 1444 a0bd
00000040: 078e 8ebe ac81 98be 32c0 4cbc 742f 473d
00000050: 01d8 8dbe 3a85 42be fbf8 d0bd 5dd5 81be
00000060: 31d6 61be 7376 fc3d f0cd 323e efe9 a63d
00000070: b730 34be f492 8f3e 5519 95be 4c3a 66be
00000080: 0459 073f 848a 173e a246 b4be a67f 8dbe
00000090: 6c8f 023d 0480 e4bd f39b bcbe 4c78 7fbd
000000a0: b1ff 71be e9f8 84be 5329 9abe e462 5ebe
000000b0: 4217 71be df81 c0bd 1156 ccbd 3dd0 babc
000000c0: 8847 3dbe ad3c 92be
0.0067738863 -0.19625776 0.2978034 -0.23434375 -0.18362884 -0.2503644 0.081116825 0.22922052
-0.051218715 -0.17881346 -0.121098705 0.3572882 -0.07610504 0.10099447 0.50248253 -0.07825485
-0.27842733 -0.29786432 -0.012496995 0.04862924 -0.2770386 -0.18996134 -0.10203739 -0.25358096
-0.22054364 0.1232728 0.17461371 0.08150088 -0.17596708 0.28041804 -0.2912089 -0.22483176
0.528702 0.14798933 -0.3521014 -0.2763645 0.03187506 -0.111572295 -0.3683773 -0.062370583
-0.23632695 -0.25971153 -0.30109653 -0.21717411 -0.23544028 -0.09399771 -0.09977353 -0.022804374
-0.18484318 -0.28561917

fc2.weight f4 [10, 50]
00000000: 5817 40bf f850 46be 20e8 46bf 9c86 f0bd
00000010: 3348 8fbc 29d1 a53d 3de1 923e 8d74 55be
00000020: 387c b8be eace 663d 0e14 4fbd c54f ac3e
00000030: 8428 edbe 77c4 6c3c dcad 87be 0a91 e5be
00000040: dbdd e7bd c60b 5fbe f7aa c03e 6fcd 923d
00000050: d2ac 033e fb56 c4be e4b2 c23d 391f a6be
00000060: 550d a03d ac43 b23e 10c9 213b 0ae6 aebe
00000070: ce29 7abd 1265 8dbe 77b1 703d 4e0d c03e
00000080: b3d8 08bf a0c4 0fbf 2d87 2bbd d0e2 82be
00000090: 53bc aabe b693 a2be 76d3 a33d 84a7 3ebe
000000a0: f3e7 48be 2c3e 153d 5e75 383e 5765 1bbd
000000b0: 66cf d7bd a802 2f3d dab5 723e 1adf 9abe
000000c0: 00b6 9a3e 9fcb f7bd 627a 72bf 1b34 a0bf
000000d0: c278 3b3e 6b5f 06bf a80b 2bbe ad96 bdbe
000000e0: 0304 dd3d 26fb 9c3e f79c cf3e f654 01be
000000f0: d0b3 843c 589e bb3e 6536 90bf 9459 ebbe
00000100: 1eb9 193f a5f5 943e 6e64 4d3e 8d9a c5be
00000110: d2dd b3be 7297 523e a9c6 18bd 4927 b83d
00000120: 33e2 14bf 5476 d53c cea5 e6be 74bb 0bbf
00000130: 40cc b5bd 3e2f aebe 7732 24bf 94e6 b83e
00000140: e174 81be 3bb1 4cbd 94ca 153f 26a5 37bf
00000150: 1ba2 09be fde0 bdbd c631 91be 66f1 27be
00000160: 7c8a 04bf 9995 abbe d64e b8be d553 c23c
00000170: b54c 43be fa8b 0f3b 0d9b 2bbe 3088 3abd
00000180: 35ae 22bf cb74 65be dc7b 4abf 1ea5 2dbf
00000190: df06 cabe 1557 c13d 30c4 edbd 3f8e b7bd
000001a0: d058 a0be eb34 473e 91e5 06be 121a 5dbd
000001b0: 742d f83c ed91 17be 2966 983e 3457 dd3d
000001c0: c17b 883e da54 4bbe 7822 0ebd fe35 acbe
000001d0: a8d4 f93e 4b7b 9fbd 860e e8be 4691 8e3e
000001e0: a0d1 48be fdde 64be b848 82bd c0b1 0b3e
000001f0: 56eb 1b3e d4db 0cbe efc0 3e3e f6a0 05bf
00000200: 6eb1 97be 66b3 2c3e 0bde 183e f930 86be
00000210: 1318 2a3e fdf0 f0be c800 57bd 6122 acbe
00000220: 26f0 94bd a370 173e b9f9 803b b267 6ebe
00000230: 9fec 703e 63b1 5fbe 2391 7fbe 8fbb e13d
00000240: 86d2 91bc e1bd 013e 2b19 873e 0517 f2bd
00000250: fdc8 1cbd 1838 34be bdb6 b5be fa07 143d
00000260: 60d3 ffbd 37b8 50be a320 663e b8ac 02be
00000270: ac2b dbbe 3c99 80be d189 3cbe 4f26 f33c
00000280: 5445 923c 6464 87be 4540 3dbe 0ade 453e
00000290: f537 94be 2faf c6be a9ae 803e 71f0 a83e
000002a0: 3a19 64be 307e aebe 15c9 c3bd ac22 373e
000002b0: c9e5 b8be 1fc8 2e3e e659 bcbc 8370 bebe
000002c0: 12c9 303e c0ba 91bd cede 873e 5406 debd
000002d0: 48bf 8c3e 4b7e cdbd ec19 9cbe 5929 233c
000002e0: 8317 a5be dc6b 723e 6070 e9bd 1637 b73e
000002f0: 59ed 043e 5658 20be e4e4 6f3c 591c 873d
00000300: 1a66 263e 00ff 3d3e 6fcd 8b3e 86bb d03d
00000310: 770a ebbd c5d2 ce3d 9e88 5bbe c001 d9be
00000320: 42c9 643e 4f5e 12bf d67b 8f3d c38b 18bf
00000330: fdb7 02bd 0274 553d 761e 60bd d70a 0bbe
00000340: 100d 4bbe 025e fbbd 0c8c 03bf fe30 dabe
00000350: c067 393e ee16 ad3c 30d1 853c a2f9 413e
00000360: c9bb 3dbe 5818 81be 4b15 94be 2344 a9be
00000370: d318 a9be 22a3 903e 3fd2 2cbe 1401 38be
00000380: 8f95 d4be 684f d1be fa27 2ebf 3b36 463e
00000390: 90ec 253e e705 f0be 2d5a 71be 860a 63bf
000003a0: cdec 38bd fa05 b33d 0849 8b3d a20f 653e
000003b0: f554 c43e 37c5 543d afd1 8dbe 0b27 b23e
000003c0: 369d 313e 8aa2 07bd 5619 76be 3f9a 37bd
000003d0: 3dc5 84be bb1e 7bbf 29ec edbe 114b aabd
000003e0: 788e 3cbe 48e3 7abd 970f 84be 9a37 92be
000003f0: 85f8 1abe 9a68 763d 41f8 693e e65e 25bf
-0.7503562 -0.19366825 -0.77697945 -0.11744425 -0.017490482 0.08096535 0.28687468 -0.20845242
-0.3603227 0.056349672 -0.050556235 0.3365461 -0.46319973 0.014451138 -0.26499832 -0.4483722
-0.113216124 -0.21781835 0.37630436 0.071680896 0.12858894 -0.3834761 0.09506777 -0.32445696
0.07815043 0.34817255 0.0024686493 -0.3415988 -0.061075024 -0.27616173 0.058762994 0.3751015
-0.53455657 -0.561594 -0.04187696 -0.2556367 -0.33346805 -0.3175332 0.07999317 -0.1861859
-0.19619732 0.036436245 0.18013522 -0.037938442 -0.10537605 0.042727143 0.23702183 -0.30248338
0.3021698 -0.120993845 -0.9471799 -1.2515901 0.18307784 -0.52489346 -0.16703665 -0.3702902
0.10791781 0.3066036 0.40549442 -0.12630066 0.016199023 0.36644244 -1.12666 -0.4596678
0.6004809 0.29093662 0.20057842 -0.38594475 -0.35130173 0.20565584 -0.037298832 0.08991868
-0.5815765 0.0260574 -0.45048374 -0.54582906 -0.08876848 -0.34020418 -0.64139503 0.36113417
-0.25284484 -0.049973708 0.58512235 -0.7173637 -0.13440745 -0.09271429 -0.28358287 -0.1640068
-0.5177381 -0.3351257 -0.35997647 0.023721615 -0.1907223 0.00219035 -0.16758366 -0.045540035
-0.6354707 -0.22407834 -0.79095244 -0.67830074 -0.39458367 0.09440438 -0.116096854 -0.08962678
-0.3131776 0.1945378 -0.1317351 -0.05397994 0.030295111 -0.1480176 0.29765442 0.10807648
0.26656917 -0.19856587 -0.03470084 -0.33634943 0.48795056 -0.07787188 -0.4532358 0.2784521
-0.19611216 -0.22350688 -0.06361526 0.13642025 0.15226492 -0.13755733 0.18628286 -0.5219873
-0.29627556 0.1686531 0.14928453 -0.26209238 0.16610746 -0.4705886 -0.05249098 -0.3361998
-0.07272367 0.14789061 0.0039360193 -0.23281744 0.23527764 -0.21845011 -0.24957709 0.11022102
-0.01780058 0.1267009 0.2638639 -0.11820797 -0.038277615 -0.17599523 -0.3549098 0.03614042
-0.124914885 -0.20382772 0.22473387 -0.127612 -0.42806756 -0.2511691 -0.18411948 0.029681353
0.017855324 -0.2644378 -0.18481548 0.19322982 -0.28948942 -0.3880553 0.25133255 0.32995942
-0.22275248 -0.34080648 -0.09559838 0.1788432 -0.36112812 0.17068528 -0.022992086 -0.37195215
0.17264202 -0.07115698 0.26537174 -0.10841051 0.27489686 -0.10033854 -0.30488527 0.0099585885
-0.322445 0.23673958 -0.11398387 0.35784215 0.12981166 -0.15658697 0.014641974 0.06597204
0.16249886 0.18554306 0.2730517 0.10192017 -0.114766054 0.10098795 -0.21438834 -0.42384148
0.22342399 -0.57175153 0.07006042 -0.5958826 -0.031913746 0.052112587 -0.05471655 -0.13578354
-0.19829202 -0.1227379 -0.5138557 -0.42615503 0.18105984 0.021129098 0.0163351 0.18942884
-0.18528666 -0.25213885 -0.28922495 -0.33059797 -0.33026752 0.2824946 -0.16877078 -0.17969161
-0.41520354 -0.40880895 -0.6802975 0.19356625 0.16203523 -0.46879503 -0.23569556 -0.8868793
-0.045147706 0.08741374 0.06801039 0.22369245 0.38346067 0.05194589 -0.27699038 0.34795412
0.17345127 -0.033113994 -0.24033102 -0.044824835 -0.2593173 -0.98093766 -0.46469238 -0.08315099
-0.18413723 -0.06125191 -0.25793144 -0.28558046 -0.15133865 0.06015835 0.22848608 -0.6459793

fc2.bias f4 [10]
00000000: 0c39 a2be 8b37 b83e 6c47 aebe 64cc 8fbe
00000010: b011 5d3e 13f2 283e 5eb7 b5bc bb8b 08be
00000020: 4dbc fb3b e941 6a3e
-0.31684148 0.35979876 -0.34038866 -0.28085625 0.21588778 0.16498594 -0.022182163 -0.13334553
0.0076823593 0.22876705

exp_avg f4 [10, 1, 5, 5]
00000000: 15f9 fc31 8dde 0132 5a9c f431 aa8a ba31
00000010: a28c 9c31 4928 0132 a9cd 0132 c9af be31
00000020: c93d 4731 924c 2531 c75b fd31 0a42 d031
00000030: f791 7831 d6c9 8330 d26b 5e30 9df0 dd31
00000040: 21b9 b331 f987 4331 00d7 0430 4440 e52f
00000050: 0faf cb31 8bf7 bb31 6f1d 5431 7f52 6a30
00000060: f52e 9330 8c7a 0b32 916d 1832 ae40 f331
00000070: e919 fe31 2107 d231 7df5 0c32 9ea5 2532
00000080: d557 0e32 0666 fe31 6e74 c331 e519 1c32
00000090: 7af9 3832 8214 2732 0e5c 0832 aaba d731
000000a0: 830a 0832 b8b7 1a32 9672 f931 f00d e431
000000b0: 4946 0932 ac8c fc31 8d42 eb31 281e 0232
000000c0: 23b4 f931 4ea1 0732 d830 952e 1262 b22f
000000d0: 5016 3b30 bbb5 1030 87fb d72f c1e5 0e2b
000000e0: d846 c22f 7f58 5c30 95fd 1530 e4e7 ca2f
000000f0: 3a63 bb2e b9ce b42f 986f 4430 42ec 4730
00000100: 2ca2 1330 ed2e 0b2e 3429 592f 4f90 eb2f
00000110: 23a0 7730 d9a3 6830 09fe 30ad e492 542e
00000120: e5ea 5e2f 1db5 4730 5eb6 7030 ad53 76bb
00000130: 10d9 79b9 bff3 643a 6d72 c1b9 e8c5 f738
00000140: ec33 a5b8 0738 17b9 3ae9 b8b9 e69f c4b8
00000150: 96a6 88ba 496f 993b 1f68 9739 747c 0239
00000160: 4ec7 09ba 07f4 98ba 8ace 513c 734d 2c3c
00000170: dd7d 4a3b 5a71 7fba 4c6c 2d3a 9117 b63b
00000180: 81d8 783c db14 5a3c 8c96 953a 915c 2a3b
00000190: 3439 273d 34fb 193d 0a52 283d 9517 bb3c
000001a0: 36f5 a23c 3be3 7e3c 56f3 613c f7c1 123d
000001b0: a848 303d 8bad 233d 088b babc 022d 22bd
000001c0: 2c74 9bbc d0f3 18bc cf11 553c cc39 85bc
000001d0: cb82 acbb 9eda 9bba 28b4 e33b 94d9 d33c
000001e0: fe11 0dbb 4fff 98b9 0f77 2cb9 e124 da3b
000001f0: 7286 013d a8c9 da3b 92d1 2f3b 2e75 073b
00000200: ca46 623b bfda b23a 1172 453b 4d19 d1b9
00000210: 4149 00ba 1461 79b8 b04e 9b38 9676 2ebc
00000220: e76a f8ba cc68 9338 47c5 10b9 392b c739
00000230: 5965 7fbc 00de 5bb8 e83e b33b 8654 6e3a
00000240: c0d0 a6bb 85a1 16bc 69df a33b ad7c 1d3c
00000250: a00e 8a3b 566f bebb fe02 2631 148d 4131
00000260: c771 9531 0f54 af31 0766 9631 4da0 1f31
00000270: afc9 7d31 c302 c531 be87 e831 fc56 d631
00000280: 9baf 5c31 33c3 9e31 807c c131 049c ea31
00000290: 473f d431 1869 8f31 595a a131 1fac b731
000002a0: 911e c331 ba77 ab31 c2f6 8e31 7213 9431
000002b0: 41b8 a931 82fb a031 a04e 7f31 98e0 d6bc
000002c0: a8c4 54bc a834 d3bc 1e17 37bc 2863 043b
000002d0: 5d0c 24bd 4dee 8bbc 8ff9 2fbc 48a5 32bb
000002e0: ecbd 243c 72c1 44bd 7a4f 14bd 75ce 9bbc
000002f0: 3e1d dabb aebc 75bb 90b9 f0bc ee28 14bc
00000300: 3817 33bb dddb 39ba d4ec 1c3c f4f5 26bc
00000310: 1eb6 c0bb 0291 bcbb c907 12bb c4fc be3c
00000320: 9254 37bc 9b3b 2cbb 1852 40bb da27 b6b9
00000330: 2e87 5f3b 262f 0fbb 8e14 9bb9 cfed 6bb8
00000340: 1eba 8839 881e cb39 ca54 c4ba 7ef9 2eba
00000350: 8105 1b39 d2a6 f038 2b60 edbb 62af 57ba
00000360: 481d 88b8 7521 593a 861f 703b 858c 1ebc
00000370: fcd0 0639 6d3f a3ba 6dd4 7abb 9621 f3bb
00000380: ceab adbc 6e79 1f30 b753 5f30 6aca 5430
00000390: 38d0 2930 390a f32f 0fb8 8830 b907 a530
000003a0: 0686 a230 91a1 6730 31b1 4930 e8ae 9430
000003b0: 33b7 ce30 8958 c630 7cc4 8230 7efe 3930
000003c0: 25d9 a02f a0c4 8430 4380 ad30 2c47 5e30
000003d0: fb3d 8f2f a0cf 982f 0f7e 4730 9909 8730
000003e0: 41a9 5030 f4ae cc2f
7.3624826e-09 7.5593904e-09 7.1191097e-09 5.4290767e-09 4.5561857e-09 7.517948e-09 7.55555e-09 5.5497122e-09
2.8993432e-09 2.4054185e-09 7.373703e-09 6.0611045e-09 3.6171721e-09 9.58887e-10 8.091635e-10 6.459301e-09
5.2306324e-09 2.8453526e-09 4.8326854e-10 4.170052e-10 5.9279794e-09 5.4705587e-09 3.0866791e-09 8.524594e-10
1.0709004e-09 8.118729e-09 8.872477e-09 7.079584e-09 7.3953186e-09 6.112615e-09 8.20489e-09 9.641921e-09
8.2854585e-09 7.4039717e-09 5.6884835e-09 9.086283e-09 1.0766934e-08 9.725342e-09 7.937173e-09 6.278545e-09
7.918632e-09 9.005753e-09 7.2598807e-09 6.637258e-09 7.9904305e-09 7.350158e-09 6.846966e-09 7.573853e-09
7.267333e-09 7.894711e-09 6.784412e-11 3.2447695e-10 6.806191e-10 5.264515e-10 3.9286993e-10 5.076738e-13
3.5338732e-10 8.0161294e-10 5.4566246e-10 3.6908354e-10 8.5214016e-11 3.2888695e-10 7.146297e-10 7.273152e-10
5.370875e-10 3.164662e-11 1.9750673e-10 4.2848788e-10 9.0085644e-10 8.463395e-10 -1.0060849e-11 4.8333684e-11
2.0274234e-10 7.2653156e-10 8.757065e-10 -0.0037586496 -0.00023827353 0.0008733831 -0.00036897082 0.00011814741
-7.877484e-05 -0.00014421354 -0.00035268982 -9.375792e-05 -0.0010425623 0.0046824557 0.0002887854 0.00012444129
-0.0005255834 -0.0011669406 0.01280559 0.010516512 0.0030897774 -0.0009744369 0.0006615564 0.0055570086
0.015188337 0.013310636 0.0011412664 0.0025995115 0.040826038 0.03759308 0.041093864 0.022838393
0.019892316 0.015557106 0.013790926 0.03582951 0.04303804 0.039960425 -0.022771373 -0.039593704
-0.018976294 -0.009335473 0.013004734 -0.016262911 -0.005264615 -0.0011890715 0.0069489665 0.025860585
-0.0021525617 -0.0002918192 -0.00016447551 0.0066572283 0.031622358 0.0066768713 0.0026827794 0.002066921
0.0034527057 0.0013645514 0.0030127803 -0.00039882437 -0.0004893728 -5.9456637e-05 7.405633e-05 -0.01064839
-0.0018952758 7.029026e-05 -0.00013806402 0.0003798844 -0.015588128 -5.2420422e-05 0.0054701455 0.00090915745
-0.005090803 -0.009193783 0.005000998 0.009612245 0.004213169 -0.005811612 2.415788e-09 2.816539e-09
4.3494057e-09 5.1027267e-09 4.3771737e-09 2.3228666e-09 3.693099e-09 5.7337686e-09 6.7675208e-09 6.2381087e-09
3.2114034e-09 4.620597e-09 5.6311933e-09 6.8280332e-09 6.177206e-09 4.1737955e-09 4.695988e-09 5.345569e-09
5.678722e-09 4.9903663e-09 4.160797e-09 4.3095776e-09 4.9394946e-09 4.685206e-09 3.7152077e-09 -0.026230142
-0.01298634 -0.025781944 -0.011174945 0.0020200703 -0.040050853 -0.017081404 -0.010740652 -0.002725916
0.0100550465 -0.048036046 -0.036208607 -0.019019345 -0.006656318 -0.0037496495 -0.029385358 -0.0090429615
-0.0027327072 -0.0007089952 0.009577949 -0.010190476 -0.005881085 -0.005754591 -0.0022282472 0.023313887
-0.011189597 -0.0026280645 -0.0029345807 -0.00034743437 0.0034107673 -0.002184817 -0.00029579218 -5.6249843e-05
0.0002607861 0.00038741925 -0.0014978882 -0.00066747505 0.00014784002 0.000114751645 -0.00724413 -0.0008227733
-6.4904394e-05 0.00082828786 0.0036639883 -0.009677057 0.00012857089 -0.0012454815 -0.0038273588 -0.0074197752
-0.021200087 5.8016425e-10 8.1245893e-10 7.74128e-10 6.177774e-10 4.4208706e-10 9.947615e-10 1.2007525e-09
1.1825143e-09 8.426691e-10 7.337518e-10 1.0818129e-09 1.5040541e-09 1.4431559e-09 9.514589e-10 6.7664263e-10
2.925812e-10 9.660148e-10 1.2623861e-09 8.086427e-10 2.6055588e-10 2.7796165e-10 7.257492e-10 9.825271e-10
7.5910483e-10 3.7231696e-10

exp_avg_sq f4 [10, 1, 5, 5]
00000000: 1b73 2f37 c9df 2737 39b5 0f37 c40f ac36
00000010: 60e1 4636 cd24 2437 77e5 2f37 14e3 b836
00000020: 48eb b235 8399 6235 4c10 2537 2421 0237
00000030: b20c 3036 9abc 2c34 3231 b633 43d7 0e37
00000040: 1a65 c636 f628 ef35 3c87 4933 0f3b d832
00000050: fb91 fe36 c1af d236 bda4 0e36 763a 5134
00000060: 603e 6934 f126 6537 d0ac 7137 11a6 1c37
00000070: eb1c 1f37 236f df36 d836 5b37 c7a8 8d37
00000080: 2a9e 5337 8d63 2837 5b7a bd36 e851 7237
00000090: 8e96 a437 c110 8a37 6b62 3837 2fd8 d336
000000a0: 2541 4037 d3ce 6837 c770 2537 831b 0137
000000b0: 7498 1737 3706 3a37 84ab 0f37 7325 1d37
000000c0: 7ee3 0337 43df 0d37 514b 3130 22b3 0e33
000000d0: 4534 eb33 c31f 6433 3593 b432 0aa7 ef2d
000000e0: 5733 1333 7fe9 0d34 c0c1 7433 42ef a332
000000f0: 01c6 a430 4bef a732 adf7 e733 c83a bf33
00000100: f534 6533 44c7 602f 0ec7 0632 8648 3233
00000110: 50d0 2934 e159 0d34 9ccd e82e 4225 5b31
00000120: 4fda 8632 5d1b fd33 3e2c 1634 4278 8437
00000130: c9c2 4f37 b043 2337 3992 4737 d72d 9238
00000140: 77ea 0836 8371 8436 f695 e536 8204 4037
00000150: 77ae 5b38 1829 1d37 b760 1537 1fd4 4137
00000160: 6d4e 9437 4583 3638 75cd c738 c0ed 1338
00000170: bed9 7637 1595 8137 28d9 e637 e9c0 b639
00000180: c4ea 5239 f446 5338 1896 c637 74d3 9338
00000190: a6ba 733b 2c9e ab3b 3197 d73b 5749 083c
000001a0: b12b 0c3c 3ca3 233b 986d 663b ce20 8c3b
000001b0: c698 983b 94f9 a63b 7f30 283a e5b9 293a
000001c0: 80f5 2e3a 1d86 253a 2080 a93a dc21 8538
000001d0: 3991 3a38 5a7b b438 7c87 2639 0574 173a
000001e0: 413b b437 ebce 0a38 cbea 7c38 0313 4139
000001f0: 877d 763a 924e 8838 9a22 8d38 d4b2 9638
00000200: 1b42 9d38 0c99 9b38 7f10 1638 9510 a237
00000210: a272 a537 77bf be37 7815 9737 1af2 8338
00000220: eae8 4e37 07e7 8137 0e0b 9437 c61b 3c37
00000230: 939e cd39 4e13 e538 25ee b738 9a6b b138
00000240: b0c4 a938 d22c a03a 1f85 853a 8922 383a
00000250: 5f78 fe39 80d8 ef39 5f1e a935 48d5 f235
00000260: c79b ab36 a8d1 1137 4294 f136 38e8 cf35
00000270: 884c 6e36 b5bc 0f37 4194 6837 ca3b 4d37
00000280: beaa 2236 83eb ae36 aa44 0c37 7cd4 6b37
00000290: a2e6 5637 c6d6 7136 b397 9f36 33ae ec36
000002a0: a769 1e37 0108 0d37 22d6 6e36 5b7a 8336
000002b0: 3069 c436 8e64 bc36 d5bb 8b36 c0ca 2d3b
000002c0: fcc2 203b f526 133b 6645 043b 610d fb3a
000002d0: 9b0d 283b c440 cf3a c650 ae3a b534 883a
000002e0: 9a5c 843a 5124 123b b4e2 8c3a ac8a 063a
000002f0: e410 4539 ee92 a339 d78a d83a 6ef0 393a
00000300: 4554 0a39 284b 1038 a83a 6839 06df aa3a
00000310: c269 ef39 40b9 9e38 dbd8 a638 5f6c a939
00000320: 5519 4238 df74 a837 33ae 0a38 af8c 0e38
00000330: a0cd 2438 7d73 6537 6976 d237 cbff d637
00000340: 8fb2 ae37 7cd3 8c38 bb08 8737 49a4 f237
00000350: 5fbb ef37 36b4 8438 964d 9b39 2cd0 5b37
00000360: ef15 da37 e6cd b138 4fd3 7d39 fd78 403a
00000370: 6242 8b37 f6c6 9738 2e95 8939 ee21 043a
00000380: 3e5f b03a 6454 1633 b3a8 9333 686b 9633
00000390: 4a94 1733 e507 7d32 4d46 c333 2618 1034
000003a0: 503b 2534 d257 c233 e8b6 6933 a6ff e333
000003b0: fa98 7034 337e 6f34 f944 f533 f52b a833
000003c0: 1dba 9232 609b f033 c426 4134 0174 eb33
000003d0: 45f9 8633 031b 9732 759a 9833 41a8 f733
000003e0: 6546 f633 9e25 8a33
1.0457613e-05 1.000608e-05 8.565658e-06 5.127835e-06 2.9635485e-06 9.78373e-06 1.0484239e-05 5.5100627e-06
1.3330509e-06 8.441495e-07 9.838561e-06 7.75632e-06 2.6233433e-06 1.6087361e-07 8.483984e-08 8.513979e-06
5.9126296e-06 1.7818809e-06 4.6921954e-08 2.5172566e-08 7.5867842e-06 6.278948e-06 2.125554e-06 1.948591e-07
2.1722508e-07 1.365853e-05 1.4404955e-05 9.33699e-06 9.4838715e-06 6.658856e-06 1.30661865e-05 1.6887103e-05
1.26134055e-05 1.0036759e-05 5.646883e-06 1.4443394e-05 1.9620431e-05 1.6458684e-05 1.0990169e-05 6.313457e-06
1.1459259e-05 1.3876433e-05 9.861024e-06 7.695405e-06 9.035797e-06 1.1087911e-05 8.563398e-06 9.366649e-06
7.861176e-06 8.456237e-06 6.4499256e-10 3.322487e-08 1.0952548e-07 5.3114274e-08 2.10217e-08 2.7245334e-11
3.4272798e-08 1.3216594e-07 5.698689e-08 1.90845e-08 1.1988847e-09 1.9550177e-08 1.0801828e-07 8.904823e-08
5.336638e-08 2.0443475e-10 7.845086e-09 4.1509814e-08 1.5815135e-07 1.3164346e-07 1.0586662e-10 3.1889873e-09
1.5698928e-08 1.1786208e-07 1.3985934e-07 1.5791626e-05 1.2383513e-05 9.731317e-06 1.1895369e-05 6.970361e-05
2.0402056e-06 3.947121e-06 6.8421896e-06 1.1445141e-05 5.2376152e-05 9.367497e-06 8.90361e-06 1.1553085e-05
1.7679495e-05 4.3514436e-05 9.527329e-05 3.5268953e-05 1.471344e-05 1.544742e-05 2.7519258e-05 0.00034857474
0.00020114618 5.03724e-05 2.3673332e-05 7.0488924e-05 0.0037190109 0.0052373614 0.0065793027 0.008318267
0.008555339 0.0024969121 0.0035160538 0.0042763716 0.004656884 0.00509567 0.0006415918 0.0006474539
0.00066741556 0.0006314235 0.0012931861 6.348241e-05 4.4481105e-05 8.606045e-05 0.00015881466 0.0005777481
2.1485264e-05 3.309447e-05 6.030015e-05 0.00018412997 0.00094028603 6.49962e-05 6.729849e-05 7.185867e-05
7.4986565e-05 7.419483e-05 3.577815e-05 1.9319627e-05 1.9722913e-05 2.2738923e-05 1.80106e-05 6.291662e-05
1.2332786e-05 1.5485579e-05 1.7648123e-05 1.121214e-05 0.00039218794 0.00010923167 8.770478e-05 8.46006e-05
8.095184e-05 0.0012220389 0.0010186768 0.0007024189 0.0004853634 0.00045746937 1.260032e-06 1.8092478e-06
5.114332e-06 8.691488e-06 7.199619e-06 1.5490286e-06 3.550931e-06 8.567401e-06 1.3862796e-05 1.2232873e-05
2.4239266e-06 5.2130213e-06 8.360637e-06 1.4056564e-05 1.2809092e-05 3.6036813e-06 4.7562294e-06 7.0536275e-06
9.442133e-06 8.4061185e-06 3.5589405e-06 3.9183483e-06 5.8535006e-06 5.6145427e-06 4.1643893e-06 0.0026518553
0.0024530282 0.002245364 0.0020182966 0.0019153767 0.0025642875 0.0015812148 0.0013299219 0.0010391684
0.0010098398 0.0022299478 0.0010748715 0.0005132358 0.00018793676 0.00031199254 0.001652087 0.0007093017
0.00013192098 3.440227e-05 0.00022147095 0.0013036437 0.00045664428 7.5685326e-05 7.955889e-05 0.00032314935
4.6276797e-05 2.0081583e-05 3.3064e-05 3.398646e-05 3.929215e-05 1.3676353e-05 2.508909e-05 2.56299e-05
2.0825564e-05 6.715112e-05 1.609732e-05 2.892515e-05 2.8578272e-05 6.3278174e-05 0.0002962171 1.3101886e-05
2.5997839e-05 8.478369e-05 0.00024206679 0.00073422474 1.6601003e-05 7.2373005e-05 0.00026241824 0.00050404563
0.0013456119 3.500135e-08 6.875907e-08 7.0044564e-08 3.5292295e-08 1.4728333e-08 9.093183e-08 1.341983e-07
1.53884e-07 9.0498034e-08 5.4415892e-08 1.06170134e-07 2.2407394e-07 2.230452e-07 1.14212476e-07 7.8311054e-08
1.7081272e-08 1.12041334e-07 1.7988629e-07 1.0964141e-07 6.285203e-08 1.7590997e-08 7.106147e-08 1.1532439e-07
1.14680724e-07 6.432968e-08

exp_avg f4 [10]
00000000: 8d30 8832 ee76 0833 b0cc a230 e677 913c
00000010: 840e 953b 561d 8bbc a3d3 1132 e254 60bd
00000020: 4aba c0bc 6add 3a30
1.5854562e-08 3.1773133e-08 1.1845227e-09 0.017757367 0.0045488495 -0.016981762 8.4882315e-09 -0.05476845
-0.02352633 6.7981054e-10

exp_avg_sq f4 [10]
00000000: 0a43 4e38 46b7 de38 5c98 8c34 7105 eb3b
00000010: cfdd 3e3c f6d1 173b ac49 b637 e578 a23b
00000020: fd1a 9b3b 1151 7d34
4.9176662e-05 0.00010619922 2.6187888e-07 0.0071722795 0.011649563 0.0023165918 2.1730397e-05 0.0049582594
0.004733442 2.3591953e-07

exp_avg f4 [20, 10, 5, 5]
00000000: 48ac 8730 ebd9 9630 8f57 d230 723d dd30
00000010: b543 e330 0ad2 7630 7ae9 8330 eeec ba30
00000020: e097 ec30 9d9f 0631 08a5 7630 7b69 b730
00000030: 3b51 0731 4f06 0831 d6fb 0131 92a1 9130
00000040: be68 d030 6483 0931 0948 0f31 be2e eb30
00000050: d1d3 a030 212c c030 70b6 d930 5c4a e530
00000060: 15e2 f630 b724 1531 fc28 2b31 9462 3631
00000070: 321a 5331 b7ee 5231 a6c4 1e31 2070 3931
00000080: cb93 5231 86e2 6831 e71b 6e31 ab49 1631
00000090: 23aa 3e31 4ae7 6731 9078 6b31 642e 7531
000000a0: e35c 2231 8493 4f31 42ea 7131 cd76 5a31
000000b0: cd7a 5131 4788 2731 968f 4e31 2e96 6d31
000000c0: c967 5a31 e313 4831 d660 7fac a20e 1f2f
000000d0: 82a8 0aae 05bb 022e afc9 bd2d a761 182d
000000e0: 9dcc 232e 4072 b72d cc4f 102d 7bb8 14ad
000000f0: 8f01 5dab 0b26 a1ad c028 b22d e678 98ad
00000100: 594a 922c dd43 832e dfec 792e c95e f0ad
00000110: 1d7b 5fae 8597 8aae e164 c82e d8d3 052f
00000120: 73c4 d3ad 2012 adae a1dd b9ae a5f7 3631
00000130: af14 3231 e1f0 4831 f437 5131 9ccf 5031
00000140: 1eda 4931 1305 5331 a767 7b31 c94a 6631
00000150: 14a0 3a31 c41f 6b31 1243 6231 fc2d 5a31
00000160: 19f4 2431 7939 0f31 db54 8031 e322 4831
00000170: 86b5 1d31 0bbc 2431 c511 4331 1b6d 4931
00000180: 8872 4431 3e96 3131 e34a 4131 bd5c 4331
00000190: a844 8b2e 8e74 002f bfbb 342f 19fa 692e
000001a0: 503a 9cad ced4 4b2e 4b37 952d 7bd2 9e2e
000001b0: 5056 4c2e d34a af2e 20bb bb2d e5cd 232f
000001c0: eba7 842f c505 822f 1e69 912f d3be df2e
000001d0: 28bd a62f fd4d b92f 2776 982f bea3 362f
000001e0: a765 a22f d643 7e2f 9eee 0e2f a681 e32e
000001f0: 4e0f 292f dd3c 0231 48dd 2331 5b7b 5c31
00000200: 46e9 6131 7559 5f31 88b6 e130 5d80 2a31
00000210: 6580 4f31 cd77 5131 a32f 3b31 c9e7 1b31
00000220: c5eb 5931 e50e 6631 45f4 5e31 c566 3d31
00000230: 8ed2 1131 196a 6231 5b57 7631 65c5 6931
00000240: f39e 3e31 d5d9 0a31 dc97 3831 e980 3c31
00000250: 268e 2c31 e458 1a31 4dec 9830 7d5e a930
00000260: f233 bd30 c093 cb30 ec6f df30 3039 b630
00000270: 949f 0931 ff3c 1031 4484 1031 8f87 b130
00000280: 083d eb30 35cf 1431 7c2c 0a31 0e6d d330
00000290: b77f 7f30 d71c 0731 71d3 0631 68e7 bd30
000002a0: 2d02 9c30 abe1 8930 0507 0731 cc1f 1231
000002b0: 1337 e130 1367 be30 b600 8830 e4f0 5131
000002c0: 54db 6731 3789 6231 177d 8331 64df 8b31
000002d0: 13b6 4031 1067 4a31 40bc 6d31 970d 8e31
000002e0: 6e68 a331 c04f 5531 e08a 8731 0f1e b031
000002f0: f732 c731 fa4e b231 3963 7d31 6c7c 9331
00000300: 535e aa31 47ec ae31 9de1 9a31 3759 8a31
00000310: 7820 8c31 c641 8f31 c898 8531 a741 8d31
00000320: a1f2 bf31 008d dd31 8109 f931 c9e3 e631
00000330: 9638 d631 a201 d231 f725 f731 29de f831
00000340: 32a6 df31 d267 cf31 20ce da31 bb5d fa31
00000350: c4d3 f131 65d1 d531 0262 c231 181c d831
00000360: 1b93 0032 5964 f431 2404 db31 81cf ba31
00000370: 0592 d531 9c4f f831 25c8 eb31 c584 ca31
00000380: f6d3 af31 12cf 0630 98ff 3130 64cc 0330
00000390: 04f5 2030 3f5e 3b30 0997 0b30 72d9 4b30
000003a0: 14c7 4f30 ba84 9030 58e2 9530 f83c ec2f
000003b0: c7aa 6030 ce05 8430 8397 9a30 586c 8130
000003c0: d2b9 3e30 2a00 9830 e6c9 8330 0e97 3730
000003d0: 9782 f12f 07e8 3c30 c1d9 8930 add5 5030
000003e0: 1444 5230 a72c 5230 a4e1 b4ae 39da 112f
000003f0: e0be 142f e3ca 102f 1626 1a2f 6b6c 22ae
9.871508e-10 1.0975872e-09 1.5304397e-09 1.609733e-09 1.6535667e-09 8.979276e-10 9.597863e-10 1.3600621e-09
1.7214425e-09 1.9590296e-09 8.97288e-10 1.3344982e-09 1.969126e-09 1.979419e-09 1.8915123e-09 1.059606e-09
1.5163761e-09 2.001081e-09 2.0850186e-09 1.7111785e-09 1.1701734e-09 1.3982381e-09 1.584068e-09 1.6683077e-09
1.7963112e-09 2.1703224e-09 2.4907072e-09 2.654052e-09 3.0719431e-09 3.0694716e-09 2.3103808e-09 2.6984779e-09
3.0643033e-09 3.3889207e-09 3.4649419e-09 2.1869748e-09 2.774535e-09 3.3746397e-09 3.4265533e-09 3.5678562e-09
2.3626903e-09 3.0206317e-09 3.5203276e-09 3.1790706e-09 3.0483307e-09 2.4379163e-09 3.0058565e-09 3.4573406e-09
3.178217e-09 2.9115135e-09 -3.6291434e-12 1.4466164e-10 -3.1527232e-11 2.9724685e-11 2.1576378e-11 8.661883e-12
3.7243642e-11 2.0855428e-11 8.203171e-12 -8.453789e-12 -7.8517135e-13 -1.8320475e-11 2.0254354e-11 -1.7334089e-11
4.157824e-12 5.969245e-11 5.682643e-11 -2.7326934e-11 -5.0813676e-11 -6.302429e-11 9.112867e-11 1.2171542e-10
-2.4075164e-11 -7.870349e-11 -8.452195e-11 2.6625255e-09 2.5914166e-09 2.9240754e-09 3.0445308e-09 3.0385996e-09
2.9373335e-09 3.0707425e-09 3.6584227e-09 3.3511915e-09 2.7157556e-09 3.4215057e-09 3.2925453e-09 3.1749314e-09
2.4003894e-09 2.0841908e-09 3.7349372e-09 2.9123661e-09 2.294969e-09 2.397203e-09 2.8386336e-09 2.9311369e-09
2.8586857e-09 2.5842293e-09 2.8127765e-09 2.842895e-09 6.333184e-11 1.1682941e-10 1.6437605e-10 5.3200198e-11
-1.7761043e-11 4.6345865e-11 1.6963894e-11 7.222397e-11 4.646089e-11 7.97137e-11 2.1342539e-11 1.4897912e-10
2.4129973e-10 2.3650962e-10 2.6450037e-10 1.0174763e-10 3.0329628e-10 3.3706718e-10 2.773259e-10 1.6610976e-10
2.9539857e-10 2.3125266e-10 1.2999599e-10 1.0345795e-10 1.5375898e-10 1.8952087e-09 2.3845406e-09 3.2084333e-09
3.287441e-09 3.2501621e-09 1.6422783e-09 2.4811222e-09 3.0195448e-09 3.0481602e-09 2.723916e-09 2.2687223e-09
3.1711676e-09 3.3477872e-09 3.2444103e-09 2.7561537e-09 2.1219964e-09 3.2947638e-09 3.5847367e-09 3.4018168e-09
2.773899e-09 2.0205466e-09 2.6861846e-09 2.7430878e-09 2.5110096e-09 2.2460478e-09 1.1126616e-09 1.2323224e-09
1.3766324e-09 1.4812187e-09 1.6257196e-09 1.3258497e-09 2.0026834e-09 2.098943e-09 2.1029942e-09 1.2916973e-09
1.7115847e-09 2.1654618e-09 2.010693e-09 1.5383266e-09 9.2949953e-10 1.966148e-09 1.9619757e-09 1.381733e-09
1.1351112e-09 1.0032201e-09 1.9649076e-09 2.126387e-09 1.6386558e-09 1.3853615e-09 9.895504e-10 3.0550433e-09
3.3739598e-09 3.2965326e-09 3.826823e-09 4.070829e-09 2.8043174e-09 2.9453453e-09 3.4595047e-09 4.134289e-09
4.7557966e-09 3.1040912e-09 3.9448054e-09 5.1256914e-09 5.7974563e-09 5.1894604e-09 3.6872747e-09 4.292408e-09
4.9583746e-09 5.090928e-09 4.507639e-09 4.026471e-09 4.0782275e-09 4.1693253e-09 3.8881787e-09 4.111104e-09
5.5864153e-09 6.4479764e-09 7.2479343e-09 6.719777e-09 6.234653e-09 6.11199e-09 7.1929622e-09 7.2430066e-09
6.5090484e-09 6.036296e-09 6.3680687e-09 7.2866135e-09 7.038098e-09 6.2229213e-09 5.6572853e-09 6.2896213e-09
7.4840285e-09 7.112743e-09 6.3742096e-09 5.436903e-09 6.2157164e-09 7.2268005e-09 6.862154e-09 5.894068e-09
5.1172675e-09 4.904318e-10 6.4755445e-10 4.794798e-10 5.855585e-10 6.8164135e-10 5.078254e-10 7.415998e-10
7.558907e-10 1.0515102e-09 1.0905508e-09 4.297147e-10 8.1733414e-10 9.605914e-10 1.1248037e-09 9.416778e-10
6.9385664e-10 1.1059502e-09 9.588887e-10 6.6789674e-10 4.3930434e-10 6.872373e-10 1.0029951e-09 7.597361e-10
7.64943e-10 7.646101e-10 -8.225534e-11 1.3265201e-10 1.3528334e-10 1.3168804e-10 1.4019749e-10 -3.693083e-11
