lightning_logs/version_31/checkpoints/epoch=2-step=138.ckpt (torch, 273538 bytes, 24 tensors)

conv1.weight f4 [10, 1, 5, 5]
0	0xbe8cbb9c	-0.27486885
1	0xbe5c57d4	-0.21517879
2	0xbeaaec22	-0.3338328
3	0xbe4cbe19	-0.19994392
4	0xbe40f771	-0.18844391
5	0xbbb86f0e	-0.005628473
6	0xbe888b26	-0.26668662
7	0xbcd25d6c	-0.025679313
8	0xbe572656	-0.21010718
9	0xbd7ec094	-0.062195376
10	0xbeaa5715	-0.33269563
11	0xbdfce6c6	-0.12348704
12	0xbcf6d13d	-0.03012907
13	0xbda28ba3	-0.0793679
14	0xbd09b90f	-0.03362375
15	0xbdc6f59e	-0.097148165
16	0xbe9c611c	-0.3054284
17	0xbe3709b4	-0.17874795
18	0xbe48e8a2	-0.19619992
19	0x3ced231c	0.028947406
20	0xbe743a40	-0.23850346
21	0xbd22adf8	-0.03971669
22	0xbdb67bd3	-0.08910336
23	0xbe12af88	-0.14324772
24	0xbde43340	-0.11142588
25	0xbe1e4303	-0.1545525
26	0x3d258c00	0.040416718
27	0x3cdcf35a	0.026971508
28	0xbeadb465	-0.33926693
29	0xbdfb5203	-0.12271502
30	0x3d52947a	0.05141113
31	0xbe72a0e5	-0.23694189
32	0xbe43bfef	-0.19116186
33	0xbe3f4540	-0.1867876
34	0xbb3cafbd	-0.0028791272
35	0xbdfc779b	-0.123275004
36	0xbe965f50	-0.29369593
37	0xbe69e20c	-0.22840136
38	0xbca1b2a3	-0.019738501
39	0xbdc8694b	-0.09785708
40	0x3b95e747	0.0045746895
41	0xbe310bc0	-0.17289639
42	0xbe0962a6	-0.13416538
43	0xbdad4040	-0.0845952
44	0xbe16cbb2	-0.14726141
45	0xbdbc2d04	-0.091882735
46	0x3ac8bc57	0.0015314919
47	0x3d90eca8	0.070763886
48	0xbe91e4bf	-0.28494832
49	0x3d84579e	0.06462024
50	0xbe83f453	-0.25772342
51	0xbdd6d1dc	-0.10489246
52	0xbcb09fb8	-0.021560535
53	0x3e069c2f	0.13145517
54	0x3d9f5965	0.077807225
55	0x3dfb29d0	0.122638345
56	0xbe2accd2	-0.16679695
57	0x3dd1cb18	0.10243815
58	0x3d5d3753	0.05400784
59	0xbe603bec	-0.21897858
60	0x3e23c035	0.1599129
61	0x3dd9ca39	0.10634274
62	0x3df3355b	0.11875411
63	0xbe91f514	-0.28507292
64	0xbea893de	-0.32925314
65	0x3e908f83	0.2823449
66	0x3de56d49	0.11202485
67	0xbe823975	-0.2543446
68	0xbebe6de8	-0.37193227
69	0xbe01ad70	-0.12663817
70	0x3da89ff1	0.082336314
71	0x3e2aaecb	0.1666824
72	0xbc6f5c11	-0.014609353
73	0x3dfe0174	0.12402621
74	0xbe9d44f0	-0.30716658
75	0x3e8b639e	0.2722444
76	0x3e599637	0.21248709
77	0x3e57e169	0.21082081
78	0x3e67a986	0.22623262
79	0x3e2f38e1	0.17111541
80	0xbe1d3771	-0.1535318
81	0x3e25c377	0.16187845
82	0x3d9a628e	0.07538329
83	0x3e15ff97	0.14648281
84	0x3e6727d2	0.22573784
85	0xbe835c38	-0.25656295
86	0xbec0109c	-0.37512672
87	0x3c021e93	0.00794186
88	0x3d8d8e77	0.06911939
89	0x3de099c4	0.109668285
90	0xbec43a1f	-0.38325593
91	0xbec5780a	-0.38568145
92	0xbeb0423e	-0.3442554
93	0xbe8db4ec	-0.27677095
94	0xbde1838e	-0.1101142
95	0xbe908df2	-0.28233296
96	0xbeaffaaf	-0.34370944
97	0xbf1b6967	-0.60707706
98	0xbeb01fee	-0.3439936
99	0xbee648db	-0.4497746
100	0x3e765737	0.24056707
101	0xbeb804c2	-0.3594113
102	0xbe3a6c2b	-0.18205325
103	0xbd87a3f2	-0.06623067
104	0x3cc547ff	0.024082182
105	0xbd384922	-0.04499162
106	0xbe838c41	-0.25692943
107	0xbebb0dc0	-0.36533928
108	0xbecc2b5a	-0.39876825
109	0xbeb377d5	-0.35052362
110	0x3e3df413	0.18550138
111	0xbeeb2334	-0.45925295
112	0xbeb83df3	-0.35984764
113	0xbebdcb14	-0.37069
114	0xbe2bf770	-0.16793609
115	0xbf232710	-0.6373148
116	0xbe92e09f	-0.28686997
117	0xbe2d95b4	-0.16951638
118	0xbda7cc5f	-0.081932776
119	0xbe87eff7	-0.26550266
120	0x3eb91ed8	0.36156344
121	0x3e962932	0.29328305
122	0x3e90da39	0.2829149
123	0x3e70ba41	0.2350855
124	0xbe1a6ec4	-0.15081316
125	0xbe00ab5e	-0.12565371
126	0x3c0417ba	0.0080622975
127	0xbc7c8169	-0.015411713
128	0xbe64df90	-0.22350907
129	0xbe88b908	-0.26703668
130	0xbdc9bc06	-0.09850316
131	0xbdcbcdb1	-0.09951342
132	0x3c10022b	0.008789579
133	0xbdb2f18d	-0.087374784
134	0xbd15a3fb	-0.036533337
135	0xbe41bc9d	-0.18919607
136	0x3da4b4d0	0.080423
137	0xbe833cd9	-0.2563236
138	0xbddc1aa8	-0.10747272
139	0x3c880db4	0.016608097
140	0x3d2538d1	0.040337387
141	0xbddad6ec	-0.10685524
142	0xbe1b716f	-0.1517999
143	0xbcfdc5ea	-0.030978162
144	0xbe09e2d3	-0.13465433
145	0xbbf2fa58	-0.007415097
146	0xbebd8437	-0.37014934
147	0x3d3a1cd1	0.045437638
148	0xbe49c4cf	-0.19703983
149	0xbe45dd87	-0.19322787
150	0xbe53ec54	-0.20695621
151	0xbe05407b	-0.13012879
152	0xbe497a8b	-0.19675653
153	0xbe8714fa	-0.2638319
154	0xbda31bc8	-0.07964283
155	0xbd804f8e	-0.06265174
156	0xbdb9d042	-0.09072925
157	0x3dc2ccaa	0.09511693
158	0xbdcc6bb2	-0.09981479
159	0x3cfed0a6	0.03110535
160	0xbcc098b6	-0.023510318
161	0xbe95706f	-0.29187343
162	0xbe15439b	-0.1457657
163	0xbe5bdfe3	-0.21472125
164	0xbe9df32a	-0.30849582
165	0xbeb51bcf	-0.3537278
166	0xbdbc35dc	-0.0918996
167	0xbe480758	-0.19534051
168	0xbe7755f8	-0.24153888
169	0xbe604203	-0.21900181
170	0xbe9a24eb	-0.3010629
171	0xbe7a6494	-0.2445243
172	0xbe629e45	-0.22130688
173	0xbe061e2c	-0.13097447
174	0xbd87a3f2	-0.06623067
175	0xbe07ee2f	-0.13274454
176	0xbdd87274	-0.10568705
177	0x3e49940f	0.19685386
178	0xbe6afdcc	-0.22948378
179	0xbe7196f3	-0.23592739
180	0xbe217fbb	-0.15771382
181	0xbe9c3f6a	-0.3051713
182	0x3dba0d60	0.09084582
183	0xbe89a0ec	-0.26880586
184	0xbde0453e	-0.10950707
185	0xbd96a8da	-0.07356425
186	0xbe84ee02	-0.25962836
187	0xbe06915c	-0.13141388
188	0x3d20659b	0.0391594
189	0x3c250ed4	0.010074336
190	0xbdc5976b	-0.09648021
191	0xbe2f0fd3	-0.1709588
192	0xbe823127	-0.25428125
193	0xbdba6bf9	-0.091026254
194	0xbdfe8a99	-0.12428779
195	0x3bf01c58	0.0073275976
196	0x3d14113c	0.03614925
197	0xbec149c0	-0.3775158
198	0xbd85678d	-0.06513891
199	0xbe1358e2	-0.14389375
200	0xbe2657cf	-0.16244434
201	0xbd8f9abb	-0.07011934
202	0xbe9203c0	-0.28518486
203	0xbe14c203	-0.14527135
204	0xbdcf10a0	-0.10110593
205	0xbe98b656	-0.2982661
206	0xbe9655b6	-0.29362267
207	0xbe4a9183	-0.19782071
208	0xbe5df2fb	-0.21674721
209	0xbe6aa365	-0.22913893
210	0xbdd33531	-0.1031288
211	0x3c64c465	0.01396284
212	0xbd206e2d	-0.03916757
213	0xbebda3d4	-0.37039053
214	0xbe492ffc	-0.19647211
215	0xbea25cd7	-0.31711456
216	0xbda52218	-0.080631435
217	0xbe266823	-0.16250663
218	0x3d620adf	0.05518615
219	0xbddc842c	-0.10767397
220	0xbc519d04	-0.012793783
221	0xbe6ad2e8	-0.22932017
222	0xbd4ba54c	-0.049718186
223	0xbe89fcdc	-0.2695073
224	0x3d97691b	0.07393094
225	0xbeb070d0	-0.3446107
226	0xbf0c35a7	-0.54769367
227	0xbeb6445f	-0.35599038
228	0xbdf1703e	-0.117889866
229	0x3df34508	0.11878401
230	0xbe245b8e	-0.1605055
231	0xbef28ca2	-0.4737292
232	0xbe735fb1	-0.23766972
233	0xbe31a9e4	-0.17349964
234	0x3e6f18c1	0.23349287
235	0xbeeb4b4a	-0.45955878
236	0xbe6499e1	-0.22324325
237	0xbee9bf80	-0.45653915
238	0x3cca4438	0.024690732
239	0x3e49e6e0	0.19716978
240	0xbe864ee0	-0.26232052
241	0xbefab362	-0.48964983
242	0xbde7b2ab	-0.11313375
243	0x3e0c0e2a	0.13677278
244	0x3e35e103	0.17761616
245	0xbedaa27b	-0.42702088
246	0xbe46ce66	-0.19414672
247	0xbe15f9a2	-0.14646009
248	0x3d87975a	0.06620665
249	0x3da66c5e	0.08126138

conv1.bias f4 [10]
0	0xbea90834	-0.3301407
1	0xbed32862	-0.41241747
2	0xbe00ce12	-0.1257861
3	0xbd9e7906	-0.07737927
4	0xbe9d48a4	-0.30719483
5	0xbea94ad2	-0.33064896
6	0xbdfcf355	-0.123510994
7	0xbe099d91	-0.13439013
8	0xbdba6abd	-0.0910239
9	0xbd2dd5a6	-0.04244008

conv2.weight f4 [20, 10, 5, 5]
0	0x3d9141db	0.07092639
1	0xbda0c3ed	-0.0784987
2	0xbde88ef4	-0.11355391
3	0xbe1f769e	-0.15572593
4	0x3e362405	0.17787178
5	0x3e2720e1	0.16321136
6	0xbe1c966f	-0.15291761
7	0xbd853c80	-0.0650568
8	0x3d92a162	0.071596876
9	0xbdf861d4	-0.12128034
10	0x3e262fbb	0.16229145
11	0xbdb387f5	-0.08766166
12	0xbe2740bb	-0.16333286
13	0xbdbbe0f5	-0.091737665
14	0xbe099a1e	-0.13437697
15	0xbe13091e	-0.14358947
16	0xbdb8d324	-0.09024647
17	0xbe290392	-0.16505268
18	0xbe39f497	-0.1815971
19	0x3e32709d	0.17425771
20	0xbe2892d0	-0.16462255
21	0xbe19b0a4	-0.1500879
22	0x3d847993	0.06468501
23	0x3da2f76a	0.07957347
24	0x3d8755a1	0.06608129
25	0xbde5cdcf	-0.112208955
26	0xbd950aa5	-0.07277421
27	0x3da31325	0.07962636
28	0xbd9bc79b	-0.07606431
29	0xbe0ea74d	-0.13931008
30	0x3dda8478	0.10669798
31	0x3d8a1eb9	0.06744141
32	0x3e237af8	0.15964878
33	0x3e00198d	0.12509747
34	0xbd91e770	-0.07124221
35	0x3de28647	0.110607676
36	0xbe309605	-0.17244728
37	0xbdab439d	-0.083625056
38	0xbdb8e015	-0.09027115
39	0xbe07d15c	-0.13263458
40	0x3e083148	0.1330005
41	0xbe2c8012	-0.1684573
42	0xbe134e1d	-0.14385267
43	0xbde78974	-0.11305514
44	0x3e1e57ef	0.15463232
45	0xbe37d715	-0.17953141
46	0x3df1d75d	0.118086554
47	0xbe1ba836	-0.15200886
48	0xbddca534	-0.107736975
49	0x3e072eca	0.13201442
50	0xbe9335fd	-0.28752127
51	0x3d8d18fe	0.068895325
52	0xbce4c35a	-0.027925182
53	0x3e0701f9	0.13184346
54	0xbadfc604	-0.0017072563
55	0xbf40f6fb	-0.7537686
56	0x3cf714bd	0.030161256
57	0x3e8d9666	0.27653807
58	0x3e02cd63	0.12773661
59	0xbe91bf30	-0.28466177
60	0xbd95f44d	-0.07321987
61	0x3e6bca03	0.2302628
62	0xbd434310	-0.047671378
63	0xbec100bb	-0.3769587
64	0xbe57bbdc	-0.21067756
65	0xbd5f2ad9	-0.054484222
66	0xbdbf5720	-0.0934279
67	0xbe348548	-0.17628968
68	0xbdb0daf1	-0.0863551
69	0xbe33a951	-0.17545058
70	0xbdc2264c	-0.09479961
71	0x3da260e2	0.07928635
72	0x3cd5bde6	0.026091527
73	0xbd9f6417	-0.077827625
74	0x3ecb8bc0	0.39755058
75	0x3e47efe3	0.19525103
76	0xbe31321f	-0.17304276
77	0xbe84eddb	-0.2596272
78	0xbdd9337c	-0.10605523
79	0xbe0d3263	-0.13788752
80	0xbe91d842	-0.28485304
81	0xbed5a408	-0.41726708
82	0xbe8a9e0a	-0.270737
83	0xbe9109ee	-0.28327888
84	0xbe5e5ff1	-0.21716286
85	0xbd03ede5	-0.032209296
86	0xbe03c072	-0.12866381
87	0xbf2b6a2e	-0.6695889
88	0xbf0f024d	-0.55862886
89	0xbf19a21a	-0.6001297
90	0x3d9cc4da	0.07654734
91	0xbe6de38f	-0.23231338
92	0xbe6269a7	-0.22110616
93	0xbe734699	-0.237574
94	0xbd69cc81	-0.057079796
95	0x3ec492a4	0.38393128
96	0x3e4a88b8	0.19778717
97	0x3e8f9a1f	0.28047273
98	0x3d9f70c8	0.07785183
99	0x3df91af6	0.121633455
100	0x3e837841	0.25677684
101	0x3dd1b77b	0.10240074
102	0x3de6154b	0.1123453
103	0xbe924567	-0.28568575
104	0xbe80098c	-0.25007284
105	0xbeac4412	-0.33645684
106	0xbd450c2f	-0.048107322
107	0x3d1952a2	0.03743232
108	0x3cd56b98	0.026052281
109	0x3ee92537	0.45536205
110	0xbee0ec2d	-0.43930188
111	0xbca01494	-0.019541062
112	0xbde8dcf3	-0.11370268
113	0xba65d620	-0.0008767564
114	0xbe40437a	-0.1877574
115	0x3e411b45	0.18858059
116	0x3e10cb69	0.14140095
117	0xbc3bfceb	-0.011473875
118	0xbd03a2ff	-0.032137867
119	0x3e0333e7	0.12812768
120	0x3e091872	0.13388231
121	0xbf17fc52	-0.59369385
122	0xbeb7ac03	-0.35873422
123	0xbdc5d9f4	-0.09660712
124	0x3d17472e	0.036933117
125	0x3da66512	0.081247464
126	0xbdfc2bef	-0.12313067
127	0xbda17021	-0.07882715
128	0xbd89af29	-0.06722862
129	0xbe11e70b	-0.14248292
130	0xbe026bb4	-0.12736398
131	0xbe3a3eaf	-0.18187974
132	0xbdf3e18a	-0.119082525
133	0xbd6fbc6f	-0.058529314
134	0x3dc8263c	0.09772918
135	0x3dc128d8	0.094316185
136	0x3dcddfe2	0.10052468
137	0xbe2113d3	-0.15730219
138	0xbe3a58e4	-0.18197972
139	0xbde3b1a5	-0.111178674
140	0x3d6bd6f6	0.05757805
141	0xbe0eaf28	-0.13934004
142	0xbe3b64b7	-0.18300138
143	0xbe2fd630	-0.1717155
144	0xbd8a224e	-0.06744824
145	0xbe05cba8	-0.1306597
146	0xbd90c7d7	-0.070693664
147	0xbe2bea30	-0.16788554
148	0xbe09c601	-0.13454439
149	0x3d9c5457	0.07633274
150	0x3e27a9c2	0.16373351
151	0x3dce34af	0.10068642
152	0xbdd25c6b	-0.102715336
153	0xbdd0590f	-0.101732366
154	0xbe005068	-0.12530673
155	0x3d93ee8e	0.07223235
156	0xbda77e57	-0.08178394
157	0x3e3a71c1	0.18207456
158	0x3d8664c2	0.06562187
159	0xbd846fd0	-0.06466639
160	0xbe190bc8	-0.149459
161	0xbdaeb89d	-0.08531306
162	0xbe057bd6	-0.13035521
163	0xbdc67b46	-0.09691481
164	0x3db10eb7	0.08645385
165	0x3e18fe26	0.149407
166	0x3e142d44	0.14470392
167	0x3e08068f	0.13283752
168	0xbdf2be1b	-0.11852666
169	0xbe2277b3	-0.15865974
170	0x3dfe2b1c	0.12410566
171	0x3e2eb93c	0.17062849
172	0x3dab0199	0.08349914
173	0xbdef5fb5	-0.116881765
174	0xbd87741d	-0.06613944
175	0xbe3ad009	-0.18243422
176	0xbdcdda5a	-0.10051413
177	0xbe0f73f1	-0.14009072
178	0xbe05ca11	-0.13065363
179	0x3df3b8a6	0.11900453
180	0x3e20a317	0.15687214
181	0xbde32e61	-0.110928304
182	0xbda9e7fb	-0.082962
183	0xbe0cab64	-0.13737255
184	0xbdaeca76	-0.0853471
185	0x3dbea0d0	0.09308016
186	0xbd9f1757	-0.077681236
187	0xbd83faad	-0.06444297
188	0xbde972e4	-0.11398867
189	0xbdd44b6e	-0.103659496
190	0xbd74aa78	-0.059732884
191	0xbd70388b	-0.058647674
192	0xbd8139b2	-0.06309833
193	0x3d9059a2	0.07048346
194	0xbe2c93b6	-0.16853222
195	0xbe27423c	-0.1633386
196	0xbdca8a51	-0.09889663
197	0x3de00f33	0.10940399
198	0x3d75bafb	0.05999277
199	0xbe303db5	-0.1721104
200	0xbe16042b	-0.14650027
201	0xbd7bd737	-0.06148454
202	0xbe2a1c4f	-0.16612361
203	0xbd8da20b	-0.06915673
204	0xbe02cab2	-0.12772635
205	0xbe224c8d	-0.15849514
206	0xbd88624a	-0.06659372
207	0xbdd271f9	-0.10275645
208	0xbdb246f9	-0.08704943
209	0xbdff1e02	-0.124568954
210	0x3dfe2543	0.12409451
211	0xbdf0da68	-0.11760408
212	0xbe2e33b0	-0.17011905
213	0xbe1b157e	-0.15144917
214	0xbe1c3b6a	-0.1525704
215	0xbe10b6c0	-0.14132214
216	0xbe1562af	-0.14588426
217	0xbe17da88	-0.14829457
218	0xbdd928ad	-0.106034614
219	0xbd8e4544	-0.06946805
220	0xbdf17b90	-0.11791146
221	0xbe0334a4	-0.1281305
222	0xbe4705d8	-0.19435823
223	0xbdeb7502	-0.11496927
224	0xbe2cbca0	-0.1686883
225	0xbd002334	-0.031283572
226	0xbde1c29d	-0.11023448
227	0xbd282528	-0.04105106
228	0x3dbd075a	0.09229918
229	0x3f29d69b	0.66343087
230	0x3e5b12bd	0.21393867
231	0x3d858af9	0.065206476
232	0xbecda433	-0.40164337
233	0x3e030223	0.12793784
234	0x3d6d976c	0.058005735
235	0xbdfa5551	-0.12223304
236	0xbebfc552	-0.3745523
237	0xbe877a14	-0.26460326
238	0xbedd084b	-0.4317039
239	0xbe87d392	-0.26528603
240	0xbe5d61e7	-0.21619378
241	0xbe77081e	-0.2412419
242	0xbeaa5ffc	-0.33276355
243	0xbef09f1c	-0.4699639
244	0xbe59f311	-0.21284129
245	0xbe8d15fc	-0.27555835
246	0xbe676bce	-0.22599718
247	0xbeb1b02d	-0.34704724
248	0x3e213ecc	0.15746611
249	0x3dd3af9f	0.103362314
250	0xbe2ff4b4	-0.1718319
251	0x3ddea23d	0.10870788
252	0x3d7d104b	0.061783116
253	0x3de8cb9e	0.11366962
254	0xbddbff2c	-0.107420295
255	0xbdf1b558	-0.11802167

conv2.bias f4 [20]
0	0xbe8ecffe	-0.2789306
1	0xbd5ee2ac	-0.05441539
2	0xbe17f1ec	-0.1483838
3	0x3d669501	0.056294445
4	0xbd117f56	-0.035521828
5	0xbd8f49ef	-0.069965236
6	0x3d619d3c	0.05508159
7	0xbddd0b3c	-0.107931584
8	0xbe23d0c1	-0.15997602
9	0xbe5f3606	-0.21797952
10	0xbe292a6b	-0.16520087
11	0xbd83e2a2	-0.06439711
12	0xbdad13cc	-0.084510416
13	0x3c13719c	0.008999255
14	0xbccf955c	-0.025339775
15	0xbe14363b	-0.14473812
16	0xbdfe864a	-0.12427957
17	0xbdeec4ba	-0.11658616
18	0xbdd3e8c5	-0.10347132
19	0x3cb0d856	0.021587532

fc1.weight f4 [50, 320]
0	0x3ee5a8e1	0.44855407
1	0x3f07b5d5	0.5301183
2	0x3ef5722e	0.47938675
3	0x3dc54eb7	0.09634154
4	0x3e8121ba	0.25221044
5	0x3db316e1	0.08744598
6	0xbddb8a91	-0.10719789
7	0xbe6520d7	-0.22375809
8	0xbd817f4c	-0.06323108
9	0x3d06e07f	0.03292894
10	0xbe1eb68d	-0.15499325
11	0x3b2e0520	0.0026553348
12	0xbe5b33bc	-0.21406454
13	0x3e228996	0.15872797
14	0x3e1a75f2	0.15084055
15	0x3d1d6b5a	0.038432457
16	0xbdb8e66e	-0.09028326
17	0xbdef0021	-0.116699465
18	0xbdf3c8f8	-0.11903566
19	0xbe096676	-0.13417992
20	0xbe2dd105	-0.16974266
21	0xbdf27306	-0.11838345
22	0xbe22a36c	-0.15882653
23	0xbdee8b1d	-0.116476275
24	0xbe262f8e	-0.16229078
25	0xbe0f05a2	-0.13966992
26	0xbdb1b784	-0.08677581
27	0xbd8cf34e	-0.06882344
28	0xbdac9213	-0.08426299
29	0xbe204d39	-0.15654458
30	0xbe334265	-0.17505796
31	0xbe19b804	-0.15011603
32	0x3da58d26	0.080835626
33	0x3d9cd339	0.07657475
34	0xbddf88ac	-0.1091474
35	0xbe048afa	-0.1294364
36	0xbdd525ad	-0.10407577
37	0xbd8448e1	-0.06459213
38	0xbe338530	-0.17531276
39	0xbe29e621	-0.16591693
40	0x3e0f5c65	0.1400009
41	0xbe28548f	-0.16438507
42	0xbdd49be8	-0.10381299
43	0xbe025428	-0.12727416
44	0xbde69352	-0.11258568
45	0xbda4a7ce	-0.08039819
46	0xbe1152ab	-0.14191692
47	0xbdbe271d	-0.09284804
48	0x3e9612a3	0.29311094
49	0x3ce29933	0.027660942
50	0xbdcf0c90	-0.10109818
51	0xbe21ae3d	-0.15789123
52	0xbe93edf5	-0.28892484
53	0xbd9534a5	-0.07285432
54	0xbe1079c8	-0.14108956
55	0x3a3b3d5a	0.0007142626
56	0xbe6a3d9c	-0.22875065
57	0x3d203bad	0.03911941
58	0x3ec649bd	0.38728133
59	0x3e9a5dd8	0.30149722
60	0x3d1a81e6	0.037721537
61	0x3e567a00	0.20944977
62	0x3e4154d7	0.1888002
63	0xbe51f19a	-0.2050232
64	0x3da8aaf2	0.0823573
65	0xbea14efd	-0.31505576
66	0xbea0b3a6	-0.3138706
67	0xbe492590	-0.19643235
68	0xbdf4de52	-0.11956467
69	0xbe79a101	-0.24377824
70	0xbdd07455	-0.101784386
71	0xbe139d0f	-0.14415382
72	0x3c383c9e	0.011244921
73	0xbea76522	-0.32694346
74	0xbdbf32e3	-0.09335878
75	0xbe1bc354	-0.1521123
76	0xbd003d16	-0.031308256
77	0xbe08d1f5	-0.13361342
78	0x3e0501c9	0.12988962
79	0x3e04e72d	0.12978812
80	0xbdb76514	-0.08954826
81	0xbd98af3d	-0.07455299
82	0x3e03aad6	0.12858137
83	0xbde6467e	-0.11243914
84	0x3e02fad3	0.12790994
85	0x3e11766b	0.14205329
86	0xbe0ee8aa	-0.13955942
87	0xbdeac3a6	-0.11463098
88	0xbda09158	-0.07840222
89	0xbe2c3ad3	-0.16819315
90	0xbe174a9c	-0.14774555
91	0x3da0592f	0.078295104
92	0x3da8fcb9	0.08251328
93	0xbe2a60b8	-0.16638458
94	0xbe1991a7	-0.14996968
95	0x3e12ddc8	0.14342415
96	0x3e500491	0.20314242
97	0x3e7e72d6	0.24848494
98	0xbf121f08	-0.570786
99	0xbf2b9884	-0.67029595
100	0xbcd46540	-0.025927186
101	0xbe22cff3	-0.15899639
102	0xbef95339	-0.48696306
103	0xbcb48c10	-0.022039443
104	0x3d7d422f	0.061830696
105	0xbcbb9e43	-0.022902614
106	0x3e679e8c	0.22619075
107	0x3e9d3548	0.30704713
108	0x3e93baf1	0.28853562
109	0x3e22b5aa	0.15889612
110	0x3e391eee	0.18078205
111	0x3e930ad8	0.2871921
112	0x3db22757	0.0869891
113	0xbdd16b84	-0.10225585
114	0xbe079506	-0.13240442
115	0xbddbd0a6	-0.10733156
116	0x3e217e2d	0.15770788
117	0xbd7c8312	-0.061648436
118	0xbdbd5939	-0.092455335
119	0x3dcc7500	0.099832535
120	0xbde47bc4	-0.11156419
121	0xbd945e50	-0.07244551
122	0xbdd2eb44	-0.102987796
123	0xbe1b70d1	-0.15179755
124	0x3dd47019	0.103729434
125	0x3e09a5be	0.13442132
126	0x3dd51495	0.10404316
127	0xbd8f7a65	-0.07005767
128	0xbe1ba5c7	-0.15199958
129	0xbe1f0837	-0.15530477
130	0xbdc2708a	-0.094941214
131	0xbdc5b598	-0.09653777
132	0xbe15b71f	-0.14620636
133	0xbdf54bfc	-0.119773835
134	0xbd85d691	-0.06535066
135	0xbdd1947e	-0.10233401
136	0xbdb9404e	-0.09045468
137	0xbe1f83c0	-0.15577602
138	0xbd8e1a65	-0.06938628
139	0xbdc90630	-0.09815633
140	0xbe037e62	-0.1284118
141	0xbe15c1c1	-0.14624692
142	0xbe0bbfcb	-0.13647382
143	0xbd8be476	-0.06830685
144	0x3d431cf5	0.047635037
145	0xbe990a39	-0.29890612
146	0xbecb7d96	-0.39744252
147	0xbe3d0003	-0.18457036
148	0xbe5a7648	-0.21334183
149	0xbe403f76	-0.18774208
150	0xbe8d7a33	-0.27632293
151	0xbe045e79	-0.12926663
152	0xbf0a29da	-0.5397011
153	0x3e16de5d	0.14733262
154	0xbda35218	-0.079746425
155	0xbe829be9	-0.25509575
156	0xbdb91ecf	-0.090390794
157	0xbecd1cd1	-0.40061048
158	0xbd9ff9f6	-0.07811348
159	0xbd92c1e4	-0.07165888
160	0x3e162ff7	0.14666735
161	0x3c3e0608	0.011598118
162	0xbcb95240	-0.022622228
163	0x3e9bd887	0.30438635
164	0x3e1e82a8	0.15479529
165	0x3ebcd1c4	0.36878788
166	0x3d6400eb	0.055664938
167	0xbed88a96	-0.42293233
168	0xbbbbe9ec	-0.005734673
169	0xbe7148af	-0.23562883
170	0xbeb898a9	-0.3605397
171	0xbe9115ff	-0.28337094
172	0xbf0cbdba	-0.54977
173	0x3e6a4835	0.22879107
174	0x3e1b1128	0.15143263
175	0xbe985454	-0.29751837
176	0xbd2b5b70	-0.04183525
177	0x3e165326	0.14680156
178	0x3d91441e	0.070930704
179	0x3e05f0bb	0.13080113
180	0x3d8ae681	0.067822464
181	0x3e2497ef	0.16073583
182	0x3db7dde3	0.089778684
183	0xbe0ee128	-0.13953078
184	0x3da4f7e3	0.08055093
185	0x3e09b448	0.13447678
186	0xbe159e17	-0.14611088
187	0x3dfd3ea0	0.123654604
188	0xbdfad7a5	-0.12248162
189	0xbe078025	-0.13232477
190	0xbe1c8d87	-0.15288363
191	0x3e1b78ef	0.15182851
192	0xbe009017	-0.12554966
193	0xbdb57e6f	-0.08862006
194	0xbda1659f	-0.07880711
195	0x3dcfb1ed	0.101413585
196	0xbe06f77a	-0.13180342
197	0xbd9ed8e0	-0.077562094
198	0xbd894f57	-0.06704586
199	0xbd8c49e6	-0.068500325
200	0xbd877039	-0.06613202
201	0xbe291c22	-0.16514638
202	0x3da25459	0.07926244
203	0xbda47a92	-0.08031191
204	0xbdac05bc	-0.08399531
205	0xbdbda48e	-0.09259902
206	0xbe1b91c3	-0.15192322
207	0xbdc53671	-0.096295245
208	0xbe51b28a	-0.20478263
209	0x3e78da23	0.24301963
210	0xbeae197a	-0.34003812
211	0xbe7e2866	-0.24820098
212	0x3eb5b741	0.35491374
213	0x3e731bf4	0.23741132
214	0xbe810eeb	-0.25206694
215	0x3eab1be6	0.33419722
216	0xbcdcb1c0	-0.026940227
217	0x3cd7901a	0.02631383
218	0x3cc942b1	0.024567934
219	0xbf227b6f	-0.63469595
220	0xbf412baf	-0.7545728
221	0xbe0d1f74	-0.1378153
222	0xbe9b8a77	-0.30379078
223	0x3e170089	0.14746298
224	0x3db01274	0.0859727
225	0x3e2cb29e	0.16865012
226	0x3e4680ea	0.19385114
227	0x3e0d2542	0.13783744
228	0x3e133ae5	0.14377935
229	0x3e31d28c	0.17365474
230	0x3e08d7d1	0.13363577
231	0x3db4553e	0.08805321
232	0x3dd50ce8	0.10402852
233	0xbd5759d2	-0.052575894
234	0x3e48dc7f	0.19615363
235	0x3d83b454	0.06430879
236	0x3daf8ba0	0.08571553
237	0x3dee0615	0.11622254
238	0x3e4376d1	0.19088294
239	0x3e006dcf	0.12541889
240	0xbdd109d3	-0.10206952
241	0xbe055927	-0.1302229
242	0x3e0de134	0.1385544
243	0x3db46489	0.08808238
244	0xbe06042c	-0.13087529
245	0xbe332d15	-0.17497666
246	0xbdb6a107	-0.08917432
247	0xbdeda259	-0.11603231
248	0xbe0c0ec0	-0.13677502
249	0xbdfeefe5	-0.124481
250	0x3e1cad25	0.15300424
251	0x3dc57896	0.096421406
252	0xbded0413	-0.11573043
253	0xbe0f8707	-0.14016353
254	0xbdb53756	-0.08848445
255	0xbe281223	-0.16413169

fc1.bias f4 [50]
0	0xbe2f1ccc	-0.17100829
1	0xbd7d446c	-0.06183283
2	0x3e61b016	0.22039828
3	0xbcd1c570	-0.02560684
4	0x3e3b0fc0	0.18267727
5	0xbda8dd0c	-0.08245286
6	0xbdd8c002	-0.105834976
7	0xbc2f97e5	-0.010717367
8	0xbcf0276c	-0.029315673
9	0xbe361a01	-0.17783357
10	0xbe2fd76a	-0.17172018
11	0xbe7349f0	-0.23758674
12	0x3e731179	0.23737134
13	0xbdb4d41c	-0.08829519
14	0x3d0a53ad	0.033771206
15	0x3ed26e02	0.41099554
16	0x3d0378dc	0.032097682
17	0xbd6efbdd	-0.058345664
18	0xbc98a85c	-0.018634968
19	0x3e41c8c3	0.18924241
20	0xbd81abbb	-0.06331583
21	0x3e51fac2	0.20505813
22	0xbdb2f129	-0.08737404
23	0x3e94f0d5	0.2908999
24	0xbe12d091	-0.14337374
25	0xbebeb03e	-0.37243837
26	0x3bc01b7c	0.0058626514
27	0xbeba44f0	-0.3638072
28	0xbd822e85	-0.06356529
29	0xbebbf2eb	-0.3670877
30	0xbe91de9a	-0.28490144
31	0xbe9467d4	-0.28985465
32	0xbeb60261	-0.3554869
33	0x3dd71ed8	0.1050393
34	0xbcbdbf86	-0.023162615
35	0xbe7dd621	-0.24788715
36	0xbd068d3f	-0.032849547
37	0xbebfbcb4	-0.37448657
38	0xbe419136	-0.1890305
39	0xbe12fe15	-0.14354737
40	0xbe5140d1	-0.20434882
41	0xbe8ca7a0	-0.27471638
42	0xbd1665e7	-0.036718275
43	0xbd2b1c20	-0.04177487
44	0x3ea4e52d	0.32206097
45	0x3eb48a5e	0.35261816
46	0xbeb0e805	-0.34552017
47	0x3e8fa671	0.28056672
48	0x3e8caea7	0.27477
49	0xbe20f561	-0.15718605

fc2.weight f4 [10, 50]
0	0x3c8d2be8	0.01723285
1	0xbe92bec2	-0.28661162
2	0xbe4f1cdc	-0.20225853
3	0x3e9cbb2f	0.3061156
4	0x3ccb0f56	0.024787586
5	0xbbb41164	-0.005495237
6	0xbe827ed5	-0.2548739
7	0xbea35880	-0.31903458
8	0xbe3883db	-0.18019049
9	0xbe8ff0c2	-0.2811337
10	0x3b810c5b	0.0039382405
11	0x3e65d78b	0.22445504
12	0xbef4d5ee	-0.47819465
13	0x3e5bf53e	0.21480271
14	0xbeed85b1	-0.4639106
15	0xbec67f22	-0.3876887
16	0x3e1ff981	0.15622522
17	0x3ea97170	0.33094358
18	0x3e938aa9	0.28816727
19	0xbf0357f9	-0.5130611
20	0x3e9f3e79	0.3110235
21	0xbedf0f6a	-0.43566447
22	0xbec289dd	-0.37995806
23	0xbf042d33	-0.5163147
24	0xbee3badf	-0.4447851
25	0xbe97f1dc	-0.29676712
26	0xbea3ace2	-0.31967837
27	0xbe486dbe	-0.19573113
28	0x3dd2ee02	0.10299303
29	0x3dc11065	0.09426955
30	0x3c930b43	0.017949706
31	0xbe971661	-0.2950926
32	0xbe87284e	-0.26397938
33	0xbf300871	-0.6876288
34	0xbe3981e3	-0.18115954
35	0xbea64830	-0.3247695
36	0xbea8de6a	-0.32982188
37	0xbc358f64	-0.01108155
38	0xbe04c447	-0.12965499
39	0xbd811339	-0.063024946
40	0xbc192c79	-0.009348982
41	0x3ea0ef68	0.31432652
42	0x3e2de9d4	0.1698373
43	0xbebe2e97	-0.3714492
44	0xbda01c7e	-0.078179345
45	0xbe02e74b	-0.12783544
46	0x3d28aa05	0.04117777
47	0xbdcacabd	-0.099019505
48	0xbd9e978b	-0.07743748
49	0xbc47a139	-0.012184435
50	0xbe551d62	-0.2081199
51	0xbe5d971b	-0.21639673
52	0x3e87ddbc	0.26536357
53	0xbec4091c	-0.382882
54	0x3da2baff	0.07945823
55	0x3e98a4ab	0.29813132
56	0x3e81d31f	0.25356385
57	0xbe853707	-0.26018545
58	0xbe86626e	-0.2624697
59	0x3d33a61a	0.04385958
60	0x3d120282	0.035646923
61	0xbe529790	-0.20565629
62	0x3e57ec56	0.21086249
63	0xbecbe6b5	-0.39824453
64	0xbd18a230	-0.03726405
65	0x3e2cc599	0.16872253
66	0xbeeceab5	-0.46272817
67	0xbec195a6	-0.37809485
68	0xbecbbafa	-0.3979109
69	0xbe249bd1	-0.16075064
70	0x3cfb1b17	0.030652566
71	0x3e93eee1	0.28893188
72	0xbec31f05	-0.38109604
73	0x3ea9d0d2	0.3316713
74	0x39b6c708	0.00034862035
75	0xbf327de2	-0.6972333
76	0xbf03e2b3	-0.5151779
77	0x3e97a161	0.2961531
78	0xbee544b9	-0.44778994
79	0x3d57b1e8	0.0526599
80	0xbe2abd20	-0.16673708
81	0xbf261545	-0.64876205
82	0xbe39e44d	-0.18153496
83	0xbed486cf	-0.415091
84	0xbef2dac9	-0.47432545
85	0xbdf05b7c	-0.11736199
86	0x3db1de3f	0.08684968
87	0x3e40bd5a	0.18822232
88	0xbe6fb5c4	-0.23409182
89	0xbea79b90	-0.32735872
90	0xbe9b39da	-0.30317575
91	0xbf0ece2a	-0.5578333
92	0xbebff622	-0.37492472
93	0x3d54ae75	0.051924188
94	0xbd081cea	-0.0332307
95	0x3e89daec	0.26924837
96	0x3db2597f	0.08708476
97	0xbcf96226	-0.030442309
98	0xbf23434d	-0.6377457
99	0x3d6da2d9	0.05801663
100	0xbe856384	-0.26052487
101	0xbde12e13	-0.10995116
102	0x3e2c8f89	0.1685163
103	0xbe506965	-0.20352705
104	0xbf023230	-0.5085783
105	0x3d85d598	0.065348804
106	0xbe03dd88	-0.12877476
107	0x3d6951f6	0.05696293
108	0xbdc5ee66	-0.096646115
109	0xbee64143	-0.44971666
110	0x3de5d569	0.112223454
111	0x3d1e65b6	0.038671218
112	0xbec808b2	-0.39069134
113	0x3dd7c2ee	0.10535227
114	0x3dabaeb9	0.08382935
115	0x3e19fc0a	0.15037552
116	0x3eaa55db	0.33268628
117	0xbbc59c10	-0.006030567
118	0xbde85ae6	-0.113454625
119	0xbf10b4b6	-0.56525743
120	0x3e2fcecc	0.1716873
121	0x3e5d41e1	0.21607162
122	0xbe04cf48	-0.12969697
123	0xbd88d622	-0.066814676
124	0xbd8b54dc	-0.06803295
125	0xbda5f339	-0.08103032
126	0xbdd35569	-0.10319025
127	0xbee31903	-0.4435502
128	0xbe528d62	-0.20561746
129	0x3e5cd66a	0.21566167
130	0xbe9b714e	-0.30359882
131	0x3d9dffee	0.0771483
132	0xbe9c0d70	-0.30479002
133	0xbea144ae	-0.3149771
134	0x3daa3ba3	0.08312156
135	0x3e7a4f58	0.2444433
136	0xbebb3f06	-0.3657152
137	0xbeb2e7e2	-0.34942538
138	0x3e28a508	0.16469204
139	0x3e72974c	0.23690528
140	0xbdbb87df	-0.09156775
141	0xbdcf78b1	-0.10130442
142	0xbe109dc6	-0.14122686
143	0x3e54eb27	0.20792829
144	0x3e6ac4f8	0.229267
145	0x3e990041	0.29883006
146	0xbdcc8460	-0.09986186
147	0xbf0e2f68	-0.55541086
148	0xbeeb91cb	-0.4600967
149	0x3e85f56f	0.26163813
150	0xbea8d895	-0.3297774
151	0xbe1433f2	-0.1447294
152	0xbe559ace	-0.20859835
153	0x3e607bf5	0.21922286
154	0xbe860ad4	-0.26180136
155	0xbebcde6f	-0.36888453
156	0xbe89e917	-0.26935646
157	0x3e0e4fe3	0.13897662
158	0x3e239b04	0.15977103
159	0x3d780d63	0.06055964
160	0x3d2bc9e2	0.041940577
161	0xbef453b1	-0.477201
162	0xbe7c0ae4	-0.2461353
163	0xbc349500	-0.0110218525
164	0x3eb058a2	0.3444262
165	0xbe1cfc87	-0.15330707
166	0x3e95cf58	0.29259753
167	0xbde058c6	-0.10954432
168	0xbe5cedf2	-0.21575144
169	0xbe7e611c	-0.24841732
170	0xbed4497c	-0.41462314
171	0xbe06bd60	-0.13158178
172	0xbe9debb6	-0.30843896
173	0x3e993173	0.2992054
174	0xbe45e974	-0.19327337
175	0x3d0d082e	0.03443163
176	0xbf1473b3	-0.57989043
177	0xbf1389ac	-0.57631946
178	0x3d237f50	0.039916337
179	0x3da9bfbc	0.082885236
180	0xbd015dcd	-0.031583596
181	0xbeaaaaab	-0.33333334
182	0xbd4ff114	-0.05076702
183	0x3cee8c5d	0.029119665
184	0x3ec07c89	0.37595013
185	0x3c1f396d	0.009718281
186	0xbed5298a	-0.41633254
187	0xbeb92b42	-0.36165816
188	0x3e16fb02	0.1474419
189	0xbedd69ca	-0.43244773
190	0xbd185e71	-0.03719944
191	0xbe8bf339	-0.27334002
192	0xbea51396	-0.32241505
193	0xbe0e761b	-0.13912241
194	0x3ebdc5cf	0.37064978
195	0x3c581517	0.013188622
196	0xbd14afc9	-0.036300454
197	0x3e77f67b	0.24215119
198	0xbd3495aa	-0.044088043
199	0x3d2c0273	0.041994523
200	0xbea8b8a3	-0.32953367
201	0xbe9f3fe5	-0.31103435
202	0x3d9bc19b	0.07605287
203	0xbe9aa61f	-0.30204865
204	0xbf007038	-0.5017123
205	0x3d7ca068	0.061676413
206	0xbe8f37fa	-0.27972394
207	0x3e47bd27	0.1950575
208	0x3e20d6b4	0.15706903
209	0xbc06a50e	-0.008218063
210	0xbdddcd75	-0.108302034
211	0xbd1947a5	-0.03742184
212	0x3e379d6e	0.17931148
213	0xbe886ecd	-0.26647034
214	0xbea4f2c7	-0.32216474
215	0xbe915991	-0.28388646
216	0xbeebbf68	-0.4604447
217	0xbebb8c8d	-0.3663067
218	0xbeecad46	-0.46225947
219	0xbd8007be	-0.06251477
220	0xbd186ee6	-0.037215136
221	0x3d38c0b9	0.04510567
222	0xbd5bca70	-0.053659856
223	0xbc859562	-0.016306583
224	0x3cb383f3	0.021913504
225	0xbeaaaa83	-0.33333215
226	0x3e89e3da	0.2693165
227	0xbe587d21	-0.21141483
228	0xbef067c2	-0.4695416
229	0xbe53bfef	-0.20678686
230	0xbe8c2f22	-0.2737971
231	0x3eb1b3af	0.347074
232	0xbec41f99	-0.38305357
233	0x3e607d21	0.21922733
234	0xbe94e002	-0.29077154
235	0xbeac5813	-0.33660945
236	0x3e213a63	0.15744929
237	0xbd051ffe	-0.032501213
238	0x3e8478d3	0.25873432
239	0x3e524010	0.2053225
240	0xbd647e1b	-0.055784326
241	0xbe1f3b61	-0.15549995
242	0x3d8f4896	0.069962665
243	0xbe721ba3	-0.23643355
244	0xbf1bdf71	-0.6088782
245	0xbea27e91	-0.31737188
246	0xbe7aff10	-0.24511361
247	0xbe8867d9	-0.2664173
248	0x3e5fc6a9	0.21853127
249	0x3e9b9ba0	0.3039217
250	0x3e4614f4	0.1934393
251	0xbe8d8318	-0.2763908
252	0xbecbe2dd	-0.3982152
253	0x3e88c756	0.2671458
254	0x3e5611f0	0.2090528
255	0xbe604226	-0.21900234

fc2.bias f4 [10]
0	0xbd8e8e66	-0.06960754
1	0x3e03b907	0.12863551
2	0x3d5afdc0	0.05346465
3	0x3ea0490a	0.31305724
4	0xbe1fac32	-0.15593031
5	0x3e2083ec	0.15675324
6	0xbeaa58ee	-0.33270973
7	0xbdddead5	-0.10835806
8	0xbb183159	-0.0023222773
9	0x3df5b6af	0.11997735

exp_avg f4 [10, 1, 5, 5]
0	0x2f9b434f	2.824216e-10
1	0x2f5ef010	2.027607e-10
2	0x2f64c302	2.080576e-10
3	0x2f827349	2.3728777e-10
4	0x2f50978b	1.8971329e-10
5	0x2fb725d8	3.3314396e-10
6	0x2fd66801	3.9000272e-10
7	0x302e0a85	6.331578e-10
8	0x303a993e	6.7884176e-10
9	0x30146564	5.398617e-10
10	0x3012de60	5.3430504e-10
11	0x305b6d72	7.9827267e-10
12	0x308b46ae	1.013367e-09
13	0x30828992	9.497845e-10
14	0x3088fbb3	9.96684e-10
15	0x307cb8b6	9.1939556e-10
16	0x308bbdcb	1.0167523e-09
17	0x309e291c	1.1507697e-09
18	0x30a5004f	1.2005418e-09
19	0x30a90850	1.2298731e-09
20	0x3089e063	1.0031836e-09
21	0x30879697	9.865343e-10
22	0x30a54bd4	1.2026882e-09
23	0x30a82b57	1.2235927e-09
24	0x308bb283	1.0164317e-09
25	0x2e76dfb5	5.6132616e-11
26	0x2ef83e32	1.12887824e-10
27	0x2ec7e668	9.090401e-11
28	0x2ed47bbe	9.662625e-11
29	0x2ec84ee0	9.108958e-11
30	0xacf3d7ee	-6.9304484e-12
31	0x2e209ef7	3.6520977e-11
32	0x2e447655	4.467034e-11
33	0x2eca206b	9.191655e-11
34	0x3078ddc3	9.0537017e-10
35	0xafc83398	-3.6416448e-10
36	0x2d452205	1.1205707e-11
37	0x2e93df57	6.724459e-11
38	0x2edc505f	1.00187185e-10
39	0x30c6e140	1.4470416e-09
40	0x32abdad1	2.0006526e-08
41	0x30969eca	1.0959067e-09
42	0x2ea97e99	7.7077185e-11
43	0x32d6947e	2.4980405e-08
44	0x3376eb8a	5.749056e-08
45	0x3356c7af	5.000737e-08
46	0x32ec542e	2.7512296e-08
47	0xb11b6bc7	-2.2616733e-09
48	0x31829c91	3.8012975e-09
49	0x333ebc6f	4.44092e-08
50	0xbd5fb5dc	-0.054616794
51	0xbd366c34	-0.044536784
52	0xbcdbe9c6	-0.02684487
53	0xbc33f04a	-0.010982582
54	0xbba21c32	-0.004947209
55	0xbd9492e3	-0.07254579
56	0xbd084b60	-0.03327501
57	0xbbf83fb0	-0.0075759515
58	0x3c07a3c3	0.00827879
59	0xba1974c8	-0.00058538886
60	0xbd98ef04	-0.074674636
61	0xbd195e0e	-0.037443213
62	0xbc0193b5	-0.007908751
63	0x3b26156e	0.0025342363
64	0xbb16f55c	-0.002303443
65	0xbd4778bd	-0.04869913
66	0xbd18c1db	-0.03729425
67	0xbb8a2a76	-0.0042164875
68	0xbb0c4dc2	-0.0021408652
69	0xbbb2bdc4	-0.0054547507
70	0xbd09fb03	-0.03368665
71	0xbc934b80	-0.017980337
72	0xbc1bfcc6	-0.009520715
73	0xbc009f18	-0.007850431
74	0xbc2ace1a	-0.010425115
75	0xbc351ba0	-0.01105395
76	0xbbf10f38	-0.0073565505
77	0x3c31386a	0.010816673
78	0xbc13291d	-0.00898197
79	0xbd059ae0	-0.032618403
80	0xbb47bd2c	-0.0030477745
81	0x3c68acb0	0.014201328
82	0x3c62989d	0.013830331
83	0xbc9654a4	-0.018350907
84	0xbd0cfa7d	-0.03441857
85	0xbc1ba261	-0.009499163
86	0xbafca429	-0.0019274998
87	0xbc9f4147	-0.019440306
88	0xbd3340d9	-0.043763015
89	0xbd3ea920	-0.04654801
90	0xbaefcf84	-0.0018296097
91	0x3b2c61c9	0.0026303402
92	0xbb875ae0	-0.004130706
93	0xbcacabde	-0.021078046
94	0xbd1413c5	-0.036151666
95	0xbbeea8da	-0.0072833123
96	0xbaae559d	-0.0013300661
97	0xbb52f818	-0.0032191332
98	0xbcb82868	-0.022480205
99	0xbd149b13	-0.036280703
100	0xbc5de912	-0.013544338
101	0x399b0f16	0.00029575144
102	0xbac66892	-0.0015137366
103	0xba93c6f4	-0.0011274503
104	0xbb5ea495	-0.003397261
105	0xba8dafd7	-0.0010809851
106	0x39b07718	0.00033658068
107	0x3945815f	0.00018835579
108	0xb7703fb7	-1.43199495e-05
109	0xb56bd200	-8.784991e-07
110	0xbae5c1c1	-0.0017529057
111	0x3a072917	0.0005155964
112	0x3a82aca3	0.0009969663
113	0xb9ae9237	-0.00033296805
114	0x3a5a353a	0.00083239714
115	0xbbfeb635	-0.0077731856
116	0x3bcbb5bd	0.0062167333
117	0x3bc4ee37	0.0060098427
118	0xbb492c82	-0.0030696695
119	0x3b508765	0.0031818983
120	0xbd0ec32a	-0.03485409
121	0xbc89fc31	-0.016843887
122	0xbb607144	-0.00342472
123	0xbc9250fd	-0.017860884
124	0xbc86bb37	-0.016446693
125	0x2f5febf2	2.0365556e-10
126	0x2f87ae77	2.4680322e-10
127	0x303c6cbd	6.854853e-10
128	0x306f99d5	8.71663e-10
129	0x304f9e33	7.5530976e-10
130	0x30286506	6.1261607e-10
131	0x2fff6510	4.645604e-10
132	0x305cd75e	8.034159e-10
133	0x308b5bc0	1.0139658e-09
134	0x3084e02c	9.667978e-10
135	0x30373d80	6.666241e-10
136	0x303aef82	6.8006767e-10
137	0x307b6869	9.1461644e-10
138	0x3083eeae	9.599341e-10
139	0x3085b852	9.729411e-10
140	0x3037432c	6.667047e-10
141	0x303969d5	6.7453004e-10
142	0x300cb507	5.118896e-10
143	0x301e15ff	5.7511323e-10
144	0x301f611b	5.798186e-10
145	0x2fa4a6fb	2.9950073e-10
146	0x2f135372	1.3399218e-10
147	0x2e1c35a7	3.5517946e-11
148	0x2e36f6c2	4.1601174e-11
149	0x2df15cbd	2.7439712e-11
150	0x30a36573	1.1888645e-09
151	0x308d5804	1.0284116e-09
152	0x308a0c4f	1.004432e-09
153	0x30336267	6.525966e-10
154	0x303a83c7	6.785367e-10
155	0x30950adf	1.0844267e-09
156	0x303d579c	6.88823e-10
157	0x300d1f42	5.133992e-10
158	0x2fb36a9b	3.2635658e-10
159	0x300fa69c	5.2259863e-10
160	0x304a8ddc	7.3688766e-10
161	0x2f9fbd2f	2.9056355e-10
162	0x2f6d8fd1	2.1606118e-10
163	0x2f39d394	1.690082e-10
164	0x301cdb16	5.706381e-10
165	0x2f9b1bc8	2.8214076e-10
166	0x2d26ed06	9.488637e-12
167	0x2de4afb4	2.5998627e-11
168	0x2eb77361	8.342372e-11
169	0x3037a91d	6.6815337e-10
170	0x2ecd23c4	9.328674e-11
171	0x2d2164e1	9.17419e-12
172	0x2c9bc8e3	4.427668e-12
173	0x2edfecbe	1.018292e-10
174	0x30a7e568	1.221605e-09
175	0x2f29a957	1.5430622e-10
176	0x37c8f8ab	2.3957653e-05
177	0x37c0ad71	2.2968949e-05
178	0x35be7080	1.4188845e-06
179	0x3059a6cd	7.918118e-10
180	0x2fae15f7	3.1666023e-10
181	0x36bc9554	5.6202207e-06
182	0x378d21f8	1.6824328e-05
183	0x32aefe99	2.0372044e-08
184	0x30830566	9.533039e-10
185	0x2fd49623	3.8669254e-10
186	0x3621a882	2.4088954e-06
187	0x378b1564	1.6580052e-05
188	0x30406183	6.9987766e-10
189	0x30884b93	9.916782e-10
190	0x2f95b9b8	2.7234903e-10
191	0x2f86e3c5	2.4536298e-10
192	0x2ffca8b1	4.5958395e-10
193	0x306b5342	8.561082e-10
194	0x308203d6	9.459835e-10
195	0x379a9200	1.8426217e-05
196	0x3020c0d9	5.8481714e-10
197	0x30694c8e	8.4873697e-10
198	0x30ae0c91	1.2663738e-09
199	0x3091cfa1	1.060915e-09
200	0x311eddf3	2.311819e-09
201	0x309be050	1.1341488e-09
202	0x304742c6	7.249067e-10
203	0x30bff4db	1.3966671e-09
204	0x30e8db97	1.6942633e-09
205	0x30dcf8ca	1.6077817e-09
206	0x30a3dccf	1.1922568e-09
207	0x30740d46	8.8785546e-10
208	0x3095c959	1.0898403e-09
209	0x30b39637	1.3066658e-09
210	0x30d4a71f	1.5472529e-09
211	0x30dfddad	1.628839e-09
212	0x30ce8e00	1.5028832e-09
213	0x30c104f5	1.4044007e-09
214	0x2f9fd472	2.9072883e-10
215	0x3094620e	1.0796286e-09
216	0x30d6f8f4	1.5641306e-09
217	0x30f586fc	1.7864461e-09
218	0x31059a36	1.9441706e-09
219	0x313b8833	2.7289502e-09
220	0x31049aba	1.929648e-09
221	0x3119ec16	2.239863e-09
222	0x3133ab04	2.614514e-09
223	0x31890593	3.9878585e-09
224	0x3367b5aa	5.39491e-08
225	0xbb1ff2f2	-0.0024406281
226	0x3a7e9756	0.0009711882
227	0x3c814932	0.015781973
228	0x3d5c351c	0.053761587
229	0x3dc1feaf	0.09472405
230	0x3a627486	0.0008638579
231	0xb90b9f38	-0.00013315387
232	0x3c3be374	0.011467803
233	0x3d73ebc8	0.05955103
234	0x3dec8c11	0.11550153
235	0x3a6a18bd	0.0008930078
236	0xba43c95c	-0.00074686646
237	0x3c610c82	0.013735892
238	0x3d99f37c	0.07517144
239	0x3df340ff	0.118776314
240	0xb9738754	-0.000232247
241	0xba53c75e	-0.0008078719
242	0x3d0af157	0.033921566
243	0x3ddaf07d	0.10690401
244	0x3de93a75	0.11388103
245	0x3afb4e2c	0.0019173077
246	0x39bd5e44	0.00036119123
247	0x3d887a4c	0.06663951
248	0x3de9038e	0.11377631
249	0x3dab5cc5	0.08367304

exp_avg_sq f4 [10, 1, 5, 5]
0	0x32f8e8d9	2.8976887e-08
1	0x324d1827	1.1938062e-08
2	0x31dddd04	6.457073e-09
3	0x32137d88	8.585069e-09
4	0x32496809	1.1723395e-08
5	0x330305ea	3.0506193e-08
6	0x330b2174	3.2393885e-08
7	0x336693cb	5.3685465e-08
8	0x338560d1	6.210906e-08
9	0x3364b8c3	5.3253427e-08
10	0x336294ac	5.275494e-08
11	0x33b7f6f8	8.566525e-08
12	0x340e57a2	1.3256661e-07
13	0x340df6a0	1.322137e-07
14	0x3432cab6	1.6651288e-07
15	0x33f8421c	1.1560425e-07
16	0x34102041	1.3422779e-07
17	0x342966dc	1.5776772e-07
18	0x344e4f5d	1.9214117e-07
19	0x3476fbae	2.3002096e-07
20	0x340f51d8	1.3347687e-07
21	0x341b2001	1.4447143e-07
22	0x345df59c	2.0671581e-07
23	0x3457e800	2.0107836e-07
24	0x3421c756	1.5066811e-07
25	0x30789bb1	9.0443125e-10
26	0x31961962	4.3684603e-09
27	0x312afb34	2.4881048e-09
28	0x30e391cd	1.6557863e-09
29	0x30cbdb70	1.4832562e-09
30	0x2f14f954	1.3549101e-10
31	0x301625d0	5.4623417e-10
32	0x302b38fa	6.2290406e-10
33	0x30fe4329	1.850002e-09
34	0x309c2937	1.1362208e-09
35	0x2ee7f6ac	1.05484815e-10
36	0x2e260429	3.7747725e-11
37	0x30b53d0c	1.3186834e-09
38	0x30b834ec	1.3402803e-09
39	0x30492292	7.31725e-10
40	0x323d4488	1.101683e-08
41	0x311f60fc	2.3192674e-09
42	0x31e53615	6.6709256e-09
43	0x327f53db	1.486202e-08
44	0x337aeab6	5.842113e-08
45	0x338406dd	6.1479774e-08
46	0x33073841	3.14833e-08
47	0x318d9493	4.120531e-09
48	0x3125bf7c	2.4119506e-09
49	0x3348d54e	4.6760128e-08
50	0x3aaad75e	0.0013034155
51	0x3afe122c	0.0019384078
52	0x3b2efa2b	0.0026699405
53	0x3b18ca50	0.0023313947
54	0x3aa4522d	0.0012536697
55	0x3b1aed8a	0.002364012
56	0x3b4bf894	0.0031123506
57	0x3b445a54	0.0029961066
58	0x3ad3e7c7	0.0016167097
59	0x3a2510dd	0.00062967633
60	0x3b78e8bb	0.0037980515
61	0x3b83ed53	0.004026094
62	0x3b1e2cf6	0.0024135686
63	0x3a2d8ae5	0.0006620123
64	0x398aaa7e	0.00026448438
65	0x3b8f76bd	0.0043781684
66	0x3b7e5236	0.0038806326
67	0x3acb3521	0.0015503505
68	0x39c87198	0.00038231607
69	0x395cae20	0.00021045702
70	0x3b7d2c22	0.0038631042
71	0x3b4e762d	0.0031503544
72	0x3ab6c895	0.0013945276
73	0x3a1552d9	0.0005696244
74	0x39ac01e4	0.00032807805
75	0x3ad41a56	0.0016182165
76	0x3ae0101b	0.0017094644
77	0x3affb12c	0.0019507757
78	0x3b2d8c5b	0.0026481363
79	0x3b3fb417	0.002925163
80	0x3aaac247	0.001302787
81	0x3aa96a90	0.0012925435
82	0x3accb672	0.0015618338
83	0x3b11c7f3	0.0022244423
84	0x3b16583f	0.0022940782
85	0x3a22e11d	0.0006213354
86	0x3a10c901	0.0005523116
87	0x3a6a14ae	0.0008929473
88	0x3a9e41bb	0.0012074033
89	0x3abb756a	0.001430196
90	0x39c1300d	0.0003684763
91	0x39e0fe07	0.00042913874
92	0x39fd50cd	0.00048316122
93	0x39d09b18	0.00039788405
94	0x3a44c183	0.0007505642
95	0x39c1d9c6	0.00036974082
96	0x39d828cb	0.00041229124
97	0x3990a1d4	0.00027586392
98	0x39800d52	0.00024423987
99	0x3a2b6b6e	0.00065391406
100	0x390384a6	0.00012542549
101	0x37b037fe	2.1006908e-05
102	0x379bd41d	1.8576213e-05
103	0x3811c19d	3.475101e-05
104	0x388116b1	6.155426e-05
105	0x37d8e478	2.5855596e-05
106	0x35981f3a	1.1333971e-06
107	0x358d68f2	1.0535862e-06
108	0x3638c6ba	2.753381e-06
109	0x371206a2	8.7038225e-06
110	0x36a58ca0	4.933754e-06
111	0x34a483f5	3.0643392e-07
112	0x35c8f265	1.4971707e-06
113	0x3574c785	9.118742e-07
114	0x35ea468e	1.7454893e-06
115	0x37e931da	2.7798978e-05
116	0x3853d7e4	5.0507384e-05
117	0x3852aaa1	5.0226812e-05
118	0x38105ba6	3.441763e-05
119	0x3827df59	4.002391e-05
120	0x39d7ed6e	0.00041184895
121	0x39ffc1cd	0.00048781783
122	0x39c4a5df	0.00037507617
123	0x396dfb2e	0.00022695653
124	0x39428ab7	0.00018552957
125	0x33750255	5.704563e-08
126	0x341e5a54	1.4747758e-07
127	0x3416ef4a	1.4056891e-07
128	0x33ba6053	8.678821e-08
129	0x33693131	5.429428e-08
130	0x3410ac28	1.3473675e-07
131	0x342b3654	1.594538e-07
132	0x33dc1608	1.0248556e-07
133	0x3405a5d6	1.2446921e-07
134	0x3418910b	1.420887e-07
135	0x341503bc	1.3878065e-07
136	0x33dbec5f	1.0240978e-07
137	0x33dc4dab	1.0258676e-07
138	0x342ef911	1.6295623e-07
139	0x343fe0ec	1.7870087e-07
140	0x33b5b7ad	8.46188e-08
141	0x3398a93e	7.1088365e-08
142	0x333aaabc	4.346178e-08
143	0x3371d6ab	5.6307425e-08
144	0x339b5a48	7.234172e-08
145	0x3293ab61	1.7190986e-08
146	0x3100bf13	1.8735065e-09
147	0x30dbb4a7	1.5985692e-09
148	0x31898054	4.001814e-09
149	0x3171e452	3.51999e-09
150	0x33e49034	1.0643308e-07
151	0x34135735	1.3722168e-07
152	0x34001064	1.1926892e-07
153	0x3383e7e7	6.142346e-08
154	0x33a74185	7.7884614e-08
155	0x33f00258	1.1176297e-07
156	0x338facd9	6.690397e-08
157	0x336618c8	5.3573586e-08
158	0x33049705	3.0870996e-08
159	0x339b6fd3	7.238091e-08
160	0x3383f28d	6.1442826e-08
161	0x32802f20	1.4922591e-08
162	0x32837e56	1.5307858e-08
163	0x3233c3e7	1.0463714e-08
164	0x3326fbde	3.887896e-08
165	0x3215dbb1	8.7228935e-09
166	0x301674db	5.4735744e-10
167	0x2fda05c6	3.965807e-10
168	0x312f32b6	2.5494677e-09
169	0x338b4c23	6.486541e-08
170	0x310e606d	2.0718531e-09
171	0x2f2632cf	1.5115663e-10
172	0x2fa934c6	3.077842e-10
173	0x32240865	9.547965e-09
174	0x33a90a44	7.871543e-08
175	0x31c35a39	5.685504e-09
176	0x3064d5b1	8.324959e-10
177	0x31fb4fcc	7.3141333e-09
178	0x31caad4e	5.898676e-09
179	0x33a7cd22	7.813857e-08
180	0x32e462ce	2.6587625e-08
181	0x3240af7a	1.121577e-08
182	0x329f3e10	1.8538259e-08
183	0x334159e9	4.5018087e-08
184	0x340d234f	1.3144493e-07
185	0x33023b7c	3.0322084e-08
186	0x32555989	1.241859e-08
187	0x33101b4a	3.3552432e-08
188	0x33d18ade	9.757581e-08
189	0x343e7463	1.773747e-07
190	0x3333c42f	4.1855113e-08
191	0x32261167	9.6664285e-09
192	0x32efa16c	2.7896668e-08
193	0x33d62e92	9.9736226e-08
194	0x346dc092	2.2142402e-07
195	0x339e0f4a	7.3602294e-08
196	0x339d5c5b	7.3276816e-08
197	0x338a5dfb	6.443221e-08
198	0x3439f285	1.7317696e-07
199	0x3480a35c	2.3960717e-07
200	0x34b13f9c	3.30151e-07
201	0x345b4c08	2.0423624e-07
202	0x338dae09	6.597481e-08
203	0x343b9fcb	1.7473864e-07
204	0x34883864	2.5373004e-07
205	0x3480fcf8	2.4025917e-07
206	0x34854d72	2.482953e-07
207	0x340301e5	1.2201015e-07
208	0x34253442	1.5385834e-07
209	0x344e424b	1.9209362e-07
210	0x3492c7ef	2.734009e-07
211	0x34deb1f5	4.1480203e-07
212	0x34b296b4	3.3264735e-07
213	0x346dc215	2.2142952e-07
214	0x3459059e	2.0211743e-07
215	0x34773cf2	2.302584e-07
216	0x34e146d1	4.1961042e-07
217	0x34f1eb12	4.5060784e-07
218	0x34e8c3c4	4.3355806e-07
219	0x34fcb174	4.7067772e-07
220	0x34aa7578	3.1750437e-07
221	0x34ed85c7	4.4242026e-07
222	0x353f474e	7.1256807e-07
223	0x3528e73a	6.2921356e-07
224	0x367924da	3.7125342e-06
225	0x38718079	5.7578527e-05
226	0x374c8b93	1.2191845e-05
227	0x38ea9013	0.000111848254
228	0x3a489af8	0.00076524867
229	0x3b292181	0.0025807323
230	0x3702a564	7.787112e-06
231	0x36372468	2.7290316e-06
232	0x38cfc6ed	9.907582e-05
233	0x3a85f1db	0.0010219173
234	0x3b676ff5	0.0035314534
235	0x36bdeb3b	5.6600234e-06
236	0x36b54f9a	5.403487e-06
237	0x39269489	0.00015886327
238	0x3b018e8a	0.0019768798
239	0x3b934b84	0.004495086
240	0x367afc64	3.7399814e-06
241	0x379c3df3	1.8625497e-05
242	0x3a18533d	0.00058107433
243	0x3b66bf9a	0.0035209418
244	0x3ba8d914	0.005152831
245	0x38710332	5.7461853e-05
246	0x3978cc80	0.00023727305
247	0x3ac9339c	0.0015350464
248	0x3b808a0a	0.0039227055
249	0x3b8f0827	0.0043649855

exp_avg f4 [10]
0	0x30a9ff4e	1.236893e-09
1	0x336a7985	5.4592892e-08
2	0xbd13810d	-0.036011744
3	0xbd78e284	-0.060762897
4	0xbcd51840	-0.02601254
5	0x30b86de6	1.3418997e-09
6	0x31b6459c	5.304811e-09
7	0x380876ad	3.2535452e-05
8	0x338ead73	6.6439405e-08
9	0x3e17fc9d	0.14842458

exp_avg_sq f4 [10]
0	0x3481447b	2.4077949e-07
1	0x33af6526	8.167471e-08
2	0x3bde6f59	0.006788176
3	0x3c6819d6	0.014166316
4	0x3a6c3e1d	0.0009011941
5	0x348dd6c2	2.6419553e-07
6	0x360cacb3	2.096215e-06
7	0x35ad62fc	1.2918313e-06
8	0x375b709a	1.3079634e-05
9	0x3bc73d74	0.006080324
