AVR/test_k/checkpoints/epoch=0-step=300.ckpt (torch, 629439 bytes, 24 tensors)

conv1.weight f4 [10, 1, 3, 3]
00000000: 0c43 1fbf 8513 dabe 51cc 8d3d f97b 9abe
00000010: 26aa e2be cb8b 0b3e c639 47bf 223b 613e
00000020: 332d b73e 316a 97be 2ec6 f0be b95e a03d
00000030: f99d 44be 8477 04bf cca4 1abf 070e 01bf
00000040: 1d7a 00bf 2b0e 14bf deb1 4a3e d2a8 ffbd
00000050: 1cd2 05bf 8f1c 613e e695 df3c 7afc 83be
00000060: a203 743e a928 db3d f3b3 b4be 8300 b4bd
00000070: 082d 233d 781b 093e 4b3f a8be df6f 5d3e
00000080: 5026 793d 7bca a9be 25fd 4a3e 8f85 153e
00000090: af25 e73d eb4a d0bb 2da1 36be abd9 db3e
000000a0: d37f 943e 708d d3bd e49a ac3e 659f e73d
000000b0: ab2f 933e 8891 3e3e daa7 253d af2e ccbe
000000c0: ba70 02be 97b9 c2bd 50ce 4ebd e932 1c3d
000000d0: 24bd 55be 395e 1a3d 097f a0be b6ec 20be
000000e0: da09 83bf 90f2 1abd e456 a73e 3df4 b43d
000000f0: ceb6 cb3e db3c 3a3d f148 3c3d baf5 3bbf
00000100: cb3d 1d3d b8bb 313e 6431 293e f8f5 b2be
00000110: 0493 5abe 0546 1cbe 54c2 2dbf 3e24 f7be
00000120: 443e 12be 47a7 dfbe 6c13 dfbe 9af5 ea3d
00000130: 81dc f4bd 7029 31be f219 ae3e 5ebb 8b3e
00000140: cacf 373e 8f6a 293e ee89 b03e f5cd 2d3e
00000150: 53d7 01bf 5c42 00bf 8f4a 653e e6ae 1cbf
00000160: cdcc e9bd 953d 45be
-0.6221168 -0.42593017 0.06923736 -0.3017271 -0.44270438 0.13627546 -0.7782253 0.21995214
0.35776672 -0.29573205 -0.470262 0.07830567 -0.19200887 -0.51744866 -0.6040771 -0.5041203
-0.5018633 -0.5783412 0.19794413 -0.12483372 -0.52273726 0.2198355 0.027293157 -0.25778562
0.23829511 0.10701115 -0.3529354 -0.0878916 0.039837867 0.13389385 -0.3286079 0.21624707
0.060827553 -0.33162293 0.1982313 0.1460173 0.112864845 -0.006356587 -0.17834921 0.42939505
0.29003772 -0.103297114 0.33711922 0.11309699 0.28747305 0.18610203 0.04044328 -0.39879367
-0.12738314 -0.09508055 -0.050489724 0.03813449 -0.20872933 0.037687514 -0.3134692 -0.15715298
-1.0237381 -0.037828982 0.3268348 0.08835647 0.39787906 0.045468193 0.045968 -0.73421824
0.03838901 0.17356765 0.16522747 -0.34953284 -0.21345145 -0.15261085 -0.67874646 -0.48269838
-0.14281565 -0.4368231 -0.43569505 0.11472626 -0.1195612 -0.17300963 0.3400417 0.27291387
0.17950359 0.16544555 0.34480232 0.16973098 -0.50719184 -0.50101256 0.22391723 -0.61204374
-0.11416016 -0.19261773

conv1.bias f4 [10]
00000000: 16f0 7cbe 0621 d4bd e9b5 0abe aa41 ebbd
00000010: a6bb bdbd 37c2 80be 0fa8 2abe c1d3 6ebe
00000020: a72a 4bbd b56e 1ebe
-0.2470096 -0.10357861 -0.13545956 -0.11487134 -0.09264307 -0.25148174 -0.16665672 -0.23322965
-0.049601223 -0.15471919

conv2.weight f4 [20, 10, 3, 3]
00000000: e43a 26bd cb15 8dbc e69e 1dbe 5cbd 65be
00000010: 39cf c3bd 4755 30be ed68 7bbd 3f51 2ebe
00000020: 6282 55be a0e0 4fbe 8a5b 82be e216 61be
00000030: 1745 22bd 3bb0 3cbd 0f37 61be 9097 29be
00000040: 89fc 9bbd 7f90 6bbd d23f 3abe 8492 ffbc
00000050: 30d1 abbd e011 61be 60c1 23be 11b5 62bd
00000060: 5867 c9bd 5877 e0bd 70bf 37bd c459 45be
00000070: 1af6 d8bd aed2 4bbe b594 6cbe a8d8 5abd
00000080: 8559 d1bd 08d6 44be 8db0 80bd 23cf 58be
00000090: 4d5e 91bd 37c4 fcbc 7462 a6bc 196d 45be
000000a0: 357e 1abe 708e 81bd 8309 5fbe 968e 58be
000000b0: 9352 1bbd b9fa 0abe 128d 40be 6b8c dfbd
000000c0: 02ca 36be d9a2 23bd de8b 10bd d865 92bd
000000d0: 12df 5abe 7fcd cfbd c5cf 3dbe 07ea 0ebe
000000e0: 83f3 afbd 0016 22be d0c8 efbd a25c 5dbe
000000f0: 543b 0bbd c99c 6cbd 1989 37be 0ff6 c1bd
00000100: fcee f5bc cfae a4bc c787 1cbd 2c03 01bb
00000110: b286 6fbe 87dd 18bd 4314 58bb 7e3b 64bc
00000120: 5cde 64bd a5f6 0cbd 9cb7 b1bd 8cd3 f1bc
00000130: a90e 13bd 3156 fabd fad4 eabc 510d 29be
00000140: 2d06 64be d32f f1bd f0fc b2bd d407 7fbd
00000150: 3c80 ffbd 9d4e dabd 2636 e1bc 8f61 ffbd
00000160: cee8 69be 96c4 23be b97d e3bd 740b 793b
00000170: 5abc a73d 6c73 b4bd d961 ddbd 4092 a6be
00000180: 404f 98bd 8377 8cbe 735a 9e3d 2237 fa3d
00000190: fb15 2abb 84ec 613e 0df6 a9bc 7cb0 13be
000001a0: 34d0 073c ea85 bebe 0f5c 95be 93ec 9dbe
000001b0: d5cf 2d3e 365d f0be ce1d bfbd 152a 2d3e
000001c0: 0b9c 3bbe fa44 90bc d531 453e 50fd ef3c
000001d0: 60c4 9cbe 2ad7 99be 2173 2cbe 8396 243d
000001e0: a30f 2bbe 4019 d838 e51e c8bd 0991 ce3d
000001f0: 666a dabd 9958 483e af02 3a3e 808f 4bbe
00000200: e9eb 31be d51b 233e f5b4 1dbe 2012 7fbd
00000210: e91b c63e 0286 6f3e cc44 5f3e 90c4 fcbd
00000220: 9152 32bd d885 82be 3cac c6bd 45f4 e2bc
00000230: 0140 7abd f715 643e a504 a23e 779e 99bc
00000240: 0d2d 8f3d a7db 7a3e 7314 a0bc c83a b0be
00000250: c990 b33e da80 fe3d c750 21be 68ba 333e
00000260: 8b99 d03e aa8e 60be ad64 5d3e 1525 5b3d
00000270: f41b 38bf 4ed6 94bd 0739 cdbe d6fc aebe
00000280: 5d88 123e bce2 e6ba 5ce8 04be 406c c23d
00000290: 78ac e8bd e8c4 98bc f35f b63e c416 c83e
000002a0: 5fe6 463e 8572 be3e e853 e63e 0d6d 7cbe
000002b0: 009b 313c 2a4c 1a3e af4f 01be ae5b 6cbe
000002c0: 29a8 c1be b283 113e a21e c23d ed8d 76bd
000002d0: c40e 0abc 80f4 e9bd e4ed 2aba f0ce 43bd
000002e0: fd3d 96bc 0699 80bc f281 1bbb a1fd d2bd
000002f0: fbd5 3fbd ffda 61bd 58ba 55be 4956 1dbe
00000300: e6ca 54be 1b38 7fbd 10c5 36bd 2c71 59be
00000310: 6872 adbd 81d9 93bd 1e98 44be f1ee 1cbe
00000320: 8d10 36be 64df 43be ccb0 17bc baa7 1dbe
00000330: 2e2f 82be 90cb d3bd 686a 41bd e013 b1bc
00000340: 8dab fcbd 25f4 54bd 64b0 59be ab99 19bd
00000350: b4b7 a2bd b361 04be 6053 3bbe 54bf 69bc
00000360: 3476 6cbe e4e5 50be f2a7 3abe c426 08be
00000370: 71d9 56be bd0a 01bb a1f1 45be a391 45be
00000380: 82b4 0abc 5489 b3bd a25d 00be 5bef f2bd
00000390: c0af aabd 4845 a0bb d54b 03be f8b7 1dbd
000003a0: df6d 59bd 3c50 fbbd 8a53 63be d879 e8bc
000003b0: 1a32 5bbd 3d15 02be 8284 8abc 1304 6abd
000003c0: 0e74 19be 66db c1bd 0278 4bbe 55c7 2cbe
000003d0: 30fb 23be 49a9 e4bd 1085 43be 85d1 e6bc
000003e0: 654c fabd 481b e9bd e80e c1bd 5814 3cbe
000003f0: 1ffe 0abe f1eb cabd 669c 59be e3cb 04be
-0.040583506 -0.017222306 -0.15392646 -0.22435516 -0.09561009 -0.1722003 -0.061379362 -0.1702318
-0.20850518 -0.20300531 -0.25460464 -0.21981385 -0.03961667 -0.046066504 -0.2199366 -0.16561723
-0.07616527 -0.05751085 -0.18188408 -0.031197794 -0.08389509 -0.21979475 -0.15991735 -0.05534846
-0.098341644 -0.10960263 -0.044860303 -0.19272524 -0.10593815 -0.19904587 -0.23103602 -0.053429276
-0.102221526 -0.19222271 -0.062836744 -0.21172766 -0.070980646 -0.030855281 -0.020310618 -0.19279899
-0.15087207 -0.06325996 -0.21780972 -0.21148142 -0.037920546 -0.13572206 -0.18803814 -0.109154545
-0.17850497 -0.039950226 -0.035289638 -0.071483314 -0.21374157 -0.10146617 -0.18536289 -0.13956462
-0.08591368 -0.15828705 -0.11708224 -0.21617368 -0.033992127 -0.05776671 -0.17923392 -0.0947076
-0.030021183 -0.020102886 -0.038215425 -0.0019685728 -0.23391226 -0.03732064 -0.0032971061 -0.0139302
-0.05587612 -0.034414906 -0.08677599 -0.029519819 -0.035902653 -0.12223471 -0.028666008 -0.16508986
-0.22267981 -0.117767 -0.0873965 -0.062263325 -0.12475631 -0.106595255 -0.02749164 -0.1246978
-0.22842714 -0.1599296 -0.11107964 0.0038001211 0.08190222 -0.088110775 -0.108096786 -0.32533455
-0.07436991 -0.2743493 0.077320956 0.12217547 -0.0025953043 0.2206288 -0.020747209 -0.14422792
0.008289386 -0.37211543 -0.29171798 -0.30844554 0.16973813 -0.46946114 -0.09331857 0.16910584
-0.18321244 -0.017611016 0.1925729 0.029295594 -0.30618572 -0.3004697 -0.16840793 0.0401826
-0.16705184 0.00010304386 -0.09771518 0.10086257 -0.10664825 0.19565047 0.18165086 -0.1987896
-0.17375149 0.15928586 -0.15401061 -0.062273145 0.3869317 0.23390964 0.21803588 -0.12342179
-0.043535773 -0.2549274 -0.0970082 -0.027704367 -0.061096195 0.22274004 0.31644168 -0.01875232
0.06991015 0.24497853 -0.019541001 -0.34419847 0.350714 0.1242692 -0.1575347 0.17551577
0.40742144 -0.21929422 0.21620436 0.05350216 -0.71917653 -0.07267438 -0.4008257 -0.34177274
0.14309831 -0.001761518 -0.12979263 0.09493303 -0.11361021 -0.01864858 0.35620078 0.3907987
0.19423817 0.37196746 0.4498589 -0.24650975 0.010840178 0.15068117 -0.12628053 -0.23081848
-0.3782361 0.14210394 0.09478499 -0.060193945 -0.008426372 -0.11423588 -0.0006520434 -0.047804773
-0.018340105 -0.015697967 -0.0023728576 -0.10302282 -0.046834927 -0.05514049 -0.20871866 -0.15364946
-0.20780525 -0.062309366 -0.044621527 -0.21234578 -0.08469087 -0.0721922 -0.19198653 -0.15325524
-0.17779751 -0.19128186 -0.00925846 -0.15396014 -0.2542662 -0.10341561 -0.047220618 -0.021615922
-0.12337408 -0.051990647 -0.21258694 -0.037500065 -0.07945195 -0.12927894 -0.18293524 -0.014266808
-0.23091966 -0.20400196 -0.18228129 -0.13296038 -0.20981385 -0.0019690238 -0.19330455 -0.19293837
-0.008465888 -0.08766428 -0.12535718 -0.1186206 -0.08334303 -0.0048910715 -0.12821896 -0.038505524
-0.053083297 -0.12271163 -0.22199836 -0.028378412 -0.053514577 -0.12703414 -0.016908888 -0.05713279
-0.14985678 -0.09465675 -0.19869998 -0.16872914 -0.16013789 -0.11165101 -0.19093728 -0.028176079
-0.12221602 -0.113821566 -0.09426671 -0.18367136 -0.13573502 -0.099082835 -0.21251068 -0.12968402

conv2.bias f4 [20]
00000000: 6040 f2bd 58af 41be cd59 3cbe b1c4 b3bd
00000010: 301f 28be 281e 8fbd 716f 05bd a298 59be
00000020: dea7 b1bd 1790 1fbe 03b1 43bd 26f5 28be
00000030: 280f 76bd 4a60 48be 8b30 04be 504b 39bd
00000040: b58e 1fbe 0f73 02be b905 1cbe 43f1 2ebe
-0.11828685 -0.18914545 -0.18393631 -0.0877775 -0.16418147 -0.06988174 -0.032576982 -0.21249631
-0.08674596 -0.1558231 -0.047776233 -0.16499767 -0.060073048 -0.19567981 -0.12909143 -0.04523784
-0.15581782 -0.12739204 -0.15236558 -0.17084222

fc1.weight f4 [50, 980]
00000000: 676b bfbd 5917 cabd b7ab cbbd 8002 eb3d
00000010: 9d16 0dbe bc6f 00be 156f 12be 35dd 01be
00000020: 8be0 d13d dc58 df3d 3f2a bb3d 6201 0ebe
00000030: 0ca3 023e 61a3 0cbe 225e babd 65c2 033e
00000040: ad5d d2bd 84d8 03be 3790 0f3e d3f1 c6bd
00000050: a7f5 e3bd ca12 0c3e ba25 183e cb0c 0b3e
00000060: e6cf c43d f954 d9bd 04f3 15be 96d7 063e
00000070: 4063 08be da2f bebd 5f9c 1abe c539 133e
00000080: bbd7 c9bd 3292 b9bd dc77 fa3d 31a5 c7bd
00000090: fbf1 0cbe 7b51 10be f063 0b3e a85b c3bd
000000a0: 627a 18be 8ad6 f0bd c3fc 0abe b7b7 ef3d
000000b0: 32af babd 68ff 0bbe 65a2 bdbd 7556 07be
000000c0: 6d21 04be 2020 b23e 23e8 313e 61dd 19be
000000d0: 44bc e2bd 17dc 8f3d 4e50 09bd 2f81 0ebf
000000e0: fa2b 453f 489b 753e b8de b33d 2640 333e
000000f0: b0e6 b63e 4150 8ebd 7605 3cbf 3bfa 123f
00000100: 2e1e f33e bb27 e63e 3664 87bd 472c 783e
00000110: b90c 36be ecf9 b7be 34f2 60be 685c 13be
00000120: 3ed8 673d 6abd 84be dbd6 b03d 4ecc 47be
00000130: 1b9c 59bf e211 383e dbd5 3e3f 6bdb b3bd
00000140: cc97 1dbf dd49 c6be bd9c 10bf a8a5 66bf
00000150: 2756 5d3e 6666 213f bdfa 943e 71bd c4be
00000160: 7638 9a3d 28b8 333d 58a8 03bf cbe1 dbbd
00000170: ad5c 54bd f681 8b3b 3148 023f 1979 fa3f
00000180: d18e 3a3f a9cb 193f 227a c4bd 9af5 063e
00000190: 92ff f3bd e8c3 c4bd 4a80 02be 3535 aabd
000001a0: a652 c03c f749 07be 5a1d d8bd b42f fdbd
000001b0: c26e cfbd f6e7 02be f8cb 953c 02ba c73c
000001c0: 9fc6 0cbe 4dcc 013e e9bd ebbd 5711 0cbe
000001d0: a726 0ebe 1558 1bbe 6870 9c3b e126 fdbd
000001e0: 016e babd 70cc 0abe 5009 d83d 8c11 f3bd
000001f0: ffb4 0fbe 089f 82bc 31e6 b9bd bab6 d6bd
00000200: 615a bc3d de62 153e b59e dbbd f253 05be
00000210: 308d 6ebb f088 0ebe 17d9 c4bd a1c5 0cbe
00000220: e8dd b83d 5a8e bcbd 781c a83c f4a1 b7bc
00000230: f79e 1bbe 4d3e 103e 73e6 e03d 9f3a 183e
00000240: 0096 d73d 5e4f bbbc 9a18 e43c d8ea 993e
00000250: ad6e 6ebe 0cd7 c13b 4d2a 56bc 25c3 09be
00000260: 9d40 acbe 0eea cbbe d96a 5b3f f624 93bd
00000270: 485d 0bbc 48b0 283d 2bf9 9f3e 6220 f0bd
00000280: f332 0fbe 55b7 013e 27eb 8dbe ae3c 51be
00000290: eb88 c03e a9b7 853e 64d9 fcbd 3297 583c
000002a0: 4adb 3d3e 1f74 71be cb9b 8cbd 419c 2e3e
000002b0: a0a6 bfbe 1063 28be 6fe7 693e cb33 ca3d
000002c0: 25bf 41be 3d61 01bf d89a 49bd aa93 0fbc
000002d0: 37e2 f1be f588 86be 2f6a 673e 6f7e 9a3e
000002e0: 72b3 1fbd 9b48 1d3f c264 6e3e 20ff 19be
000002f0: 63be f33e 762a 083f 27f0 873f cb50 4c3f
00000300: 1ce1 e43e 10c0 523f ca42 463f b03b d53e
00000310: 1f7d 04be ecc2 0fbe aa39 c5bd a37d 19be
00000320: fc8a 0bbe ffaa 01be 5605 41bc a4e9 91bb
00000330: 3e8f d1bd 0ece ca3d e52e 1bbe 4439 febd
00000340: 2203 0c3e f067 253c 3024 b1bc 53f0 04be
00000350: f662 0cbe e0d3 e9bd 96e7 fb3d fabf 1cbc
00000360: 8079 9c3c f477 8abc bcfd b9bd 2ad1 f5bd
00000370: fcf5 c3bd 345f 9abb 62dc b13c 896f bebc
00000380: 3880 fb3c b5da 06be f857 ecbd ee7b fdbd
00000390: 8090 ffbd bea6 f9bc e060 7dbb a034 a3bc
000003a0: 008d a83a 7565 a1bc 94c5 a03c 5461 ecbb
000003b0: 5c6f 003d 2be7 81bc 0018 023b 88bc b3bb
000003c0: 4ec0 c43c f44f 31bc 6e86 ebbc b7f3 d2bc
000003d0: 0030 8eba 61ef 10be 736d 05be 6031 04be
000003e0: 7811 debd a763 ccbd ba47 bcbd cf57 17be
000003f0: 9422 fabd da2b 15be 7a2a 02be 0485 f8bd
-0.09346657 -0.098677345 -0.099448614 0.11475086 -0.13778158 -0.12542623 -0.14300187 -0.1268204
0.10247906 0.109056205 0.09138917 -0.13867715 0.1275751 -0.13734199 -0.09099986 0.12867124
-0.102717735 -0.12875563 0.14019857 -0.09714093 -0.11130839 0.13679042 0.14858142 0.13579099
0.09609966 -0.106119104 -0.14643484 0.13168177 -0.13319111 -0.09286471 -0.15098713 0.14377506
-0.098556004 -0.09061088 0.122298926 -0.09748305 -0.13764183 -0.14093582 0.13612342 -0.095389664
-0.14890435 -0.1175967 -0.13572983 0.11704963 -0.09115447 -0.13671649 -0.0925949 -0.13216574
-0.12903376 0.34790134 0.1737371 -0.15025856 -0.11071065 0.07024401 -0.03352385 -0.5566587
0.7702023 0.23985016 0.087827146 0.1750494 0.35722876 -0.06948901 -0.7344583 0.5741307
0.47483963 0.44952187 -0.066109106 0.2423564 -0.17778291 -0.35932863 -0.21967393 -0.14390719
0.05660271 -0.2592576 0.086347304 -0.1951153 -0.85003823 0.17975572 0.7454507 -0.08782085
-0.6155975 -0.38728228 -0.56489164 -0.9009652 0.21614896 0.6304687 0.29097548 -0.38425782
0.075303 0.043876797 -0.5142875 -0.10736426 -0.051846195 0.004257436 0.50891405 1.9568206
0.7287417 0.60076386 -0.095936075 0.13179627 -0.119139805 -0.09607679 -0.12744251 -0.0831093
0.02347691 -0.13211809 -0.10552473 -0.12362614 -0.10128547 -0.12783799 0.018285736 0.024380688
-0.13747643 0.12675591 -0.11510832 -0.1367849 -0.13881932 -0.1517032 0.004774142 -0.12360931
-0.09103013 -0.13554549 0.10548651 -0.11868581 -0.14033888 -0.015944973 -0.09077109 -0.10484071
0.09196926 0.14588496 -0.1072363 -0.13020304 -0.0036400072 -0.13919425 -0.09611719 -0.13747264
0.090267 -0.09206839 0.020521387 -0.022416092 -0.15197359 0.14086266 0.10981455 0.14866112
0.10526657 -0.022864994 0.027843762 0.30061984 -0.23284407 0.005915528 -0.013071609 -0.13453348
-0.33643046 -0.39827007 0.8570991 -0.07184784 -0.008506127 0.04118374 0.31244788 -0.117249265
-0.1398428 0.12667592 -0.2771847 -0.20433304 0.3760446 0.26116684 -0.123461515 0.0132196415
0.18540683 -0.23579453 -0.06865653 0.17051794 -0.37431812 -0.1644404 0.22842191 0.0987316
-0.18920572 -0.50539 -0.049219936 -0.008763233 -0.472429 -0.26276365 0.225991 0.30174586
-0.03898949 0.6143891 0.23280624 -0.15038729 0.4760619 0.5318979 1.0620164 0.7981078
0.44702995 0.82324314 0.7744566 0.416471 -0.12938355 -0.140392 -0.09630139 -0.14989333
-0.13627237 -0.12662886 -0.011781057 -0.004452901 -0.102323994 0.09902583 -0.15154608 -0.12413266
0.1367307 0.010095581 -0.0216237 -0.12982301 -0.13709626 -0.11417365 0.12300031 -0.009567255
0.019100904 -0.016902901 -0.09081599 -0.120027855 -0.09568402 -0.004711056 0.021711532 -0.023246543
0.030700788 -0.13169368 -0.11540216 -0.12377153 -0.12478733 -0.030475017 -0.0038662478 -0.019922554
0.0012859404 -0.019701699 0.019625463 -0.007213751 0.0313562 -0.0158573 0.001985073 -0.005485121
0.02401748 -0.010822285 -0.028750625 -0.025750978 -0.0010848045 -0.14153816 -0.13030033 -0.1290946
-0.10843176 -0.09979945 -0.09193368 -0.1477959 -0.122136265 -0.1456751 -0.12711516 -0.12134746

fc1.bias f4 [50]
00000000: 02cd 23bd 1a71 e7bd d33f 2a3e 9c05 13be
00000010: af0d d93d 68bd 8ebd cde4 78be 4e75 5abc
00000020: 2c1f 98bd fc6d 6dbe 69b4 9ebd f237 8fbd
00000030: 3ddd 85bd 9419 553d 3993 18bd 46ca c2bd
00000040: 0213 e3bd 8cd3 2ebd 4ed4 a23d 1ee0 71be
00000050: c8b5 67be 8c65 5cbd ec86 a1bd f3e4 cabe
00000060: fe32 1bbe 19fe 2abe 8904 3fbd 72e9 9f3d
00000070: 14f0 cbbe 7246 99be a46b 0abf a2d9 0abc
00000080: 2b58 dfbd d70d 8fbd 2f52 50bb dcbe 58be
00000090: b413 5dbd eeb9 88bd 9d5c e9bd d956 ecbd
000000a0: b215 73bc b2e1 63be dc6e 663d 2f82 88be
000000b0: 2f96 8a3d a2b3 28be 9d77 d8be b0a4 bdbc
000000c0: 5f60 a6be 4832 183e
-0.039990433 -0.11300869 0.1662591 -0.14357609 0.10598313 -0.0696972 -0.2430603 -0.013333632
-0.074278206 -0.23186487 -0.07749254 -0.069930926 -0.065363385 0.052026346 -0.037249777 -0.09511237
-0.1108761 -0.042682216 0.0795065 -0.2362065 -0.22627938 -0.05380778 -0.078870624 -0.396278
-0.1515617 -0.16698493 -0.046635184 0.07808198 -0.39831603 -0.29936558 -0.54070497 -0.008474739
-0.109054886 -0.069850616 -0.0031787266 -0.21166557 -0.05397387 -0.06676088 -0.11394618 -0.115400024
-0.0148367155 -0.22254065 0.056258067 -0.26661822 0.067669265 -0.16474774 -0.42278758 -0.023149818
-0.324954 0.14862931

fc2.weight f4 [10, 50]
00000000: 91d5 07bf 39d4 1f3e a4d9 573e 18e0 07bf
00000010: b85d 18be 953d 6c3b 2d3d 7cbc e83d 1bbf
00000020: fb7d bd3d 32c5 9a3e daee dcbe 3889 e3bd
00000030: 8449 a4be e568 adbe 9c13 92bc a510 1abd
00000040: 1f6c f93c 4dde 49be 6815 8cbb 5c19 7b3e
00000050: 9a4d b63e b4cd 0fbe aa85 c8bd bd45 a33e
00000060: df73 72be 2069 103d 4f3e d0be 22e4 363d
00000070: 167b 933d 9bea 8abe d111 933e c005 59be
00000080: 480f 583e 5786 953e 4fce f2be 6e82 db3c
00000090: 4640 cdbe b1c8 42be a4ac 01be 34b8 1ebd
000000a0: af2f ab3d 2ea7 adbd 0497 1ebf cf97 9dbe
000000b0: 1744 c93e 3d29 c1be 544e a3be ca5e c4be
000000c0: 09e5 e3bd 5343 29be 592f 103e 116a ed3d
000000d0: 89e6 bebe b24e c53e c46d b33e e74a 463f
000000e0: 1b4d 74bd 59fd 903e 1802 17bf c468 0abf
000000f0: 8b71 e7be 9567 593e 0de6 31be caca 04bf
00000100: 8e30 333e 6f30 9f3d d43a c7bc 0658 32be
00000110: 11c6 59bd d9de 69be d6c5 dabe 4817 ac3e
00000120: bec6 9ebd 41fa d4be 673e 7bbe 4799 8bbe
00000130: 9d98 9bbe ac05 cdbe 34c0 84be 3a85 9abd
00000140: f331 2bbf eb9f ab3e 0f71 06bf 2fff f73d
00000150: d95d 2b3f 8108 7bbc 8cc0 bebe 105f 6fbf
00000160: f1ce 91bd ad5a 0b3e 6fd7 cebd 5e3d 46bc
00000170: 696d ed3e c244 823e e4da 52bd 1a92 19bf
00000180: 1c6f 1bbf 7e77 143d 125f 13bf dadc a83d
00000190: 1775 0abf 4b9d 943e 3b90 c43e dc77 1fbe
000001a0: 21db 9a3e cdce 0fbe fd03 14be b4e0 2e3e
000001b0: 9228 98bd 0b5f 6dbe 10ed 9ebe 027e 83bc
000001c0: 3155 c73e 6dd2 02bd 16b3 fbbd 98d9 ab3e
000001d0: 6eb5 c8bd 6433 d1bd a2ac 9c3e 72d1 80be
000001e0: f00f 4bbe 9420 e93e e1eb 80be c164 613e
000001f0: 7897 e0bd 7530 1cbe 949f 5dbe 6777 bd3e
00000200: 6b30 9b3d 0f7c 3dbe 367f 75be 8476 b63e
00000210: f1bc dcbe 3685 31bd 4974 8f3e 6ced 2fbe
00000220: fe15 953d 469f 02be 9404 21bd fc3f b83d
00000230: e8bd c23d cf56 85be 0a5e 41bf c6cf 0cbf
00000240: cc14 343c fb37 08be 43f7 7bbe c17e 98be
00000250: ebcb 41be b579 243e d98f 293e 583a 6bbe
00000260: 3ced bbbc debb bdbe e212 f9bd 8216 9bbd
00000270: 16da f83c e7a7 1d3d 0b67 fd3d 80c6 543e
00000280: f6e7 94be d7e1 563e e35d da3e ad69 35be
00000290: 701f 2abe db53 89bd 0fef f9bd bdb8 7e3e
000002a0: 560a 16be 9501 e3bd fa62 ffbd aabf 493c
000002b0: ad60 39be f6d8 5a3e 0b1a b13d ccfa 07be
000002c0: a485 59bf e9a8 1abe bbc4 e2be 11b1 2bbb
000002d0: 93a9 9abd 4a07 8a3d dbe7 ebbe a77c 943e
000002e0: 7b8c f3be a0fd f6bd 775c 433e 7b5a 563e
000002f0: 06bb a1b8 3492 54be e2eb 16bd 38f0 d1bd
00000300: 126f 4b3e 80ce cfbb f9db fabd 8512 b0be
00000310: e16c 91be 5b0c 1dbf 06df 0dbe ad99 cdbd
00000320: 246e 0e3e 65e0 c6be b5fc 8cbe 4645 12be
00000330: ec1d 913e fdbf 92be d39f ac3d 4ec7 5f3e
00000340: ca24 32be 355a d0be 10cc ad3e 8c4e a5be
00000350: 96a8 94be 1ad5 833e 2fa2 98bd 1e38 a3be
00000360: 9fab 033e 8893 27be c379 e73e 736c be3e
00000370: f283 83be 8949 c7bd a3e1 cf3c a182 dbbe
00000380: 03c6 373d aeac 153d e681 dd3e 318c 533e
00000390: 0953 2f3e 4432 2ebe f4e8 48bf 77a5 d63d
000003a0: c46c dd3d f333 ccbe e6be dcbe d668 67be
000003b0: 9ccc 75be 3cd2 f5be 3bc4 dfbd 9844 92bd
000003c0: f609 77bc f0bf b0bd 2865 0fbd dd2f 5bbf
000003d0: 28db a8be bccd 55be 94d4 b93e 16be b43e
000003e0: 3e1c 7abe 1dc1 99be eb52 04be a69a 16be
000003f0: 4b38 7ebe 6742 e5bd 36da a3be 7d5b 80be
-0.5306025 0.156083 0.21079117 -0.53076315 -0.14879501 0.0036047448 -0.015395445 -0.60641336
0.092525445 0.30228573 -0.4315098 -0.11110157 -0.32087338 -0.3386909 -0.017831616 -0.03761353
0.030447064 -0.19713707 -0.0042750128 0.24521393 0.3560608 -0.14043313 -0.097911194 0.31889144
-0.23677014 0.035256505 -0.40672538 0.04465116 0.07201211 -0.27132115 0.2872453 -0.211936
0.2109958 0.29204056 -0.47423026 0.026795592 -0.400881 -0.1902187 -0.12663513 -0.03874989
0.08358704 -0.084791526 -0.6194918 -0.30779883 0.3930976 -0.37726775 -0.31895697 -0.38353568
-0.11127669 -0.16529588 0.14080562 0.11592496 -0.3728526 0.38536602 0.35044682 0.7745804
-0.059643846 0.2831829 -0.5898757 -0.5406611 -0.45203814 0.2123092 -0.17372914 -0.5187193
0.17498991 0.0777291 -0.024320044 -0.17416391 -0.053167406 -0.22838916 -0.42729062 0.33611512
-0.07752751 -0.4159718 -0.24535523 -0.2726538 -0.30389872 -0.4004339 -0.2592789 -0.07544942
-0.6687309 0.33520445 -0.52516264 0.12109219 0.66940075 -0.015321852 -0.37256277 -0.9350443
-0.07119549 0.13608809 -0.100996844 -0.012099592 0.46372536 0.25443083 -0.05147828 -0.5998856
-0.60716414 0.03624677 -0.5756694 0.08245249 -0.54084915 0.29026255 0.3839129 -0.15573066
0.30245307 -0.14043732 -0.14454646 0.17077905 -0.07429613 -0.23180787 -0.3104024 -0.016051296
0.38932183 -0.03193896 -0.12290017 0.33564448 -0.0980023 -0.1021488 0.30600458 -0.25159794
-0.19830298 0.45532668 -0.2517996 0.22011091 -0.1096639 -0.1525286 -0.21642905 0.3700516
0.07577594 -0.18504356 -0.23974308 0.35637295 -0.431129 -0.04333993 0.28018406 -0.17180413
0.07279585 -0.1275607 -0.039311007 0.08996579 0.09508878 -0.26042792 -0.7553412 -0.5500454
0.0109912865 -0.13302605 -0.24606042 -0.29784206 -0.18925445 0.16062053 0.1655878 -0.22971475
-0.02294027 -0.37057394 -0.12161805 -0.075726524 0.030377429 0.038490202 0.123731695 0.20778847
-0.29083222 0.20984589 0.42649755 -0.17716093 -0.16613555 -0.06705447 -0.122038 0.2487516
-0.1465238 -0.11084286 -0.1247005 0.012313763 -0.18103285 0.21371827 0.086475454 -0.13279265
-0.84969544 -0.15103497 -0.44290718 -0.002619807 -0.07551875 0.067396715 -0.4607533 0.29001352
-0.47568116 -0.12060094 0.19078241 0.20932953 -7.711914e-05 -0.20758897 -0.03684605 -0.10250896
0.19866589 -0.0063417554 -0.12248988 -0.3438913 -0.2840338 -0.6134698 -0.13854608 -0.10039077
0.13909203 -0.38843074 -0.2753655 -0.14284238 0.2834314 -0.286621 0.084289216 0.21853372
-0.17396846 -0.40693823 0.3394475 -0.3228649 -0.2903487 0.2574852 -0.07452809 -0.31878752
0.12858437 -0.16364872 0.45210084 0.37192115 -0.25686604 -0.097308226 0.025376147 -0.428731
0.044866573 0.036541633 0.43263167 0.20658948 0.17121519 -0.17011362 -0.7848046 0.10480779
0.10811761 -0.39883384 -0.43114394 -0.22598585 -0.24003834 -0.4801196 -0.109261 -0.071419895
-0.0150780585 -0.08630359 -0.03500858 -0.8561991 -0.32979703 -0.20879263 0.36294997 0.35301274
-0.24424836 -0.30030146 -0.12922256 -0.14707431 -0.24826162 -0.11194306 -0.3200242 -0.250698

fc2.bias f4 [10]
00000000: 046d 1ebd 649c c43e 6123 26be 6364 f43d
00000010: 968f 423d 74fd 5aba e563 c9bd 9f9a 81be
00000020: 250a 183d 0332 cfbd
-0.038678184 0.38400567 -0.16224433 0.1193321 0.047500215 -0.00083538075 -0.098335065 -0.2531328
0.03711905 -0.10116961

exp_avg f4 [10, 1, 3, 3]
00000000: 8ae5 0c39 b4b2 2dba fe28 89bc e4ee 1939
00000010: e3a8 97bb 66e5 99bc cf10 c13a 5319 a7bb
00000020: 9b62 30bc e331 91af 5c48 2e31 a2f5 d333
00000030: 93fb 3830 db81 022e 11c9 09b0 1d5d 8e2f
00000040: 6a11 472f 12af 6b2d 2ac2 103d 09c1 883c
00000050: ebfe 823c aeb5 483d cc23 9b3c a6ca 5c3c
00000060: a159 123d b559 4f3c 0bfb f23b 018d 07bb
00000070: e8c7 28bc ea80 eebc 645e b53b 6aec 9abb
00000080: 9623 dfbc d929 8d3c 4403 183c 2255 2ebc
00000090: 282e 463b c094 b7bc f305 fdbc 1754 543c
000000a0: 3b03 bcbc 7df4 90bc 152b c63c 5c94 d63b
000000b0: 8e45 dd3c a608 dfa9 d32d dfa9 0ec6 9f25
000000c0: e2d7 9e25 30ae cb25 9c61 cd25 f5f9 5a25
000000d0: 0c69 a825 9a15 a7a9 18a8 2abc 9775 80bb
000000e0: be29 b339 e28c 043c 1d4a 893b d895 3dbc
000000f0: 82fd 323c 4346 663c 0102 e13b 7b61 cf2f
00000100: 6807 e831 95c4 7132 f053 972e 45b5 6a2e
00000110: 85e0 552f 76d7 9c2e be67 182e 004f 712e
00000120: a465 ccbc 88f4 97bb 608a 133a 1282 12bc
00000130: a74e 203b c2f9 6ebc 8cb0 423c 00ce 70b8
00000140: 3285 86bc f774 483b 29c6 203c 660e 8b3c
00000150: 9857 c1ba 18ba 4b3b bff6 793c ea94 3c3a
00000160: 1af9 a539 4380 a73b
0.0001343695 -0.0006626055 -0.01674318 0.00014680211 -0.004628287 -0.018786144 0.0014729741 -0.0050994544
-0.010765697 -2.6410793e-10 2.5361464e-09 9.8701335e-08 6.729632e-10 2.9673913e-11 -5.012604e-10 2.589581e-10
1.8105131e-10 1.3397077e-11 0.03534142 0.016693609 0.015990695 0.04900139 0.018937968 0.0134760495
0.035730008 0.012655665 0.0074151806 -0.002068341 -0.010301568 -0.029114205 0.005534934 -0.00472789
-0.027238648 0.017231869 0.009278122 -0.010640414 0.0030239914 -0.022409797 -0.030886626 0.012959502
-0.02295076 -0.017694706 0.024190465 0.0065484475 0.027010705 -9.9046896e-14 -9.9111386e-14 2.771631e-16
2.755492e-16 3.533292e-16 3.5627974e-16 1.8993175e-16 2.9214537e-16 -7.420037e-14 -0.010416053 -0.003920268
0.0003417264 0.00809023 0.004189743 -0.01157137 0.010924699 0.014054838 0.006866694 3.7722345e-10
6.7529307e-09 1.4072744e-08 6.881595e-11 5.336644e-11 1.9452003e-10 7.132332e-11 3.465294e-11 5.4867222e-11
-0.02495081 -0.0046373047 0.00056282245 -0.008942144 0.0024460943 -0.014585914 0.011882912 -5.741231e-05
-0.016420934 0.0030587295 0.00981287 0.01697464 -0.0014750836 0.0031086262 0.015256583 0.0007193821
0.00031656848 0.0051117255

exp_avg_sq f4 [10, 1, 3, 3]
00000000: ba58 d436 5e60 d138 69dc b73a c55b 7b36
00000010: 57c5 8b39 0471 303b e017 aa38 595f fa3a
00000020: 0e91 823b 180a 0b36 7ca6 1636 91ba 4438
00000030: 2c72 8435 eb2b 6333 a176 3136 7474 ef35
00000040: ff8b 9a34 c156 9f35 2cc5 d13a aaeb 6b3a
00000050: 54d0 8239 831a fc3a aad8 6a3a b929 ba39
00000060: 82f2 093b 4f01 8e3a c31f e639 22b2 9739
00000070: fe46 503a dee6 b13a 521c bf39 da21 983a
00000080: f32a cd3a 11fb 153a 7f19 b63a 9f2d bf3a
00000090: ebdf 453b 36c9 393b 44b9 fe3a 2ee4 383b
000000a0: 3d2d 1f3b 6544 083b 9e2c 423b 85ba 303b
000000b0: 7585 403b 861d b037 2260 7737 3153 a036
000000c0: ec31 8e37 1c94 3e37 535a 0b37 a84f 4537
000000d0: 6ee6 1137 6fdb 1d37 aa1d 6239 53a8 8b38
000000e0: e664 2339 b29b a93a c8a5 da3a 616c 0e3b
000000f0: 5ecd 783b 7458 953b b798 823b c1f7 dc37
00000100: 95e2 b638 3b41 2d39 0476 5c38 e8ef 8038
00000110: 0c74 9b38 e7f1 a238 2722 cf37 ae14 1d38
00000120: 278e 5a3a 29d6 2339 1731 d938 32d5 b93a
00000130: 0a39 163a 897b 8b3a 3089 673b 30eb 8c3b
00000140: 28d8 953b 07ce 1d3a b1d1 2b3a 7964 783a
00000150: 2ac0 2539 95d1 5739 96b8 1a3a 94dd a838
00000160: 1ada 6e39 40e5 c839
6.3284215e-06 9.9838464e-05 0.0014027479 3.7455331e-06 0.00026659176 0.0026922831 8.110679e-05 0.0019101902
0.003984577 2.071849e-06 2.2448648e-06 4.6903795e-05 9.867995e-07 5.28925e-08 2.6444106e-06 1.784078e-06
2.8786596e-07 1.1871672e-06 0.0016004196 0.0008999655 0.0002495075 0.0019233975 0.0008958677 0.0003550777
0.0021049087 0.001083413 0.00043892683 0.00028933684 0.0007945149 0.0013572832 0.0003645146 0.0011606768
0.0015653059 0.0005721311 0.0013893096 0.001458574 0.003019328 0.002834869 0.0019433876 0.0028212178
0.0024288439 0.002079272 0.0029628645 0.0026966643 0.0029376422 2.0994583e-05 1.474473e-05 4.7780563e-06
1.6950966e-05 1.1359367e-05 8.306076e-06 1.1760661e-05 8.696325e-06 9.40902e-06 0.0002156409 6.659389e-05
0.00015582479 0.0012940078 0.0016681487 0.002173208 0.0037964205 0.0045576636 0.00398549 2.6341413e-05
8.7206405e-05 0.00016522866 5.2561998e-05 6.148202e-05 7.4125914e-05 7.76982e-05 2.4692226e-05 3.7450976e-05
0.00083372224 0.00015624672 0.0001035651 0.0014177917 0.00057305454 0.0010641675 0.0035329573 0.0043004975
0.004572887 0.0006019775 0.0006554379 0.0009475421 0.00015807213 0.00020582073 0.0005902139 8.0521364e-05
0.00022778698 0.00038317777

exp_avg f4 [10]
00000000: 36f6 4dbc 2e77 de34 d154 103d 8009 8abc
00000010: 7ad9 583d b997 dea9 2f5b 773c 2a9e 7b32
00000020: b2b0 66bc d514 8d3c
-0.012570908 4.1437437e-07 0.035237137 -0.016850233 0.052941777 -9.8851e-14 0.015097423 1.4646085e-08
-0.014080213 0.017221848

exp_avg_sq f4 [10]
00000000: 7321 973b bc12 833b d234 3d3b b351 633b
00000010: 2f5b 883b d619 3638 8e26 d93b 304a 033a
00000020: 03d2 163c 9f73 e13b
0.0046121418 0.004000036 0.0028870595 0.0034686148 0.0041612606 4.3416243e-05 0.0066269105 0.0005008308
0.009205344 0.006880238

exp_avg f4 [20, 10, 3, 3]
00000000: 10b7 5525 c894 4b25 5100 5025 3f8d 3825
00000010: 2b88 4125 6d78 3f25 de82 2925 c552 2525
00000020: 51ac 2325 f1cf c025 01d0 d125 4966 ab25
00000030: 6840 0526 99aa 0226 bb67 d125 7f43 0126
00000040: b074 0226 beb3 d925 cc61 c925 a4c2 ca25
00000050: 345b b925 baf0 8525 29fb a325 6176 ac25
00000060: c62b ae25 e45f b225 675e 9f25 dc5a 5626
00000070: 6b0c 5226 bb5c 4926 2e98 5126 4e62 5c26
00000080: bf0f 4d26 cf20 5c26 c8bd 5026 0c8e 3126
00000090: 0166 6c25 b3d5 6825 cc2e 5925 4d09 2125
000000a0: f0e6 3e25 c42e 5525 51bc 4125 b71a 6025
000000b0: ebfa 4d25 e017 4825 684c 3e25 388c 3125
000000c0: 62ed 1225 487e 2f25 9fdd 3725 98a9 1425
000000d0: 9c21 2325 81bc 2625 52f3 b725 cf75 bd25
000000e0: 7671 ab25 b9bc b425 fcd8 c925 1507 b425
000000f0: 0c18 d525 8f44 d025 73d6 a925 b2ae 3823
00000100: 5dfd 4c23 42c7 da23 37f9 f323 d264 c223
00000110: 28cd d323 06c8 9f23 5a51 a023 48e7 c923
00000120: 44a9 e225 069a f225 4d77 e025 cde5 fb25
00000130: 28ef 0026 4b20 e125 4fae 0726 e0d8 f225
00000140: 1d53 ca25 23a1 3126 209a 2f26 20c2 2226
00000150: d760 3e26 b049 4326 3c6d 3426 b56e 2f26
00000160: 8a28 3026 3c9c 2726 e303 21bb 6afc 0abb
00000170: dc11 d7bb b75d 86bb 2420 16bc f93a c4bb
00000180: 880b c1bb 7d74 51bb 6830 06bc 86f9 0bb0
00000190: 3c38 c5b1 7905 56b2 c2b5 20b1 2194 bab1
000001a0: bab5 a5b1 bc41 84b1 bad1 94b1 43e5 8ab1
000001b0: a2c0 c53b 0843 943a 8243 bfba 00aa 293c
000001c0: c1e8 71bc 005c 14b8 7c6e df3b cd89 27bc
000001d0: 8f19 5c3b 7ec7 aabb 8ed9 d7bb ba83 4bbc
000001e0: e633 d3bb 44b8 0ebc be1f 60bc 823a 67bc
000001f0: e39b 83bb ff8a 8bbc 70fc 213b 8691 61bc
00000200: 20f1 13bd 1268 7dbb b4a6 0cbd 10bd 01bd
00000210: e29e 89bb 00ab bcbc 3994 a5bc 794e b822
00000220: b042 a922 c00e a922 7e23 e822 4739 19a2
00000230: ccd9 6920 4eb0 c8a6 fe70 8fa3 e886 9b22
00000240: 02a1 d73b 7ef0 9dba 1a33 38bb d87a 653a
00000250: e8db 62bb 1685 cfbb dff0 363c 442d 8a3c
00000260: f473 763c 66e3 cd2d c8cd f2ad e9f2 13af
00000270: d0ca 00ad 7e88 f02b 9f99 d02d b447 ae2e
00000280: 307a 822e f413 ca2d ba26 563c 1102 8b3a
00000290: 9a2f eeba a813 5eba b39e 21bc ac69 5abb
000002a0: be8a 873c bb49 213c 390a 723c a4c7 3e3b
000002b0: c2ae da3b e7bc 83bb fc31 20bb aa22 53bb
000002c0: d66c a4bb 5653 fcb9 a961 923a d454 59ba
000002d0: 9fb3 ab24 9ed2 d224 a735 d824 0e9a f424
000002e0: 79fe 0e25 16d6 f224 f4b8 0325 19ec 0e25
000002f0: 995a 1325 0a77 4125 5f27 6925 9f77 6525
00000300: 5aac 3325 d956 5925 0afa 5725 6472 3525
00000310: 7756 5725 690c 5b25 002e 0825 035c 2f25
00000320: b5fc 6325 748e 3225 6b47 7e25 05eb 8725
00000330: 429e 2525 db1d 7d25 d379 7d25 a85b c325
00000340: 1f22 f525 4837 f925 7555 e125 c855 0a26
00000350: 1a65 fd25 9534 e525 8f4d 0226 b553 ff25
00000360: 6bb4 b324 d231 d024 bd78 0c25 967b da24
00000370: 50ea 1e25 d335 2e25 882a d924 5ac1 2b25
00000380: a907 2025 f038 9524 0ff8 ab24 f53e ce24
00000390: 7c81 bd24 5c6d e324 7aaf 0525 30e5 bc24
000003a0: d676 0c25 4f11 0e25 c368 2425 7d9a 5625
000003b0: 43b7 6a25 2694 3a25 9d53 7125 a285 6925
000003c0: 8936 2825 752d 5c25 dc2d 5525 d798 1a23
000003d0: 99b4 5023 0846 2e23 537c 7923 9c87 9923
000003e0: 2de0 7123 a606 d123 e523 9623 39f8 7d23
000003f0: 25fa 6b25 ce8d 9425 6062 9525 7500 7e25
1.8536829e-16 1.7657852e-16 1.8041231e-16 1.6007312e-16 1.6786217e-16 1.6607411e-16 1.4702753e-16 1.4339512e-16
1.419638e-16 3.3447597e-16 3.639667e-16 2.9733083e-16 4.623093e-16 4.5334013e-16 3.632601e-16 4.484734e-16
4.526095e-16 3.7765297e-16 3.4934212e-16 3.5173308e-16 3.2154186e-16 2.3234945e-16 2.8446185e-16 2.991746e-16
3.021385e-16 3.0943056e-16 2.7646073e-16 7.43693e-16 7.2875215e-16 6.9861557e-16 7.2717683e-16 7.646106e-16
7.1145e-16 7.6372297e-16 7.24217e-16 6.160172e-16 2.0504297e-16 2.0195196e-16 1.8837605e-16 1.3967675e-16
1.6558118e-16 1.849065e-16 1.6803886e-16 1.9437954e-16 1.786593e-16 1.7355324e-16 1.650576e-16 1.5399811e-16
1.274391e-16 1.5221616e-16 1.5947808e-16 1.2894414e-16 1.4149384e-16 1.4462072e-16 3.191032e-16 3.2866104e-16
2.9740656e-16 3.1352906e-16 3.5014976e-16 3.1229822e-16 3.6965905e-16 3.6128705e-16 2.9462143e-16 1.0011653e-17
1.1112514e-17 2.3719996e-17 2.645166e-17 2.1076221e-17 2.2963553e-17 1.7323528e-17 1.7381688e-17 2.1890415e-17
3.931945e-16 4.2084678e-16 3.8938647e-16 4.3697278e-16 4.473304e-16 3.905316e-16 4.7073766e-16 4.2127268e-16
3.5097734e-16 6.162759e-16 6.09242e-16 5.646813e-16 6.6050735e-16 6.775408e-16 6.2598085e-16 6.086536e-16
6.1117207e-16 5.81515e-16 -0.0024568967 -0.002120758 -0.0065634083 -0.004100527 -0.009162936 -0.0059884754
-0.005891267 -0.0031960302 -0.008190252 -5.09225e-10 -5.7398477e-09 -1.2457684e-08 -2.3386382e-09 -5.4301528e-09
-4.822792e-09 -3.8491788e-09 -4.33121e-09 -4.0423926e-09 0.0060349265 0.0011311481 -0.0014592262 0.010355473
-0.0147649655 -3.537163e-05 0.0068185907 -0.010225725 0.003358457 -0.0052117696 -0.006587214 -0.012421543
-0.0064453958 -0.008710925 -0.013679443 -0.01411307 -0.004016386 -0.017034052 0.0024717115 -0.013767606
-0.036118627 -0.0038666767 -0.034338668 -0.031674445 -0.0041998485 -0.023030758 -0.02021228 4.9956386e-18
4.587815e-18 4.582316e-18 6.2921305e-18 -2.0765689e-18 1.980793e-19 -1.3925575e-15 -1.5551945e-17 4.215567e-18
0.006580473 -0.0012049822 -0.002810663 0.0008753962 -0.0034615938 -0.0063330038 0.011165827 0.016867287
0.015042294 2.3406787e-11 -2.76036e-11 -1.3455871e-10 -7.320991e-12 1.709091e-12 2.3715084e-11 7.925341e-11
5.9334204e-11 2.2973602e-11 0.013070757 0.0010605474 -0.0018172145 -0.0008471557 -0.009864497 -0.0033327146
0.01654565 0.009844239 0.014772945 0.0029110694 0.006673665 -0.0040203216 -0.0024443856 -0.0032216706
-0.005017857 -0.00048127276 0.0011168021 -0.00082905334 7.446372e-17 9.142978e-17 9.376596e-17 1.0607911e-16
1.2402755e-16 1.05313446e-16 1.1425103e-16 1.239653e-16 1.2780913e-16 1.6780414e-16 2.0222868e-16 1.9903113e-16
1.558417e-16 1.8851175e-16 1.8732994e-16 1.5738005e-16 1.8677573e-16 1.8999427e-16 1.1811705e-16 1.5210005e-16
1.9774732e-16 1.5487304e-16 2.2055185e-16 2.3578022e-16 1.4365089e-16 2.1954367e-16 2.1985528e-16 3.3889216e-16
4.2523847e-16 4.3232075e-16 3.9089186e-16 4.7994623e-16 4.3957013e-16 3.9760799e-16 4.520792e-16 4.429217e-16
7.7934515e-17 9.029002e-17 1.2183972e-16 9.475179e-17 1.3783704e-16 1.511033e-16 9.41808e-17 1.4897396e-16
1.3880383e-16 6.4714905e-17 7.4579656e-17 8.944491e-17 8.218504e-17 9.863082e-17 1.1595365e-16 8.192026e-17
1.2183328e-16 1.2322401e-16 1.4260227e-16 1.8613884e-16 2.0358356e-16 1.6183123e-16 2.0931747e-16 2.0254805e-16
1.4590154e-16 1.909736e-16 1.8490343e-16 8.380722e-18 1.1313946e-17 9.447389e-18 1.3524644e-17 1.6645726e-17
1.3112107e-17 2.2662641e-17 1.6278235e-17 1.3767721e-17 2.0467753e-16 2.5769998e-16 2.591404e-16 2.2031143e-16

exp_avg_sq f4 [20, 10, 3, 3]
00000000: 647b 2c36 79ab 3736 15e9 2736 7471 f435
00000010: bdbc 1f36 25db 0f36 0961 e435 3867 e535
00000020: d137 d835 d960 3037 2228 3a37 b555 f936
00000030: 49f9 8c37 eba6 8337 3618 2437 10b2 7c37
00000040: c128 8037 4198 3637 6940 0d37 e3ce 2237
00000050: b869 2837 87ee 8236 b5e9 ca36 4086 1637
00000060: 8738 db36 05f2 fb36 c9e9 eb36 75e5 3238
00000070: f66f 4038 1575 2938 3125 2538 1733 4d38
00000080: d9bf 2c38 80f4 3538 fa77 3138 6007 0238
00000090: 6759 5536 7d22 7f36 8083 8a36 d0e2 d535
000000a0: 488b 2436 aa2c 8336 7229 1636 2b27 6236
000000b0: a17c 5836 d9d9 1536 f9b2 1236 65f4 0836
000000c0: 0231 a235 8f01 f135 e387 1b36 fec3 b435
000000d0: 3335 d535 41d4 0136 38e9 0a37 6261 1037
000000e0: e09b f536 3e70 0337 f1ef 1c37 dab6 0437
000000f0: dd4d 2c37 5f79 2637 6965 eb36 fccd be32
00000100: 3cca 0a33 80e3 6633 57b3 8d33 0b65 9a33
00000110: 3501 4833 0fdc d232 ebb1 7133 f60b 6033
00000120: e1a7 4c37 1905 6b37 ba5f 4337 701f 7037
00000130: e506 8237 684c 4737 2848 8737 b8fa 6037
00000140: 5f29 1e37 e182 f737 3c61 fe37 dd31 e337
00000150: 3956 0338 d477 1338 3e9f 0438 8db9 e037
00000160: a103 ef37 69f6 e137 b65f 0f38 be68 4138
00000170: ee83 9738 1590 4f38 66bb 7038 a74d 7138
00000180: 37f0 a538 609a f938 4c67 a738 d845 5d38
00000190: 42c2 4738 c824 4338 c112 3a38 5bad 4738
000001a0: 220a 4e38 4998 bd37 681b cf37 f611 e137
000001b0: 5079 6d3a 44fd ab39 8d5c 1d39 8541 8a3a
000001c0: 4e8c d339 c98f 8639 d5d2 813a f687 fe39
000001d0: a753 003a 259e 8439 5ed7 0939 215a 6239
000001e0: 7b7d ab39 36dd 6039 ca1d 9e39 4205 d739
000001f0: d346 db39 7adb d139 2e34 bb3b d9ea 2f3b
00000200: 6b54 ef3a 446e dc3b 6aa9 4c3b 734b 403b
00000210: 6f8e e33b 51be 8a3b ad60 a53b 0828 6c31
00000220: b036 de30 89c1 3a30 255a 3a31 bcd8 b230
00000230: 0162 0a30 0bce 7230 0992 4431 ab52 dc30
00000240: b4cb 0739 f717 7b38 914d 8138 fd56 9f39
00000250: fb63 9839 2d93 a139 3e46 8239 7738 d039
00000260: 804d 283a 24ee df37 3e4c 2d38 99e9 3f38
00000270: 8838 6836 9a69 a536 025c 9d37 9142 9b37
00000280: c71f c437 0fce c237 2538 8239 b4bd 0839
00000290: 635a bd38 3176 df39 00a1 ce39 1269 d439
000002a0: 9f56 aa39 05d8 023a eccf 443a 2d3b c438
000002b0: 501f 3339 f9c0 4d39 d15d 9438 408b 3638
000002c0: e8f8 0238 e236 3439 48be e938 b6c2 f238
000002d0: e1ce 1a35 eead 6235 dd36 9e35 915b 9135
000002e0: c6fa cf35 6035 a835 0383 b335 2243 d935
000002f0: 0545 da35 023d 0936 895d 5536 2d6d 3f36
00000300: 249d f235 4dac 3036 924b 2d36 93fe e835
00000310: b2ac 2936 c0ab 2d36 3138 a035 86c2 1a36
00000320: 53a0 7736 c73c 0336 366f 9436 9149 b636
00000330: cff0 0836 a950 a136 27c5 a936 e528 1f37
00000340: dbe0 8337 164d 9b37 547d 5937 28bc ad37
00000350: fc96 9a37 e56a 6e37 3fd2 9f37 5e64 9737
00000360: 5641 0535 440d 6b35 c428 c235 a125 5935
00000370: a6f0 fb35 e478 2b36 a77a 7935 cd7a 2036
00000380: 9067 1f36 3222 c234 f71c 1b35 ed4f 4d35
00000390: 6046 1c35 c41b 8135 9453 a935 a641 2c35
000003a0: cb4a bb35 bf44 d535 e87f de35 d683 4236
000003b0: 0dcf 6a36 9da4 0936 7d27 7c36 102a 6a36
000003c0: 9db7 ec35 c2d9 5836 bb15 4c36 aa46 0a32
000003d0: 6546 3a32 3e01 3232 fce1 a732 6b3c b532
000003e0: 497d 9a32 668c 4d33 6bde d632 f1b7 9232
000003f0: a0a8 5b36 d0d5 b936 740f c736 80cf 8636
2.570182e-06 2.7368935e-06 2.502061e-06 1.8212436e-06 2.3802706e-06 2.143622e-06 1.7015565e-06 1.709187e-06
1.6109499e-06 1.0512967e-05 1.1095808e-05 7.430756e-06 1.6805383e-05 1.5694144e-05 9.780799e-06 1.5061829e-05
1.5277767e-05 1.0883495e-05 8.419252e-06 9.704122e-06 1.0038195e-05 3.90207e-06 6.047276e-06 8.971954e-06
6.5332893e-06 7.5085577e-06 7.030762e-06 4.2652206e-05 4.588064e-05 4.040178e-05 3.9373703e-05 4.892339e-05
4.1186668e-05 4.338147e-05 4.2311825e-05 3.1001284e-05 3.1791512e-06 3.8018036e-06 4.128029e-06 1.5935748e-06
2.4518977e-06 3.909304e-06 2.2375866e-06 3.3699423e-06 3.2259052e-06 2.2329534e-06 2.1859871e-06 2.0407836e-06
1.2084204e-06 1.7956353e-06 2.3175896e-06 1.3468086e-06 1.588522e-06 1.9346046e-06 8.279741e-06 8.605743e-06
7.319715e-06 7.834342e-06 9.35419e-06 7.910387e-06 1.0270128e-05 9.92263e-06 7.0153515e-06 2.2212582e-08
3.231456e-08 5.3757958e-08 6.598446e-08 7.1895634e-08 4.6567227e-08 2.4547289e-08 5.6274e-08 5.2164943e-08
1.2198435e-05 1.4008278e-05 1.1645194e-05 1.4312434e-05 1.5500418e-05 1.1879114e-05 1.6126854e-05 1.3409815e-05
9.427166e-06 2.950564e-05 3.0324438e-05 2.7083728e-05 3.1313135e-05 3.515913e-05 3.161956e-05 2.6789285e-05
2.849271e-05 2.6936834e-05 3.4182995e-05 4.6112335e-05 7.224815e-05 4.9486833e-05 5.7394987e-05 5.7531197e-05
7.9125566e-05 0.00011902 7.982421e-05 5.2755553e-05 4.7626214e-05 4.6525878e-05 4.436332e-05 4.7606747e-05
4.9123664e-05 2.2601469e-05 2.4689085e-05 2.6830454e-05 0.00090589095 0.0003280436 0.00015007165 0.0010548091
0.0004034959 0.000256656 0.0009904752 0.00048547954 0.00048952777 0.0002529483 0.00013145569 0.00021586615
0.00032709152 0.00021444712 0.00030158303 0.00041011913 0.00041823703 0.0004002711 0.0057130074 0.002684286
0.0018259411 0.006727012 0.0031228908 0.0029341846 0.0069444696 0.0042341133 0.005046925 3.4365275e-09
1.6168169e-09 6.7941436e-10 2.7117804e-09 1.3012804e-09 5.034338e-10 8.833189e-10 2.8604765e-09 1.6030602e-09
0.00012950489 5.9865382e-05 6.165647e-05 0.00030391655 0.0002906619 0.00030817967 0.00024847867 0.0003971492
0.000642024 2.6694564e-05 4.131742e-05 4.5755503e-05 3.46036e-06 4.929677e-06 1.8758703e-05 1.8508437e-05
2.3379818e-05 2.3222556e-05 0.00024837363 0.0001304064 9.029058e-05 0.00042621934 0.00039411336 0.00040514074
0.00032489465 0.0004991296 0.00075077894 9.357031e-05 0.00017082435 0.00019622211 7.0746646e-05 4.3521868e-05
3.1226227e-05 0.00017186583 0.000111457484 0.00011575727 5.767052e-07 8.444466e-07 1.1787885e-06 1.0829991e-06
1.5495687e-06 1.253251e-06 1.3374669e-06 1.6187298e-06 1.6262353e-06 2.0450102e-06 3.1793918e-06 2.8524767e-06
1.8076139e-06 2.6326336e-06 2.5822997e-06 1.7359438e-06 2.5283484e-06 2.587898e-06 1.1937283e-06 2.3061016e-06
3.689919e-06 1.9555898e-06 4.4236904e-06 5.432587e-06 2.0405748e-06 4.807564e-06 5.059544e-06 9.48666e-06
1.5721123e-05 1.8513336e-05 1.2963388e-05 2.0710824e-05 1.8428538e-05 1.4210794e-05 1.905218e-05 1.804734e-05
4.964144e-07 8.7563626e-07 1.4465991e-06 8.0893557e-07 1.8770995e-06 2.5551353e-06 9.293821e-07 2.3913337e-06
2.3753128e-06 3.6160196e-07 5.778415e-07 7.648476e-07 5.821694e-07 9.61933e-07 1.2615806e-06 6.4170524e-07
1.3954353e-06 1.5889744e-06 1.6577515e-06 2.8984991e-06 3.4989237e-06 2.0510408e-06 3.7573911e-06 3.48932e-06
1.7636809e-06 3.231326e-06 3.0411018e-06 8.048724e-09 1.0842631e-08 1.0361246e-08 1.9544125e-08 2.1098648e-08
1.7984933e-08 4.7857974e-08 2.5014023e-08 1.7080284e-08 3.2731696e-06 5.5383207e-06 5.932461e-06 4.0176674e-06

exp_avg f4 [20]
00000000: d022 1727 2a72 0c3c 52f4 8c26 9a84 0d3c
00000010: 5fc5 d825 cac2 d026 0ee4 a226 5240 1f27
00000020: 4c98 2426 088f 8426 ee59 d225 b008 1227
00000030: e02f 7b27 1441 b82b 9a6b ba24 d1eb 8934
00000040: 6777 b330 913f db26 695e 2f26 adc4 3e23
2.0974331e-15 0.008572141 9.780675e-16 0.008637572 3.760377e-16 1.4485697e-15 1.1302822e-15 2.210055e-15
5.710533e-16 9.198109e-16 3.6490132e-16 2.026628e-15 3.48592e-15 1.3092049e-12 8.0846926e-17 2.5689818e-07
1.30579e-09 1.5213407e-15 6.084327e-16 1.0341568e-17

exp_avg_sq f4 [20]
00000000: 89cb aa39 9b78 0b3c 5c2f 9d38 9e16 363c
00000010: e6a7 a337 6f18 6039 03c2 1e39 4bcb 9c2f
00000020: c0e0 0638 dc6d c338 7928 8637 dab7 8639
00000030: 3375 c03a be5c d237 5f0b 0a35 179e 0e3b
00000040: aae0 eb3b dbc4 8039 6456 6c38 ab1e 9d32
0.00032576572 0.008512641 7.495165e-05 0.011113791 1.9509298e-05 0.00021371407 0.00015140329 2.8520683e-10
3.2157404e-05 9.3187875e-05 1.5992891e-05 0.00025695452 0.0014683366 2.5077137e-05 5.1425553e-07 0.002176171
0.007198413 0.0002456073 5.6347242e-05 1.8291152e-08

exp_avg f4 [50, 980]
00000000: 8ec2 6020 8ec2 6020 8ec2 6020 f07c 0ba1
00000010: 7c0f b021 5439 af21 78d5 1a21 7497 a21e
00000020: e961 eea0 c918 8da0 fbe7 afa0 52d4 fc20
00000030: dbde 6ba0 e3db 2820 f9b6 ae20 8654 33a2
00000040: 3a41 4321 d3c9 ae22 90cd 8fa1 bb64 7521
00000050: 1a27 1721 3b4e 8d9d c464 bca2 c1d0 dca2
00000060: 43ae 75a2 57be 3522 b9fe 1f23 3c63 bd9f
00000070: 863b 021e aa77 fe22 bafb 3c22 de36 29a3
00000080: 35bf 9222 7ade c022 317a 37a1 54f8 261e
00000090: fa4c 8823 7712 3d23 e92b b8a2 d45b 8c22
000000a0: 5c36 d221 2eda 9a20 9e12 831f d406 a7a0
000000b0: 8e8b 4f22 5f89 ac22 43e9 3922 757d 1a21
000000c0: 0ca8 9320 95bd ddb5 95bd 7ab9 e1a3 12bb
000000d0: 8e74 d2bb c2e6 b4bb bdbb c9ba 62eb d0b7
000000e0: 7783 30b9 20d1 a8ba 4d2b 4cbb cf0b d7bb
000000f0: c20b 16bc b4d9 4dbb ab71 efb9 e4d5 a5b6
00000100: ec8e eab8 3a38 a7ba 1e59 b4ba 7a15 d5bb
00000110: b2ed e4ba 1c6a a6b9 46f1 2d38 7e05 8038
00000120: 0048 4638 cc09 103a 66a6 a9bb 6a9b bbb9
00000130: a5b0 c5b8 e877 ffb7 db70 50ba 9bce 02ba
00000140: 7128 093a 6b77 a9bb af68 0c3a 3e4b 94b9
00000150: 5fb1 ecb6 e4f4 35ba 7c8a caba f927 8638
00000160: 19f7 80bb 6059 0839 776e cdb9 eb0c 7734
00000170: 0a4e 06b5 8087 a536 a966 a1b8 0118 f3b9
00000180: 329c 3cb8 ce7b bcb9 c186 2f21 e947 6d9e
00000190: 7fbf 8820 7df4 c921 df79 1621 50b9 a91c
000001a0: 0000 0000 51cf a121 0dc1 b221 f7e7 ba22
000001b0: 2898 d822 bc5c 1022 0000 0000 0000 0000
000001c0: ed10 1120 ef50 3da2 4d72 a522 f0da 1c22
000001d0: 60d9 8b21 f0a8 4421 0000 0000 b047 a220
000001e0: 24d3 7521 904c 9b22 3ab1 a7a0 f603 2d22
000001f0: 64fd b022 0000 0000 9dc5 0821 4966 3f23
00000200: d165 0ba2 f3d9 22a2 5064 3222 eb81 9022
00000210: 0000 0000 8db0 e720 3c50 5823 3734 8720
00000220: ff1a 4fa1 9b94 ce21 0000 0000 0000 0000
00000230: b047 a220 c567 9f9e ee76 56a2 bdad eea1
00000240: 50df 9d9e 0000 0000 0000 0000 c3fb 0e37
00000250: 5fa9 23ba 0368 8fba 7858 29bb de8f 62bb
00000260: 4efa 17bb 405b beb7 607b c6b8 4062 a3ba
00000270: 76e6 b9ba 8869 97bb 4ca7 6bbb 51cb 2bbb
00000280: f194 efb9 5628 5cba 7638 71ba c58b cbba
00000290: 1dc3 f4bb cdb5 75bb 4b94 7aba d233 0eba
000002a0: 55d7 5eba 4067 01bb 4d81 7bbb 2977 dabb
000002b0: 9fd8 0bbb 48e1 eb37 72da 4438 c764 d6b8
000002c0: 5adc b7ba 30a0 b7bb e04b 97bb e4b0 68ba
000002d0: e837 2db9 094d f538 7ce6 0eb9 6a97 38bb
000002e0: 0497 bebb cc26 e6ba 3049 c3ba 962b 7eb9
000002f0: b65f 3a37 97ba ffb8 6211 d9ba 29d4 a9b9
00000300: f309 0539 41ae 50b9 2d22 53b9 76b5 4037
00000310: cd36 871f 38a3 1621 6bcf c521 4037 5a22
00000320: d2d6 bf21 ac7f 181e 0000 0000 0000 0000
00000330: 87b3 2320 c4aa 2aa1 2251 c020 7aa9 3c21
00000340: c82f 4da0 0000 0000 0000 0000 b5a8 5720
00000350: e34a 4e20 fb8f 3020 3e7a b89f 0000 0000
00000360: 0000 0000 0000 0000 5f1a 3a20 b117 0c20
00000370: cfe8 8b20 0000 0000 0000 0000 0000 0000
00000380: 0000 0000 a154 1e21 7947 8a21 f1de 8721
00000390: f4f8 a521 0000 0000 0000 0000 0000 0000
000003a0: 0000 0000 0000 0000 0000 0000 0000 0000
000003b0: 0000 0000 0000 0000 0000 0000 0000 0000
000003c0: 0000 0000 0000 0000 0000 0000 0000 0000
000003d0: 0000 0000 8b00 5922 0b3d 6122 8373 ed21
000003e0: 2c07 e422 71dc fb22 7a9e 3123 bbc0 7022
000003f0: b545 7e22 f90f 0423 de67 f722 cce0 b123
1.9037911e-19 1.9037911e-19 1.9037911e-19 -4.7260385e-19 1.1930323e-18 1.1873636e-18 5.2459753e-19 1.7215057e-20
-4.038356e-19 -2.390273e-19 -2.9799665e-19 4.2830962e-19 -1.9979011e-19 1.4302908e-19 2.9597828e-19 -2.430377e-18
6.6154897e-19 4.7376484e-18 -9.744469e-19 8.3142544e-19 5.121254e-19 -3.7403278e-21 -5.106419e-18 -5.9852146e-18
-3.3295945e-18 2.463084e-18 8.673347e-18 -8.020878e-20 6.894452e-21 6.8973537e-18 2.5612014e-18 -9.173127e-18
3.9775828e-18 5.227726e-18 -6.216453e-19 8.83932e-21 1.477775e-17 1.0249621e-17 -4.991979e-18 3.8044303e-18
1.4244542e-18 2.6232994e-19 5.551146e-20 -2.829542e-19 2.812761e-18 4.676614e-18 2.5195663e-18 5.234327e-19
2.5013973e-19 -1.6520959e-06 -0.00023912483 -0.0022375511 -0.006422586 -0.0055206725 -0.0015391033 -2.490514e-05
-0.00016833642 -0.0012879707 -0.003115374 -0.006562687 -0.009158077 -0.0031410279 -0.00045670322 -4.9422833e-06
-0.00011184611 -0.0012757846 -0.0013759469 -0.0065028043 -0.0017465858 -0.00031741045 4.1471118e-05 6.1045386e-05
4.7273934e-05 0.0005494624 -0.005177307 -0.00035783212 -9.4265946e-05 -3.0454205e-05 -0.0007951387 -0.0004989893
0.00052321615 -0.0051717064 0.0005356175 -0.0002828482 -7.053997e-06 -0.00069410936 -0.0015452649 6.3970634e-05
-0.0039357063 0.00013003265 -0.0003918295 2.3008367e-07 -5.003245e-07 4.9331575e-06 -7.6962e-05 -0.00046366456
-4.496816e-05 -0.00035950396 5.947065e-19 -1.2561546e-20 2.3166018e-19 1.3685005e-18 5.098327e-19 1.1231384e-21
0.0 1.0964661e-18 1.2112849e-18 5.0661003e-18 5.870802e-18 1.9564732e-18 0.0 0.0
1.2287578e-19 -2.5657122e-18 4.484436e-18 2.1257847e-18 9.476545e-19 6.663097e-19 0.0 2.7491306e-19
8.328867e-19 4.2093898e-18 -2.840818e-19 2.3447969e-18 4.7973183e-18 0.0 4.634013e-19 1.03757905e-17
-1.8891914e-18 -2.2070475e-18 2.4176603e-18 3.9168834e-18 0.0 3.9249754e-19 1.1726374e-17 2.2904442e-19
-7.0170057e-19 1.3998439e-18 0.0 0.0 2.7491306e-19 -1.6877698e-20 -2.906537e-18 -1.6173495e-18
-1.6715381e-20 0.0 0.0 8.522477e-06 -0.0006243195 -0.0010941032 -0.0025840085 -0.0034570615
-0.0023189965 -2.2692257e-05 -9.464356e-05 -0.0012465194 -0.0014183063 -0.0046207346 -0.003595787 -0.0026213715
-0.00045696602 -0.00083983445 -0.0009201834 -0.0015529325 -0.0074695484 -0.0037492395 -0.00095588405 -0.0005424592
-0.0008500715 -0.001974538 -0.003837663 -0.006667037 -0.0021338833 2.8119088e-05 4.6933485e-05 -0.000102230864
-0.0014027462 -0.0056038126 -0.0046171993 -0.00088764564 -0.00016519392 0.00011696859 -0.00013628037 -0.0028166422
-0.0058163423 -0.001755917 -0.0014899131 -0.00024239565 1.1108748e-05 -0.000121941026 -0.0016560967 -0.00032392264
0.00012687575 -0.0001990134 -0.0002013526 1.14863415e-05 5.7265384e-20 5.1037995e-19 1.3404142e-18 2.9573758e-18
1.2999526e-18 8.073215e-21 0.0 0.0 1.3866038e-19 -5.7824247e-19 3.2579754e-19 6.392118e-19
-1.7379985e-19 0.0 0.0 1.8267029e-19 1.7473657e-19 1.4955419e-19 -7.8129264e-20 0.0
0.0 0.0 1.5763538e-19 1.18663e-19 2.3701576e-19 0.0 0.0 0.0
0.0 5.364449e-19 9.370162e-19 9.206968e-19 1.1246732e-18 0.0 0.0 0.0
0.0 0.0 0.0 0.0 0.0 0.0 0.0 0.0
0.0 0.0 0.0 0.0 0.0 2.9409271e-18 3.0525502e-18 1.609032e-18
6.1807117e-18 6.8267088e-18 9.628748e-18 3.2628096e-18 3.4460322e-18 7.159117e-18 6.7059458e-18 1.9285584e-17
