lightning_logs/version_26/checkpoints/epoch=2-step=2814.ckpt (torch, 273474 bytes, 24 tensors)

conv1.weight f4 [10, 1, 5, 5]
00000000: 1542 263e 9bae a6bd 2bb6 c1bd 7dc2 c6be
00000010: 5588 70bc 8141 733e e7d6 31be 4feb febe
00000020: a56e 6dbe 001f 90be 1981 c03e f61a babd
00000030: 36ae c6be ce5f c0bc 0270 453f f6c8 0d3e
00000040: 43be 813e ea53 543d c3bb 563e 2948 df3e
00000050: 36d2 0dbe 365d 963e 1d30 463e 4e4b 243d
00000060: cfd3 74be 717f 33be 2414 d8bb 1edd b4bd
00000070: 62e2 1cbd 5f19 b5bd ff57 acbe 160c 69bc
00000080: a9af 76be 4f08 acbe 92d3 323d 1f97 a3be
00000090: bbfd 96be 307d 95bd 3e28 a1be 1b16 8fbe
000000a0: 8cd2 07be 3415 3a3c de55 dcbc 8476 80be
000000b0: 0d27 6a3d 3544 8dbc d846 b4bc 6966 7ebe
000000c0: 8602 07be 5ad3 0abe 70aa f4be 77d7 4dbe
000000d0: 9477 9cbe 1a64 b3bd 4004 d13b 53db 39bf
000000e0: 67a7 c9be e808 74be aeb2 7abe 66c2 dcbd
000000f0: cb92 c83d 4b0c 8dbc 5ecb 453d 43e2 a1bd
00000100: 204f 32be 1e99 87be 9a12 a2bd 07e1 bc3d
00000110: c891 ccbe 836f acbd 2784 f7be 4f26 28bf
00000120: bd7c 8bbe a9f9 41be 2a24 cabe 0063 d53d
00000130: 3356 55be 8b6d 63be ead3 d73c 9616 22be
00000140: 1145 33be 8ca7 e4bd fdf2 e03d 3161 82be
00000150: b4ad 37be 2674 3cbe 6807 04bd 3a9f 83be
00000160: 91f3 8dbe 555b 5d3c de9f aabe be83 91be
00000170: 2a53 71be 2a62 43bd 33c6 3cbe b920 83be
00000180: 7f8b 75be ed40 86be 08d1 2fbe 828e 28be
00000190: 221e 19bd 9477 c2bd 6654 a2be 7b1a 293d
000001a0: 6eaa 58be dae8 93be 4667 acbd 7868 c8bd
000001b0: 2524 ac3c 24d7 98be 0115 36bc 1dbe 22bd
000001c0: b0d5 1ebd 0a02 89be a9a6 a53c 72f3 79be
000001d0: a720 aabc 0f94 88be b9c6 8fbe 9cc3 43bd
000001e0: 0726 69be 6d96 b1be e6ef b2be 46c3 e33b
000001f0: b7c9 96bd 58d1 00c0 31f2 0cbc 0720 c5be
00000200: 2ddf 99be 0732 14be e76b 01bf 8e49 2cbf
00000210: 3e69 5bbf a2fa 20bf f56a 68be 2aa7 e13e
00000220: 0b13 5ebe f18c 663d 7bd2 463e facf 93bf
00000230: fcb3 163e 2e2c dcbc 80f0 2a3e 877c 0dbf
00000240: 1221 c8bf df75 ed3d d759 433e 3a7a af3e
00000250: 3815 4dbe df5f 75bf 5fc4 943e ce8f 913e
00000260: d194 d9bc 939f 6b3d 6cfc bbbf fda1 00bf
00000270: 59a0 c43e a6b0 f1be f56d 89bf fa27 babe
00000280: cbaa eebe 9208 0cbf 09ba 72bf 456d 62bf
00000290: 619b 1bbe 18ba 92bf 563e 7ebf 73e5 cfbe
000002a0: fcb6 e83d b4fd c4bd 06ad babf c47d 82bf
000002b0: 342a a4be 2854 91be 4be1 12be 9b2c 96be
000002c0: 19f9 263e b454 fdbd 334a 063e 509d e33e
000002d0: 530d 01bf 19eb a23e aba6 37be a95d 863e
000002e0: 53f6 30be 2ba0 97bf b053 9fbe 3127 903d
000002f0: f046 793e c7e9 1ebf 1e74 3cbe ed14 61bf
00000300: 7764 3ebf c5a0 5ebf b150 f8be 68b1 babb
00000310: 8c18 ab3d a1d7 72be 371a 173e 58cb 06be
00000320: 85d0 4a3d 9796 69be 5601 54be ebb3 723c
00000330: a834 9d3c 251c 7fbd 9859 dcbc 8765 a8bc
00000340: c44c 2c3d 2e2b d33c 0dc0 07be a2e8 92be
00000350: f408 0ebe c5da c0bd 648e 84be eea8 a1bd
00000360: 81a1 66bd faca 46bd 03d2 cdbc a570 a4bb
00000370: 969c b2bd 7179 46be 4bfc afbd 52fb 8fbd
00000380: f9bb adbe b455 a2be 45d7 b9bd 6e9c 27bd
00000390: 0993 86be 5334 d6bd eba7 13bd 929e a7be
000003a0: 43c1 19be e309 813d aa90 21bc 089b 5a3d
000003b0: 532c 02be 598b 39be 15c5 183d 5d5b 9dbd
000003c0: 92ee 88be 7c10 663d f925 a8be fb6c cdbd
000003d0: 5b23 6bbe c5b5 73be 6a46 b03c c117 93bd
000003e0: 5c00 3fbe e518 4c3c
0.16236146 -0.08138772 -0.09458574 -0.38820258 -0.014680942 0.23755457 -0.17367135 -0.497889
-0.23186739 -0.2814865 0.37598494 -0.09087174 -0.38804787 -0.023483183 0.77124035 0.13846192
0.2534047 0.05183784 0.20970063 0.4360974 -0.1384972 0.2936799 0.19354291 0.04011088
-0.23908924 -0.17529084 -0.006594198 -0.08831237 -0.038301833 -0.0884273 -0.33660886 -0.014224073
-0.24090447 -0.3360009 0.0436588 -0.31951234 -0.29490456 -0.07299268 -0.31476015 -0.27946553
-0.13263911 0.011357594 -0.026896413 -0.2509042 0.057166148 -0.017244438 -0.022006437 -0.24843754
-0.13184556 -0.13557187 -0.47786283 -0.20101725 -0.3055998 -0.08759327 0.0063786805 -0.7260029
-0.3938553 -0.23831522 -0.24482223 -0.10779266 0.097936235 -0.017217776 0.04828965 -0.07904484
-0.17412996 -0.26484007 -0.07913704 0.09222608 -0.39954972 -0.08419707 -0.48343012 -0.65683454
-0.27243605 -0.18942894 -0.39480716 0.104192734 -0.20833664 -0.22209756 0.026346166 -0.15828928
-0.17506815 -0.111647695 0.10983846 -0.25464776 -0.17937356 -0.18403682 -0.032233626 -0.25707418
-0.2772489 0.013510545 -0.33325094 -0.28420824 -0.23566881 -0.04770104 -0.18434982 -0.25610903
-0.23978995 -0.2622141 -0.17169583 -0.16460612 -0.037382253 -0.09495464 -0.31705016 0.04128502
-0.21158764 -0.2888859 -0.08418135 -0.09785551 0.021013329 -0.2985164 -0.011113406 -0.039732087
-0.038778007 -0.26759368 0.020221071 -0.24409273 -0.020767523 -0.2667546 -0.280813 -0.04779397
-0.22768413 -0.34685078 -0.34948653 0.0069507686 -0.07362693 -2.0127773 -0.008602665 -0.38500997
-0.30053082 -0.14472209 -0.5055527 -0.67299736 -0.8570746 -0.62882435 -0.22697051 0.4407285
-0.21686952 0.056286756 0.1941623 -1.1547844 0.14717096 -0.026876535 0.16693306 -0.5526814
-1.5635092 0.11594748 0.1907724 0.3427294 -0.20027626 -0.9584941 0.2905607 0.28430027
-0.026560219 0.05752523 -1.4686408 -0.50247175 0.38403586 -0.47205085 -1.0736681 -0.36358625
-0.4661468 -0.5470058 -0.9481512 -0.8844798 -0.15195991 -1.1463041 -0.9931387 -0.40604743
0.113630265 -0.096187025 -1.4584053 -1.0194631 -0.32063448 -0.2838452 -0.14343755 -0.29330906
0.1630596 -0.123696715 0.13114242 0.44455957 -0.50410956 0.3181999 -0.17934673 0.26243332
-0.17281465 -1.1845754 -0.31118536 0.07038725 0.24343467 -0.62075466 -0.1840367 -0.87922555
-0.7437205 -0.86964065 -0.48499063 -0.005697418 0.08354291 -0.23715068 0.14756094 -0.13163507
0.049515266 -0.22811352 -0.20703635 0.014813404 0.019190148 -0.0622827 -0.02689819 -0.020556225
0.042065397 0.025777426 -0.13256855 -0.2869311 -0.13870603 -0.09416727 -0.25889885 -0.07893549
-0.056306366 -0.048533417 -0.025124555 -0.005018311 -0.08721273 -0.19382264 -0.08593043 -0.070303574
-0.33932474 -0.3170601 -0.090742625 -0.040920667 -0.26284054 -0.10459199 -0.03604881 -0.32738167
-0.1501513 0.06300714 -0.009861151 0.053370506 -0.12712221 -0.18119563 0.037297327 -0.07683442
-0.26744515 0.056168064 -0.3284147 -0.10030552 -0.22962706 -0.23799808 0.021517951 -0.07182265
-0.18652481 0.012457107

conv1.bias f4 [10]
00000000: d694 8cbf 3b5d 78be f755 8ebe 4631 8fbe
00000010: 0916 70bd fcec fabc a111 043e c45c dc3d
00000020: 893b 40be 77a2 3cbe
-1.0982921 -0.24254315 -0.2779996 -0.2796728 -0.058614764 -0.030630581 0.1289735 0.10759881
-0.18772711 -0.1842135

conv2.weight f4 [20, 10, 5, 5]
00000000: f9d7 9fbe 403f 6bbe 4c42 3bbe 13b3 91be
00000010: 9767 d1bc 05dc 71bc 12c9 f7bd 0874 20be
00000020: 75ca 35be 2f2b 80be 9027 5abe e7ed 1fbe
00000030: 024e 43be 7dd2 a2bd 3ed7 61be 011d 70bd
00000040: 2d54 4bbd 23e0 88bd 2b0b 11be 4d1c 5ebe
00000050: 673f 0ebc 6989 03bd 20cc e3bc d7ba f6bd
00000060: 918d 05be 3782 023e 09a7 233e 8eac b13d
00000070: dd56 dd3d 93db a83d bf83 24be d8ab 86bd
00000080: ff91 82bd 31eb dfbd 4ac3 e8bd 6758 a3bd
00000090: 0e61 35be cd49 72bd da16 76bd 3a4d e6bd
000000a0: dec2 ad3d a2ed 003e 5077 9e3d 9bf3 00be
000000b0: 4c28 e73d e039 1a3e b358 073e 5214 b43d
000000c0: e6a4 c23d a492 9d3d 66f0 5c3e 034b 23be
000000d0: 9550 aabd 2469 1bbe 7cb1 dabd ee91 2fbe
000000e0: e2d6 f8bd e712 d6bd 3fae 37be d19a 05be
000000f0: 9198 edbd f38f 80bd a0bf 30be 29e1 cdbd
00000100: bbbf 0fbe 1dab 14be bbb7 99bd d381 cebd
00000110: 74c7 e2bd 319d f5bd 8d30 983d 7c78 3cbe
00000120: 4563 b2bd 66c5 ffbd e497 39be 9302 f63d
00000130: 8080 c13d fbab ff3d 753a 91bd 1a89 95bd
00000140: 1a51 11be 1bac d3bd 8598 873d 2ca0 8bbd
00000150: 9dc2 1dbe f03e 2dbe 0878 0dbe b2b3 2c3e
00000160: f2fe b83d b3a6 f83d f70f a2bd aa20 753d
00000170: 795b 2e3e fb6c c9bd 9c05 32be 738d 6dbd
00000180: 598c 893d 549d 693d 82f1 db3d 6414 87bd
00000190: a366 dabd 7793 d1bd 150c 203e 6a64 443e
000001a0: 7cbc 58bd 6c93 f1bd 3e16 8bbd 88aa 393e
000001b0: 0f12 ea3d 6525 a7bd 8e2b 8abd 0196 24be
000001c0: fd76 f7bd 39ed 87bd 137d e1bd 2498 2fbe
000001d0: 0caa 79bd ee44 3bbe a6a3 06be 2e9f d0bd
000001e0: fe09 fabd e6e9 febd b95d c9bd 85db 36be
000001f0: 4703 c9bd 62e9 19be f62e 2ebe f748 0bbe
00000200: 79f5 933d f593 c0bd e826 3fbe 4602 24be
00000210: c9bb 27be e3e1 0cbe 653c 0bbe 94d6 70be
00000220: 2232 27be 7280 41be c6f3 8abd bcdd 2bbe
00000230: 81d9 873d d759 06bd d989 bfbd 6ba7 04be
00000240: d989 0bbe bedf 8fbd 7792 5b3d a835 d43c
00000250: fab6 a73d 1e2a 0b3e cfe5 8a3c cf7b 3f3d
00000260: 8952 c13d a8db 353e a9dd b0bd 1e85 14be
00000270: 46ed 64be 9eeb 033e 87ea e1bd e9cf f2bd
00000280: b7dc e9bd cad6 80bd abf4 65be 4e82 2bbe
00000290: 10ee afbd 9fa2 02be ed8b a6bd ec90 37be
000002a0: 3107 f2bd 9e6e 41be 54f8 27be 4de1 9bbd
000002b0: c116 27be 4b59 8fbd 28cf 07be e1b5 73be
000002c0: a3b0 61be 6745 2cbe a42b a5bd f64d 8dbd
000002d0: ffe3 1dbe c614 18be 2d9c cebd f960 d23d
000002e0: cd25 07be 5628 18be 4f37 ffbd 7226 f0bd
000002f0: 81a0 b83d 3bc3 fabd b9f0 bdbd 1a34 a3be
00000300: d3f9 2dbe f568 18be e289 04be 91ec 37be
00000310: 1b97 2dbe 4c78 86be 8529 95be ff0a 6bbd
00000320: 444f 693e ac02 043e 499b 22be e45a 02be
00000330: 35b0 b3bd c592 d8bd b7c9 f5bd fb43 b4bd
00000340: fa14 68be 09bf 9dbd 8a41 0cbe 97a6 0cbe
00000350: 77e4 0fbe f574 18be 323d 30be b3ba 05be
00000360: 00d4 eebd 8d4a 75bd 4629 a9bd 484a 2ebe
00000370: d421 cfbd e8f1 f6bd 7665 21be 3d83 c4bd
00000380: 0bea d5bd 8fd0 b7bd 52c9 2ebe 16bd c0bd
00000390: 3480 84bd 81a1 17be e100 05be 23af 14be
000003a0: e3ce 0bbe c560 cdbd 37dc 153e 84b7 09be
000003b0: 7173 9fbd c881 14be 25be 1ebe fbdf 14be
000003c0: 8b2a 09be 8295 a1bd 6b9e 37be ea01 2abe
000003d0: 4d7f 1bbe 5913 1bbe 2524 1d3e 8810 ce3d
000003e0: 260f 20be 46ec e1bd 95ef 4dbe 7d5e aabd
000003f0: 37af 07be 1248 c3bd 7934 92bd fb83 12be
-0.31219462 -0.22973347 -0.18287009 -0.28456935 -0.02556209 -0.014761929 -0.12098898 -0.15669262
-0.17753012 -0.25032946 -0.21304154 -0.15618096 -0.19072726 -0.07950304 -0.22054765 -0.05862141
-0.049640823 -0.06683376 -0.14164416 -0.21690483 -0.0086821085 -0.032113466 -0.027807295 -0.120473556
-0.13042285 0.12744986 0.15981688 0.0867549 0.108075835 0.082450055 -0.16065882 -0.06575745
-0.06375503 -0.10933531 -0.113653734 -0.07975846 -0.17712805 -0.059152413 -0.060080387 -0.112451985
0.084844336 0.1259065 0.07737601 -0.12592928 0.11286983 0.1506114 0.1321743 0.08792938
0.09504108 0.07693985 0.2157608 -0.15946583 -0.08316151 -0.15176827 -0.10678384 -0.17145512
-0.12150361 -0.10452824 -0.17937563 -0.13047339 -0.11601365 -0.06277456 -0.17260599 -0.100527115
-0.14037983 -0.145184 -0.07505747 -0.10083356 -0.11073199 -0.119928725 0.07431135 -0.18405336
-0.087103404 -0.12488823 -0.18124348 0.1201221 0.094483376 0.124839745 -0.07091228 -0.07301541
-0.14191094 -0.10335561 0.06620888 -0.0681766 -0.1540627 -0.1691854 -0.1381532 0.16865423
0.09033002 0.1214117 -0.07913201 0.059845604 0.17027082 -0.098352395 -0.17384952 -0.057996225
0.06716222 0.057034805 0.10739423 -0.06595686 -0.10664108 -0.10233205 0.15629609 0.1917893
-0.052914128 -0.117956966 -0.06791352 0.18131459 0.11429226 -0.08161429 -0.06746589 -0.16072847
-0.12083242 -0.066370435 -0.11010184 -0.17147881 -0.060953185 -0.18288013 -0.13148364 -0.10186611
-0.12208937 -0.12446956 -0.09832329 -0.17857178 -0.09815078 -0.15030435 -0.17010102 -0.13602053
0.072245546 -0.094032206 -0.18667185 -0.16016492 -0.16380228 -0.13758044 -0.13597257 -0.23519355
-0.16327718 -0.18896654 -0.06784777 -0.16783804 0.066332825 -0.03280052 -0.09352464 -0.1295449
-0.13626803 -0.07025097 0.053606477 0.025904492 0.08189197 0.13590285 0.016955284 0.046748932
0.094395705 0.17759573 -0.08636028 -0.14503905 -0.22356138 0.1288285 -0.11031061 -0.11856062
-0.11419051 -0.06290968 -0.22456615 -0.16748926 -0.08590329 -0.12757348 -0.081321575 -0.17926377
-0.11817778 -0.18889853 -0.16403323 -0.07611332 -0.16317274 -0.06999453 -0.13262618 -0.2379985
-0.22040038 -0.1682335 -0.080649644 -0.068996355 -0.15419005 -0.14851674 -0.10088382 0.10272402
-0.13198014 -0.14859137 -0.12461721 -0.11726083 0.09014989 -0.122442685 -0.0927443 -0.31875688
-0.16989832 -0.14883788 -0.12943223 -0.17961337 -0.16952173 -0.26263654 -0.2913324 -0.057383534
0.22784144 0.12891644 -0.15879549 -0.12729985 -0.08773843 -0.10574869 -0.12001365 -0.08802029
-0.22664252 -0.07702453 -0.13696876 -0.13735424 -0.14051996 -0.14888366 -0.17210844 -0.13059501
-0.116615295 -0.05988555 -0.082598254 -0.17020524 -0.10113874 -0.12057859 -0.1576136 -0.09595344
-0.10445031 -0.08975326 -0.17068985 -0.09411065 -0.06469765 -0.14807703 -0.12988617 -0.14519934
-0.1365314 -0.10028223 0.14634787 -0.13448912 -0.077856906 -0.14502633 -0.15502222 -0.14538567
-0.13395135 -0.078898445 -0.17931525 -0.16602293 -0.1518528 -0.151441 0.1534582 0.10061747
-0.15630779 -0.11031394 -0.20110925 -0.083188035 -0.13250433 -0.09535231 -0.071389146 -0.14308159

conv2.bias f4 [20]
00000000: d0d7 93be 8c43 d1bd 7b0e 6bbf 7228 2bbe
00000010: 8a4f 91be b5f5 3bbd 2003 d03d 1c3a b0be
00000020: 8ec3 1ebe 01cd 3ebe 0ac9 2abd 7a4b 3fbe
00000030: c6e8 adbe 5e68 85bd 6ad8 07be 231a f6be
00000040: 34ca 4e3c 5de5 23be 9bf5 f7bd 8e7e d9bd
-0.2887559 -0.10217962 -0.9181897 -0.16714647 -0.28380996 -0.04588862 0.10156846 -0.34419334
-0.15504286 -0.1863289 -0.041695632 -0.18681136 -0.33966655 -0.06514047 -0.13266149 -0.48066816
0.012621451 -0.16005464 -0.121073924 -0.106198415

fc1.weight f4 [50, 320]
00000000: 70dc b9bd 4cef 103e 3a7f 12be f7c4 b7bd
00000010: f854 bc3d 3f19 bb3d 3280 10be 6c88 0c3c
00000020: 6012 95bd 7f1f e9bd 7bc9 00be 8e13 28be
00000030: a390 a1bd 265c 80bd 3c32 f23c 1071 32be
00000040: 025f a5bd cef4 15be 0604 0fbe e465 48be
00000050: b7cf 09be 45ae 2dbe 795f 8abd 6869 1abe
00000060: 63eb 19be 4f54 a0bd b9ca 12be ff5b d0bd
00000070: c9ac ccbd 9818 2abe 2427 fdbd f841 1ebe
00000080: 858f 333e e6bc 61bf f831 01bf 77dc 433d
00000090: 8470 de3d a2d6 643f 5bd5 633f c668 9dbf
000000a0: a255 0abf b48c e9bd 0eb5 9bbf 817c 0e3d
000000b0: 06bf 07bf 0f5d bebf a301 72be 49cc 08bf
000000c0: 723b a23d 97f5 cb3d 5448 223e 154c ff3d
000000d0: 99f5 253e b044 0f3e a8cb 343e f231 2c3d
000000e0: fae3 9a3d 3def c03d d2c8 f33d 64d9 793d
000000f0: 20d2 573d 37ee f33d 5cf7 e63d b2c1 a23d
00000100: dfb4 2d3e a786 cf3d 97bb 403e 3989 f83d
00000110: 47bc 973b 2043 9f3b 2abb 923d 2c8c 5b3d
00000120: cd72 e73c bfc3 a93c 1ed6 343e 2722 343e
00000130: 195b c73c 8cbb c13d b022 cf3d fb8f 103d
00000140: 2a3a bc3c c208 183d cf64 7c3d e017 8d3d
00000150: 856b cd3c efe7 8c3d 2284 9c3d b77d 03bd
00000160: 029f 39bc 4d99 703d ea91 f6bb 5719 abbd
00000170: a16b fb3c 04ca e63c b6d9 4dbc e4b0 d4bc
00000180: 3429 bcbd a58c 9c3e 64e6 813d 7562 2a3d
00000190: 581a 083f 1f7e 0f3f 62f2 2b3f 5872 a13e
000001a0: 6c5e 273e af69 94bd 9b83 df3e 1cee a9be
000001b0: 0a22 2e3e 5fd0 b0bf aff9 bebf 09ca c3bf
000001c0: dd55 0bbe 5e5c 22be 40c8 e8bd 9e4f 27be
000001d0: 6108 eebd ac30 a8bd 1c4b b4bd 2040 babd
000001e0: 2ada b0bd f22e 2dbf 1358 303e 2de4 de3d
000001f0: 5583 f4bd f840 21be 7bd0 9c3d a642 abbd
00000200: 91e7 3cbe 2880 043e ad03 18be 2689 333d
00000210: cca6 8e3d 6315 843e f113 80bd 67be 7cbd
00000220: b580 d8bd 07ce 84bd 6f52 113d 1da5 03be
00000230: 5d7c 5fbd aa53 463e 52d5 57bc ab95 e63c
00000240: 03aa d8bd 0bc1 fdbd 9aed bebd bdb3 e4bd
00000250: 46e7 2bbe e195 e63d d4e2 e8bd 971b 9a3d
00000260: a302 fcbd 41fc 9bbd f958 9fbd d53a db3d
00000270: 1fe6 d8bd 1893 0abe 6d09 153e 3271 33be
00000280: 4ed7 34be 60f4 26be f845 06be db68 163d
00000290: 480a 11be 69ef 14be 9916 49be c6c4 47be
000002a0: 51d4 edbd f6e0 febd 0b50 45be 777b f5bd
000002b0: ea5e 04be 1148 61be 71a9 43be f38e c5bd
000002c0: 9c05 983c 0212 d43d 3c93 b43d 85c8 b1bd
000002d0: 94bd 3cbd 7056 2dbe 6aea d6bd 043f 843d
000002e0: 4eec 96bc 480b a3bc f288 a93d 8863 4d3d
000002f0: e869 58bc 308a 11bd 3ac2 ee3d 274f bcbd
00000300: 5d3c 07bf 7c97 ebbe 9e99 d7bd f284 a43d
00000310: 895f 01be 9235 37be 6a15 083f 10e8 b3be
00000320: 0eaa 86be 7004 8ebe 127e 19bf 7dfa 5cbe
00000330: 1499 943e 4203 04bf d1cb d4be b9de f63c
00000340: dd6b 0c3d 48bb 113d 453d 0c3d 66fe 913d
00000350: 1e75 463d 7892 83bc c746 f13d 4e9b da3d
00000360: 10ed 1f3d 561b bb3d 5b7f 7d3c 5650 c43d
00000370: a3e8 023c b17c da3c 81d6 bb3d 9390 6d3d
00000380: eff4 9e3d bb8b b83d ec42 6bbd f13b 22be
00000390: a153 debc 777b 1abd 9177 573e e8b4 b63d
000003a0: 0ac3 84bd 841a afbd bcaf 4b3d dbbb 39be
000003b0: 9157 07be b60d fa3d de1c 0b3e 2cd3 a2bd
000003c0: a85e 44bf 59c4 10bf 573e 703e 1bea 89be
000003d0: 6e00 2d3f 05de 86be 21a2 eebe 1d7c 063e
000003e0: 6624 ecbe c87a c7bc 3b05 a83d 1f32 e33d
000003f0: 9694 f23e d213 493f 0636 893d 218e 97bf
-0.09075248 0.14153785 -0.14306346 -0.08973115 0.09195894 0.09135675 -0.14111403 0.008577447
-0.072788954 -0.113829605 -0.12576859 -0.1641371 -0.078889154 -0.06267576 0.02956497 -0.17425942
-0.08074762 -0.14644167 -0.13966379 -0.19570118 -0.13458143 -0.1696101 -0.06756491 -0.15079272
-0.15031199 -0.078285806 -0.14335145 -0.10173797 -0.09993894 -0.16610944 -0.12360981 -0.15454853
0.17535217 -0.8817886 -0.5046687 0.047817674 0.108613044 0.89390004 0.8899743 -1.2297599
-0.54036915 -0.1140379 -1.2164629 0.034786705 -0.53025854 -1.4872149 -0.23633437 -0.53436714
0.079214945 0.09958952 0.15847903 0.12465683 0.1620697 0.13991046 0.17655814 0.04203982
0.07563014 0.09420631 0.11903538 0.060998335 0.052690625 0.1191067 0.11277649 0.07947101
0.16963528 0.10133105 0.1882156 0.12135548 0.0046305987 0.004860297 0.07164605 0.053600475
0.028252983 0.020723222 0.17659804 0.17591153 0.024335431 0.094596 0.10114038 0.03529356
0.022976954 0.037117727 0.061619576 0.068893194 0.025075683 0.06880175 0.0764239 -0.032102313
-0.011329414 0.05873995 -0.0075247185 -0.083544426 0.03069097 0.0281725 -0.012564113 -0.025963254
-0.09187546 0.30576053 0.06342772 0.041597802 0.531652 0.5605182 0.6716672 0.3153255
0.16344613 -0.0724672 0.43655095 -0.33189476 0.17005172 -1.381359 -1.4919947 -1.5296031
-0.13606973 -0.15855548 -0.1136632 -0.16338965 -0.11622692 -0.082124084 -0.088033885 -0.09094262
-0.086353615 -0.6764976 0.17221098 0.10883365 -0.11939112 -0.1574744 0.07656952 -0.083623216
-0.1844771 0.12939513 -0.14845152 0.043831967 0.06965408 0.25797567 -0.062538035 -0.06170502
-0.10571424 -0.06484609 0.035479005 -0.12855954 -0.05456196 0.19367853 -0.013173418 0.02814754
-0.10579302 -0.12390336 -0.09322663 -0.11167095 -0.16787443 0.11259056 -0.11371389 0.075247936
-0.123051904 -0.07616473 -0.07780642 0.10704581 -0.10590767 -0.13532674 0.14554377 -0.1752365
-0.17660257 -0.16304159 -0.13112628 0.03672109 -0.14164078 -0.14544453 -0.19637527 -0.19508657
-0.11612762 -0.12445252 -0.19268815 -0.1198644 -0.12926832 -0.22000147 -0.19107606 -0.09646406
0.018557362 0.10354997 0.08817145 -0.08680824 -0.046079233 -0.16927505 -0.1049393 0.06457332
-0.018423226 -0.01990284 0.08278073 0.05014375 -0.013208844 -0.035532176 0.116581395 -0.091947846
-0.5282648 -0.4601401 -0.10527347 0.0803317 -0.126341 -0.17891529 0.53157675 -0.35137987
-0.26301616 -0.2773776 -0.59957993 -0.21579929 0.2902304 -0.5156747 -0.4156175 0.0301355
0.034282554 0.035578996 0.03423812 0.07128601 0.048451535 -0.016061053 0.11781078 0.10674153
0.03904444 0.09136073 0.015472258 0.09585635 0.007990035 0.026670786 0.09171773 0.057999205
0.07761561 0.090110265 -0.05743687 -0.15843178 -0.027139487 -0.0377154 0.21041705 0.08921224
-0.06482513 -0.08549979 0.04972814 -0.18138067 -0.13216998 0.122096464 0.1358523 -0.07950434
-0.76706934 -0.565496 0.23461281 -0.2693642 0.6757878 -0.26341262 -0.4660807 0.13133283
-0.4612152 -0.024350539 0.08204123 0.11093544 0.47378987 0.7854587 0.06699757 -1.1840249

fc1.bias f4 [50]
00000000: 1835 2dbf 0c4d b8bd a02a bfbf 33f5 27bf
00000010: c4c8 063e 29ce f2be 082b 50bf 42c7 213d
00000020: 71d8 fabe fde3 26bf 4ad8 08bf ce80 d3be
00000030: 923d 10be f469 0dbf da9f 1bbe 98ee 803d
00000040: e825 da3d d3a0 24bf 21c3 8abe c3a6 f7be
00000050: 8bbc 51bf f66f dbbc 7100 8fbf e6e6 7dbf
00000060: b450 c3be 7fcb ab3e cc65 9dbc 4139 de3e
00000070: 5e9d ffbe cbee b0bf d1e4 29bf c24a d8be
00000080: 68e9 33bf d528 d6be 54c2 2a3e 04bb 8abe
00000090: 09ec 9a3d 84fe 37bf 277a 2cbf 69a7 533e
000000a0: 9aae 1bbf 8bb3 4a3d 1bb4 1fc0 f3eb 0d3e
000000b0: f4fd 31bf e2b7 e7be ef0a 9d3e 7b1e 30bf
000000c0: 630b 833d fd84 9cbf
-0.6765914 -0.089990705 -1.4934883 -0.6560852 0.13162524 -0.47422913 -0.8131566 0.039496668
-0.48993257 -0.6519163 -0.5345503 -0.41309208 -0.14085987 -0.55239797 -0.15197697 0.06295508
0.10651761 -0.643079 -0.27101997 -0.48369417 -0.8192832 -0.026786786 -1.117201 -0.9918045
-0.3814751 0.33553693 -0.01921358 0.43403056 -0.4992475 -1.3822874 -0.6636477 -0.42244536
-0.70278025 -0.41828027 0.16675693 -0.27095807 0.075645514 -0.71872735 -0.6737389 0.2066933
-0.60813296 0.04948763 -2.4953678 0.13859539 -0.69528127 -0.4525748 0.30672404 -0.6879651
0.06398656 -1.2228085

fc2.weight f4 [10, 50]
00000000: bf3f 3fbe 3aaf 0dbf 9371 943c 1977 2bbe
00000010: fe14 623e 9060 d9be 6928 9ebe 173a 3cbe
00000020: 5113 933d 89a8 c73d 740b 33be 08e0 fabc
00000030: d8eb 6bbf 0cb3 a1bd f9c1 0fbf 3623 183f
00000040: 4288 b13e a37a ad3e f305 3b3e f4b9 c63e
00000050: e104 7a3e 8519 37be d18a 00be 9997 4cbf
00000060: 747d 9b3e 0429 a0be b703 48be 7dca 9abd
00000070: ac0a d8be cea7 34be 3784 1b3e 9460 31bf
00000080: 2f8a 26be c662 4fbe 18f0 c63e 026d 44bf
00000090: 576c f0be 9c9d 1dbf d7d8 6fbd df4d 643d
000000a0: a87d 243d 8ac4 44be 89bb 9dbe 67b5 a3bc
000000b0: 1f18 103e c466 e33d 81c9 4dbe 8072 06bf
000000c0: 58f8 90be fffc 85bf 7836 54bf 8afc 1bbf
000000d0: d76b ab3e c4d3 dabe 768e 3cbf ba4c a4be
000000e0: 54ec bebd 9e75 31bf bb35 683e f37a c8be
000000f0: ee59 38bf 4ad5 c1be 3496 5dbf 7c60 2ebf
00000100: fa21 a6be 9751 083e ecec 61bf a6c6 28be
00000110: 88ae 8ebe 13c4 dabe ac41 b5be d10a be3e
00000120: c1c9 23bf e4f9 b2be affc 00bf 197c 06bf
00000130: 33c8 993e 83a1 3abf 1062 8abe 5bec 37bd
00000140: f70e 59bf de27 45bf 3b78 21be 3c29 30bf
00000150: fafe d4be c9ab 83bf 22bf a43e 8319 d83c
00000160: 712f eb3d ac49 8fbf 347e 79bf c0e7 57bf
00000170: d890 e3bf 4f1b 8cbf 4365 2fbf 5f19 a2be
00000180: 9059 45bf b6d1 a0be 591c 333f 9048 b63e
00000190: c36a 00bf defe b4bd f420 bd3d e3a5 b3bc
000001a0: 841b 2ebe 6a7d 8f3e e694 9a3e 28e3 eabd
000001b0: 63ec 59bd e44b 183e 208e bd3d 26b3 a03e
000001c0: 605b a2be 3737 b4be 997e 51be a536 273d
000001d0: 61ba 0ebe 3828 043f 6998 823e c51c b33e
000001e0: 61cb 033b 17e1 ef3e 0525 c9be f9b3 88bf
000001f0: 5a96 f0bc ef4e 95bd c2e7 23bd af16 c33d
00000200: fb0a 983e f8ff 0abf 537e 73be 6d28 63bd
00000210: 82be 3fbe 6693 893d 8271 95bc e36c 88be
00000220: b86c 2a3e 0805 b23e 41ac d3be eaf7 05be
00000230: a89e 16be 94bf 733c ce40 1cbf d9ce 923e
00000240: d9fd c1be 9474 463c b890 f33d 2acb d03e
00000250: 3010 043e 940f f03e 041d 933e e4bd d8bd
00000260: 9f1d 4cbf 3e0b 243e e89a ac39 a9ec 963e
00000270: 5125 453e bbc8 67be f6b0 923c 0c4b 223e
00000280: bb6d d33e b26f 893e 4bae 59be 10df 5cbc
00000290: f6b7 7bbe daf3 67bd f180 15bd bc6b 01be
000002a0: fc0d 83be 6437 b23c b827 edbd 8b72 93bb
000002b0: 8db1 02be ed9f 37bf 2ab4 7fbd 6ff2 26bd
000002c0: 5a4c 39bf 780e 8a3e 653e e73d 8379 c83e
000002d0: 439e 923d 6708 0cbf 4969 063d dd4a d63e
000002e0: 5467 80bc 7da9 e1bd 54ee 3d3e c317 aa3e
000002f0: 717d f03d 6337 a4be b495 593e 1f5a 0d3d
00000300: 6712 133e 101d 813c 20c2 bcbd d6ae 0d3d
00000310: e9f3 443d 5067 343c 25ca bbbe 8fed 64ba
00000320: b239 e2bc 84a5 e63e ff3f febd f9b2 a43b
00000330: 565f 95be 678a 05be 5bdb 9bbe a13e ea3e
00000340: 048c f63d b20c 293c 38eb 15bd 7c3c 9cbe
00000350: 550b af3e ffc2 52be c17b b53e e7de 6cbe
00000360: 188f a0bd d828 093d 9edc bdbc 4046 d3be
00000370: 8013 123f 8dad 8dbe 9078 abbe 0ddb 7fbd
00000380: 788b ad3c 48e2 98bd c4e7 ba3e df3f d9bd
00000390: ff9f 93bd 6e49 63be d155 98be 5314 85be
000003a0: 444d 2bbe 6c8f 91bd 07e1 34bf adc4 4f3d
000003b0: 7e02 b2be 3261 05be efef cfbd d3ad b73e
000003c0: 6891 35bd c18d 073d 3b1e 6e3a 71a2 a73e
000003d0: 5931 84be 6bcb d8be f96a 1d3e c4bc 793e
000003e0: d9f8 19bc b2ba 11bf fb88 7c3e f2c1 703d
000003f0: 6a18 a2bf 3ce8 67bd c0c9 63bd 50e9 5cbe
-0.18676661 -0.553455 0.018120563 -0.16744651 0.2207832 -0.42456484 -0.30890206 -0.18381535
0.07181419 0.097489424 -0.17484838 -0.030624405 -0.92156744 -0.078954786 -0.56155354 0.5942873
0.3467427 0.33882627 0.18263988 0.38813746 0.24415924 -0.17880829 -0.12552954 -0.7991882
0.3036915 -0.31281292 -0.19532667 -0.07558153 -0.42195642 -0.17642137 0.15187155 -0.6928799
-0.1626365 -0.20252523 0.38855052 -0.7672883 -0.46957657 -0.6156862 -0.058556404 0.055738326
0.040158898 -0.19215599 -0.3080714 -0.01998396 0.14071701 0.11103585 -0.20096399 -0.52518463
-0.2831447 -1.0467833 -0.8289561 -0.6093222 0.33480713 -0.4273969 -0.7365488 -0.32089788
-0.0932242 -0.69320095 0.22676747 -0.39156303 -0.7201222 -0.3785804 -0.86557317 -0.68115973
-0.32447797 0.13312374 -0.8825214 -0.16482028 -0.27867532 -0.42727718 -0.35401666 0.37117627
-0.6397973 -0.34956276 -0.50385565 -0.5253311 0.30035552 -0.729027 -0.2702794 -0.04490314
-0.8478846 -0.7701396 -0.1576852 -0.6881292 -0.41600782 -1.02868 0.32177073 0.026379352
0.11483658 -1.1194358 -0.97458196 -0.84338 -1.7778578 -1.0945834 -0.6851389 -0.31659982
-0.77089787 -0.31409997 0.6996513 0.35602236 -0.50162905 -0.088376746 0.09234801 -0.021929687
-0.17002684 0.2802537 0.30191725 -0.11469108 -0.05320395 0.148727 0.09255624 0.3138668
-0.3171034 -0.35198376 -0.2045845 0.040823597 -0.13938285 0.5162387 0.25506905 0.34982887
0.0020110237 0.46851417 -0.39286056 -1.0679923 -0.029368568 -0.07290446 -0.040015943 0.09525811
0.29695877 -0.5429683 -0.23778658 -0.055458475 -0.18725017 0.06717567 -0.018242601 -0.26645574
0.16643035 0.34769464 -0.41342357 -0.13082853 -0.1470896 0.014877219 -0.61036384 0.28673437
-0.37888983 0.012112755 0.11892837 0.40780002 0.128968 0.46886885 0.28733075 -0.10583094
-0.797327 0.16019914 0.0003292181 0.29477432 0.19252516 -0.22635166 0.017906647 0.1584894
0.41294655 0.2684303 -0.21257894 -0.013480917 -0.24581894 -0.05662904 -0.03649992 -0.12638754
-0.25596607 0.021754928 -0.115798414 -0.0044997386 -0.12763043 -0.717284 -0.062427677 -0.040758546
-0.7238213 0.26964164 0.11291198 0.39155206 0.07159092 -0.5470032 0.03281525 0.4185399
-0.01567427 -0.110186554 0.18547946 0.33221254 0.11742676 -0.32073507 0.21248513 0.034509774
0.14362489 0.015760928 -0.09216714 0.034590565 0.048084173 0.01101096 -0.36677662 -0.0008732909
-0.027615402 0.45048153 -0.1241455 0.005026218 -0.29174298 -0.13041078 -0.30440792 0.45750907
0.120384246 0.010317968 -0.036601275 -0.30514896 0.34188333 -0.20582198 0.3544598 -0.23131905
-0.07839793 0.033486217 -0.023176488 -0.41264534 0.57061005 -0.2767147 -0.3349042 -0.062464762
0.021184668 -0.07465035 0.36504948 -0.106078856 -0.07208251 -0.2219598 -0.29752973 -0.2599207
-0.16728693 -0.07107434 -0.70655864 0.050724674 -0.34767526 -0.13025358 -0.101531856 0.35874805
-0.044328123 0.03309417 0.0009083484 0.3274112 -0.258189 -0.42342696 0.15372838 0.24388415
-0.009397709 -0.569255 0.24661629 0.05877871 -1.26637 -0.05661796 -0.055612326 -0.21573377

fc2.bias f4 [10]
00000000: 3f27 a9be 05ad e03f 8830 d8be c115 a7be
00000010: 0c38 a4be 8e8f 87bc d830 c4be e036 b3be
00000020: c002 a53e 8196 9abe
-0.33037755 1.7552801 -0.42224526 -0.32633784 -0.3207401 -0.016547944 -0.38318515 -0.35002804
0.3222866 -0.3019295

exp_avg f4 [10, 1, 5, 5]
00000000: 71ff 36bd da92 adbc f0a4 9eb8 0cb7 1dbb
00000010: e010 8ebc a746 1fbd b288 86bc ecb0 0d39
00000020: 2195 86bc acb9 bfbc 3a17 94bc 1fd5 4ebc
00000030: 394d cabb f07c d5ba 73a8 83bc 1be5 a53c
00000040: 94d8 8f3c 0a88 66bc 6e5c 18bc f031 1bbc
00000050: b005 bb3b b2a2 f3bc 5330 a2bc aa5c cdbc
00000060: 2a55 e3bb 0400 0000 0400 0000 0400 0000
00000070: 0400 0000 0400 0000 0400 0000 0400 0080
00000080: 0400 0000 0400 0000 0400 0000 0400 0000
00000090: 0400 0000 0400 0080 0400 0000 0400 0000
000000a0: 0400 0000 0400 0000 0400 0000 0400 0000
000000b0: 0400 0000 0400 0000 0400 0000 0400 0000
000000c0: 0400 0000 0400 0000 0400 0000 0400 0000
000000d0: 0400 0080 0400 0080 0400 0080 0400 0080
000000e0: 0400 0000 0400 0000 0400 0000 0400 0000
000000f0: 0400 0080 0400 0080 0400 0000 0400 0080
00000100: 0400 0000 0400 0080 0400 0080 0400 0000
00000110: 0400 0080 0400 0080 0400 0000 0400 0000
00000120: 0400 0000 0400 0000 0400 0000 0400 0080
00000130: 0400 0000 0400 0000 0400 0000 0400 0000
00000140: 0400 0000 0400 0000 0400 0000 0400 0000
00000150: 0400 0000 0400 0000 0400 0000 0400 0000
00000160: 0400 0000 0400 0000 0400 0000 0400 0000
00000170: 0400 0000 0400 0000 0400 0000 0400 0000
00000180: 0400 0000 0400 0000 0400 0000 0400 0000
00000190: 0400 0000 0400 0000 0400 0000 0400 0000
000001a0: 0400 0000 0400 0000 0400 0000 0400 0000
000001b0: 0400 0000 0400 0000 0400 0000 0400 0000
000001c0: 0400 0000 0400 0000 0400 0000 0400 0000
000001d0: 0400 0000 0400 0000 0400 0000 0400 0000
000001e0: 0400 0000 0400 0000 0400 0000 0400 0000
000001f0: 0400 0000 e2a1 10bb ba58 103a c3c9 d439
00000200: aed3 243a 1ce5 073c 4810 243c 3621 a03a
00000210: 3040 a1ba 5fe8 c5ba 49a9 9a3a bac8 a03c
00000220: 55a9 c2b9 0075 5bbb 496b e6bb bc17 08ba
00000230: 958e 063d 861a a5bb 0298 8bbc 708d 37bc
00000240: bbc5 2e39 d2c9 5f3d b56c ce3c 92d4 f1ba
00000250: 20d5 96bc 004e 8e3a abe4 fbbc f860 7dbc
00000260: 042a d4bb c35d b4bb 94c0 a4ba 62da f43c
00000270: 508e 033c 7e4b ebbb 805f 96ba e280 36bb
00000280: a5a1 ae3b 037d 58ba 3a2e 1638 356f 0039
00000290: a484 84b8 0df3 33bb 0fcb adb9 77e4 b238
000002a0: 2ac6 95b8 e790 3d3b 7fab 05bb 00e4 2436
000002b0: b2ed b139 0839 ebba 900d d53c 705c 98bc
000002c0: bc25 03bd 5fc0 c2bc a7aa 073d 82e3 993d
000002d0: f0f4 b8bb 7f0a e1bc 181c 25bd c2b6 87bc
000002e0: 508f c4ba fafd a03a e06c b0b8 c33b 16bc
000002f0: 44cf 143b a0ca aab9 0e3e 83bb d8d4 43ba
00000300: 8f88 103b c956 cb3a 7400 2c3a af39 79bc
00000310: 5c12 edbb 003e 9ab7 5aab a03c 239a 2c3d
00000320: 0400 0000 0400 0000 0400 0000 0400 0000
00000330: 0400 0000 0400 0000 0400 0000 0400 0000
00000340: 0400 0000 0400 0000 0400 0000 0400 0000
00000350: 0400 0000 0400 0000 0400 0000 0400 0000
00000360: 0400 0000 0400 0000 0400 0000 0400 0000
00000370: 0400 0000 0400 0000 0400 0000 0400 0000
00000380: 0400 0000 0400 0000 0400 0000 0400 0000
00000390: 0400 0000 0400 0000 0400 0000 0400 0000
000003a0: 0400 0000 0400 0000 0400 0000 0400 0000
000003b0: 0400 0000 0400 0000 0400 0000 0400 0000
000003c0: 0400 0000 0400 0000 0400 0000 0400 0000
000003d0: 0400 0000 0400 0000 0400 0000 0400 0000
000003e0: 0400 0000 0400 0000
-0.0446772 -0.021188188 -7.564749e-05 -0.0024065403 -0.017342031 -0.03888574 -0.016422603 0.00013512716
-0.016428532 -0.023403965 -0.018077482 -0.012624054 -0.0061737564 -0.0016287845 -0.016071534 0.020250848
0.017559327 -0.01407052 -0.009299381 -0.009472355 0.005707465 -0.029740665 -0.019798433 -0.0250686
-0.0069376426 6e-45 6e-45 6e-45 6e-45 6e-45 6e-45 -6e-45
6e-45 6e-45 6e-45 6e-45 6e-45 -6e-45 6e-45 6e-45
6e-45 6e-45 6e-45 6e-45 6e-45 6e-45 6e-45 6e-45
6e-45 6e-45 6e-45 6e-45 -6e-45 -6e-45 -6e-45 -6e-45
6e-45 6e-45 6e-45 6e-45 -6e-45 -6e-45 6e-45 -6e-45
6e-45 -6e-45 -6e-45 6e-45 -6e-45 -6e-45 6e-45 6e-45
6e-45 6e-45 6e-45 -6e-45 6e-45 6e-45 6e-45 6e-45
6e-45 6e-45 6e-45 6e-45 6e-45 6e-45 6e-45 6e-45
6e-45 6e-45 6e-45 6e-45 6e-45 6e-45 6e-45 6e-45
6e-45 6e-45 6e-45 6e-45 6e-45 6e-45 6e-45 6e-45
6e-45 6e-45 6e-45 6e-45 6e-45 6e-45 6e-45 6e-45
6e-45 6e-45 6e-45 6e-45 6e-45 6e-45 6e-45 6e-45
6e-45 6e-45 6e-45 6e-45 6e-45 -0.0022069146 0.00055063854 0.00040586115
0.0006287646 0.00829437 0.010013647 0.0012216929 -0.0012302455 -0.0015099159 0.0011799718 0.019626964
-0.00037128726 -0.0033486485 -0.0070318324 -0.0005191525 0.03285082 -0.005038562 -0.017040256 -0.011203155
0.00016667593 0.05463583 0.02519832 -0.0018450192 -0.018412173 0.0010856986 -0.030748686 -0.015465014
-0.006474735 -0.0055043413 -0.00125696 0.02988929 0.008029535 -0.00718063 -0.0011472553 -0.0027847816
0.005329328 -0.00082583743 3.580584e-05 0.00012248459 -6.318957e-05 -0.0027458102 -0.00033148422 8.530256e-05
-7.1417846e-05 0.002892548 -0.002039641 2.4570618e-06 0.00033937168 -0.0017946074 0.026007444 -0.018598765
-0.03201841 -0.02377337 0.03312173 0.07514097 -0.005644433 -0.027470825 -0.040309995 -0.016566638
-0.0014996324 0.0012282722 -8.4126135e-05 -0.009169522 0.0022706548 -0.00032575894 -0.0040052 -0.0007470376
0.0022054052 0.0015513535 0.0006561347 -0.015211507 -0.0072348546 -1.8387102e-05 0.019612957 0.042139184
6e-45 6e-45 6e-45 6e-45 6e-45 6e-45 6e-45 6e-45
6e-45 6e-45 6e-45 6e-45 6e-45 6e-45 6e-45 6e-45
6e-45 6e-45 6e-45 6e-45 6e-45 6e-45 6e-45 6e-45
6e-45 6e-45 6e-45 6e-45 6e-45 6e-45 6e-45 6e-45
6e-45 6e-45 6e-45 6e-45 6e-45 6e-45 6e-45 6e-45
6e-45 6e-45 6e-45 6e-45 6e-45 6e-45 6e-45 6e-45
6e-45 6e-45

exp_avg_sq f4 [10, 1, 5, 5]
00000000: 7ac7 0f3d 064f bb3c 0d49 303c a6b0 0f3c
00000010: 04ad a13c cf4f 1a3d 2b32 853c 5e04 d13b
00000020: d651 293c da08 023d f47f 393d 1d16 e03c
00000030: 4180 a83c 0eab 1c3d 49bb 893d 1e3e 5f3d
00000040: 1492 663d 98a6 6c3d 727b 9b3d cd59 a13d
00000050: a1b0 473d 9564 863d 83ed 913d a980 883d
00000060: 7ac0 533d e62a f830 62df 2f30 580e c730
00000070: 6ab2 5031 a193 0432 4838 0a2e 78ad f329
00000080: 45ca 3b2e 6255 0a30 445c 0c32 8100 2430
00000090: 8a2d 9e2e 5d19 1c2e 30ce 732f 9f5d 6831
000000a0: c693 0832 257a dc31 2b66 a831 0d0f 1332
000000b0: 571c ad32 d581 bd32 d583 b832 81da 8732
000000c0: 25bc af32 8b84 c732 8494 da36 5af0 8236
000000d0: 3fff 6e36 0d04 9436 36e3 9f36 094f da36
000000e0: 58ca 0b37 4b9f 2a37 80be 1437 3c40 0a37
000000f0: 0380 8f37 7abc 8d37 cef3 a137 7bcb 8237
00000100: 3ade f036 99e6 da37 6339 5037 2e03 3637
00000110: 5c19 c536 98a5 4436 74b2 d337 3314 d636
00000120: ae26 5336 a390 3036 f1b4 1336 f2fa c72c
00000130: ec4b c12c 4981 542d cce3 ba2f 146f 4530
00000140: 3499 b72b 7bc6 192e 83d2 972d f590 402e
00000150: b0f1 ef2f 0315 1c2e e3c2 552e f9cb 802d
00000160: c61e 2a2d 4fc9 042f aaad ba2a 9a9f 172b
00000170: 07e2 6d2c 96c2 de2d 33ad 4b2e c453 ab28
00000180: d038 2f25 bb2f 182b 3c15 1a2d ded5 092d
00000190: 5d63 8435 4765 4135 1db2 2735 00f1 7a35
000001a0: 2d04 3a35 3523 3035 dd99 5835 6bec 6e35
000001b0: a5aa 7035 3816 2735 c7ae 5235 188a 4e35
000001c0: 3222 1735 9999 f334 b3b3 8935 3d82 8034
000001d0: 943b 1334 1680 9133 49e8 7634 c17a a135
000001e0: 4617 3a33 04d3 c831 5e7c 1833 4fce 3635
000001f0: 1e50 d235 f29d 1339 97ab 6039 8045 c039
00000200: 1596 223a 49ef d03a 43b0 633b 515f 7639
00000210: a59b 2239 d8c8 6939 6ba1 c039 5a7c d63c
00000220: 96fc c63b d910 a73a c68a 2139 86bd 5c37
00000230: d8c0 4e3d 8cc6 ce3c 5793 f43b bc76 323a
00000240: ca59 df38 a16e 863d 9704 523d 972d 013d
00000250: 2fbc 353c 5a32 a83b a4c7 ca3d dcf7 303d
00000260: d303 273c 88f8 983a 15bb 1e39 a58d fc3c
00000270: 4839 133c a367 293a f13f 9837 449f a539
00000280: 4ef2 b43b 4036 ce39 10c9 e137 2a4a 8737
00000290: f1ab 8a3a 29c1 1b39 872a 2236 ffea 2837
000002a0: 1918 003a 8253 d83b 5b4c 9638 3c78 2c37
000002b0: 1645 ac38 e74c 233b d7c9 023d 14a0 153d
000002c0: 4c7c 713d 9462 a73d 8117 e03d 39af 043e
000002d0: 3169 4d3c 5c6e c03c 4458 073d 4a1d 233d
000002e0: cb73 233d a329 553a eb67 353b 52bd bd3b
000002f0: 727e b23b 7c50 943b 7211 b83a b2fc 1839
00000300: 65af 0439 600f a839 b22e c33a da7f 763c
00000310: ee8f ff3b b6db aa3b f536 273c 678e a23c
00000320: ecc4 2736 7a80 f735 1a61 1a36 bcb8 8736
00000330: a283 8b36 9d9d 2036 d7f7 2936 5e42 7e36
00000340: c127 9f36 5eb3 8336 6165 0636 fab2 0c36
00000350: f843 5d36 7968 6536 7ed4 0d36 f897 0c36
00000360: 085c 2736 8dd2 4336 3a3e 2836 f727 c435
00000370: cc00 fb35 c8d0 0136 87e0 0836 6f32 bc35
00000380: 7439 1f35 30f2 3033 b47d dd33 4054 8d34
00000390: 1b46 1c35 798a a035 1ef3 2634 d3b5 4a34
000003a0: 3ab0 2135 8766 e835 7444 1436 2bcd bf34
000003b0: 9836 1335 5512 9235 c473 0636 5d89 f635
000003c0: abc1 c234 1545 5d35 b04c 8835 24bd a335
000003d0: cf22 6435 ec94 e734 eab5 6335 09b5 8135
000003e0: 13ee 5135 ddc1 4b35
0.035102345 0.02286483 0.010759604 0.008770144 0.01973582 0.037673768 0.016259274 0.0063786944
0.010334453 0.031746723 0.04528804 0.027354294 0.020568969 0.038249068 0.06725175 0.0545026
0.056291655 0.057776064 0.07591905 0.07878456 0.04875243 0.06562153 0.0712538 0.06665165
0.05169723 1.8056567e-09 6.3982075e-10 1.4483232e-09 3.03694e-09 7.716978e-09 3.1427555e-11 1.082146e-13
4.269853e-11 5.0325444e-10 8.170051e-09 5.966357e-10 7.1930975e-11 3.549282e-11 2.2173974e-10 3.381366e-09
7.949842e-09 6.416729e-09 4.9010587e-09 8.559948e-09 2.0152738e-08 2.2061537e-08 2.148037e-08 1.5815433e-08
2.045824e-08 2.3226923e-08 6.514196e-06 3.9022825e-06 3.5613336e-06 4.4112153e-06 4.76502e-06 6.506107e-06
8.332157e-06 1.0169878e-05 8.865842e-06 8.240397e-06 1.7106539e-05 1.6896276e-05 1.9306226e-05 1.559196e-05
7.178428e-06 2.6095006e-05 1.24111275e-05 1.0848786e-05 5.8740097e-06 2.9302664e-06 2.5236259e-05 6.3800485e-06
3.1463965e-06 2.6310233e-06 2.2010029e-06 5.6837807e-12 5.493819e-12 1.2079512e-11 3.3995062e-10 7.1826034e-10
1.3045454e-12 3.496446e-11 1.7260198e-11 4.3784493e-11 4.3645576e-10 3.5488956e-11 4.8603687e-11 1.4642497e-11
9.670214e-12 1.2076849e-10 3.316074e-13 5.386747e-13 3.3805196e-12 2.5324891e-11 4.6310688e-11 1.9021141e-14
1.5198079e-16 5.4067487e-13 8.7586015e-12 7.8350364e-12 9.863685e-07 7.204548e-07 6.2471537e-07 9.348296e-07
6.9296476e-07 6.561634e-07 8.069017e-07 8.900594e-07 8.965529e-07 6.224468e-07 7.848543e-07 7.6941933e-07
5.6301644e-07 4.5374034e-07 1.0259595e-06 2.393662e-07 1.3712116e-07 6.7753874e-08 2.299504e-07 1.2031161e-06
4.3327667e-08 5.844756e-09 3.550337e-08 6.81005e-07 1.5669536e-06 0.00014077852 0.00021426227 0.00036672875
0.00062021735 0.0015940453 0.0034742511 0.00023495896 0.00015507506 0.00022295432 0.0003674136 0.026182342
0.006072591 0.001274611 0.00015405854 1.3157149e-05 0.05047688 0.025241159 0.0074638533 0.0006807854
0.00010650193 0.065640695 0.05127391 0.03153762 0.01109223 0.0051329555 0.0990136 0.043205127
0.010193783 0.0011670748 0.00015137748 0.03082926 0.008985825 0.00064622815 1.8149587e-05 0.00031589915
0.005522049 0.000393318 2.6915717e-05 1.612779e-05 0.0010579807 0.0001485391 2.4164635e-06 1.0068295e-05
0.00048864033 0.006601752 7.16678e-05 1.0279993e-05 8.2144674e-05 0.0024917664 0.03193077 0.036529616
0.05895643 0.08173099 0.10941983 0.12957467 0.012537287 0.023490123 0.03304316 0.039822854
0.03990535 0.00081315095 0.0027680348 0.005790391 0.0054472024 0.004526196 0.0014043285 0.00014589986
0.0001265384 0.00032054912 0.0014891236 0.015045131 0.00779914 0.00521418 0.010205974 0.019843293
2.4999563e-06 1.8440326e-06 2.3004309e-06 4.0448194e-06 4.157847e-06 2.39336e-06 2.5327224e-06 3.788758e-06
4.743197e-06 3.9249853e-06 2.0026566e-06 2.0965804e-06 3.297113e-06 3.418447e-06 2.1134324e-06 2.0950083e-06
2.4938508e-06 2.917982e-06 2.5070171e-06 1.4614769e-06 1.8701189e-06 1.9344025e-06 2.0396271e-06 1.402177e-06
5.931572e-07 4.119846e-08 1.031398e-07 2.6324597e-07 5.8216546e-07 1.196123e-06 1.55484e-07 1.8878863e-07
6.023362e-07 1.7315186e-06 2.2093564e-06 3.5725802e-07 5.484121e-07 1.0883183e-06 2.003494e-06 1.8368406e-06
3.6276228e-07 8.2429443e-07 1.0155109e-06 1.2199494e-06 8.498727e-07 4.3135458e-07 8.482881e-07 9.663937e-07
7.820501e-07 7.59055e-07

exp_avg f4 [10]
00000000: c8f1 e7bb 0400 0000 0400 0000 0400 0000
00000010: 0400 0000 7430 ac3d bf41 fabc a200 38be
00000020: 0400 0000 0400 0000
-0.007078383 6e-45 6e-45 6e-45 6e-45 0.08407679 -0.030548928 -0.17968991
6e-45 6e-45

exp_avg_sq f4 [10]
00000000: ff7e da3d 00a2 c733 ccbf 5d38 c204 0830
00000010: 5e57 6c37 2b19 3d3e e9e0 3f3f 26dd 353f
00000020: 6eac 4e37 8b20 8336
0.10668754 9.296127e-08 5.286913e-05 4.9483273e-10 1.4087038e-05 0.18466632 0.7495256 0.7104057
1.2318704e-05 3.9078927e-06

exp_avg f4 [20, 10, 5, 5]
00000000: 0400 0000 0400 0000 0400 0000 0400 0000
00000010: 0400 0000 0400 0000 0400 0000 0400 0000
00000020: 0400 0000 0400 0000 0400 0000 0400 0000
00000030: 0400 0000 0400 0000 0400 0000 0400 0000
00000040: 0400 0000 0400 0000 0400 0000 0400 0000
00000050: 0400 0000 0400 0000 0400 0000 0400 0000
00000060: 0400 0000 0400 0080 0400 0080 0400 0080
00000070: 0400 0080 0400 0080 0400 0000 0400 0000
00000080: 0400 0000 0400 0000 0400 0000 0400 0000
00000090: 0400 0000 0400 0000 0400 0000 0400 0000
000000a0: 0400 0080 0400 0080 0400 0080 0400 0000
000000b0: 0400 0080 0400 0080 0400 0080 0400 0080
000000c0: 0400 0080 0400 0080 0400 0080 0400 0000
000000d0: 0400 0000 0400 0000 0400 0000 0400 0000
000000e0: 0400 0000 0400 0000 0400 0000 0400 0000
000000f0: 0400 0000 0400 0000 0400 0000 0400 0000
00000100: 0400 0000 0400 0000 0400 0000 0400 0000
00000110: 0400 0000 0400 0000 0400 0000 0400 0000
00000120: 0400 0000 0400 0000 0400 0000 0400 0080
00000130: 0400 0080 0400 0080 0400 0000 0400 0000
00000140: 0400 0000 0400 0000 0400 0080 0400 0000
00000150: 0400 0000 0400 0000 0400 0000 0400 0080
00000160: 0400 0080 0400 0080 0400 0000 0400 0080
00000170: 0400 0080 0400 0000 0400 0000 0400 0000
00000180: 0400 0080 0400 0080 0400 0080 0400 0000
00000190: 0400 0000 0400 0000 0400 0080 0400 0080
000001a0: 0400 0000 0400 0000 0400 0000 0400 0080
000001b0: 0400 0080 0400 0000 0400 0000 0400 0000
000001c0: 0400 0000 0400 0000 0400 0000 0400 0000
000001d0: 0400 0000 0400 0000 0400 0000 0400 0000
000001e0: 0400 0000 0400 0000 0400 0000 0400 0000
000001f0: 0400 0000 0400 0000 0400 0000 0400 0000
00000200: 0400 0080 0400 0000 0400 0000 0400 0000
00000210: 0400 0000 0400 0000 0400 0000 0400 0000
00000220: 0400 0000 0400 0000 0400 0000 0400 0000
00000230: 0400 0000 0400 0000 0400 0000 0400 0000
00000240: 0400 0000 0400 0000 0400 0000 0400 0000
00000250: 0400 0080 0400 0080 0400 0000 0400 0000
00000260: 0400 0000 0400 0080 0400 0000 0400 0000
00000270: 0400 0000 0400 0080 0400 0000 0400 0000
00000280: 0400 0000 0400 0000 0400 0000 0400 0000
00000290: 0400 0000 0400 0000 0400 0000 0400 0000
000002a0: 0400 0000 0400 0000 0400 0000 0400 0000
000002b0: 0400 0000 0400 0000 0400 0000 0400 0000
000002c0: 0400 0000 0400 0000 0400 0000 0400 0000
000002d0: 0400 0000 0400 0000 0400 0000 0400 0080
000002e0: 0400 0000 0400 0000 0400 0000 0400 0000
000002f0: 0400 0080 0400 0000 0400 0000 0400 0000
00000300: 0400 0000 0400 0000 0400 0000 0400 0000
00000310: 0400 0000 0400 0000 0400 0000 0400 0000
00000320: 0400 0080 0400 0080 0400 0000 0400 0000
00000330: 0400 0000 0400 0000 0400 0000 0400 0000
00000340: 0400 0000 0400 0000 0400 0000 0400 0000
00000350: 0400 0000 0400 0000 0400 0000 0400 0000
00000360: 0400 0000 0400 0000 0400 0000 0400 0000
00000370: 0400 0000 0400 0000 0400 0000 0400 0000
00000380: 0400 0000 0400 0000 0400 0000 0400 0000
00000390: 0400 0000 0400 0000 0400 0000 0400 0000
000003a0: 0400 0000 0400 0000 0400 0080 0400 0000
000003b0: 0400 0000 0400 0000 0400 0000 0400 0000
000003c0: 0400 0000 0400 0000 0400 0000 0400 0000
000003d0: 0400 0000 0400 0000 0400 0080 0400 0080
000003e0: 0400 0000 0400 0000 0400 0000 0400 0000
000003f0: 0400 0000 0400 0000 0400 0000 0400 0000
6e-45 6e-45 6e-45 6e-45 6e-45 6e-45 6e-45 6e-45
6e-45 6e-45 6e-45 6e-45 6e-45 6e-45 6e-45 6e-45
6e-45 6e-45 6e-45 6e-45 6e-45 6e-45 6e-45 6e-45
6e-45 -6e-45 -6e-45 -6e-45 -6e-45 -6e-45 6e-45 6e-45
6e-45 6e-45 6e-45 6e-45 6e-45 6e-45 6e-45 6e-45
-6e-45 -6e-45 -6e-45 6e-45 -6e-45 -6e-45 -6e-45 -6e-45
-6e-45 -6e-45 -6e-45 6e-45 6e-45 6e-45 6e-45 6e-45
6e-45 6e-45 6e-45 6e-45 6e-45 6e-45 6e-45 6e-45
6e-45 6e-45 6e-45 6e-45 6e-45 6e-45 6e-45 6e-45
6e-45 6e-45 6e-45 -6e-45 -6e-45 -6e-45 6e-45 6e-45
6e-45 6e-45 -6e-45 6e-45 6e-45 6e-45 6e-45 -6e-45
-6e-45 -6e-45 6e-45 -6e-45 -6e-45 6e-45 6e-45 6e-45
-6e-45 -6e-45 -6e-45 6e-45 6e-45 6e-45 -6e-45 -6e-45
6e-45 6e-45 6e-45 -6e-45 -6e-45 6e-45 6e-45 6e-45
6e-45 6e-45 6e-45 6e-45 6e-45 6e-45 6e-45 6e-45
6e-45 6e-45 6e-45 6e-45 6e-45 6e-45 6e-45 6e-45
-6e-45 6e-45 6e-45 6e-45 6e-45 6e-45 6e-45 6e-45
6e-45 6e-45 6e-45 6e-45 6e-45 6e-45 6e-45 6e-45
6e-45 6e-45 6e-45 6e-45 -6e-45 -6e-45 6e-45 6e-45
6e-45 -6e-45 6e-45 6e-45 6e-45 -6e-45 6e-45 6e-45
6e-45 6e-45 6e-45 6e-45 6e-45 6e-45 6e-45 6e-45
6e-45 6e-45 6e-45 6e-45 6e-45 6e-45 6e-45 6e-45
6e-45 6e-45 6e-45 6e-45 6e-45 6e-45 6e-45 -6e-45
6e-45 6e-45 6e-45 6e-45 -6e-45 6e-45 6e-45 6e-45
6e-45 6e-45 6e-45 6e-45 6e-45 6e-45 6e-45 6e-45
-6e-45 -6e-45 6e-45 6e-45 6e-45 6e-45 6e-45 6e-45
6e-45 6e-45 6e-45 6e-45 6e-45 6e-45 6e-45 6e-45
6e-45 6e-45 6e-45 6e-45 6e-45 6e-45 6e-45 6e-45
6e-45 6e-45 6e-45 6e-45 6e-45 6e-45 6e-45 6e-45
6e-45 6e-45 -6e-45 6e-45 6e-45 6e-45 6e-45 6e-45
6e-45 6e-45 6e-45 6e-45 6e-45 6e-45 -6e-45 -6e-45
6e-45 6e-45 6e-45 6e-45 6e-45 6e-45 6e-45 6e-45
