lightning_logs/version_24/checkpoints/epoch=2-step=2814.ckpt (torch, 273474 bytes, 24 tensors)

conv1.weight f4 [10, 1, 5, 5]
00000000: 675f 87bd 5fa9 1abe 7a97 87be c455 65be
00000010: 7833 86be eb9b 80be e412 33be a273 35bd
00000020: c0d1 cd3c f33e 11be 8a9d c1be b722 16be
00000030: 09af 91be ff2b b3bd 0b68 003d 4ee4 9ebb
00000040: 5090 13be 4038 2fbe 87db 51be e3e6 b4be
00000050: d7ab f0bd 515a ebbd d9ef c7bb a41c f6bc
00000060: 0f3b 0bbe 19f4 62be 5588 febd 3e0c 4fbe
00000070: 8191 6dbe 052c 8ebe d0ed 09bd c76b 2b3d
00000080: b066 53be 25d7 3ebe a8ce 5f3d 8a92 d3bd
00000090: f18c 02be c44b a03d df3c 00be 1635 f53c
000000a0: 6e0b 48bd 35d6 e5bc e29f afbd 4400 d0bd
000000b0: 88d4 86be 4386 2fbe f3e2 97be af53 9fbd
000000c0: e4b0 e73c 085e dfbd 6309 c1be 2a72 153e
000000d0: 49ec 10be 1cb8 903e 4cc0 c23d 79c8 0ebf
000000e0: 148f 44bf e56e 3ebe 99a3 8bbf 776b 3bbf
000000f0: 4730 2f3e 7a12 073c 890e d83e 4be0 c0bd
00000100: 50e4 93be 9fb0 943e eb6c efbd b1f4 2abe
00000110: 28a5 d83d 7022 68ba 5024 6dbd 8feb 813e
00000120: 8edc 3c3e 3371 88bd e38e 633e 77db 1bbe
00000130: 62f8 09be 6e9e 8ebb c807 233e 1cee 20bf
00000140: d1f5 2fbe 4c9b 19bf 0c51 f53e 694a b2be
00000150: 9acd a2bc 08ef c7bd 98a8 7fbf 0288 8ebf
00000160: fd28 28bf 6461 05bd 9731 82be 48a3 babe
00000170: 23bb cbbe c539 523e 40ac 4b3d 57d0 4cbe
00000180: a70b d3bf b4ae 08bf cabb 11bd 526e 513d
00000190: 419f 7ebe b0f8 52be eebb 8ebe 6bc3 8abd
000001a0: 923a 72be a1d5 fdbd dd93 00be cc3b 41bd
000001b0: 5bf9 69be 077b 82be 2923 1bbe c2d8 00be
000001c0: d64d cebd 1ae2 a3be 8a1e 1abe 61ba 533d
000001d0: 8425 45be b2ac 00be 6965 60be 5456 cb3c
000001e0: b993 a0be 85ad 02be 81c2 c9bd ea34 93bd
000001f0: 539e 4fbc 13d7 85bd a5d5 aabe 387d dcbd
00000200: c932 b1bd daba 87be 323d b2be 2d00 013d
00000210: 2b8d 9abe cf73 f03d b712 87be a8eb babd
00000220: 627e 003d 897d 83be d8e0 3cbe fc52 b5bb
00000230: dc35 06be aad6 04be bf20 ffbd 1b7c 8abe
00000240: 55b7 58be ec66 aabe f96d 3abd 2e55 14be
00000250: 21d0 2ebe d040 69be f941 603d a2e0 3f3d
00000260: 206f 9f3c c9ef 84be 6462 5b3d bad0 c33c
00000270: 12f5 97be abbe 8dbe 25bb 95be 3bc0 2ebe
00000280: 1e8d 98be 456c 6abe 7416 8bbe dd01 263d
00000290: f2af 3fbe 95e4 07be cbd7 6abb 9c42 fdbd
000002a0: b033 0ebe 2bd4 50be ad07 33bc 17a5 9dbe
000002b0: 10f6 aebd 0366 e0bd 343a 23bd 11d6 5fbe
000002c0: 48f2 a6bc a948 14bd 13d5 9fbe 9b8e dc3c
000002d0: b5c0 f8bd 4309 9ebc 5333 76be 0440 04be
000002e0: 7f15 95be e494 8cbe e884 01be 1a76 4fbd
000002f0: 2c8f de3c 7871 b3be 86d8 1cbd 4f31 a0bd
00000300: 3a15 1c3d 1d7a 1fbe 7ff0 2ebe ac60 b1be
00000310: 9492 03bd 4c93 03be 1ec8 1dbe 450b 0dbe
00000320: d0be 88be d43d 6ebe cad0 debd 4f99 27bd
00000330: 439c 9ebe 57b7 9cbe fa23 0ebe aabb 58bb
00000340: 0956 2abe 7c84 4dbe adc8 6bbe f7ee 32be
00000350: 4125 8abe 1974 66bd d234 23be f7b3 2d3d
00000360: 2f68 13be 47a5 46bd c2e7 aebe 3b6f 8b39
00000370: d215 82be 1a03 31be e0e6 1fbe 92be 083d
00000380: 0536 80be 38cd a6bd 96d3 5bbe fd5a 9fbe
00000390: 5d75 3abe 0e38 28be bec4 3abd 6b95 5dbe
000003a0: 1bfa 93be b976 74be 53aa c2bd 54d9 1abe
000003b0: 602c 7abe 6723 edbd 0d97 9bbe 759e 28be
000003c0: 11db 94bd c2f7 bfbd b3c3 253b d9ec c8be
000003d0: c86f 06bd 74e9 b2bd 7c2c 91be e865 34be
000003e0: 415f b1be b86a 94be
-0.066099934 -0.15103672 -0.26482755 -0.22395998 -0.26211143 -0.25118956 -0.17487675 -0.04429973
0.02512443 -0.1418417 -0.37815505 -0.1466168 -0.28453854 -0.08748626 0.031349223 -0.0048489934
-0.1441052 -0.17111301 -0.204939 -0.35332403 -0.11751526 -0.11491836 -0.00610159 -0.030042954
-0.13596748 -0.22163428 -0.12428347 -0.20219514 -0.23200037 -0.2776796 -0.03367406 0.04185083
-0.20644641 -0.18636759 0.054640442 -0.103306845 -0.12749077 0.07826951 -0.1252322 0.02993254
-0.048839025 -0.028056243 -0.08575417 -0.10156301 -0.26334023 -0.1714106 -0.29665336 -0.07779633
0.02828259 -0.10906607 -0.37702474 0.14594331 -0.14152636 0.28265464 0.09509334 -0.55774647
-0.7678082 -0.1859699 -1.0909301 -0.73210853 0.1710826 0.008244151 0.4219859 -0.094177805
-0.28885126 0.29041 -0.11690696 -0.16694905 0.10578376 -0.0008855229 -0.05789596 0.2537503
0.1844351 -0.06662216 0.22222476 -0.15220438 -0.13473657 -0.0043523824 0.15920937 -0.62863326
-0.17183615 -0.6000259 0.47913396 -0.34822395 -0.01987343 -0.097623885 -0.9986663 -1.1135256
-0.65687543 -0.032563582 -0.2542846 -0.364527 -0.3979121 0.2052985 0.049724817 -0.2000135
-1.6487931 -0.53391576 -0.03557948 0.0511306 -0.24865438 -0.20602679 -0.27877754 -0.06775554
-0.23655155 -0.12394262 -0.12556405 -0.047176167 -0.22849028 -0.25484487 -0.15150131 -0.12582687
-0.1007344 -0.3200844 -0.15050712 0.051691417 -0.19252592 -0.12565878 -0.21913685 0.024821438
-0.31362703 -0.12761505 -0.09851552 -0.07187827 -0.012672025 -0.06535163 -0.33366123 -0.10766071
-0.086522646 -0.26509744 -0.34812313 0.03149431 -0.30185828 0.11740839 -0.26381466 -0.09126979
0.031370528 -0.25681713 -0.18445146 -0.005533574 -0.13106483 -0.12972513 -0.12457418 -0.2704781
-0.21163686 -0.33281648 -0.045515034 -0.14485618 -0.17071582 -0.2277863 0.054750416 0.046845086
0.019462168 -0.25964192 0.05356063 0.02390324 -0.2967916 -0.2768453 -0.29244342 -0.17065518
-0.29795164 -0.22892864 -0.27165568 0.04052912 -0.18719462 -0.13270791 -0.003583419 -0.1236622
-0.13886905 -0.20393436 -0.010927123 -0.30790016 -0.085430264 -0.10956957 -0.03985043 -0.21859004
-0.0203792 -0.036202107 -0.3121725 0.026923468 -0.12146131 -0.019291526 -0.24043016 -0.12915045
-0.29117963 -0.27457345 -0.12648356 -0.05064974 0.027167879 -0.35047507 -0.03829243 -0.07821905
0.03810618 -0.15573926 -0.1708393 -0.34644067 -0.03212221 -0.12849158 -0.1540837 -0.1377383
-0.26708078 -0.23265773 -0.10879667 -0.04091769 -0.30978593 -0.30608627 -0.13880911 -0.003307084
-0.16634382 -0.2007007 -0.2302577 -0.1747397 -0.26981547 -0.056263063 -0.15938118 0.042407956
-0.14395212 -0.048497465 -0.34161192 0.0002659502 -0.25407273 -0.1728634 -0.15615416 0.033384867
-0.25041214 -0.08144611 -0.21467432 -0.31124106 -0.18208833 -0.16427633 -0.045597784 -0.2163903
-0.28901753 -0.23873414 -0.09505143 -0.15121967 -0.2443099 -0.11579018 -0.3038868 -0.16466697
-0.07268346 -0.09373428 0.0025293648 -0.392432 -0.032821447 -0.08735934 -0.2835425 -0.17616999
-0.34642985 -0.2898767

conv1.bias f4 [10]
00000000: efd2 f3bd d037 d0bd 2d16 afbd 4884 163e
00000010: 1352 29be c65c edbd 3f84 5dbe a244 d6bd
00000020: 06b9 69be ba45 20be
-0.11905467 -0.101668954 -0.085491516 0.14698899 -0.16535215 -0.11589961 -0.21632479 -0.104623094
-0.22824487 -0.15651599

conv2.weight f4 [20, 10, 5, 5]
00000000: 490a 11be 4668 28be ef37 19be 1d2f f2bd
00000010: 5428 b7bd 64f4 57be aacf 4bbe a87d 07be
00000020: 9bdc 2cbe 1b7a 08be 7a52 2ebd 4db4 cfbd
00000030: 1f70 39be 40ef 23be 36a6 c5bd c9ce f2bd
00000040: eb7f edbd 6de4 0bbe 1754 6cbe 1f19 b1bd
00000050: d5ad 05be b8c3 dabd 16ae 1bbe 8463 51be
00000060: eb0b 22be 8c80 cfbc 5ca4 d0bd 6b49 1cbe
00000070: 1d29 ccbd 6c8a ffbd 644a a1bd d2a2 c1bd
00000080: e477 22be b187 e6bd fa9a 2fbe ff12 99bd
00000090: 0120 32be 02d6 6cbe 39f6 2cbe a269 32be
000000a0: 13c3 cdbd 9cac c8bd a33c 71bd d82c fcbd
000000b0: 78dc 54be f028 a0bd 060b acbd a772 2cbd
000000c0: 2851 47bc e003 51be 6d68 c3bd 4add 09be
000000d0: 4907 e6bd 2f64 42be 854e 5dbe 9969 55bd
000000e0: 9b59 49be e231 65be f653 f6bd 03f1 d7bd
000000f0: eb56 05be 96c2 0dbe 369b 19be 1312 35bd
00000100: 18bc edbd f1bf e6bd 6065 fdbd f6b9 a6bd
00000110: 9bf0 e0bb b7fb e5bd 1f03 48bd 923b e2bd
00000120: 3d9c 8638 be27 fdbd c3a8 1fbe 1b6f d9bc
00000130: 7145 dabd 5272 1fbe dc04 34be f9ff b2bd
00000140: d174 04be 4ee8 a7bd 66e8 18be a44d dbbd
00000150: fe53 3cbd 5ddf 8fbd 2873 2cbe 5bdf d6bd
00000160: 3be7 a6bd 7b77 47be dd24 91bd ff67 40bd
00000170: 29f2 16bd 98f6 edbd b527 32be 25d8 3bbe
00000180: 1743 0fbe b380 13be 1613 073c 5521 e4bd
00000190: 1957 9abd f88c 99bd 266c e0bd 6b9a 41be
000001a0: a7b1 fdbd 79f2 55bd c846 af3d 5b9a 26be
000001b0: 79a2 bdbc 4999 34bc c2b4 2bbe 868f 52be
000001c0: 0d91 49ba c0db 02be 6a9a c13c a514 eebc
000001d0: 5831 7c3d 99bb aebd 03b2 3cbe dfe0 93bd
000001e0: e469 033e c36d 563d c2fd 453d 8c86 f9bd
000001f0: c699 06be 47ff 973c 708f e1bd b91c dcbd
00000200: 5a88 18bc 2895 21be 7530 30be 5bcb 39be
00000210: 02d8 b2bd 3932 00be 0207 11be 0b5e 00be
00000220: 0a51 90bd 0a56 d2bd e276 edbd 14e7 f9bd
00000230: 8454 65bd 4a50 b6bd 23b6 a3bd 2b87 60be
00000240: 2e94 21be cb11 c1bd b299 63be 2460 fbbc
00000250: fb52 36be 2378 f7bd 5efc 563e dd89 5d3a
00000260: c2ab 0bbe 776f ecbd 125b 06be d80a 77bd
00000270: bed6 9ebd 17c6 25be ba55 edbd fdde 8bbc
00000280: b1b8 94bc 5f31 82bd 537c d0bd 9050 fdbd
00000290: 16fa dbbd b993 ffbd f0ca e6bd 6f60 16bd
000002a0: 202c df3c 2696 1cbe 0c28 ddbd 1dc7 abbd
000002b0: 5655 5cbe 271b 15bd 9840 30be ec4c 6fbc
000002c0: 5f5e 44be 0ac1 f8bd 3cc3 1cbe 860b 26be
000002d0: 8869 783c f72a 18be 6d98 2ebe 8fc1 28be
000002e0: 7438 51be cb16 01be 8d9a d7bd 14c9 57be
000002f0: a989 1cbe 2d20 70bd 0a96 59be 34b4 48be
00000300: 10a0 57bd 6be8 63be 265d 4dbd f758 2ebe
00000310: 0a3b a2bc c7d6 b53c 4b8c f7bd 2813 65bd
00000320: dd4a 543d c73c 16be b968 a4bd 958b 8fbd
00000330: 49d8 953d 8f9d 2abd 97e1 35be 0a04 e0bd
00000340: 6eee 18be 68be a53d 2386 c03d 4eb9 a2bd
00000350: 32e6 adbd e64f b0bd a9f4 c63d 7875 11be
00000360: 1a98 e4bd 9ee7 af3c d213 a2bd f102 7e3d
00000370: 833f 1fbe 08a9 c53d 8489 233e 0dd4 e0bd
00000380: 8817 dcbd 2fcd fcbd 97e1 ecbd 37f6 d3bd
00000390: ed97 25be ae6b 80bd e913 80bd 43c5 0dbe
000003a0: e0a2 60be b717 9cbd bbbe 4ebe 5c40 48be
000003b0: 863a e8bd 84ac 10be 6de9 e639 ea83 dcbd
000003c0: b11a c7bd d776 4dbe c814 19be dece 71bd
000003d0: 860a 3dbe 4264 62be b782 23be 8923 40be
000003e0: b491 82bd 01f7 1fbe 5c85 bb3c 00b0 4438
000003f0: fea7 26bd e48d 143d e031 d7bc ec80 47bd
-0.1416408 -0.16446027 -0.14962743 -0.118253924 -0.08943239 -0.21089321 -0.19903436 -0.13231528
-0.1688103 -0.1332783 -0.042559125 -0.101418115 -0.18109177 -0.16009235 -0.09650843 -0.118558474
-0.11596664 -0.13661356 -0.23078953 -0.086473696 -0.13054593 -0.10681862 -0.15203127 -0.20448118
-0.15824859 -0.02532985 -0.10187599 -0.15262382 -0.09968779 -0.12477574 -0.07875517 -0.09454884
-0.15866047 -0.1125635 -0.17148963 -0.07474326 -0.17395021 -0.23128513 -0.16890801 -0.17423108
-0.10046973 -0.097985476 -0.05889572 -0.12313241 -0.20787227 -0.07820308 -0.0840054 -0.04210153
-0.012165345 -0.20411634 -0.09541402 -0.13463321 -0.11231858 -0.1898353 -0.21611984 -0.05210266
-0.19663088 -0.2238231 -0.12027733 -0.10544016 -0.13021438 -0.1384376 -0.15000615 -0.04420669
-0.11608142 -0.11267079 -0.12372851 -0.08140938 -0.00686462 -0.112296514 -0.0488311 -0.110465184
6.4187196e-05 -0.12361096 -0.15591721 -0.026542237 -0.10657776 -0.15570953 -0.17579979 -0.08740229
-0.12935187 -0.081986055 -0.14932403 -0.10708168 -0.04597854 -0.07025025 -0.16840804 -0.104918204
-0.081495725 -0.19479172 -0.07087109 -0.04697418 -0.036852036 -0.116193 -0.1739796 -0.18344171
-0.13990436 -0.14404564 0.008244297 -0.1113917 -0.07536144 -0.07497591 -0.10958128 -0.18906562
-0.123874 -0.052233193 0.08558422 -0.1626982 -0.023148762 -0.011022874 -0.16768172 -0.20562562
-0.0007689156 -0.1277914 0.0236332 -0.029062578 0.061570495 -0.08531875 -0.18427281 -0.07220625
0.12833363 0.05235077 0.048337705 -0.12183866 -0.13144597 0.018554343 -0.11013687 -0.10747666
-0.0093098525 -0.15779555 -0.17205985 -0.1814398 -0.087326065 -0.12519158 -0.1416283 -0.12535875
-0.07046707 -0.10270317 -0.11594941 -0.12202278 -0.055988804 -0.08902033 -0.07993724 -0.21926562
-0.15779182 -0.09427222 -0.22226599 -0.030685492 -0.17805092 -0.12083461 0.20994708 0.0008451024
-0.13639739 -0.11544698 -0.13120678 -0.060313076 -0.077558026 -0.16188847 -0.11588617 -0.017074103
-0.018154474 -0.06357073 -0.10179963 -0.12368882 -0.107410595 -0.12479348 -0.11269176 -0.03671306
0.02724272 -0.15291652 -0.10798654 -0.08387587 -0.21516928 -0.036402848 -0.1721214 -0.014605742
-0.19176625 -0.12146194 -0.15308851 -0.16215333 0.015161879 -0.1486014 -0.17050333 -0.16480087
-0.20431691 -0.12606351 -0.10527525 -0.21072799 -0.15286888 -0.058624435 -0.21248642 -0.19599992
-0.052642882 -0.22256629 -0.05013766 -0.17026125 -0.019803543 0.02219714 -0.12087306 -0.055926472
0.051829208 -0.14671622 -0.08027787 -0.07009045 0.07316644 -0.041654166 -0.17761837 -0.109382704
-0.14934704 0.08092958 0.094005845 -0.079455 -0.08491172 -0.086089894 0.09714634 -0.14204967
-0.111618236 0.021472748 -0.07913937 0.062014524 -0.15551572 0.09651381 0.15970427 -0.109779455
-0.10746676 -0.12343823 -0.11566465 -0.10349696 -0.16171236 -0.06270538 -0.062537976 -0.1384478
-0.21937132 -0.07621711 -0.20189945 -0.19555801 -0.113392875 -0.1412831 0.00044042934 -0.10767348
-0.09721888 -0.20064865 -0.14949334 -0.059035175 -0.18461046 -0.22108558 -0.15967833 -0.18763556
-0.06375447 -0.15621568 0.02289074 4.6893954e-05 -0.040687554 0.03626813 -0.0262689 -0.048706934

conv2.bias f4 [20]
00000000: c15e d6bd ea29 2abe 222d 483e c8d3 16be
00000010: 65bf febe 7984 58be 6759 eebd 8506 c23c
00000020: 2166 82be a205 1cbd f6ba 9cbe e603 a2be
00000030: c616 15be 428f fcbd 80c1 e9bd 4fb9 8ebd
00000040: cbd8 583e f40a 853d bfc3 24be 93fb 13be
-0.104672916 -0.16617551 0.19548467 -0.14729226 -0.49755397 -0.21144284 -0.11638146 0.02368475
-0.25468543 -0.03809131 -0.3061139 -0.316436 -0.14559469 -0.12332012 -0.1141386 -0.069689386
0.2117645 0.0649623 -0.16090296 -0.14451437

fc1.weight f4 [50, 320]
00000000: 0ff6 97bd 5b03 d4bd 1367 1fbe 4cc0 e6bd
00000010: 6897 bebd f372 01be abd7 f2bd d57b 1fbe
00000020: 0b27 e7bd 05e1 2bbe 6c96 0ebe 8018 dfbd
00000030: e8d8 d3bd 0da9 27be 31f6 00be c53b b2bd
00000040: f6f2 593d 48d1 e3bb 00f2 bc3c 80b5 5c3b
00000050: 104f 12bd 888a ba3b 1266 11bd 8051 26bb
00000060: cbb4 33bd 0f71 f4bc bced 80bc b090 a2bb
00000070: 612f 35bd ecbc 9bbc fc42 62bd 62b6 2fbd
00000080: a3a0 66bf dcda 5dbf 9f93 5bbf b80c 03bf
00000090: 2603 9dbf 14dd 3fbf f64b b33d 0d95 88bd
000000a0: 4941 e3be 4551 183e f200 3b3f c44f cf3f
000000b0: aae6 0abe e7de 253b e504 743f 5dfc 363d
000000c0: 66ba 68bf 0c26 463f fd7b fdbe e4c0 cebe
000000d0: c8dd 17bf c7b5 a9bb 3461 0bc0 45e4 85bf
000000e0: 80b8 c2bf 5a5f 94bd 37ce c8be 1fdb 283f
000000f0: 5247 3abf 25ec 2e3f 17c4 b43e 336e 8c3f
00000100: 61d9 d5bf 4a1f 1cc0 dc13 7dbf 4bd0 673b
00000110: 732c f4be b531 c1be 13e9 393d 07e4 803f
00000120: bb0b b8bf 71b6 b23f fa13 e6bb 5679 ce3e
00000130: f557 ee3d d0a6 b0bd 7276 7ebf 6c74 b33f
00000140: c133 cc3d 78c2 0ebe b323 edbd 69a5 13be
00000150: ccdc 8cbd c769 ccbd fafb 16be ec85 02be
00000160: 7174 933d b171 c1bd 94aa 17be ae2f 9dbd
00000170: 5bfd 193e 8d4e 0fbe 8082 e8bd bc0d 04be
00000180: c2c8 2abe 1c9f 22be ce85 19be 49e4 88bd
00000190: 9420 23be 8096 c2bd e9e8 11be 546d cebd
000001a0: 0f64 a4bd 0d15 a8bd 2ea9 2bbe 27e4 f0bd
000001b0: d2d3 d7bd 9a3a e8bd c308 f1bd c7e2 85bd
000001c0: 0fb4 3cbf 7c78 753e 8e2b ea3e 78cf 34bc
000001d0: 9934 9dbf 5be6 0ebf 2a1e a7bd c779 abbe
000001e0: 88b0 f5bc dce4 fb3d c40a 673f afd7 92bf
000001f0: 4a6d b4be abec a2be d4e9 343d 62e1 81bf
00000200: 8f88 c03e 727c 643e 4600 1e3f 9ee2 103f
00000210: 8fa5 4ebf 8246 4f3e c923 0dbe 73f1 7dbf
00000220: d94e fcbe c759 38bc 4f8c e8bf 419e f2be
00000230: 0764 86bf a372 d4bd 1d1b 6abe 3cf1 4bbd
00000240: b285 fdbd e2c1 2bbe 087c f0bd 6669 91bd
00000250: 4f29 16be e095 b0bd eb9e 0dbe accc 13be
00000260: 4c8e bfbd 9202 33be 1f6e adbd 2074 aabd
00000270: fb5f cebd d2d1 f9bd 65f3 15be fdbc ac3d
00000280: c8ef 4e3d 202d d83c 8cac f23c 2c20 0fbd
00000290: 3610 b1bd 8f2b 1ebe d601 9fbd 3488 303d
000002a0: 8f4e 8d3d 460a 8b3d 5a13 2dbe 30db d5bc
000002b0: d4a3 803c b9cb 8e3d 66b1 403d 50ed 12bd
000002c0: 7af8 ba3e 4edc e13e 25bb 5bbd 52ea aebe
000002d0: 2cc6 26bf 6841 86be 1dd6 9dbf 24be ca3e
000002e0: 0f2a 45be 061b d8be 0500 02bf 68b7 7d3f
000002f0: 22ed 37bf 0550 85be 92b9 15bf 662b 58bc
00000300: 8ca8 803c baa9 0bbe ca33 09be 0773 35bd
00000310: fbd8 99bd 89f7 45bd a850 05be 4a50 c7bd
00000320: 17cb 21be 0cbf ecbd 7fb3 87bd 25b1 d4bd
00000330: 3ebd a6bd 5735 26be 3832 babd 6470 f0bd
00000340: e9c7 e8bd 30f1 0fbe 8e86 07be 70fc afbd
00000350: 59eb afbd 7fdc 27be 0c11 94bd 7ba2 89bd
00000360: 2215 0fbe 5d1c e7bd 5791 b7bd d222 863d
00000370: f7d6 cbbd 4d7a 91bd a434 0bbe aef3 29be
00000380: f367 1ebe 6bfb acbd 8313 fdbd 20cd 46bb
00000390: 2fb4 e3bd 11e9 cebd 1cec b2bd 36ba f0bd
000003a0: 02af 853d 171f abbd 3ffc 1e3e 50db fd3d
000003b0: c8fd 1abe 5aad 07be 049c c93c e6e6 293d
000003c0: 0721 2ebe 2de0 e2bd bdaa ebbd 1030 dbbd
000003d0: de11 09be ab52 07be 9eb6 3bbe 9ddd febd
000003e0: 1f12 2bbe 2dd1 bebc 0137 a2bd 8fea cbbd
000003f0: 5eb2 18be fc0c c3bd 39db b7bd c3fd 04be
-0.07419979 -0.103522025 -0.15566663 -0.112671465 -0.09306222 -0.12641506 -0.11857542 -0.15574582
-0.11286744 -0.16785057 -0.13924569 -0.10893345 -0.10344106 -0.16373082 -0.12593915 -0.087028064
0.05321022 -0.0069524385 0.023064613 0.0033677518 -0.03571993 0.0056927837 -0.035497732 -0.0025378168
-0.04387359 -0.029839067 -0.01573836 -0.0049610958 -0.044234637 -0.019010983 -0.055239663 -0.042898543
-0.9008886 -0.8666208 -0.85772127 -0.5119128 -1.2266586 -0.74946713 0.08754723 -0.06669054
-0.44385746 0.14874752 0.7304832 1.6196218 -0.13564554 0.0025309862 0.9531997 0.044674266
-0.9090942 0.77401805 -0.49508658 -0.4038154 -0.59322786 -0.0051791403 -2.1778078 -1.0460287
-1.5212555 -0.07244749 -0.3921983 0.6595935 -0.72765076 0.6832908 0.35305855 1.097113
-1.6706964 -2.4394097 -0.9885843 0.0035371955 -0.47690162 -0.37733236 0.045388293 1.0069588
-1.437858 1.3961927 -0.0070214244 0.40326947 0.1163787 -0.08625567 -0.99399483 1.4019904
0.09970809 -0.13941371 -0.11579075 -0.14418568 -0.06878051 -0.09981113 -0.14744559 -0.127464
0.07199944 -0.09445513 -0.14811164 -0.0767511 0.15038054 -0.13994808 -0.11353016 -0.12895864
-0.16678146 -0.15881008 -0.14992449 -0.06684167 -0.15930396 -0.09501362 -0.14249004 -0.100794464
-0.08026897 -0.0820714 -0.16763756 -0.117622666 -0.105384484 -0.11339302 -0.11769249 -0.06537395
-0.7371225 0.23971742 0.45736355 -0.0110357925 -1.2281677 -0.55820245 -0.0816005 -0.33491346
-0.029991403 0.12299511 0.902508 -1.1472071 -0.3523963 -0.31821188 0.04416831 -1.0146906
0.37604186 0.22313097 0.6171917 0.5659579 -0.8072137 0.2024174 -0.13783182 -0.9919655
-0.49278906 -0.011251873 -1.8167819 -0.47386363 -1.0499276 -0.10373428 -0.22861905 -0.049790606
-0.12379016 -0.16773179 -0.11742407 -0.07100181 -0.14664195 -0.086223364 -0.13830154 -0.14433545
-0.09353313 -0.17481449 -0.084682696 -0.0832293 -0.100769006 -0.12198223 -0.14643629 0.08434484
0.050521642 0.026388705 0.029623292 -0.03494279 -0.0864567 -0.15446304 -0.07764022 0.043098643
0.068997495 0.06789069 -0.16901913 -0.026105493 0.01570312 0.06972451 0.04704418 -0.03587085
0.36517698 0.44113392 -0.05364527 -0.34163147 -0.65146136 -0.26221776 -1.2330967 0.3959819
-0.19254325 -0.42208117 -0.5078128 0.9910798 -0.7184621 -0.26037613 -0.5848628 -0.013193941
0.01570537 -0.13638964 -0.13398662 -0.04429915 -0.07512089 -0.04833177 -0.13019049 -0.09732111
-0.15800129 -0.11559877 -0.06626033 -0.1038535 -0.08141564 -0.16231285 -0.0909161 -0.11740187
-0.11366255 -0.1405685 -0.13234922 -0.085930705 -0.08589811 -0.16392706 -0.07229814 -0.06720444
-0.13972905 -0.11284707 -0.08963268 0.0654961 -0.09953111 -0.07103405 -0.135943 -0.16596863
-0.15469341 -0.08446392 -0.12357237 -0.0030334666 -0.11118352 -0.10103048 -0.087364405 -0.11754267
0.06527521 -0.08355539 0.15525912 0.12395346 -0.15135872 -0.13249722 0.024610527 0.041479968
-0.17004786 -0.110779144 -0.11507175 -0.107025266 -0.13385722 -0.13215129 -0.18331382 -0.12444613
-0.16706131 -0.023293102 -0.079206474 -0.09956848 -0.14911792 -0.09523961 -0.0897736 -0.12987427

fc1.bias f4 [50]
00000000: 86c9 203f 8411 c23e 3a81 cbbe 7a43 ddbe
00000010: 9b17 a13e 41c1 c1be 3f1c fdbe a27b 9bbe
00000020: 6bbf 21be 7325 963e b273 b3bd 0b3b 6abe
00000030: 6327 81bd 9679 123f ce82 d1bd e9fb ccbe
00000040: 99e6 95be 238e 01be dacc 4d3e 23c7 8b3f
00000050: d5cc 56be 2365 17bf 399a 233e f17a 223e
00000060: 1446 32bf 721a 50be e6ae a2be 68d6 c5bd
00000070: b017 3e3f 6891 f73e 6875 b8bc 8f61 85be
00000080: 47a1 203f 218c c9be 48bb 9ebe b385 7ebe
00000090: 7705 8abe b576 05bf c098 a1bf f384 2ebf
000000a0: f4cd 8e3c d645 683e 1b1e 113f edaf b3be
000000b0: f051 0dbe 25cb 9c3e 2822 7b3c d0b5 723e
000000c0: cdb5 85be 7fbb 353e
0.628075 0.37903988 -0.3974703 -0.43215543 0.31463322 -0.37842754 -0.49435613 -0.30367762
-0.15795676 0.29325446 -0.087623015 -0.22874086 -0.063063405 0.57216775 -0.10230027 -0.40035942
-0.29277495 -0.12651877 0.20097676 1.0920147 -0.20976575 -0.591387 0.159768 0.15867211
-0.6963818 -0.20322588 -0.31774062 -0.09660035 0.74254894 0.48353124 -0.022516921 -0.26050994
0.6274609 -0.39364722 -0.3100226 -0.2485569 -0.26957294 -0.5213426 -1.2624741 -0.68171614
0.01743219 0.2268289 0.5668656 -0.35095158 -0.13800788 0.30623737 0.015327968 0.23702168
-0.26115265 0.17747305

fc2.weight f4 [10, 50]
00000000: 5968 37bf eec5 893d 7b0a 2fbe c02c afbe
00000010: f6bb fdbe 0f79 f6bc 76ee e0be 9690 91be
00000020: c1aa 50bf ddd6 be3d ffff 80be 398c f6be
00000030: 4e40 d93e 9265 26bf bfbf 49bf 1cca 86be
00000040: 889b a2be 6941 593e a346 c83e 121f b1be
00000050: e4a9 69be 7f22 48bf 028e e73e 0b5d 8f3e
00000060: dab8 93be cf1d 603e d327 5a3e 9568 973d
00000070: 49fd 43be d699 b13b 28da 58bf afd8 b03e
00000080: 1254 3ebe ca1f 853e 2acb e0bd 7cec 05bf
00000090: e6cd 3bbe 59c0 85be 7fb2 83be 96b6 96bd
000000a0: 8cbe 87bf 4edd 813e a9dd 4bbf 9756 6cbf
000000b0: ef72 b6bd 545e 50be cebe c73e 2ee8 d3be
000000c0: 5512 e3be 0e74 8ebe fee9 9b3e 3586 2ebe
000000d0: b339 56be 1c71 93be 4048 513e 45c3 2dbf
000000e0: f86a 7cbe 2623 11bf ec82 11bf e3ef 9bbe
000000f0: 3caa 45bf 1642 3abe 5a09 96be 1c09 203e
00000100: ff1e bfbe 8e24 1dbf eea0 b9be 28c2 8bbf
00000110: b618 dbbe 70c1 113f bd22 18bf 62da 02bf
00000120: 80ac 50bf 1454 d3bd ef05 2ebe e6aa a4be
00000130: 5d54 16bf d3cf 8ebd 63f2 d13e d114 a33d
00000140: be9e 13be b73a b8be 6ed3 d63e e16c 7bbf
00000150: 226a e2be 142b 8bbe 8842 67be 950b 20bf
00000160: d7a8 30bc 51be 2cbf 2528 a0be 4761 0fbf
00000170: e5c4 d23d dd85 03bf 8974 e2bd e830 ccbe
00000180: fdc9 57bf 61d4 3fbf 0632 693e 21b6 17bf
00000190: 28fa 813e f301 9f3e a49d 9b3e 1221 a33e
000001a0: 5737 0b3f 3885 a4bd f532 8a3e 9b1c b13e
000001b0: d3b8 6ebd 0a99 90be 1c96 193e b88b d1be
000001c0: d2fb 123e 0745 6bbe 9cb5 c5bd 2e2b c03d
000001d0: 99b9 923e 55b4 8abe 8310 6fbe 7e4f aabc
000001e0: 43f9 93be 6425 193d 5dc6 b4bd 0277 e3be
000001f0: 1a39 e5bd a399 bc3e 5e46 19be 9663 403d
00000200: 5958 03bd d2fc 0fbe 6f46 c63c 2797 823e
00000210: 9276 8f3e 2341 3cbd ad1f 01be 2601 04be
00000220: c334 393d c679 dd3d dc9d 53bc 6d27 5cbe
00000230: 1209 9dbe 6e98 ad3c b400 bfbe 65b9 b73e
00000240: 8958 85be 505d 7fbe d702 863e 0051 72be
00000250: c826 6c3e cc2b 67bd 4a1f 50bd 11aa 9dbe
00000260: 00bc 5abe 45f9 4a3e 0a88 bd3d 2bb4 3f3e
00000270: 6936 9c3e bbec 38be 36c3 dc3d 0e5d b4be
00000280: 96b0 90bd 1757 0f3d 2e5a 57bd cc67 58bf
00000290: aab1 7cbe cfe6 01bf 6378 8d3e 1f43 cf3d
000002a0: d7ad d73c 0f43 1c3b 8faf bc3e 62e4 a9be
000002b0: 0838 523d 740b 6dbe f3a4 92be 5ec9 23be
000002c0: 510b 6c3c 15bf 4c3e d6bf 14be ba76 5d3e
000002d0: 18cc 26be 72ea 28be 7cfc 3fbe 38ce 01bf
000002e0: f026 35bf 356e c03e 7d1f 3fbe 7e69 74be
000002f0: 0f29 1ebf 55b0 b4bd 2c51 bdbe 9d0c 73be
00000300: bd8d bc3c 0776 003e 6afc c2be 07ca 91be
00000310: 537a 62bd 8b91 2fbf af8b bc3e fd25 e7be
00000320: 963c a3be 10aa b639 5ca0 c33c b763 493e
00000330: 56a9 e9be 2be8 9bbe 8099 6dbe 16dd abbc
00000340: 8253 1a3e c863 ed3d 0b1f c73e ca74 dc3d
00000350: 6f57 d1be 2156 60bf 5c3f 4b3e 779b 93be
00000360: c127 da3c 00aa aabe 8905 b0be db18 a6be
00000370: 5969 b7be dfaf 0fbe 1ff5 48bf b027 f6be
00000380: 641c 8dbc 5069 ee3c a4f9 18bf e1b1 c23b
00000390: aacf 21be 6065 07bf 8d84 e6bc 7efc a3bd
000003a0: 117d 6fbe 5ec6 fe3d e8d7 8cbd b14f 8d3d
000003b0: b419 a5bd 18fb b1be d430 933e 9e39 3dbc
000003c0: 5255 903e eeba c03e e574 da3e ee3d 16be
000003d0: 2aab 233e fa91 03be 45b0 99be 3119 673e
000003e0: 6a83 b4be d2bf 953e 347a 36bf 18e3 0dbf
000003f0: 6930 a6be cce2 83be 76a9 c0be f87d 643e
-0.71643597 0.06727205 -0.17093842 -0.3421383 -0.49557465 -0.030087022 -0.4393193 -0.28430623
-0.8151055 0.09318326 -0.2519531 -0.48153856 0.42431873 -0.64998734 -0.78808206 -0.26326072
-0.31759286 0.21216358 0.39116392 -0.34594017 -0.22818714 -0.78177637 0.4522553 0.28000674
-0.28851968 0.21886371 0.21304254 0.07392994 -0.1913959 0.00541995 -0.8470788 0.34540316
-0.18586758 0.26000816 -0.109762505 -0.5231397 -0.18340263 -0.26123312 -0.2572212 -0.07359044
-1.0605025 0.25364155 -0.796351 -0.92319626 -0.089086406 -0.20348483 0.3901276 -0.41388077
-0.44349924 -0.27822918 0.3045196 -0.17043383 -0.20920448 -0.28797233 0.20437717 -0.6787608
-0.2465018 -0.5669426 -0.56840396 -0.30456457 -0.7721288 -0.18189272 -0.2930401 0.15628475
-0.37328336 -0.61383903 -0.36255592 -1.0918627 -0.4279229 0.5693579 -0.59428006 -0.51114476
-0.81513214 -0.10318771 -0.16994451 -0.32161635 -0.5872248 -0.06973233 0.4100524 0.07962955
-0.14416024 -0.35982296 0.41958183 -0.9821301 -0.44221598 -0.27181304 -0.22583973 -0.6251767
-0.010782442 -0.674779 -0.31280628 -0.5600781 0.10291461 -0.51376134 -0.110573836 -0.39881063
-0.84292585 -0.7493344 0.22772989 -0.5926228 0.25386167 0.31056175 0.30393708 0.31861168
0.54381317 -0.08033222 0.26992002 0.34592137 -0.05828173 -0.2824176 0.14998668 -0.4092691
0.14353874 -0.2297555 -0.0965378 0.09383236 0.28657225 -0.27090707 -0.23346142 -0.020789858
-0.2890111 0.037389174 -0.08826897 -0.44426733 -0.11192532 0.36835966 -0.14968249 0.046969973
-0.032066677 -0.14061287 0.024203507 0.25505945 0.2802015 -0.045960557 -0.1260974 -0.12891063
0.045216333 0.10814242 -0.012916055 -0.21499415 -0.30670983 0.021190848 -0.37305224 0.35883632
-0.2604411 -0.2493794 0.26174042 -0.23663712 0.23061669 -0.056438252 -0.05081109 -0.30793813
-0.21360779 0.19821651 0.09254463 0.18721072 0.30510262 -0.18059056 0.10779421 -0.35227245
-0.07064931 0.034995165 -0.052576236 -0.8453338 -0.24677148 -0.5074281 0.2763091 0.10120224
0.02632801 0.002384368 0.3685269 -0.33182055 0.051322967 -0.231489 -0.2864147 -0.15994784
0.014406995 0.19994767 -0.14526305 0.21627322 -0.16288793 -0.16495684 -0.18748659 -0.5070529
-0.7076254 0.3758408 -0.18664356 -0.23868367 -0.617814 -0.08822695 -0.36975992 -0.2373528
0.023016805 0.12545024 -0.38083202 -0.28474447 -0.05529244 -0.68581456 0.3682532 -0.4514617
-0.3188216 0.00034840452 0.023880176 0.19666944 -0.45637006 -0.30450568 -0.23203087 -0.020979445
0.15070918 0.115912974 0.3889087 0.10764463 -0.4088702 -0.8763142 0.19848388 -0.28829548
0.026630284 -0.33332825 -0.34379223 -0.32440838 -0.3582256 -0.14031933 -0.78499025 -0.48077154
-0.017225452 0.029102951 -0.5975592 0.005941615 -0.15801874 -0.5288906 -0.028139377 -0.080071434
-0.23387553 0.12440179 -0.06877118 0.068999656 -0.08061543 -0.34761882 0.2874819 -0.011549382
0.28190094 0.37642616 0.42667308 -0.14672062 0.15983263 -0.12848654 -0.30017295 0.22568204
-0.3525651 0.2924791 -0.7128022 -0.5542464 -0.3245881 -0.2575897 -0.37629288 0.22313678

fc2.bias f4 [10]
00000000: e9a0 1f3e 2603 be3f 1db3 87bf 7e95 7f3d
00000010: 037b 2cbe d1de 0bbe 9b49 75bf 85fa 82bf
00000020: 6885 6c3f ae94 a33e
0.15588726 1.4844711 -1.0601536 0.062398426 -0.168438 -0.13659216 -0.9581544 -1.0232702
0.9239106 0.3194937

exp_avg f4 [10, 1, 5, 5]
00000000: 0400 0000 0400 0000 0400 0000 0400 0000
00000010: 0400 0000 0400 0000 0400 0000 0400 0000
00000020: 0400 0000 0400 0000 0400 0000 0400 0000
00000030: 0400 0000 0400 0000 0400 0000 0400 0000
00000040: 0400 0000 0400 0000 0400 0000 0400 0000
00000050: 0400 0000 0400 0000 0400 0000 0400 0080
00000060: 0400 0000 0400 0000 0400 0000 0400 0000
00000070: 0400 0000 0400 0000 0400 0000 0400 0000
00000080: 0400 0000 0400 0000 0400 0000 0400 0000
00000090: 0400 0000 0400 0000 0400 0000 0400 0000
000000a0: 0400 0000 0400 0000 0400 0000 0400 0000
000000b0: 0400 0000 0400 0000 0400 0000 0400 0000
000000c0: 0400 0000 0400 0000 2bc5 343d b37a 133d
000000d0: f860 2cbb 9ffd 293d 8c58 603d 0f88 f13c
000000e0: c264 58bc 372a 1ebd ea77 ccbb 121b 533c
000000f0: 1843 773d a09a 01bd 90ae 37bd b3d7 a53b
00000100: 9477 c13c ccb8 883d a0d3 383c 608a 61bb
00000110: 7a1a 363c 170d 143e 7664 c83d 2ce0 9c3d
00000120: 7556 c13d 3c9c 1b3e 48b0 823e 47ec 60bd
00000130: 0028 153a 0287 083d 0090 c438 bc4c 223c
00000140: be43 fabb 0029 ce37 2a6b 6e3b ba25 f3ba
00000150: 7a89 d43c f4a9 8dbb 7986 8d39 e39d a139
00000160: c41a a83a dc97 653d 7afa fdbb f576 35b9
00000170: 6175 88ba 5f3e 373d eea3 093e 34ae 8a3b
00000180: 018b 92b8 b0fc 363a d586 843d 5613 1b3e
00000190: 0400 0000 0400 0000 0400 0000 0400 0000
000001a0: 0400 0000 0400 0000 0400 0000 0400 0000
000001b0: 0400 0000 0400 0000 0400 0000 0400 0000
000001c0: 0400 0000 0400 0000 0400 0000 0400 0000
000001d0: 0400 0000 0400 0000 0400 0000 0400 0000
000001e0: 0400 0000 0400 0000 0400 0000 0400 0000
000001f0: 0400 0000 0400 0000 0400 0000 0400 0000
00000200: 0400 0000 0400 0000 0400 0000 0400 0000
00000210: 0400 0000 0400 0000 0400 0000 0400 0000
00000220: 0400 0000 0400 0000 0400 0000 0400 0080
00000230: 0400 0000 0400 0000 0400 0000 0400 0000
00000240: 0400 0000 0400 0000 0400 0000 0400 0000
00000250: 0400 0000 0400 0000 0400 0000 0400 0000
00000260: 0400 0000 0400 0000 0400 0000 0400 0000
00000270: 0400 0000 0400 0000 0400 0000 0400 0000
00000280: 0400 0000 0400 0000 0400 0000 0400 0000
00000290: 0400 0000 0400 0000 0400 0000 0400 0000
000002a0: 0400 0000 0400 0000 0400 0000 0400 0000
000002b0: 0400 0000 0400 0000 0400 0000 0400 0000
000002c0: 0400 0000 0400 0000 0400 0000 0400 0000
000002d0: 0400 0000 0400 0000 0400 0000 0400 0000
000002e0: 0400 0000 0400 0000 0400 0000 0400 0000
000002f0: 0400 0000 0400 0000 0400 0000 0400 0000
00000300: 0400 0000 0400 0000 0400 0000 0400 0000
00000310: 0400 0000 0400 0000 0400 0000 0400 0000
00000320: 0400 0000 0400 0000 0400 0000 0400 0000
00000330: 0400 0000 0400 0000 0400 0000 0400 0000
00000340: 0400 0000 0400 0000 0400 0000 0400 0000
00000350: 0400 0000 0400 0000 0400 0000 0400 0080
00000360: 0400 0000 0400 0000 0400 0000 0400 0000
00000370: 0400 0000 0400 0000 0400 0000 0400 0000
00000380: 0400 0000 0400 0000 0400 0000 0400 0000
00000390: 0400 0000 0400 0000 0400 0000 0400 0000
000003a0: 0400 0000 0400 0000 0400 0000 0400 0000
000003b0: 0400 0000 0400 0000 0400 0000 0400 0000
000003c0: 0400 0000 0400 0000 0400 0000 0400 0000
000003d0: 0400 0000 0400 0000 0400 0000 0400 0000
000003e0: 0400 0000 0400 0000
6e-45 6e-45 6e-45 6e-45 6e-45 6e-45 6e-45 6e-45
6e-45 6e-45 6e-45 6e-45 6e-45 6e-45 6e-45 6e-45
6e-45 6e-45 6e-45 6e-45 6e-45 6e-45 6e-45 -6e-45
6e-45 6e-45 6e-45 6e-45 6e-45 6e-45 6e-45 6e-45
6e-45 6e-45 6e-45 6e-45 6e-45 6e-45 6e-45 6e-45
6e-45 6e-45 6e-45 6e-45 6e-45 6e-45 6e-45 6e-45
6e-45 6e-45 0.044133347 0.036005687 -0.0026302915 0.041501638 0.054771945 0.029483823
-0.013207616 -0.038614478 -0.006239881 0.012884872 0.06036672 -0.031641603 -0.04484421 0.0050611137
0.02361659 0.06675872 0.011280924 -0.0034414753 0.011114711 0.14458118 0.097847864 0.07659945
0.094403185 0.15196317 0.25525117 -0.05491283 0.00056898594 0.03333188 9.3728304e-05 0.00990599
-0.00763747 2.4576206e-05 0.0036379793 -0.0018550672 0.02594446 -0.0043232385 0.00026993806 0.00030825948
0.001282536 0.056053028 -0.0077508064 -0.0001730582 -0.0010410958 0.044737216 0.1344144 0.0042321924
-6.987714e-05 0.00069804024 0.0647103 0.15144095 6e-45 6e-45 6e-45 6e-45
6e-45 6e-45 6e-45 6e-45 6e-45 6e-45 6e-45 6e-45
6e-45 6e-45 6e-45 6e-45 6e-45 6e-45 6e-45 6e-45
6e-45 6e-45 6e-45 6e-45 6e-45 6e-45 6e-45 6e-45
6e-45 6e-45 6e-45 6e-45 6e-45 6e-45 6e-45 6e-45
6e-45 6e-45 6e-45 -6e-45 6e-45 6e-45 6e-45 6e-45
6e-45 6e-45 6e-45 6e-45 6e-45 6e-45 6e-45 6e-45
6e-45 6e-45 6e-45 6e-45 6e-45 6e-45 6e-45 6e-45
6e-45 6e-45 6e-45 6e-45 6e-45 6e-45 6e-45 6e-45
6e-45 6e-45 6e-45 6e-45 6e-45 6e-45 6e-45 6e-45
6e-45 6e-45 6e-45 6e-45 6e-45 6e-45 6e-45 6e-45
6e-45 6e-45 6e-45 6e-45 6e-45 6e-45 6e-45 6e-45
6e-45 6e-45 6e-45 6e-45 6e-45 6e-45 6e-45 6e-45
6e-45 6e-45 6e-45 6e-45 6e-45 6e-45 6e-45 6e-45
6e-45 6e-45 6e-45 6e-45 6e-45 6e-45 6e-45 -6e-45
6e-45 6e-45 6e-45 6e-45 6e-45 6e-45 6e-45 6e-45
6e-45 6e-45 6e-45 6e-45 6e-45 6e-45 6e-45 6e-45
6e-45 6e-45 6e-45 6e-45 6e-45 6e-45 6e-45 6e-45
6e-45 6e-45 6e-45 6e-45 6e-45 6e-45 6e-45 6e-45
6e-45 6e-45

exp_avg_sq f4 [10, 1, 5, 5]
00000000: b7b7 4032 d059 a230 529e 7b2f 5309 2f30
00000010: 724f c030 0866 a630 b64b 422f f5c1 232f
00000020: 4f04 1e30 9e5d 6e30 bd92 052e 2ab5 3f2e
00000030: 1be6 472e 9af3 a02f e218 8930 5211 052f
00000040: 9e61 f82d e4a4 902d d972 9a2b a35f 2f30
00000050: 97c7 dd2e 9334 032e 5a79 de2c b8e5 1d2d
00000060: ceab ec2f 3b15 9933 0c99 1334 4a09 bd33
00000070: 21fc 2733 8fbb 3d33 d248 0334 6205 4034
00000080: 55e7 fc33 5fdd 8e33 5778 d233 75b5 2334
00000090: 993c 5c34 4aec 4c34 2f39 1c34 5efc 2234
000000a0: c19d 0c34 4d00 4934 1b81 8134 6920 6034
000000b0: cd08 0c34 5c28 e233 71d9 1734 277e 7e34
000000c0: b9dd 7c34 0497 2234 d580 413d b5e3 a43c
000000d0: 2973 283c 2d33 8a3c b575 f53c 96f3 f83c
000000e0: 3924 4d3b 5706 b639 e076 003a db93 d73b
000000f0: 0b6e c63d db5d 133d 5c62 de3c 8658 cf3c
00000100: 72e4 613d 89d4 403e f953 093e 6a1b ee3d
00000110: 4e9c 0f3e eba3 383e 8fb9 6e3e df98 803e
00000120: 2b31 683e 40af 603e 2886 803e 735a c13d
00000130: dced 143d 0d40 0d3d 45df b83c 014e 103c
00000140: 1f07 9f3c 14e4 1c3b b49b 9b3b 59b8 e03a
00000150: 6cc4 d23b 5c97 bb3b 4d6b 4337 cdc5 b838
00000160: 88c9 a33a 0896 2a3d 493b 0c3b b1cf 6339
00000170: adaa 4e3a 80d9 a73c 837a 083e e8e7 4c3b
00000180: 6bf2 2738 5803 993b 0331 8a3d 4e45 6d3e
00000190: 9b6f e930 4cc7 0831 c118 7830 9ce5 b02f
000001a0: a69b e92f 3be4 9831 f827 d631 f61e 5b31
000001b0: 11ec 4f30 d0a6 0c31 12ad 0132 d906 f831
000001c0: 9da3 dd31 b538 6431 c061 0432 41ba 0e32
000001d0: a744 1932 0b8a 5632 e4b1 4932 e78f 2833
000001e0: 601f 2931 5427 db31 6eff 4332 cd5c dd32
000001f0: 6084 5633 278e 3831 c6ad 772f 4899 d22d
00000200: 3cd7 f42d b6e0 9a2d 24bf 8d2f f7a9 732f
00000210: 351b 942e b3e6 102c d78b 7d2b 4d89 7c2e
00000220: d7de 772f cf0c 772e d575 212d cf2b 252d
00000230: 3dd2 422f 777b d92f 7128 862f 7068 832f
00000240: 828c bc2f 270f 0730 f485 a730 95b5 e130
00000250: 39fe 9a30 b90d ea30 9c78 1a35 de85 ec34
00000260: 361b 4134 44c7 d033 b7a9 3534 3c39 b534
00000270: 82bc 0134 b3be 1333 7a14 3533 c3af db33
00000280: 2590 2534 15cb 7333 efeb ae32 f061 7033
00000290: 5b64 b333 5780 3f34 55a7 da33 0b93 8433
000002a0: 3441 c233 3969 b233 5fdb 6f34 c463 1034
000002b0: 57fc 0b34 432e 0e34 c4f9 1034 cdea 3c33
000002c0: 74ca f433 d480 0e34 079d b533 e5ac 6733
000002d0: 3f55 9233 ad92 1534 d8d8 1234 a143 b133
000002e0: d4cc dc32 9c94 ad33 f429 2934 b4e9 3434
000002f0: 8d2f ad33 9369 0932 9a7d 0434 26a8 6634
00000300: 5a2e 5d34 c0f4 8733 2682 2a32 ba6d ba33
00000310: 3508 3934 36a2 1834 2fd2 5f33 47bd c632
00000320: 3ff4 832f 70ff 0630 699b 4d31 476c 4431
00000330: 7f34 1a30 05c4 512e 4730 bf2f 2954 5b31
00000340: 989a 6431 e62a b730 4dcc 2e2c eeed 392f
00000350: 0734 2731 e8f8 a331 7437 bf31 dd2a c229
00000360: d650 8b2f 88d1 1b31 e36d bd31 df4c 1532
00000370: bb21 aa28 9be9 772f 47f4 5131 b2fb 2132
00000380: 02b1 e431 394d d233 3dc4 c232 581b 3231
00000390: f824 5831 cdbf 3032 0b8e cf33 8531 6932
000003a0: 0aca b230 ef75 5030 2bdb 3132 c81f dc33
000003b0: 69bf a032 88c2 2031 9be5 a030 ad4e 3532
000003c0: 13ee e333 ce7a d632 ecaa df31 c377 c730
000003d0: 0b9d 8132 e4a7 b833 6f5f be32 c49c 1b32
000003e0: caf3 b431 5e82 b832
1.1217643e-08 1.1812578e-09 2.2884564e-10 6.367788e-10 1.3992418e-09 1.2107089e-09 1.7671095e-10 1.4893671e-10
5.748619e-10 8.6716934e-10 3.037103e-11 4.3589278e-11 4.5451736e-11 2.927692e-10 9.975134e-10 1.2102433e-10
2.8237686e-11 1.644413e-11 1.0974235e-12 6.3800537e-10 1.0085371e-10 2.9832647e-11 6.3230922e-12 8.975425e-12
4.3050224e-10 7.1284795e-08 1.374612e-07 8.802688e-08 3.9112027e-08 4.4175575e-08 1.2226818e-07 1.7883352e-07
1.17767435e-07 6.6526574e-08 9.800777e-08 1.5246572e-07 2.0511142e-07 1.9084942e-07 1.4549435e-07 1.5179236e-07
1.3095907e-07 1.8719693e-07 2.412206e-07 2.0873416e-07 1.3041718e-07 1.05312864e-07 1.4142076e-07 2.3701487e-07
2.3549991e-07 1.5142365e-07 0.047242004 0.02012811 0.010281363 0.016870106 0.029963354 0.030389588
0.0031302108 0.0003471847 0.0004900526 0.006578905 0.09688958 0.03597818 0.02714651 0.025310766
0.055149503 0.18831076 0.1341094 0.116263226 0.1402447 0.1803128 0.23312972 0.2511663
0.22675006 0.21941853 0.25102353 0.0944108 0.036359653 0.03448491 0.0225674 0.00880766
0.019412575 0.0023939656 0.004748786 0.0017144784 0.0064321067 0.0057248306 1.1647889e-05 8.810647e-05
0.0012495974 0.041646987 0.0021397641 0.00021725778 0.0007883709 0.020489454 0.13327985 0.0031266157
4.0041672e-05 0.004669588 0.067476295 0.23170969 1.6984701e-09 1.9903892e-09 9.025705e-10 3.217736e-10
4.2493048e-10 4.449729e-09 6.2327636e-09 3.1886294e-09 7.564163e-10 2.0467503e-09 7.54814e-09 7.2185284e-09
6.450547e-09 3.32106e-09 7.705637e-09 8.307837e-09 8.921382e-09 1.2487827e-08 1.17401875e-08 3.9246427e-08
2.4610571e-09 6.37821e-09 1.1408572e-08 2.5769987e-08 4.9946152e-08 2.6856328e-09 2.2526256e-10 2.3942306e-11
2.7835172e-11 1.7607565e-11 2.5783564e-10 2.2161105e-10 6.735094e-11 2.0591695e-12 9.0077723e-13 5.7420114e-11
2.2543688e-10 5.6172674e-11 9.177954e-12 9.388892e-12 1.7718889e-10 3.9559797e-10 2.4403193e-10 2.3902968e-10
3.4296838e-10 4.9134247e-10 1.2188921e-09 1.6422513e-09 1.1277229e-09 1.7029641e-09 5.754498e-07 4.4055827e-07
1.7984425e-07 9.722001e-08 1.691868e-07 3.375552e-07 1.208264e-07 3.4399545e-08 4.216097e-08 1.0229953e-07
1.5419262e-07 5.676255e-08 2.0363556e-08 5.5968428e-08 8.3535916e-08 1.7834951e-07 1.01818536e-07 6.173476e-08
9.045689e-08 8.307911e-08 2.2338416e-07 1.344734e-07 1.3037184e-07 1.324161e-07 1.3501909e-07 4.398571e-08
1.13989614e-07 1.3271648e-07 8.4570324e-08 5.3941125e-08 6.814161e-08 1.3930067e-07 1.3676197e-07 8.2545064e-08
2.5704516e-08 8.082972e-08 1.5754614e-07 1.6848827e-07 8.06459e-08 7.998454e-09 1.2339152e-07 2.1481591e-07
2.0599091e-07 6.330947e-08 9.924895e-09 8.681259e-08 1.7232453e-07 1.4215115e-07 5.2112394e-08 2.3136307e-08
2.4002308e-10 4.9111915e-10 2.9919767e-09 2.8583302e-09 5.6099475e-10 4.76952e-11 3.4777e-10 3.1916534e-09
3.3266243e-09 1.3327195e-09 2.4840297e-12 1.6910182e-10 2.4331273e-09 4.7722217e-09 5.565136e-09 8.622766e-14
2.534139e-10 2.2674573e-09 5.5131166e-09 8.69042e-09 1.888842e-14 2.2547512e-10 3.0552358e-09 9.428662e-09
6.655797e-09 9.792934e-08 2.2673811e-08 2.5917952e-09 3.1453151e-09 1.0288159e-08 9.665026e-08 1.3573644e-08
1.3008628e-09 7.5837553e-10 1.0352589e-08 1.0250329e-07 1.8713495e-08 2.3393643e-09 1.170679e-09 1.0553475e-08
1.0613817e-07 2.4968724e-08 6.5095858e-09 1.4513194e-09 1.5088991e-08 8.598707e-08 2.216231e-08 9.057832e-09
5.266405e-09 2.1479703e-08

exp_avg f4 [10]
00000000: 0400 0000 0400 0000 26e9 db3e 7443 dcbd
00000010: 0400 0000 0400 0000 0400 0000 0400 0000
00000020: 0400 0000 0400 0000
6e-45 6e-45 0.42951316 -0.10755053 6e-45 6e-45 6e-45 6e-45
6e-45 6e-45

exp_avg_sq f4 [10]
00000000: 75b7 6334 e060 5f35 7c76 2f3f 760b a53f
00000010: f91a 9533 f318 9534 2ec3 b535 f05e 2d35
00000020: aff7 6a32 d08b 0236
2.1207764e-07 8.3214945e-07 0.6854017 1.2894123 6.9432595e-08 2.7771566e-07 1.3542356e-06 6.4585674e-07
1.3676909e-08 1.9452891e-06

exp_avg f4 [20, 10, 5, 5]
00000000: 0400 0000 0400 0000 0400 0000 0400 0000
00000010: 0400 0000 0400 0000 0400 0000 0400 0000
00000020: 0400 0000 0400 0000 0400 0000 0400 0000
00000030: 0400 0000 0400 0000 0400 0000 0400 0000
00000040: 0400 0000 0400 0000 0400 0000 0400 0000
00000050: 0400 0000 0400 0000 0400 0000 0400 0000
00000060: 0400 0000 0400 0000 0400 0000 0400 0000
00000070: 0400 0000 0400 0000 0400 0000 0400 0000
00000080: 0400 0000 0400 0000 0400 0000 0400 0000
00000090: 0400 0000 0400 0000 0400 0000 0400 0000
000000a0: 0400 0000 0400 0000 0400 0000 0400 0000
000000b0: 0400 0000 0400 0000 0400 0000 0400 0000
000000c0: 0400 0000 0400 0000 0400 0000 0400 0000
000000d0: 0400 0000 0400 0000 0400 0000 0400 0000
000000e0: 0400 0000 0400 0000 0400 0000 0400 0000
000000f0: 0400 0000 0400 0000 0400 0000 0400 0000
00000100: 0400 0000 0400 0000 0400 0000 0400 0000
00000110: 0400 0000 0400 0000 0400 0000 0400 0000
00000120: 0400 0000 0400 0000 0400 0000 0400 0000
00000130: 0400 0000 0400 0000 0400 0000 0400 0000
00000140: 0400 0000 0400 0000 0400 0000 0400 0000
00000150: 0400 0000 0400 0000 0400 0000 0400 0000
00000160: 0400 0000 0400 0000 0400 0000 0400 0000
00000170: 0400 0000 0400 0000 0400 0000 0400 0000
00000180: 0400 0000 0400 0000 0400 0000 0400 0000
00000190: 0400 0000 0400 0000 0400 0000 0400 0000
000001a0: 0400 0000 0400 0000 0400 0080 0400 0000
000001b0: 0400 0000 0400 0000 0400 0000 0400 0000
000001c0: 0400 0000 0400 0000 0400 0080 0400 0000
000001d0: 0400 0080 0400 0000 0400 0000 0400 0000
000001e0: 0400 0080 0400 0080 0400 0000 0400 0000
000001f0: 0400 0000 0400 0080 0400 0000 0400 0000
00000200: 0400 0000 0400 0000 0400 0000 0400 0000
00000210: 0400 0000 0400 0000 0400 0000 0400 0000
00000220: 0400 0000 0400 0000 0400 0000 0400 0000
00000230: 0400 0000 0400 0000 0400 0000 0400 0000
00000240: 0400 0000 0400 0000 0400 0000 0400 0000
00000250: 0400 0000 0400 0000 0400 0080 0400 0000
00000260: 0400 0000 0400 0000 0400 0000 0400 0000
00000270: 0400 0000 0400 0000 0400 0000 0400 0000
00000280: 0400 0000 0400 0000 0400 0000 0400 0000
00000290: 0400 0000 0400 0000 0400 0000 0400 0080
000002a0: 0400 0000 0400 0000 0400 0000 0400 0000
000002b0: 0400 0000 0400 0000 0400 0000 0400 0000
000002c0: 0400 0000 0400 0000 0400 0000 0400 0000
000002d0: 0400 0000 0400 0000 0400 0000 0400 0000
000002e0: 0400 0000 0400 0000 0400 0000 0400 0000
000002f0: 0400 0000 0400 0000 0400 0000 0400 0000
00000300: 0400 0000 0400 0000 0400 0000 0400 0000
00000310: 0400 0000 0400 0000 0400 0000 0400 0000
00000320: 0400 0080 0400 0000 0400 0000 0400 0000
00000330: 0400 0080 0400 0000 0400 0000 0400 0000
00000340: 0400 0000 0400 0080 0400 0080 0400 0000
00000350: 0400 0000 0400 0000 0400 0080 0400 0000
00000360: 0400 0000 0400 0000 0400 0000 0400 0080
00000370: 0400 0000 0400 0080 0400 0080 0400 0000
00000380: 0400 0000 0400 0000 0400 0000 0400 0000
00000390: 0400 0000 0400 0000 0400 0000 0400 0000
000003a0: 0400 0000 0400 0000 0400 0000 0400 0000
000003b0: 0400 0000 0400 0000 0400 0000 0400 0000
000003c0: 0400 0000 0400 0000 0400 0000 0400 0000
000003d0: 0400 0000 0400 0000 0400 0000 0400 0000
000003e0: 0400 0000 0400 0000 0000 0000 0000 0000
000003f0: 0000 0000 0000 0000 0000 0000 0000 0000
6e-45 6e-45 6e-45 6e-45 6e-45 6e-45 6e-45 6e-45
6e-45 6e-45 6e-45 6e-45 6e-45 6e-45 6e-45 6e-45
6e-45 6e-45 6e-45 6e-45 6e-45 6e-45 6e-45 6e-45
6e-45 6e-45 6e-45 6e-45 6e-45 6e-45 6e-45 6e-45
6e-45 6e-45 6e-45 6e-45 6e-45 6e-45 6e-45 6e-45
6e-45 6e-45 6e-45 6e-45 6e-45 6e-45 6e-45 6e-45
6e-45 6e-45 6e-45 6e-45 6e-45 6e-45 6e-45 6e-45
6e-45 6e-45 6e-45 6e-45 6e-45 6e-45 6e-45 6e-45
6e-45 6e-45 6e-45 6e-45 6e-45 6e-45 6e-45 6e-45
6e-45 6e-45 6e-45 6e-45 6e-45 6e-45 6e-45 6e-45
6e-45 6e-45 6e-45 6e-45 6e-45 6e-45 6e-45 6e-45
6e-45 6e-45 6e-45 6e-45 6e-45 6e-45 6e-45 6e-45
6e-45 6e-45 6e-45 6e-45 6e-45 6e-45 6e-45 6e-45
6e-45 6e-45 -6e-45 6e-45 6e-45 6e-45 6e-45 6e-45
6e-45 6e-45 -6e-45 6e-45 -6e-45 6e-45 6e-45 6e-45
-6e-45 -6e-45 6e-45 6e-45 6e-45 -6e-45 6e-45 6e-45
6e-45 6e-45 6e-45 6e-45 6e-45 6e-45 6e-45 6e-45
6e-45 6e-45 6e-45 6e-45 6e-45 6e-45 6e-45 6e-45
6e-45 6e-45 6e-45 6e-45 6e-45 6e-45 -6e-45 6e-45
6e-45 6e-45 6e-45 6e-45 6e-45 6e-45 6e-45 6e-45
6e-45 6e-45 6e-45 6e-45 6e-45 6e-45 6e-45 -6e-45
6e-45 6e-45 6e-45 6e-45 6e-45 6e-45 6e-45 6e-45
6e-45 6e-45 6e-45 6e-45 6e-45 6e-45 6e-45 6e-45
6e-45 6e-45 6e-45 6e-45 6e-45 6e-45 6e-45 6e-45
6e-45 6e-45 6e-45 6e-45 6e-45 6e-45 6e-45 6e-45
-6e-45 6e-45 6e-45 6e-45 -6e-45 6e-45 6e-45 6e-45
6e-45 -6e-45 -6e-45 6e-45 6e-45 6e-45 -6e-45 6e-45
6e-45 6e-45 6e-45 -6e-45 6e-45 -6e-45 -6e-45 6e-45
6e-45 6e-45 6e-45 6e-45 6e-45 6e-45 6e-45 6e-45
6e-45 6e-45 6e-45 6e-45 6e-45 6e-45 6e-45 6e-45
6e-45 6e-45 6e-45 6e-45 6e-45 6e-45 6e-45 6e-45
6e-45 6e-45 0.0 0.0 0.0 0.0 0.0 0.0
