lightning_logs/version_29/checkpoints/epoch=2-step=138.ckpt (torch, 273538 bytes, 24 tensors)

conv1.weight f4 [10, 1, 5, 5]
-0.40793172 -0.5376428 -0.5585086 -0.3918784 -0.098122425 -0.53754985 -0.21592791 -0.445987
0.027380092 0.0012751743 0.123954594 0.14314006 0.0028163814 0.14220186 0.023986448 0.23126444
0.0915643 -0.14962508 0.04774596 0.2128197 0.33075538 -0.13668229 -0.049448475 -0.06830057
0.14657137 -0.09886876 -0.10875636 -0.24140581 -0.31838822 -0.021462524 0.18998909 -0.035543367
-0.089035474 -0.15241538 -0.017794259 -0.19892941 -0.16896552 -0.29216555 -0.096161895 -0.24036492
-0.07138872 -0.24944998 -0.0012181065 -0.2790206 -0.28354216 -0.29056856 0.0050978125 -0.1065544
0.015330213 -0.3313303 -0.37922373 -0.3232146 -0.107046664 -0.014048232 -0.021164726 0.049137972
-0.11081811 -0.060993128 0.011118769 -0.17737624 0.042682115 -0.09611937 0.054883003 -0.24935795
-0.17977723 0.09191068 -0.045090403 -0.250692 0.04510583 0.07146307 -0.13644373 -0.3239536
0.06925426 -0.1015726 -0.11113704 -0.40674695 -0.36993533 -0.049789805 -0.009846022 -0.5639318
-0.2418026 -0.36505985 -0.45293233 -0.4196748 -0.6953219 -0.58212316 -0.06507585 -0.31543246
-0.18668546 -0.15943074 -0.7257047 -0.25297308 -0.21084972 -0.28063962 -0.12773135 -0.41702917
-0.11314922 -0.23427348 -0.113224156 -0.10471586 -0.75378174 -0.6464602 -0.4705885 -0.4253326
-0.21587752 -0.43261683 -0.048978567 -0.32933673 -0.24362372 0.009028312 -0.036759283 0.35299155
0.009506382 -0.26258942 0.05065697 -0.1753745 0.18589832 -0.098367825 0.08344561 -0.17191322
-0.09265332 0.015261781 0.06769683 0.17904234 0.30599982 -0.19989401 0.0524133 -0.10186914
-0.11145217 -0.33889347 0.23704077 -0.11109313 0.06487973 -0.045654513 -0.26894167 -0.019849962
0.23909125 0.18355812 0.048856035 -0.40014336 -0.04597595 0.08028814 0.06747726 0.28536457
0.05576139 -0.52801996 -0.22915518 -0.07167796 0.18007012 0.058980167 -0.229061 -0.19076933
-0.3041811 -0.092983015 -0.007120669 -0.30454665 -0.109110735 -0.06733357 -0.13102393 -0.23037642
-0.0692927 -0.07157364 -0.096324034 -0.1950602 -0.22012785 -0.15359423 -0.20769222 -0.21879043
-0.03688008 -0.0085807415 -0.18796338 -0.2014396 -0.14324898 -0.17995913 -0.13386665 -0.07091851
-0.062762074 -0.05072337 0.41166574 0.41457942 -0.21232462 -0.14457321 -0.19241482 -0.20556635
-0.06783113 -0.2626261 -0.16861287 -0.17469104 -0.20624074 -0.4276546 -0.31741026 -0.2831082
-0.23576485 -0.19782011 -0.42946106 -0.1881131 -0.28411478 0.03990666 -0.24382468 -0.21549495
-0.3309753 -0.022084283 -0.021654299 -0.07289629 -0.23265003 -0.32407853 -0.32518855 -0.029671213
-0.03293709 0.09326916 -0.034088563 -0.08520465 -0.13817345 -0.27804106 -0.30912033 -0.33363843
-0.042787973 -0.22240628 -0.1690913 -0.27990127 -0.15990958 -0.25887808 -0.25430092 -0.06620489
-0.18674481 -0.53847015 -0.7339632 -0.26511183 0.15631095 0.10661576 -0.030187149 -0.4544871
0.17309763 -0.052623373 0.3034756 -0.1626184 -0.25453985 -0.18136932 0.25043273 0.11542969
-0.35606262 -0.09115293 0.018047536 0.07079443 0.0410375 -0.63433135 0.112616524 -0.117646925
0.14475016 0.14215513
00000000: 6ddc d0be f5a2 09bf 6bfa 0ebf 49a4 c8be
00000010: 69f4 c8bd de9c 09bf 351c 5dbe 6858 e4be
00000020: 374c e03c c023 a73a e8db fd3d 4f93 123e
00000030: 0a93 383b 5d9d 113e 3a7f c43c 96d0 6c3e
00000040: 1086 bb3d 5137 19be 4591 433d 68ed 593e
00000050: c558 a93e 71f6 0bbe 7c8a 4abd 2be1 8bbd
00000060: ce16 163e b47b cabd a8bb debd 1633 77be
00000070: c803 a3be 2dd2 afbc 808c 423e ec95 11bd
00000080: 3b58 b6bd c712 1cbe 44c5 91bc 27b4 4bbe
00000090: 4c05 2dbe b996 95be 87f0 c4bd 3922 76be
000000a0: 4034 92bd d16f 7fbe dfa8 9fba cadb 8ebe
000000b0: 702c 91be 67c5 94be 8d0b a73b 3139 dabd
000000c0: 932b 7b3c 20a4 a9be 9d29 c2be 627c a5be
000000d0: 483b dbbd 8e2a 66bc a661 adbc e644 493d
000000e0: 9bf4 e2bd eed3 79bd 7f2b 363c 1ea2 35be
000000f0: 71d3 2e3d 3bda c4bd 00cd 603d b157 7fbe
00000100: 8617 38be ab3b bc3d b7b0 38bd b45a 80be
00000110: e4c0 383d 3b5b 923d e8b7 0bbe 3fdd a5be
00000120: 2dd5 8d3d 4c05 d0bd d19b e3bd 2341 d0be
00000130: 2a68 bdbe 65f0 4bbd 3651 21bc d65d 10bf
00000140: 1a9b 77be 20e9 babe bfe6 e7be 9edf d6be
00000150: 9e00 32bf 0606 15bf 7d46 85bd 5d80 a1be
00000160: 792a 3fbe d041 23be c9c7 39bf b085 81be
00000170: fde8 57be ffaf 8fbe 02cc 02be d984 d5be
00000180: c7ba e7bd 63e5 6fbe 11e2 e7bd 4575 d6bd
00000190: d7f7 40bf 6a7e 25bf faf0 f0be 32c5 d9be
000001a0: ff0e 5dbe f47f ddbe c09d 48bd d39e a8be
000001b0: 7f78 79be 7ceb 133c e790 16bd 4fbb b43e
000001c0: a8c0 1b3c 1f72 86be af7d 4f3d 5f95 33be
000001d0: 215c 3e3e 1275 c9bd 88e5 aa3d 050a 30be
000001e0: 06c1 bdbd 8d0c 7a3c a3a4 8a3d e056 373e
000001f0: 02ac 9c3e 04b1 4cbe 54af 563d c5a0 d0bd
00000200: 0941 e4bd 7283 adbe d1ba 723e cc84 e3bd
00000210: aadf 843d 3a00 3bbd b9b2 89be 639c a2bc
00000220: 56d4 743e a9f6 3b3e 441d 483d 97df ccbe
00000230: 4751 3cbd 1c6e a43d 8531 8a3d 4e1b 923e
00000240: 0e66 643d 512c 07bf a8a7 6abe e5cb 92bd
00000250: 4d64 383e 3095 713d f78e 6abe 0959 43be
00000260: a0bd 9bbe e16d bebd 8054 e9bb 8aed 9bbe
00000270: 7375 dfbd 2fe6 89bd 232b 06be cce7 6bbe
00000280: 55e9 8dbd 3395 92bd 8945 c5bd dcbd 47be
00000290: 3269 61be ce47 1dbe 45ad 54be 990a 60be
000002a0: 910f 17bd 3d96 0cbc 7979 40be 2f46 4ebe
000002b0: dcaf 12be 3547 38be 5714 09be b93d 91bd
000002c0: 6789 80bd 4fc3 4fbd dac5 d23e c143 d43e
000002d0: a06b 59be 000b 14be 6408 45be fc7f 52be
000002e0: 0ceb 8abd ee76 86be daa8 2cbe 35e2 32be
000002f0: c630 53be 8bf5 dabe 9983 a2be 8ff3 90be
00000300: 576c 71be 5b91 4abe 52e2 dbbe b8a0 40be
00000310: 7e77 91be 2a75 233d 2dad 79be b5aa 5cbe
00000320: 9875 a9be 19ea b4bc 5b64 b1bc a64a 95bd
00000330: cf3b 6ebe 9fed a5be 1d7f a6be 0b11 f3bc
00000340: 0be9 06bd e703 bf3d 73a0 0bbd c77f aebd
00000350: 577d 0dbe 665b 8ebe 0545 9ebe a8d2 aabe
00000360: 7142 2fbd 79be 63be 4526 2dbe 384f 8fbe
00000370: 56bf 23be ab8b 84be bb33 82be 6e96 87bd
00000380: 083a 3fbe 2ed9 09bf 03e5 3bbf bdbc 87be
00000390: fa0f 203e 5d59 da3d 0a4b f7bc 88b2 e8be
000003a0: 8140 313e 9b8b 57bd 2761 9b3e 7085 26be
000003b0: 0c53 82be e1b8 39be b838 803e 6766 ec3d
000003c0: d74d b6be 63ae babd 6dd8 933c acfc 903d
000003d0: f016 283d 8a63 22bf 7ea3 e63d dff0 f0bd
000003e0: 6339 143e 1d91 113e

conv1.bias f4 [10]
-0.061040513 -0.23887841 -0.26676047 0.19543661 0.111423686 -0.30079147 -0.22426204 -0.08760431
-0.16628373 -0.2497807
00000000: 9e05 7abd 8b9c 74be d494 88be 8920 483e
00000010: 1a32 e43d 5701 9abe f3a4 65be e369 b3bd
00000020: 4846 2abe 83c6 7fbe

conv2.weight f4 [20, 10, 5, 5]
-0.12844153 -0.122664 -0.0601025 0.05189345 0.053020716 -0.11250911 -0.10976837 -0.025811769
-0.057114705 -0.061547052 -0.079072915 -0.13730305 -0.14323892 -0.10744848 -0.021061473 -0.12305082
-0.100572705 -0.11601319 -0.1243711 -0.13286804 -0.15404609 -0.049573753 -0.12790513 -0.08584745
-0.12454444 0.0051394105 0.058963858 0.029138662 -0.054808572 0.025102332 0.060035385 0.016638853
0.04240138 0.062353 -0.009691052 0.013126895 -0.043957878 -0.013033461 0.046838626 0.032422565
-0.04002109 -0.05071566 -0.04321971 -0.062415622 -0.048802733 -0.01564046 0.042682976 0.01058618
-0.048104912 -0.050737094 0.031463094 -0.04704465 -0.007787265 0.03033927 -0.029270805 -0.006896287
-0.0055051744 -0.014962845 -0.03206753 -0.05637951 -0.051124983 -0.033865567 0.06108494 -0.030548532
-0.042471156 0.015330352 0.017431125 0.03465285 0.04807423 0.03521981 -0.06270803 0.005609162
0.038311183 -0.0058454983 -0.037269287 0.0602945 -0.023655597 -0.036008507 -0.057019345 0.002825074
0.0280262 0.014000215 0.01250679 -0.047964633 -0.059064213 0.0011137128 -0.04472264 0.036487706
-0.036823727 -0.008209813 -0.04662358 -0.030511133 0.011453666 0.03443964 0.052390672 -0.058066122
0.04228694 -0.04460659 0.023683384 0.053521246 -0.10155548 0.05754137 -0.053888466 -0.024157219
0.036888152 -0.11630461 -0.11549395 -0.026360217 0.043595545 0.031022146 -0.082242444 -0.13813075
-0.15386328 0.006840676 0.018738315 -0.02920122 -0.12028087 -0.059888367 -0.09756373 0.002853535
-0.015564766 -0.05727452 -0.0594671 -0.030232325 -0.03214907 0.01970438 -0.018411461 -0.1273403
-0.042309944 -0.08057741 0.045087896 -0.030617975 -0.025833707 -0.07936413 -0.14475207 -0.04134387
-0.003054738 -0.023132734 -0.04741253 -0.0650976 -0.051748373 -0.09233357 -0.11351221 -0.058582645
-0.02303648 0.016101405 -0.07275371 -0.11057986 -0.1273238 -0.06698888 -0.050368737 0.039972328
-0.024536416 0.0009680018 -0.012498323 0.0076678246 -0.019112706 0.045987546 -0.0016442053 0.04936944
0.060809366 -0.030812662 -0.046138205 0.05074203 0.049560092 -0.048290968 -0.0048890896 -0.0623681
-0.05177275 0.012215406 0.016825505 0.013406858 -0.017213207 0.05834894 0.0090427175 -0.037320238
-0.0035805702 0.015188113 0.022148125 -0.04471972 -0.078877464 -0.13476653 -0.05255328 -0.03454519
0.060994603 0.05406595 0.05663541 -0.04263135 0.047778822 -0.008465402 -0.034799464 0.031601056
-0.032772753 -0.04268226 -0.020196456 0.013272665 0.032558598 -0.024565142 -0.0372242 0.008531384
-0.037279025 -0.041176736 0.032966867 -0.010624278 0.057792835 0.061524168 0.018917091 0.02176644
0.014564425 0.0009904802 -0.0046000034 0.0008692518 0.023617454 0.058803864 -0.016390659 -0.026734892
-0.015315849 -0.03055546 0.01075419 0.04720954 0.04945659 0.029037647 -0.046544395 -0.03394419
-0.013895769 -0.11424988 0.0052018017 -0.058057614 0.019684844 -0.048248265 -0.040018283 -0.052581243
-0.047382385 -0.05988973 0.047710337 -0.104683205 -0.007355381 -0.06283167 -0.10832272 0.039664708
0.045727476 -0.05491042 0.024335876 0.011939429 0.0135985315 -0.09331259 0.017299615 -0.030425336
-0.110579036 -0.042440996 0.10741463 0.01877031 -0.30113545 0.041978672 0.14508651 0.24012828
00000000: 2d86 03be 4337 fbbd 0a2e 76bd 3a8e 543d
00000010: 402c 593d 2d6b e6bd 3dce e0bd 3473 d3bc
00000020: 1cf1 69bd c318 7cbd fbf0 a1bd 2c99 0cbe
00000030: 39ad 12be f30d dcbd 1c89 acbc 1102 fcbd
00000040: 10f9 cdbd 5398 edbd 46b6 febd 8f0e 08be
00000050: 42be 1dbe d90d 4bbd 90f9 02be cad0 afbd
00000060: 2811 ffbd 8068 a83b 1684 713d 34b4 ee3c
00000070: f47e 60bd 68a3 cd3c aae7 753d 344e 883c
00000080: 12ad 2d3d dc65 7f3d 38c7 1ebc 3012 573c
00000090: 2d0d 34bd 4c8a 55bc dcd9 3f3d 86cd 043d
000000a0: 28ed 23bd 39bb 4fbd 2707 31bd 86a7 7fbd
000000b0: 60e5 47bd 6c20 80bc 58d4 2e3d a871 2d3c
000000c0: a809 45bd b3d1 4fbd 72df 003d e4b1 40bd
000000d0: 502c ffbb 108a f83c 54c9 efbc 40fa e1bb
000000e0: c064 b4bb b826 75bc 3e59 03bd 33ee 66bd
000000f0: 6e68 51bd 9fb6 0abd 3434 7a3d ea40 fabc
00000100: 3cf6 2dbd 282c 7b3c b8cb 8e3c 26f0 0d3d
00000110: 7ce9 443d a642 103d 116d 80bd 10cd b73b
00000120: 30ec 1c3d 988b bfbb aea7 18bd 5ef7 763d
00000130: 62c9 c1bc a87d 13bd 1e8d 69bd e024 393b
00000140: 3497 e53c 2861 653c 48e9 4c3c 9076 44bd
00000150: 51ed 71bd 00fa 913a 162f 37bd 2274 153d
00000160: 7ad4 16bd 7482 06bc 5ef8 3ebd 7cf2 f9bc
00000170: 28a8 3b3c 9410 0d3d 9a97 563d bed6 6dbd
00000180: 1235 2d3d 66b5 36bd a803 c23c 1839 5b3d
00000190: 52fc cfbd 80b0 6b3d 27ba 5cbd 5ce5 c5bc
000001a0: 0818 173d 1d31 eebd 1888 ecbd 62f1 d7bc
000001b0: 3e91 323d 2822 fe3c ba6e a8bd 2672 0dbe
000001c0: 568e 1dbe c027 e03b 1881 993c 6637 efbc
000001d0: d155 f6bd 814d 75bd 7ecf c7bd 6002 3b3b
000001e0: 5c03 7fbc b098 6abd c693 73bd c8a9 f7bc
000001f0: beae 03bd 146b a13c a2d3 96bc 7f65 02be
00000200: 314d 2dbd c505 a5bd 16ae 383d 8cd2 fabc
00000210: 36a1 d3bc a989 a2bd e339 14be 3158 29bd
00000220: 0032 48bb dc80 bdbc a433 42bd e451 85bd
00000230: 1af6 53bd 6219 bdbd 1779 e8bd 5bf4 6fbd
00000240: 00b7 bcbc 18e7 833c e6ff 94bd b277 e2bd
00000250: 2c61 02be 7731 89bd 734f 4ebd 06ba 233d
00000260: 9800 c9bc 80c1 7d3a c4c5 4cbc 6042 fb3b
00000270: 4092 9cbc 705d 3c3d 6082 d7ba 9c37 4a3d
00000280: 3e13 793d d66a fcbc 6afb 3cbd e0d6 4f3d
00000290: 86ff 4a3d c0cc 45bd a834 a0bb b175 7fbd
000002a0: aa0f 54bd 2023 483c a4d5 893c 70a8 5b3c
000002b0: b602 8dbc 4cff 6e3d e827 143c 1bdd 18bd
000002c0: 00a8 6abb 90d7 783c fc6f b53c 062c 37bd
000002d0: 828a a1bd 3d00 0abe 1c42 57bd 427f 0dbd
000002e0: 7ad5 793d 4274 5d3d 88fa 673d 369e 2ebd
000002f0: bab3 433d 78b2 0abc e289 0ebd 1c70 013d
00000300: b93c 06bd 98d3 2ebd 0a73 a5bc 9875 593c
00000310: 2a5c 053d d63c c9bc 6778 18bd 38c7 0b3c
00000320: e4b1 18bd f0a8 28bd 4408 073d 7411 2ebc
00000330: 2eb8 6c3d c400 7c3d 04f8 9a3c 884f b23c
00000340: a09f 6e3c 00d3 813a a0bb 96bb 80de 633a
00000350: 6479 c13c 52dc 703d b445 86bc 2203 dbbc
00000360: 54ef 7abc 724f fabc 5832 303c ca5e 413d
00000370: fe92 4a3d 5ce0 ed3c 56a5 3ebd 1009 0bbd
00000380: 14ab 63bc d7fb e9bd e073 aa3b d2cd 6dbd
00000390: 1c42 a13c f99f 45bd 36ea 23bd 6e5f 57bd
000003a0: 0814 42bd ef4e 75bd ea6b 433d 2664 d6bd
000003b0: 6805 f1bb e4ad 80bd 4dd8 ddbd 7677 223d
000003c0: bc4c 3b3d c0e9 60bd 085c c73c 989d 433c
000003d0: 60cc 5e3c ac1a bfbd ecb7 8d3c 8e3e f9bc
000003e0: 4377 e2bd 9cd6 2dbd 34fc db3d 31c4 993c
000003f0: 6d2e 9abe d4f1 2b3d 8f91 143e 30e4 753e

conv2.bias f4 [20]
-0.1472793 0.0654406 -0.073267356 -0.01381587 -0.10204315 -0.17431466 -0.21724236 -0.10718695
0.24426031 -0.08056608 -0.080820605 -0.3343765 0.09707904 -0.12962589 -0.16171262 -0.13146284
-0.14440092 -0.13121781 -0.01147752 -0.16122377
00000000: 63d0 16be b905 863d 320d 96bd f55b 62bc
00000010: 00fc d0bd 8b7f 32be c874 5ebe d584 dbbd
00000020: 601f 7a3e d4ff a4bd 4685 a5bd 6633 abbe
00000030: 60d1 c63d a6bc 04be fe97 25be 329e 06be
00000040: d6dd 13be f65d 06be 350c 3cbc d817 25be

fc1.weight f4 [50, 320]
0.019251898 0.026564576 -0.010857772 0.043928713 -0.00030041486 0.013627484 0.013990462 -0.019033857
-0.002453979 -0.006243244 0.021140762 -0.030032996 -0.025661318 -0.05395938 -0.02431833 0.017818399
0.021378962 -0.1991216 -0.2079137 -0.24316017 -0.33094758 0.060619958 0.026350405 -0.0069663194
-0.017997868 -0.23647581 0.2817052 0.034224093 -0.27202958 -0.11725326 0.5837468 0.18884987
0.008239522 0.07382511 0.19082463 -0.108891174 -0.46284795 -0.36599168 0.236515 0.40415227
-0.34471142 0.03586941 0.22684772 0.20675394 0.12669572 -0.12859033 -0.33183563 -0.5370435
-0.15886965 0.14445488 0.16163991 -0.090233006 -0.11483901 -0.15409566 -0.16920938 -0.15205002
-0.11969105 -0.18824059 -0.07729422 -0.1604241 -0.090870336 -0.07275285 -0.17060448 -0.14988711
0.104493596 0.13083433 0.17017935 -0.10869712 0.15792747 -0.0748749 0.16392258 0.06912296
-0.15662669 -0.12373962 0.119904235 -0.11537731 0.16705841 0.17073652 0.103750326 0.09426214
-0.11555314 0.12717177 0.15456334 -0.100244865 -0.102683224 0.13846032 -0.078485705 0.1533979
0.11460914 0.08108553 0.15779364 0.115545325 0.08004906 0.11079044 0.16124097 -0.1458016
-0.005390223 0.01885856 0.04019764 -0.008366503 -0.040153585 -0.02336865 -0.018044703 0.006098315
-0.037956916 -0.07082504 0.01473777 -0.040269922 -0.08951802 -0.11721351 0.18438624 -0.0011233501
-0.12084607 -0.17406078 -0.16628325 -0.11991316 0.16743454 -0.15466009 -0.10916135 -0.15863203
-0.16342703 -0.14066057 -0.15753286 -0.16635777 -0.13725972 0.11245844 -0.09226924 -0.094384275
-0.15769908 0.13445337 -0.08934855 -0.50124884 -0.29748273 -0.43271512 -0.26921564 0.03381307
-0.30995896 0.2653549 0.17249185 0.12294523 0.29364017 0.17054728 0.057601336 0.3540443
-0.07657741 -0.06460742 -0.114831224 -0.14688212 -0.08443444 -0.087164156 -0.12813078 -0.06651313
-0.1614173 -0.12633796 -0.05145216 -0.14400443 -0.13735266 -0.14332645 -0.14534897 -0.07022948
-0.23587161 -0.45960578 -0.4477874 -0.44818527 0.05683194 0.18942675 -0.2711624 -0.27032578
-0.113845035 -0.09575356 -0.13274537 0.064229496 0.109044515 -0.054668806 -0.352642 0.17408755
-0.10733317 -0.056549907 -0.051522933 -0.09097675 -0.30306694 -0.22501871 -0.17281406 -0.30747458
-0.29140317 0.12419863 -0.3677668 -0.4823675 -0.21775596 -0.08885425 -0.122478426 -0.118734024
-0.1349733 0.35055408 -0.048559807 0.07772028 -0.17147928 -0.007348107 -0.3552003 -0.22907974
-0.52533907 -0.21536301 -0.03844068 0.14233765 -0.320807 -0.10379887 -0.03767302 -0.0607379
-0.14056839 -0.07134599 -0.07805461 -0.11775959 -0.15625876 -0.10446284 -0.07270094 -0.10169179
-0.09667634 -0.14969815 -0.17517737 -0.14112815 -0.11832225 -0.07044072 -0.10843539 -0.13035391
-0.13411468 -0.13078646 0.09004457 0.09670012 0.010385357 0.15794198 -0.072612435 -0.09857922
-0.15871182 -0.068419605 0.17407723 0.10349288 -0.11811054 0.050602093 0.1004445 -0.09360224
-0.11081093 -0.088948056 -0.10063073 -0.064646155 -0.07273285 -0.15825072 -0.08646723 -0.13116905
-0.14935789 -0.11073085 -0.12771817 -0.1565385 -0.16945155 -0.15126333 -0.11435362 -0.086039804
00000000: 28b6 9d3c f49d d93c cce4 31bc 98ee 333d
00000010: 0081 9db9 d045 5f3c 4038 653c e4ec 9bbc
00000020: f0d2 20bb 2094 ccbb 642f ad3c c207 f6bc
00000030: af37 d2bc 8304 5dbd 3c37 c7bc e4f7 913c
00000040: ef22 af3c 88e6 4bbe 54e7 54be fbfe 78be
00000050: f671 a9be a24c 783d cedc d73c b945 e4bb
00000060: 4470 93bc b726 72be aa3b 903e 902e 0c3d
00000070: 7647 8bbe 7a22 f0bd 6e70 153f dc61 413e
00000080: 0fff 063c 9f31 973d 8867 433e 5602 dfbd
00000090: 68fa ecbe 4363 bbbe fd30 723e 0ced ce3e
000000a0: 047e b0be cdeb 123d c54a 683e 4eb7 533e
000000b0: 86bc 013e 2fad 03be 5ce6 a9be af7b 09bf
000000c0: baae 22be fbeb 133e ef84 253e 15cc b8bd
000000d0: b730 ebbd 41cb 1dbe 3945 2dbe 00b3 1bbe
000000e0: 9520 f5bd 24c2 40be 6f4c 9ebd 3746 24be
000000f0: 3a1a babd 72ff 94bd f1b2 2ebe 027c 19be
00000100: bd00 d63d 6ff9 053e 7f43 2e3e 989c debd
00000110: bdb7 213e 0358 99bd 52db 273e 5790 8d3d
00000120: bf62 20be 336b fdbd 5a90 f53d f04a ecbd
00000130: 5c11 2b3e 8ed5 2e3e 0d7b d43d 820c c13d
00000140: 20a7 ecbd 5139 023e da45 1e3e 2e4d cdbd
00000150: 954b d2bd 8bc8 0d3e 1dbd a0bd 5714 1d3e
00000160: 32b8 ea3d 2c10 a63d a894 213e 07a3 ec3d
00000170: c3f0 a33d 19e6 e23d 5a1c 253e 044d 15be
00000180: 78a0 b0bb 447d 9a3c 48a6 243d a813 09bc
00000190: 1678 24bd 9c6f bfbc 7cd2 93bc 60d4 c73b
000001a0: b678 1bbd b80c 91bd b076 713c 13f2 24bd
000001b0: 3955 b7bd a30d f0bd bfcf 3c3e 603d 93ba
000001c0: 257e f7bd fd3c 32be 2846 2abe 0895 f5bd
000001d0: f673 2b3e 375f 1ebe fc8f dfbd 6f70 22be
000001e0: 6a59 27be 5309 10be 4b50 21be b159 2abe
000001f0: d08d 0cbe 9c50 e63d a8f7 bcbd 8b4c c1bd
00000200: de7b 21be 25ae 093e 5ffc b6bd d851 00bf
00000210: a84f 98be d68c ddbe a2d6 89be 937f 0a3d
00000220: f1b2 9ebe 99dc 873e b4a1 303e b5ca fb3d
00000230: 0158 963e f2a3 2e3e 61ef 6b3d 4b45 b53e
00000240: 9ed4 9cbd e550 84bd a22c ebbd 4468 16be
00000250: f7eb acbd 1f83 b2bd b734 03be 0938 88bd
00000260: 944a 25be bd5e 01be 80bf 52bd e675 13be
00000270: 2da6 0cbe 2bc4 12be 5cd6 14be 79d4 8fbd
00000280: 5488 71be 7351 ebbe 6444 e5be 8a78 e5be
00000290: 9cc8 683d 16f9 413e ccd5 8abe 2468 8abe
000002a0: 9627 e9bd 711a c4bd 67ee 07be c18a 833d
000002b0: bb52 df3d 66ec 5fbd 7e8d b4be 0244 323e
000002c0: 7ed1 dbbd e0a0 67bd b609 53bd 0552 babd
000002d0: 972b 9bbe 4e6b 66be 2bf6 30be 4f6d 9dbe
000002e0: cc32 95be da5b fe3d ee4b bcbe dff8 f6be
000002f0: 6bfb 5ebe 38f9 b5bd f8d5 fabd d32a f3bd
00000300: 7136 0abe d37b b33e a6e6 46bd cf2b 9f3d
00000310: 4498 2fbe 64c8 f0bb d0dc b5be e193 6abe
00000320: 9f7c 06bf 1f88 5cbe f973 1dbd f6c0 113e
00000330: d140 a4be 8194 d4bd 064f 1abd 4ec8 78bd
00000340: 29f1 0fbe d91d 92bd 18db 9fbd f12b f1bd
00000350: 4c02 20be 9df0 d5bd 3be4 94bd c943 d0bd
00000360: 3ffe c5bd 794a 19be b261 33be e683 10be
00000370: f052 f2bd 3943 90bd 6013 debd 7f7b 05be
00000380: 5c55 09be e3ec 05be 4a69 b83d b60a c63d
00000390: 5827 2a3c 8bbb 213e d4b5 94bd e7e3 c9bd
000003a0: 5a85 22be 941f 8cbd 4d41 323e 13f4 d33d
000003b0: f0e3 f1bd 2444 4f3d d9b5 cd3d 88b2 bfbd
000003c0: d7f0 e2bd 662a b6bd 7c17 cebd 3465 84bd
000003d0: f6f4 94bd 7a0c 22be bb15 b1bd 2e51 06be
000003e0: 46f1 18be dbc6 e2bd 8dc8 02be a14b 20be
000003f0: b584 2dbe c6e4 1abe 3b32 eabd a335 b0bd

fc1.bias f4 [50]
-0.2746334 -0.36400887 0.17738974 -0.22629625 0.07468248 -0.035512503 -0.13347107 -0.065222844
-0.043720845 -0.11354907 -0.23304757 0.116805196 -0.10174486 0.049839217 0.14790982 -0.22114404
-0.032700658 0.01056121 -0.115297675 -0.095982306 0.51485586 -0.2830796 -0.10701807 -0.38070497
0.42703605 -0.2713459 -0.10539686 -0.16691954 0.19020635 -0.20956975 -0.07117921 0.2231596
0.055762935 -0.09388832 -0.1255261 -0.056091312 0.08624399 -0.048283067 -0.03459952 -0.17310643
-0.11613668 -0.270752 -0.28843904 -0.2030694 0.35695976 0.17983094 -0.020799838 -0.037663117
-0.1136316 0.08572253
00000000: c09c 8cbe 5f5f babe a8a5 353e 34ba 67be
00000010: 21f3 983d 8f75 11bd a4ac 08be 8e93 85bd
00000020: a114 33bd 6a8c e8bd 06a4 6ebe 9037 ef3d
00000030: 9c5f d0bd 3524 4c3d ac75 173e 9573 62be
00000040: 20f1 05bd ed08 2d3c 3021 ecbd 5f92 c4bd
00000050: 98cd 033f cfef 90be 4a2c dbbd c3eb c2be
00000060: 78a4 da3e daed 8abe 4fda d7bd f5ec 2abe
00000070: 74c5 423e 7499 56be 68c6 91bd f383 643e
00000080: ad67 643d 8548 c0bd ea89 00be 01c0 65bd
00000090: b0a0 b03d 77c4 45bd 3ab8 0dbd d042 31be
000000a0: 11d9 edbd 02a0 8abe 48ae 93be 6df1 4fbe
000000b0: 6ec3 b63e 9a25 383e 6c64 aabc a444 1abd
000000c0: afb7 e8bd 4b8f af3d

fc2.weight f4 [10, 50]
-0.335714 -0.193921 -0.52962637 -0.23389071 -0.41003332 -0.3099248 0.29221272 0.2719608
-0.61937106 -0.42391905 -0.12031877 -0.6683301 -0.17577277 0.36385238 -0.22355577 0.047880482
-0.2996277 -0.311297 0.18929152 0.04663548 -0.5774801 -0.07919667 0.073168725 -0.10840246
-0.47906494 0.2551625 -0.38963962 0.3359648 -0.26793143 0.080297045 -0.1839872 -0.19067922
-0.35736412 -0.24512523 0.16284747 0.18178368 0.37995675 0.04356562 0.006282262 -0.07943171
-0.19444647 0.061194286 0.034022935 -0.17550603 -0.32901672 -0.5218636 -0.36915034 -0.08345782
0.28421146 -0.08749826 0.11664625 -0.2612143 0.12017123 -0.15437445 -0.6363535 -0.11506578
-0.15185906 -0.53007555 -0.61810994 -0.635939 0.14211729 -0.51936066 -0.19192721 -0.24658556
0.2995 -0.04350976 0.12535052 -0.21847416 -0.4528988 -0.3986878 0.3635202 0.1437415
-0.199758 -0.24595138 0.23591739 -0.805016 -0.20354702 -0.4373947 0.3431926 -0.57608855
-0.4179386 -0.23263036 0.32665652 -0.46939692 -0.28115633 -0.61790633 -0.44276136 -1.2708629
0.021610081 0.39825898 -0.21643384 -0.3249011 -0.2099965 -0.3509331 0.35161704 0.16792352
-0.83096707 -0.25261614 -0.41103402 -0.011058824 0.24415177 0.036368076 0.13823147 -0.0934849
-0.2100188 0.08314356 0.09496191 0.22647628 -0.65324545 -0.03820023 -0.041572094 -1.1763082
0.049090873 0.12058461 -0.3222477 -0.080949515 -0.0757595 -0.06582768 -0.44406322 -0.12847522
-0.5943622 -0.056665547 0.17505524 0.4795813 0.30070114 0.13897541 -0.34917754 0.103011906
0.016116906 0.0072619314 -0.05144506 -0.12886547 0.22747245 0.073411316 0.31514218 -0.33343354
-0.27155873 -0.57827014 0.014989341 -0.010503786 -0.1625333 0.17564677 -0.12540661 0.33866552
0.1732804 0.201213 -0.04773853 -0.05489712 -0.089557044 0.007931679 0.008214092 -0.10423874
0.19940703 0.2082401 -0.31658372 -0.1531257 -0.214301 0.32207778 0.16482036 0.14305992
-0.027989075 -0.574579 0.008608646 -0.07494182 -0.300662 -0.17623706 -0.31547856 -0.5466218
-0.1648347 -0.34933206 -0.248984 0.06723488 -0.29102987 0.14000006 0.28975505 -0.050346874
0.024710655 -0.03881472 0.036742467 -0.14089027 -0.122442104 0.33882916 0.20748599 -0.03347537
-0.07415652 0.12630598 -0.23059757 -0.1828014 -0.20057625 -0.11570419 -0.39383754 0.08501118
-0.05218574 -0.1743945 -0.24900404 0.08196976 -0.08525417 0.25193644 -0.42647988 0.24177592
-0.61095285 -0.22451715 -0.48136947 0.30085173 0.2642907 0.28372365 -0.7158019 -0.20546049
0.1645064 0.17135708 -0.15445538 -0.060129978 0.22528052 -0.50120294 0.35824448 -0.19928327
0.039068684 0.39784545 -0.2858765 -0.010572299 -0.15752685 0.04279471 -0.16183427 0.10572719
-0.12116011 -0.13668783 0.08379613 -0.15492849 -0.32238424 -0.51155955 -0.3931721 -0.007924357
-0.2555374 0.19829822 -0.28551033 -0.46040753 -0.5599798 -0.07582324 -0.15248711 0.015651742
0.17631938 0.086656995 0.09158748 0.27251244 0.06810345 -0.48497832 0.18146373 -0.048667096
-0.33311027 -0.19775207 -0.28499353 -0.35585663 -0.37880918 -0.034400366 0.010447457 -0.04625152
00000000: b5e2 abbe 3a93 46be 9895 07bf 0c81 6fbe
00000010: e3ef d1be 77ae 9ebe e89c 953e 723e 8b3e
00000020: 1a8f 1ebf eb0b d9be b069 f6bd ae17 2bbf
00000030: c7fd 33be dc4a ba3e ceeb 64be 531e 443d
00000040: cd68 99be 5262 9fbe a3d5 413e d804 3f3d
00000050: bcd5 13bf dd31 a2bd 7cd9 953d 1c02 debd
00000060: 0048 f5be a9a4 823e d87e c7be 9403 ac3e
00000070: 4f2e 89be c772 a43d 2467 3cbe 6a41 43be
00000080: 6ef8 b6be 1c02 7bbe 7dc1 263e 8025 3a3e
00000090: b189 c23e dd71 323d 6fdb cd3b 18ad a2bd
000000a0: fa1c 47be dca6 7a3d a25b 0b3d dab7 33be
000000b0: e174 a8be da98 05bf 4601 bdbe efeb aabd
000000c0: 2a84 913e 4a32 b3bd 3be4 ee3d e1bd 85be
000000d0: 551c f63d 5614 1ebe 10e8 22bf 9ca7 ebbd
000000e0: f180 1bbe 08b3 07bf 743c 1ebf e6cc 22bf
000000f0: 3287 113e d2f4 04bf 9188 44be ed80 7cbe
00000100: 1058 993e 4a37 32bd e35b 003e b1b7 5fbe
00000110: 5ae2 e7be cf20 ccbe 521f ba3e f930 133e
00000120: 5c8d 4cbe aeda 7bbe 5494 713e 8715 4ebf
00000130: a16e 50be 33f2 dfbe f1b6 af3e 8a7a 13bf
00000140: 0cfc d5be a736 6ebe 863f a73e cb54 f0be
00000150: b9f3 8fbe 1c2f 1ebf 9eb1 e2be a3ab a2bf
00000160: a007 b13c 9ae8 cb3e d5a0 5dbe 7059 a6be
00000170: 5309 57be 81ad b3be 2607 b43e 25f4 2b3e
00000180: 42ba 54bf e756 81be 0d73 d2be 1230 35bc
00000190: ec02 7a3e b1f6 143d 8d8c 0d3e 0375 bfbd
000001a0: 2b0f 57be 2c47 aa3d 647b c23d 66e9 673e
000001b0: 183b 27bf d877 1cbd 8047 2abd 4491 96bf
000001c0: 8313 493d 10f5 f63d a7fd a4be dcc8 a5bd
000001d0: cc27 9bbd aad0 86bd 415c e3be 028f 03be
000001e0: 1f28 18bf 221a 68bd ae41 333e ae8b f53e
000001f0: 80f5 993e 924f 0e3e 66c7 b2be e8f7 d23d
00000200: 9a07 843c 7ff5 ed3b 0eb8 52bd 4ff5 03be
00000210: 8aee 683e ac58 963d 515a a13e cdb7 aabe
00000220: bf09 8bbe 8309 14bf da95 753c 1218 2cbc
00000230: 216f 26be bfdc 333e 976a 00be 9165 ad3e
00000240: 6b70 313e c80a 4e3e 7a89 43bd cddb 60bd
00000250: af69 b7bd dff3 013c 6694 063c 1f7b d5bd
00000260: 5b31 4c3e e53c 553e 4317 a2be fccc 1cbe
00000270: b971 5bbe 61e7 a43e abc6 283e 4d7e 123e
00000280: 5849 e5bc 9c17 13bf 470b 0d3c 197b 99bd
00000290: 5ff0 99be 7d77 34be 6886 a1be 68ef 0bbf
000002a0: 6dca 28be a7db b2be a9f5 7ebe 71b2 893d
000002b0: de01 95be 2d5c 0f3e c65a 943e 8638 4ebd
000002c0: 006e ca3c 2ffc 1ebd 457f 163d 8a45 10be
000002d0: edc2 fabd 047b ad3e 3577 543e 781d 09bd
000002e0: 60df 97bd 5b56 013e c521 6cbe 4a30 3bbe
000002f0: dc63 4dbe 52f6 ecbd 13a5 c9be 571a ae3d
00000300: b7c0 55bd 7994 32be eafa 7ebe c3df a73d
00000310: bd99 aebd d0fd 803e 925b dabe 1b94 773e
00000320: 6867 1cbf d3e7 65be 0f76 f6be 3d09 9a3e
00000330: 1c51 873e 3a44 913e cb3e 37bf 3c64 52be
00000340: 5e74 283e 3b78 2f3e 8d29 1ebe da4a 76bd
00000350: f0af 663e d64e 00bf d26b b73e ea10 4cbe
00000360: 7c06 203d 66b2 cb3e 685e 92be 7037 2dbc
00000370: b84e 21be 8149 2f3d e2b7 25be 7f87 d83d
00000380: cb22 f8bd e5f7 0bbe 4e9d ab3d 93a5 1ebe
00000390: 8c0f a5be 91f5 02bf da4d c9be 2ad5 01bc
000003a0: ccd5 82be b00e 4b3e 692e 92be 89ba ebbe
000003b0: d65a 0fbf 3749 9bbd 9525 1cbe 1538 803c
000003c0: 118d 343e 3979 b13d 3792 bb3d c086 8b3e
000003d0: d279 8b3d 144f f8be a1d1 393e 2657 47bd
000003e0: 6e8d aabe 857f 4abe acea 91be d732 b6be
000003f0: 47f3 c1be 66e7 0cbd d02b 2b3c 3c72 3dbd

fc2.bias f4 [10]
-0.37376592 0.62883097 -0.5078724 -0.024709307 0.05396523 -0.0055671996 -0.33420506 -0.11478473
0.009186484 0.33163714
00000000: 3f5e bfbe 11fb 203f ed03 02bf 2c6b cabc
00000010: a50a 5d3d 0e6d b6bb ed1c abbe 4214 ebbd
00000020: e882 163c 58cc a93e

exp_avg f4 [10, 1, 5, 5]
0.004085182 0.001080735 0.0012939608 0.008074544 0.028697325 0.00915429 0.0041214335 0.001635007
0.009679719 0.034636334 -0.016369274 -0.012094711 -0.009782139 -0.015980218 0.01659644 -0.023234243
-0.011745915 -0.01835848 -0.019608483 -0.0024407536 -0.004992947 0.0018142398 0.004929454 0.008211507
0.021245081 -3.1925564e-13 -1.470328e-11 1.6120356e-10 5.4421967e-10 1.2317898e-09 -4.7996246e-11 3.3208568e-11
2.0622262e-10 4.4412288e-10 9.772692e-10 3.8676132e-11 1.7987424e-10 2.2574496e-10 5.760954e-10 7.3618805e-10
2.1078034e-10 2.990947e-10 4.5975274e-10 5.4721955e-10 4.096698e-10 1.3780581e-10 5.396889e-10 7.651354e-10
7.5702455e-10 4.5513632e-10 6.7760034e-11 2.7407503e-11 2.727432e-11 4.2423068e-10 4.528531e-10 1.03531864e-10
2.2435234e-11 -3.8413155e-11 4.8656806e-10 4.7871e-10 1.207645e-10 8.388689e-11 1.804454e-10 4.826005e-10
3.848979e-10 -4.455798e-11 1.0161741e-10 4.0362363e-10 3.8790748e-10 3.7029838e-10 -1.0170993e-11 1.0362755e-10
2.7043082e-10 2.1032526e-10 2.0892392e-10 -0.002615474 -0.0016477414 -0.0049287267 -0.0045887977 0.0029748047
0.002043368 3.0675717e-05 -0.00031344 -3.0293013e-05 -0.00027222696 0.002071526 -3.930343e-07 8.57726e-06
3.2632233e-05 -0.0008426685 0.00035983988 1.11830705e-05 4.973469e-05 -0.00024382776 -0.0034634462 7.1636605e-06
-0.00039693448 -4.4175096e-05 -0.0026812907 -0.004426573 -0.0010623763 8.554924e-05 -0.001895693 0.0014639604
0.011771391 -0.0012266018 -0.0013061758 -0.0036147754 0.002861174 0.018479966 0.009440942 0.0071442286
0.0113746 0.014582494 0.025436677 0.0053173467 -0.0051473835 -0.0039679226 -0.018184269 0.002081344
-0.023485638 -0.0146913575 -0.014587724 -0.024363423 -0.01565797 -0.015884647 -0.022032969 -0.007860466
0.0053153904 -0.001630824 -0.01796115 -0.024401814 -0.01532027 -0.002320949 0.007828538 -0.023065211
-0.02576054 -0.027851086 -0.007801313 0.0070927464 -0.021063944 -0.00017209537 -0.010257007 0.0026887637
0.027146952 -0.00014117989 0.0044381805 -0.0020482605 -0.0055157626 0.02077239 3.4772013e-10 3.7390263e-10
4.8445875e-10 1.11071e-09 1.5855811e-09 3.4558653e-10 6.1476707e-10 9.638346e-10 1.3892766e-09 1.3869387e-09
8.8464264e-10 1.1254813e-09 9.748802e-10 1.2411853e-09 1.325136e-09 9.36192e-10 9.351848e-10 8.8983326e-10
1.4822333e-09 1.7422062e-09 7.687484e-10 7.47152e-10 7.340195e-10 1.2035029e-09 1.231799e-09 -0.004679577
0.0013080616 0.0068500214 0.007823273 0.0018977076 -0.0107077295 -0.009123416 -0.0059492653 0.0020070747
0.012284569 -0.0015265779 -0.00020956526 0.00036240148 -0.001771068 0.0037285902 -0.00040541767 0.00032350112
0.0002560206 0.00036692785 0.0039206306 -0.0032459956 -0.0007375665 -0.000681503 4.1770763e-05 0.001728861
1.3085398e-10 5.1876314e-10 7.8018214e-10 6.1111183e-10 1.9393324e-10 1.8710299e-10 4.2459286e-10 7.0785944e-10
5.203976e-10 1.7898022e-10 1.9104113e-10 2.6594232e-10 3.3963365e-10 2.124668e-10 2.1316336e-10 1.0893132e-10
1.3804197e-10 7.210411e-11 6.775511e-11 1.5664052e-11 1.3477332e-10 7.158763e-11 1.0309217e-10 9.7282016e-11
6.6172165e-11 7.2853174e-05 -0.0018515001 -0.017940227 -0.035199214 -0.021460215 -0.0023529525 -1.0308082e-05
-0.012145536 -0.019181399 -0.014480782 -0.0038857835 -0.0024299822 -0.027716903 -0.00764667 -0.01023663
-0.0001237593 -0.0052489312 -0.025665369 -0.010342717 -0.0056336084 -0.002661604 -0.017976997 -0.034104884
-0.019069761 -0.009541306
00000000: fedc 853b 73a7 8d3a 1f9a a93a 184b 043c
00000010: a716 eb3c e0fb 153c 170d 873b bb4d d63a
00000020: af97 1e3c d4de 0d3d db18 86bc e528 46bc
00000030: 4445 20bc f2e8 82bc 42f5 873c bd55 bebc
00000040: f071 40bc 8664 96bc f8a1 a0bc 0df5 1fbb
00000050: e09b a3bb c9cb ed3a 4287 a13b 8f89 063c
00000060: 2a0a ae3c 96b9 b3aa d854 81ad c53e 312f
00000070: 0e98 1530 c04b a930 f816 53ae 860d 122e
00000080: 82be 622f bd28 f42f 9a50 8630 7419 2a2e
00000090: 19c6 452f 8f35 782f 1c5b 1e30 a15c 4a30
000000a0: 64c1 672f d66d a42f 72c0 fc2f 276b 1630
000000b0: e637 e12f e384 172f 3b59 1430 9e51 5230
000000c0: de16 5030 be36 fa2f 8201 952e 3614 f12d
000000d0: 4fe8 ef2d 2939 e92f 68f5 f82f 42ab e32e
000000e0: a857 c52d 5ef1 28ae 2fbf 0530 3996 0330
000000f0: 2fc8 042f 1f78 b82e dd66 462f fea7 0430
00000100: 9099 d32f d3f7 43ae 8475 df2e fae4 dd2f
00000110: 2041 d52f dd92 cb2f 15ee 32ad 20e1 e32e
00000120: c1ab 942f 4c41 672f dbb6 652f 5f68 2bbb
00000130: 07f9 d7ba 2881 a1bb a05d 96bb f1f4 423b
00000140: 07ea 053b cda9 0038 3455 a4b9 c01d feb7
00000150: afb9 8eb9 70c2 073b 3902 d3b4 0de7 0f37
00000160: 98de 0838 87e6 5cba e4a8 bc39 ec9e 3b37
00000170: 379a 5038 04ac 7fb9 fcfa 62bb 605f f036
00000180: a51b d0b9 a648 39b8 98b8 2fbb c90c 91bb
00000190: 6f3f 8bba e668 b338 e778 f8ba 5ce2 bf3a
000001a0: cbdc 403c edc5 a0ba fd33 abba dee5 6cbb
000001b0: 8982 3b3b 4c63 973c 2eae 1a3c 221a ea3b
000001c0: 885c 3a3c 6aeb 6e3c 9460 d03c 233d ae3b
000001d0: 62ab a8bb 5905 82bb 2df7 94bc 2867 083b
000001e0: f464 c0bc 05b4 70bc 5901 6fbc cd95 c7bc
000001f0: 2545 80bc 8520 82bc 7c7e b4bc 2fc9 00bc
00000200: ba2c ae3b 5fc1 d5ba 4323 93bc 50e6 c7bc
00000210: df01 7bbc 101b 18bb 4543 003c 41f3 bcbc
00000220: c507 d3bc f627 e4bc 28a2 ffbb 456a e83b
00000230: 4b8e acbc 8074 34b9 010d 28bc f835 303b
00000240: 4963 de3c b009 14b9 286e 913b 1c3c 06bb
00000250: 92bd b4bb dc2a aa3c 4229 bf2f 1e8e cd2f
00000260: c12a 0530 a2a7 9830 adeb d930 fbfc bd2f
00000270: 63fc 2830 ea77 8430 d3f0 be30 919e be30
00000280: 312b 7330 5aaf 9a30 8cfc 8530 5396 aa30
00000290: 1420 b630 54ab 8030 e487 8030 7398 7430
000002a0: 73b7 cb30 6e72 ef30 dc4f 5330 2660 4d30
000002b0: 08c4 4930 7e68 a530 134c a930 2357 99bb
000002c0: 4473 ab3a 2576 e03b 2f2d 003c 80bc f83a
000002d0: 796f 2fbc 617a 15bc 0ef2 c2bb 2089 033b
000002e0: 3845 493c 7417 c8ba bfbe 5bb9 b400 be39
000002f0: 2e23 e8ba 5d5b 743b 3d8e d4b9 969b a939
00000300: 813a 8639 3960 c039 a278 803b c5ba 54bb
00000310: 4059 41ba e4a6 32ba 0433 2f38 f39a e23a
00000320: 1fe0 0f2f b698 0e30 7074 5630 2cfb 2730
00000330: 5b3b 552f cfb8 4d2f 226c e92f 2e93 4230
00000340: ba0b 0f30 74ca 442f 4c0d 522f 0e34 922f
00000350: 30b7 ba2f 169c 692f 2760 6a2f e28a ef2e
00000360: 5cc7 172f 018f 9e2e bcfe 942e 4fc8 892d
00000370: 512f 142f 416c 9d2e bbb3 e22e e8ec d52e
00000380: 9e83 912e c0c8 9838 09ae f2ba 62f7 92bc
00000390: 0d2d 10bd 55cd afbc fe33 1abb e0f0 2cb7
000003a0: 12fe 46bc 4f22 9dbc cd40 6dbc a1a8 7ebb
000003b0: 5640 1fbb 8f0e e3bc eb90 fabb 8ab7 27bc
000003c0: 62c5 01b9 3aff abbb 2e40 d2bc 8074 29bc
000003d0: 229a b8bb 4e6e 2ebb 7f44 93bc 90b1 0bbd
000003e0: 3038 9cbc 2353 1cbc

exp_avg_sq f4 [10, 1, 5, 5]
7.2189956e-05 1.5328367e-05 2.7687276e-05 0.000156739 0.0005872251 0.00018955463 0.00015419895 0.00015970659
0.0003544028 0.0007432312 0.00075096055 0.0008294053 0.0008604179 0.0010250348 0.0012045418 0.0014914115
0.0012945753 0.001170147 0.0014997228 0.0016274347 0.0016393609 0.0011428848 0.0010349405 0.0013220023
0.0014790761 8.575264e-12 1.3235478e-10 3.770145e-09 4.259514e-08 1.5739069e-07 5.806013e-10 3.8349623e-10
7.487219e-09 3.780549e-08 1.1712316e-07 2.6686802e-09 3.597895e-09 8.731743e-09 5.4568954e-08 7.0355185e-08
9.333942e-09 7.0690427e-09 2.9531677e-08 4.657215e-08 2.419193e-08 2.3963396e-09 3.4854867e-08 7.54269e-08
7.0075664e-08 2.8924818e-08 5.278037e-10 9.030816e-11 1.7880585e-09 3.036832e-08 3.929863e-08 3.8635166e-09
4.8995883e-09 9.1260235e-09 4.2067672e-08 4.4461373e-08 6.6184924e-09 8.423661e-09 1.5599642e-08 4.4157385e-08
4.3087372e-08 4.4110564e-09 4.0490713e-09 1.3129831e-08 4.5427672e-08 5.609526e-08 2.6495137e-10 7.469599e-10
2.3508706e-08 5.109488e-08 3.88508e-08 5.6729445e-05 2.3229833e-05 4.8655016e-05 6.0155373e-05 6.44477e-05
1.2365884e-05 1.5389355e-06 1.4316586e-06 1.0288068e-06 1.9491713e-06 2.2292993e-06 6.280269e-07 3.8469585e-07
3.346797e-07 4.8342363e-06 3.2385387e-06 1.2125802e-06 1.931115e-06 2.242658e-06 2.4895398e-05 7.988974e-05
7.718735e-05 7.9087135e-05 8.168669e-05 0.00018039095 3.556897e-05 1.01141995e-05 1.9807732e-05 8.450804e-05
0.00054243987 9.790709e-05 8.887049e-05 7.1739385e-05 0.0001688204 0.0008960729 0.00037152268 0.00046080575
0.0003939693 0.0006127679 0.0013785057 0.00070894964 0.0008475763 0.00090310856 0.0014388751 0.0017779174
0.0010413837 0.0011770664 0.0014546936 0.0019441886 0.0019257987 0.001745432 0.0019310178 0.0013755485
0.00072351826 0.00028508785 0.0021035413 0.0021997264 0.0017053953 0.0007607362 0.00034482998 0.0016530511
0.0021913606 0.002185546 0.0013547732 0.0007644197 0.00096584 0.0015486605 0.002077035 0.0023299274
0.001868099 0.00047406708 0.0010250137 0.001914766 0.0026358427 0.0021808262 4.0349487e-08 4.0220332e-08
3.8877268e-08 1.805528e-07 3.8106592e-07 3.8763837e-08 6.1797884e-08 1.2278043e-07 2.6722682e-07 3.002889e-07
9.835876e-08 1.527941e-07 1.2304177e-07 2.3593184e-07 2.4417224e-07 1.0813711e-07 1.12037384e-07 1.2205707e-07
3.1071343e-07 3.4726318e-07 8.078844e-08 9.0235396e-08 1.0091729e-07 1.9581404e-07 1.7029396e-07 0.0006125639
0.0006538369 0.00089041266 0.0014716553 0.001647859 0.00024230639 0.00023175313 0.0002684215 0.00038988146
0.00070953637 9.5813084e-05 7.9019286e-05 5.23317e-05 7.473361e-05 0.0002533743 3.7020873e-05 1.8471528e-05
7.1796285e-06 1.998945e-05 0.00014270711 4.1316394e-05 1.327112e-05 7.1258646e-06 2.5715482e-05 0.00015344044
4.6688036e-09 3.6654388e-08 5.8476097e-08 5.5153457e-08 2.608225e-08 9.278913e-09 2.3562656e-08 4.165189e-08
5.261707e-08 4.0926544e-08 7.806794e-09 1.516462e-08 2.3979139e-08 1.1038139e-08 9.263979e-09 2.210107e-09
4.936821e-09 1.385845e-09 1.1684991e-09 3.424883e-11 5.152461e-09 1.6039924e-09 2.8497162e-09 2.1210056e-09
1.1248391e-09 1.4152711e-05 2.6454197e-06 6.643741e-05 0.0007395671 0.0021108922 6.8650515e-06 7.590373e-07
6.281392e-05 0.0008878264 0.0030127028 4.867343e-06 5.8204664e-06 0.00016286243 0.0017347123 0.003731327
2.0169575e-06 2.9301253e-05 0.0005492647 0.002688038 0.003868036 1.2378463e-05 0.00021386697 0.0011390236
0.0031322239 0.003345272
00000000: b064 9738 6b95 8037 f941 e837 4e5a 2439
00000010: 02f0 193a 2fc3 4639 77b0 2139 e976 2739
00000020: 23cf b939 67d5 423a 1cdc 443a 736c 593a
00000030: ab8d 613a 765a 863a b7e1 9d3a 777b c33a
00000040: bdae a93a 9e5f 993a 5992 c43a a64f d53a
00000050: d3df d63a dacc 953a d7a6 873a 0947 ad3a
00000060: 8fdd c13a 8edb 162d 8f86 112f 8c8a 8131
00000070: daf1 3633 39ff 2834 2f98 1f30 4cd4 d22f
00000080: 23a1 0032 935f 2233 2385 fb33 eb63 3731
00000090: d73e 7731 9d02 1632 335f 6a33 2c16 9733
000000a0: 1c5b 2032 f5e3 f231 d8ac fd32 9f06 4833
000000b0: 9ece cf32 daac 2431 55b3 1533 60fa a133
000000c0: 817c 9633 5976 f832 e214 1130 f996 c62e
000000d0: b7bf f530 526e 0233 4dc9 2833 dabf 8431
000000e0: 3c59 a831 adc8 1c32 e5ad 3433 ccf5 3e33
000000f0: e068 e331 a7b7 1032 faff 8532 8fa7 3d33
00000100: 110f 3933 1090 9731 0220 8b31 9b91 6132
00000110: 411c 4333 64ed 7033 97a8 912f a152 4d30
00000120: 31f0 c932 6a73 5b33 e8dc 2633 c7f0 6d38
00000130: b0dd c237 ed12 4c38 574f 7c38 1828 8738
00000140: 1177 4f37 6c8d ce35 6a27 c035 8815 8a35
00000150: 82ce 0236 129b 1536 ae95 2835 3288 ce34
00000160: 07ae b334 c635 a236 ac55 5936 f0bf a235
00000170: 4e98 0136 9280 1636 76d6 d037 7a8a a738
00000180: a5df a138 95db a538 354f ab38 5427 3d39
00000190: e42f 1538 28b0 2937 c828 a637 e939 b138
000001a0: 8632 0e3a 7853 cd38 fb5f ba38 ca72 9638
000001b0: 6205 3139 6fe6 6a3a eec8 c239 4d98 f139
000001c0: aa8d ce39 28a2 203a faae b43a ced8 393a
000001d0: e22f 5e3a 97be 6c3a a398 bc3a 0209 e93a
000001e0: 0a7f 883a cb47 9a3a 6bab be3a 25d4 fe3a
000001f0: 156b fc3a fbc6 e43a 351a fd3a c04b b43a
00000200: 7daa 3d3a d877 9539 91db 093b 4929 103b
00000210: 9287 df3a 246c 473a 4cca b439 31ab d83a
00000220: ee9c 0f3b 613b 0f3b a592 b13a 5663 483a
00000230: 6d30 7d3a 6cfc ca3a dd1e 083b b2b1 183b
00000240: 00db f43a 358c f839 c159 863a e3f8 fa3a
00000250: 1abe 2c3b 31ec 0e3b bb4c 2d33 b9be 2c33
00000260: 02fa 2633 fadd 4134 4d95 cc34 4a7d 2633
00000270: bfb5 8433 a1d5 0334 6077 8f34 6437 a134
00000280: 4d39 d333 b90f 2434 771d 0434 7354 7d34
00000290: c716 8334 0139 e833 3499 f033 cb0e 0334
000002a0: 21d0 a634 7d6f ba34 ea7d ad33 6fc7 c133
000002b0: deb7 d833 f440 5234 0cda 3634 7894 203a
000002c0: 4066 2b3a 956a 693a 8fe4 c03a f9fc d73a
000002d0: a013 7e39 c202 7339 edba 8c39 0169 cc39
000002e0: 2e00 3a3a 42ef c838 28b7 a538 bc7e 5b38
000002f0: 4dba 9c38 53d7 8439 dc46 1b38 4ef3 9a37
00000300: 8ae8 f036 04af a737 a6a3 1539 244b 2d38
00000310: 07a7 5e37 b61a ef36 94b7 d737 dbe4 2039
00000320: 3b6b a031 ed6d 1d33 2627 7b33 dee1 6c33
00000330: 790b e032 1769 1f32 d466 ca32 bde4 3233
00000340: 15fd 6133 36c7 2f33 a51e 0632 5a43 8232
00000350: affa cd32 40a2 3d32 6927 1f32 9de0 1731
00000360: bda0 a931 1678 be30 e898 a030 c1a0 162e
00000370: 8709 b131 7773 dc30 bdd4 4331 20c1 1131
00000380: c298 9a30 6e71 6d37 f787 3136 5054 8b38
00000390: 82df 413a e556 0a3b 585a e636 a5c0 4b35
000003a0: f7ba 8338 05bd 683a c470 453b 2852 a336
000003b0: 6d4d c336 0dc6 2a39 495f e33a 4789 743b
000003c0: 115b 0736 f6cb f537 88fc 0f3a cb29 303b
000003d0: e07e 7d3b 18ad 4f37 7a41 6039 4a4b 953a
000003e0: ff45 4d3b 5a3c 5b3b

exp_avg f4 [10]
0.013308386 1.640305e-09 7.122485e-10 0.08207581 0.079933316 -0.004120216 2.1896192e-09 -0.0047304556
7.880027e-10 -0.014580055
00000000: 6b0b 5a3c 1a71 e130 08c8 4330 5d17 a83d
00000010: 14b4 a33d e002 87bb 3078 1631 f001 9bbb
00000020: c39a 5830 2fe1 6ebc

exp_avg_sq f4 [10]
0.0034942976 2.5969194e-07 8.9644075e-08 0.007281237 0.0040783244 0.0050546294 5.635332e-07 0.0031805267
8.335955e-08 0.0052932547
00000000: 9600 653b ca6b 8b34 5a82 c033 7197 ee3b
00000010: 77a3 853b 4ea1 a53b b545 1735 6270 503b
00000020: 6603 b333 0a73 ad3b

exp_avg f4 [20, 10, 5, 5]
1.583634e-11 1.4690232e-11 0.0 0.0 0.0 1.540346e-11 9.479624e-12 0.0
0.0 0.0 1.2226241e-11 1.213297e-11 1.2552853e-11 4.964641e-12 0.0 1.6193024e-11
2.987293e-11 2.1691713e-11 1.9267182e-11 1.452521e-11 1.1336634e-11 3.1170486e-11 1.9387473e-11 3.229469e-11
2.3988127e-11 0.0 0.0 0.0 0.0 0.0 0.0 0.0
0.0 0.0 0.0 0.0 0.0 0.0 0.0 0.0
0.0 0.0 0.0 0.0 0.0 0.0 0.0 0.0
0.0 0.0 0.0 0.0 0.0 0.0 0.0 0.0
0.0 0.0 0.0 0.0 0.0 0.0 0.0 0.0
0.0 0.0 0.0 0.0 0.0 0.0 0.0 0.0
0.0 0.0 0.0 0.0 0.0 0.0 0.0 0.0
0.0 0.0 0.0 0.0 0.0 0.0 2.3428059e-12 0.0
0.0 0.0 0.0 0.0 0.0 0.0 0.0 0.0
0.0 0.0 0.0 0.0 3.0174255e-12 0.0 0.0 0.0
0.0 5.5514994e-12 7.182445e-12 0.0 0.0 0.0 4.7715087e-12 1.5965073e-11
5.455828e-12 0.0 0.0 0.0 1.422866e-11 2.6288902e-11 2.5608156e-11 0.0
0.0 0.0 0.0 0.0 0.0 0.0 0.0 2.1009004e-11
4.2171107e-11 3.447279e-11 0.0 0.0 0.0 3.9881133e-11 5.494878e-11 0.0
0.0 0.0 0.0 5.0349305e-11 3.6382418e-11 1.8353787e-11 4.41475e-12 0.0
0.0 0.0 1.1515209e-11 1.40803775e-11 1.781231e-12 1.377504e-12 0.0 0.0
0.0 0.0 0.0 0.0 0.0 0.0 0.0 0.0
0.0 0.0 0.0 0.0 0.0 0.0 0.0 0.0
0.0 0.0 0.0 0.0 0.0 0.0 0.0 0.0
0.0 0.0 0.0 0.0 1.29797536e-11 3.2335098e-12 0.0 0.0
0.0 0.0 0.0 1.8174488e-14 0.0 0.0 0.0 0.0
0.0 0.0 0.0 0.0 0.0 0.0 0.0 0.0
0.0 0.0 0.0 0.0 0.0 0.0 0.0 0.0
0.0 0.0 0.0 0.0 0.0 0.0 0.0 0.0
0.0 0.0 0.0 0.0 0.0 0.0 0.0 0.0
0.0 1.7590476e-11 0.0 0.0 0.0 0.0 0.0 0.0
4.0557132e-12 0.0 0.0 8.2226405e-12 0.0 2.3258047e-12 3.7102075e-12 0.0
0.0 0.0 0.0 0.0 0.0 7.0270404e-12 0.0 0.0
3.990698e-12 5.94538e-12 -0.003710382 -0.008440489 -0.009570261 -0.016307475 -0.0052189804 -0.0068491083
00000000: 444c 8b2d 7637 812d 0000 0000 0000 0000
00000010: 0000 0000 827d 872d 6ec4 262d 0000 0000
00000020: 0000 0000 0000 0000 1816 572d 0a72 552d
00000030: 06d5 5c2d 83ad ae2c 0000 0000 736f 8e2d
00000040: ee61 032e 65cd be2d d679 a92d bb87 7f2d
00000050: a96f 472d d916 092e b588 aa2d 9708 0e2e
00000060: 7600 d32d 0000 0000 0000 0000 0000 0000
00000070: 0000 0000 0000 0000 0000 0000 0000 0000
00000080: 0000 0000 0000 0000 0000 0000 0000 0000
00000090: 0000 0000 0000 0000 0000 0000 0000 0000
000000a0: 0000 0000 0000 0000 0000 0000 0000 0000
000000b0: 0000 0000 0000 0000 0000 0000 0000 0000
000000c0: 0000 0000 0000 0000 0000 0000 0000 0000
000000d0: 0000 0000 0000 0000 0000 0000 0000 0000
000000e0: 0000 0000 0000 0000 0000 0000 0000 0000
000000f0: 0000 0000 0000 0000 0000 0000 0000 0000
00000100: 0000 0000 0000 0000 0000 0000 0000 0000
00000110: 0000 0000 0000 0000 0000 0000 0000 0000
00000120: 0000 0000 0000 0000 0000 0000 0000 0000
00000130: 0000 0000 0000 0000 0000 0000 0000 0000
00000140: 0000 0000 0000 0000 0000 0000 0000 0000
00000150: 0000 0000 0000 0000 3ddc 242c 0000 0000
00000160: 0000 0000 0000 0000 0000 0000 0000 0000
00000170: 0000 0000 0000 0000 0000 0000 0000 0000
00000180: 0000 0000 0000 0000 0000 0000 0000 0000
00000190: 1b55 542c 0000 0000 0000 0000 0000 0000
000001a0: 0000 0000 7653 c32c b7b5 fc2c 0000 0000
000001b0: 0000 0000 0000 0000 eee1 a72c 266e 8c2d
000001c0: bbf5 bf2c 0000 0000 0000 0000 0000 0000
000001d0: 3050 7a2d 583d e72d 7140 e12d 0000 0000
000001e0: 0000 0000 0000 0000 0000 0000 0000 0000
000001f0: 0000 0000 0000 0000 0000 0000 12cc b82d
00000200: 7278 392e e99c 172e 0000 0000 0000 0000
00000210: 0000 0000 2a66 2f2e d4aa 712e 0000 0000
00000220: 0000 0000 0000 0000 0000 0000 4770 5d2e
00000230: f602 202e 0e71 a12d 8854 9b2c 0000 0000
00000240: 0000 0000 0000 0000 e493 4a2d 62b4 772d
00000250: 9caf fa2b d0dd c12b 0000 0000 0000 0000
00000260: 0000 0000 0000 0000 0000 0000 0000 0000
00000270: 0000 0000 0000 0000 0000 0000 0000 0000
00000280: 0000 0000 0000 0000 0000 0000 0000 0000
00000290: 0000 0000 0000 0000 0000 0000 0000 0000
000002a0: 0000 0000 0000 0000 0000 0000 0000 0000
000002b0: 0000 0000 0000 0000 0000 0000 0000 0000
000002c0: 0000 0000 0000 0000 0000 0000 0000 0000
000002d0: 9d57 642d bc89 632c 0000 0000 0000 0000
000002e0: 0000 0000 0000 0000 0000 0000 84b3 a328
000002f0: 0000 0000 0000 0000 0000 0000 0000 0000
00000300: 0000 0000 0000 0000 0000 0000 0000 0000
00000310: 0000 0000 0000 0000 0000 0000 0000 0000
00000320: 0000 0000 0000 0000 0000 0000 0000 0000
00000330: 0000 0000 0000 0000 0000 0000 0000 0000
00000340: 0000 0000 0000 0000 0000 0000 0000 0000
00000350: 0000 0000 0000 0000 0000 0000 0000 0000
00000360: 0000 0000 0000 0000 0000 0000 0000 0000
00000370: 0000 0000 0000 0000 0000 0000 0000 0000
00000380: 0000 0000 3bba 9a2d 0000 0000 0000 0000
00000390: 0000 0000 0000 0000 0000 0000 0000 0000
000003a0: 9eb2 8e2c 0000 0000 0000 0000 7ba7 102d
000003b0: 0000 0000 f9a9 232c 948a 822c 0000 0000
000003c0: 0000 0000 0000 0000 0000 0000 0000 0000
000003d0: 0000 0000 f43d f72c 0000 0000 0000 0000
000003e0: 0369 8c2c 392f d12c e129 73bb fa49 0abc
000003f0: 96cc 1cbc 4197 85bc fb03 abbb 7c6e e0bb
