AVR/test_i/checkpoints/epoch=0-step=150.ckpt (torch, 629439 bytes, 24 tensors)

conv1.weight f4 [10, 1, 3, 3]
000000 77 6d 57 3c d7 3c 19 be 7b 32 e8 be 54 3e 1c be
       0.013148657 -0.14964615 -0.45351014 -0.15258151
000010 a4 c0 57 3e e2 16 12 be 75 60 8c be 8d 74 07 3e
       0.2106958 -0.14266542 -0.2741734 0.13228054
000020 d1 c3 97 be 2b bc 02 3e 26 b5 92 bd b2 e9 91 be
       -0.29641584 0.12767093 -0.071634576 -0.28498608
000030 58 b5 3b 3e 4e 11 5c 3e 5b 61 dd 3e 37 c4 41 3e
       0.18330896 0.21490976 0.4323834 0.18922506
000040 f0 97 03 3b e0 61 ab 3e c7 60 6d 3e 8b 52 cf 3d
       0.0020079575 0.3347311 0.23181449 0.10123166
000050 bb a0 b0 be 83 73 d5 3e 63 af 8e 3e 11 10 a1 bd
       -0.34497628 0.4168969 0.27868184 -0.078643925
000060 7e 0e bb 3c 8c 9b 90 be a9 80 a0 3d ba 12 49 3e
       0.022834059 -0.28243673 0.0783704 0.1963605
000070 b4 f7 9f be a8 ff fb be f7 0b 51 3e cc d9 94 be
       -0.3124367 -0.49218488 0.2041472 -0.29072416
000080 79 0e b6 be 01 0a 3d 3e 60 23 b1 be 95 15 af bd
       -0.35557917 0.18460847 -0.345973 -0.08549038
000090 f6 91 a3 be 10 4d 12 bf 84 35 f9 3d 48 74 3b be
       -0.31947297 -0.5714884 0.121684104 -0.18306077
0000a0 da ab a4 3c 8a 26 e2 be b2 96 ce be 9a be af bd
       0.020101476 -0.44170028 -0.40349346 -0.08581276
0000b0 3a f2 d4 be 2d d4 4a be c5 60 73 be 2d b0 7c 3e
       -0.41591054 -0.19807501 -0.23767383 0.2467658
0000c0 b5 29 33 3b ad 54 5b be 29 c1 6e 3c 17 e5 97 be
       0.0027338092 -0.2141902 0.01457242 -0.2966697
0000d0 e3 5c 1a 3e 47 1e 02 be f0 c1 10 3e 7b b5 27 bd
       0.15074496 -0.12706862 0.14136481 -0.040944558
0000e0 e7 fa a5 bd 65 06 84 bc b3 90 46 3e 47 c5 c5 be
       -0.081044964 -0.01611633 0.19391136 -0.38627073
0000f0 8f 3c db 3e ed a4 33 be 8d 5f ce be 34 3e 01 3d
       0.4281964 -0.17543383 -0.40307274 0.031553462
000100 1b 69 b9 bd 28 18 4f be 78 4c 82 3e 2c a9 80 3e
       -0.090532504 -0.20224059 0.25448966 0.25129068
000110 49 a4 c3 be 90 d7 cc 3e d8 17 dd bd 20 93 16 bf
       -0.38211277 0.4000821 -0.107955635 -0.58818245
000120 c0 62 81 3c 68 79 18 3d ef 53 a7 be 00 61 5e 3d
       0.015794158 0.037225157 -0.32681224 0.054291725
000130 0c e8 ac bd 9a 18 1e 3e c0 69 0a bd c8 0e 6d be
       -0.08442697 0.15439072 -0.033792257 -0.2315017
000140 20 0b 46 be 83 11 81 be 98 b1 1c 3e fa 1b 0c be
       -0.19340181 -0.25208673 0.15302122 -0.13682547
000150 b4 fd bf be c2 78 c1 be 53 d6 2f 3d 82 b1 3e be
       -0.37498248 -0.37787443 0.042929005 -0.18622401
000160 ab 80 22 3e 9a 2d 41 be
       0.15869395 -0.18865052

conv1.bias f4 [10]
000000 07 8a 36 be b1 b9 83 be 65 26 f6 bc de 49 7e be
       -0.17826091 -0.2572761 -0.030047605 -0.24832866
000010 ae ff 5b 3d d2 0b d2 be cc 2c 98 be d1 1b 8c bd
       0.053710632 -0.41024643 -0.29721677 -0.06841243
000020 87 ba 85 be ad 69 45 be
       -0.26118872 -0.19278593

conv2.weight f4 [20, 10, 3, 3]
000000 56 46 e2 3c 07 27 bc bd 9b 16 28 3e 18 0e d8 bd
       0.02762143 -0.091871314 0.16414873 -0.10549563
000010 5f bc de 3d 04 08 17 be b7 84 ef bd 8d 7b 23 be
       0.10875773 -0.14749151 -0.11695235 -0.159651
000020 09 a0 b5 bd 73 cf a2 bd d6 4c 52 be 79 42 b1 bd
       -0.08868415 -0.07949724 -0.20537123 -0.08655257
000030 e8 48 6b be 8f 10 94 bd 0c 66 a5 bd 01 b4 65 be
       -0.2297703 -0.07229721 -0.080761045 -0.22431947
000040 28 fb c9 bd 6c 82 2f be e2 d8 a0 3d 26 f3 7d be
       -0.098623574 -0.17139596 0.07853867 -0.24799785
000050 e5 8a f0 bc e7 8e b9 3d 22 0e 49 be 07 74 1d 3e
       -0.029363105 0.090604596 -0.19634297 0.15376292
000060 ef bd 82 be f1 ba 8e bd dd 64 9c bd 0e d7 58 bc
       -0.25535533 -0.0696925 -0.07636426 -0.013234867
000070 f0 44 50 be 9e ea 31 3e bf dc 02 be ee 43 62 3e
       -0.20338798 0.17374656 -0.1277952 0.22096226
000080 6f 16 5e 3d 6b 74 ff 3d f2 ed a6 3d 5b 67 36 3e
       0.054220613 0.12473377 0.08150853 0.17812864
000090 8e de 88 bd 92 69 14 be c9 5e 07 bc 90 58 20 be
       -0.06683074 -0.14493397 -0.008262345 -0.15658784
0000a0 8c 00 e8 3c ee 25 31 3b 04 2f 0b be af dc 0f be
       0.028320573 0.0027030664 -0.13592154 -0.14049028
0000b0 02 62 01 be 89 36 54 bd f5 dc 13 3e df 2b 3e be
       -0.12635043 -0.05180982 0.14439757 -0.18571423
0000c0 a7 aa 55 3e 18 3c f3 3d f6 a1 96 bd 15 29 13 be
       0.2086588 0.11876696 -0.0735511 -0.1437114
0000d0 b3 60 84 bc b9 cb 11 3d d4 f7 34 be ff 53 b3 3d
       -0.016159391 0.035594676 -0.17672664 0.08756255
0000e0 2d 32 92 3d 7e d1 60 be 99 dc 0a bd 61 e1 89 3d
       0.071384765 -0.21954915 -0.033901785 0.06732441
0000f0 04 be 8b 3d 92 e9 03 be 2c b3 58 be 7d 6d 46 bd
       0.06823352 -0.12882069 -0.21162099 -0.04844426
000100 6f 7e c8 bd 12 03 9e 3d 1b b8 13 be 67 95 05 be
       -0.0978974 0.07715429 -0.144257 -0.13045274
000110 ad 65 52 be 9a 90 aa bd 8a cb e9 bc 95 45 ef bd
       -0.20546599 -0.08328362 -0.028539438 -0.116831936
000120 9a 4a 1c 3d d6 6b bd bd ee 89 0a bd b0 6f 44 bc
       0.038157083 -0.09249084 -0.033822946 -0.011989519
000130 62 23 b6 bd bc f6 b7 3c fe 62 3d 3d 00 2f 82 ba
       -0.088934675 0.02245652 0.046236984 -0.000993222
000140 c0 12 83 3a 22 b3 15 3e 9e bd d8 bd 8f 5d 0f be
       0.0010000095 0.14619115 -0.105830416 -0.14000534
000150 93 45 dc bd 22 8c 92 3d d8 72 0c be 93 7d 0a be
       -0.10755458 0.071556345 -0.13715684 -0.13524465
000160 aa 0b 4f be 9b 6f 59 3e 26 04 f4 bd 5d ae c2 3d
       -0.20219293 0.2123398 -0.11914854 0.095059134
000170 8d de 12 bd a3 f3 b2 bd 73 3e cd bd 7c 3f 9c bc
       -0.035856772 -0.08737876 -0.10021677 -0.01907324
000180 05 01 62 3c 61 dc ce bd 2d 5f 2e 3d ca 6b 70 3e
       0.013794188 -0.10100628 0.042571235 0.23478618
000190 3e 67 2a 3e 8d ca e0 bd b3 2b f6 3d ef c2 75 3e
       0.16640946 -0.109761335 0.12020054 0.24000143
0001a0 c2 8c b5 3d b3 a8 2c bf 48 e7 a3 bd e5 2d 0f 3e
       0.08864738 -0.67444915 -0.08003098 0.13982351
0001b0 42 a7 fa bc 6d 7f 2a 3e 10 fc 6a be 44 ce 69 3e
       -0.030597333 0.16650172 -0.22947717 0.2283259
0001c0 58 f9 88 3e 89 16 59 3d 0e cc 01 bf cd a0 47 bc
       0.26752734 0.053000007 -0.5070199 -0.012184334
0001d0 f7 57 58 3d 5f fa 91 bd e0 4e f5 3d ca 6a 58 bd
       0.052818265 -0.071278326 0.11977935 -0.052836217
0001e0 24 62 6b be c6 e2 4c bc 3b 10 42 be 95 13 a6 be
       -0.22986656 -0.012505239 -0.18951504 -0.32436815
0001f0 71 4e b8 be 2e 44 50 be 78 dd bb be 72 89 d8 be
       -0.35997346 -0.20338508 -0.36692405 -0.42292362
000200 82 c9 4c bd 42 2b 85 be ff 45 86 be 04 28 95 be
       -0.04999686 -0.26009566 -0.26225278 -0.29132092
000210 d8 39 bc bd b9 ff 85 3c e8 a3 ba be 04 e2 af bd
       -0.0919072 0.01635729 -0.36453176 -0.08588031
000220 9f 15 4e be bd 37 06 be 60 ab 1a 3e 8f d8 93 bd
       -0.20125435 -0.131072 0.15104437 -0.0721904
000230 1d 79 cf bd 06 4a 90 3b 87 25 58 be a7 92 62 be
       -0.101305224 0.0044033555 -0.21108066 -0.22126256
000240 d9 34 58 be 6b 08 98 bd d0 4b 8e bd 14 38 50 3c
       -0.2111391 -0.074234806 -0.06948054 0.012708683
000250 0a 26 22 bd 96 47 79 3d 72 93 c5 be 75 62 99 be
       -0.039587058 0.060859285 -0.38589054 -0.2995793
000260 ba 78 0e be 74 e5 b5 bb 82 07 94 3e f3 c7 2a 3e
       -0.13913241 -0.0055510346 0.28911978 0.16677837
000270 0c df 93 3b 9d 3f 0b be a0 75 68 bd f7 18 05 bf
       0.0045126732 -0.13598485 -0.0567528 -0.5199122
000280 a8 66 c0 be 6a b6 73 be 0c c7 76 bd 07 98 c3 bd
       -0.3757832 -0.23800054 -0.06024842 -0.09550481
000290 f4 c0 ca 3c bc 82 db bc 84 35 c6 3c 61 90 be 3d
       0.02475021 -0.026795737 0.02419544 0.09304882
0002a0 a8 49 24 3c 89 e0 96 bd b6 42 6c 3d 42 8f fa bc
       0.010027327 -0.073670454 0.057680808 -0.030585889
0002b0 e7 e9 6f 3d a2 6c 81 be 48 7f 1d bd 9d 44 d1 bc
       0.058572676 -0.25278193 -0.038451463 -0.025545413
0002c0 c6 d5 1a be 41 20 18 bd 46 b7 09 be 1f 0a 39 be
       -0.1512061 -0.037140135 -0.1344882 -0.18070267
0002d0 d0 cb 1f be 93 e6 dc bd b4 c6 63 be 1f 6d 75 bd
       -0.15605092 -0.10786166 -0.22243768 -0.05991852
0002e0 6e e5 91 3e 0d ec 2f 3e 31 19 05 bf f9 75 15 3e
       0.28495353 0.1717989 -0.51991564 0.14595784
0002f0 0e 39 0d be 1b 49 2e 3e dc 14 ef bd 93 8a 70 bf
       -0.13791296 0.17020075 -0.116739005 -0.9396145
000300 75 5d 51 3e 08 d9 22 3e 21 a9 e7 bd 94 0f 5e be
       0.20445807 0.15903103 -0.11311556 -0.2168563
000310 6c 4c 6d 3e bf 89 81 3e 65 49 dd bb e5 d8 53 be
       0.23173684 0.25300404 -0.006753134 -0.20688207
000320 37 c7 35 bf 49 ba 52 3e 53 d9 64 3e 4a 8f 7c bd
       -0.710071 0.20578875 0.22348528 -0.06166009
000330 79 11 d9 be d6 45 89 3d 5a 9b 3c 3e 23 48 b6 3c
       -0.42396143 0.06702773 0.18418637 0.022251194
000340 fb 6e 9e bd a3 11 79 be ee d3 49 be a5 fe 4e be
       -0.077360116 -0.24323134 -0.19709751 -0.20214327
000350 43 40 8a 3e 3c 4f f8 be 86 56 5d be d2 e1 b9 3d
       0.27002153 -0.4849795 -0.21615037 0.09076275
000360 35 e6 86 be cf ba 01 be 66 10 a7 3e c0 af f1 bd
       -0.2634751 -0.12668918 0.326297 -0.118011
000370 f9 67 56 be 70 34 fc 3c 2e 98 5c 3d bf 2f 01 bf
       -0.209381 0.030786723 0.053856067 -0.5046348
000380 3f 6e 98 be 16 21 af 3c d5 17 1c be 5a 8c 08 3e
       -0.2977161 0.021378081 -0.15243466 0.1333479
000390 7a d2 25 be aa c9 27 3e 33 f7 a9 bc 24 27 46 bd
       -0.16193572 0.16385522 -0.020747757 -0.04837717
0003a0 52 d0 53 bb 67 25 dc 3c 8a a5 98 bc 60 77 5a 3d
       -0.0032320214 0.026873304 -0.018633623 0.0533365
0003b0 40 e7 12 be bc c0 a7 be f3 41 d2 3d cc b9 68 3d
       -0.14346027 -0.32764232 0.10266485 0.056817815
0003c0 b5 fb ed be 93 a4 0a be 00 98 c7 3c a3 12 a9 3d
       -0.464811 -0.13539343 0.024364471 0.08255508
0003d0 df 31 1f 3e 2e a6 11 3c a5 fb ab be 74 70 1d 3e
       0.15546368 0.008889718 -0.33590427 0.15374929
0003e0 6e 07 9d 3e db d8 50 bf 90 59 24 3d e9 30 0e bc
       0.3066973 -0.81580895 0.040124476 -0.008678653
0003f0 30 2d 30 bc 68 3c ec bc 5a 52 6a bd 30 cc ad bb
       -0.010752961 -0.028837398 -0.057207443 -0.005303882

conv2.bias f4 [20]
000000 85 7b 74 be 42 a8 33 be 52 67 90 bd f0 af 3d bd
       -0.23875244 -0.17544654 -0.07050957 -0.046310365
000010 48 fd 23 be 10 fc 52 3c db 70 bf bd 0e 47 cf bd
       -0.16014588 0.012877479 -0.09347697 -0.101209745
000020 8c 2e 36 be 6a 58 08 be 46 3c 66 be 9e 58 f6 bd
       -0.17791194 -0.13314977 -0.2248393 -0.12028621
000030 de 9e 5b bd 2c f2 88 bd f4 8b 5c be 3f 74 b9 bc
       -0.053618304 -0.066868156 -0.21537763 -0.022638438
000040 60 85 2e be f2 da 2d be 40 71 01 be a6 76 98 bd
       -0.17043066 -0.16978052 -0.12640858 -0.074445054

fc1.weight f4 [50, 980]
000000 0f c8 02 3e 2d 7e 14 3e 67 3c fa 3d a5 35 ea bd
       0.12771629 0.14501257 0.12218552 -0.11436013
000010 92 1e e6 bd cb c5 b7 bd ef 06 f6 bd e9 68 01 be
       -0.112362996 -0.08973273 -0.12013041 -0.12637676
000020 92 c9 18 3e 15 57 db 3d 1a 1e fd bd 25 0c e6 bd
       0.14920643 0.10709969 -0.12359257 -0.11232785
000030 f9 fc 38 3c 26 e7 55 be f5 47 ee 3d 29 ab d1 3d
       0.011290782 -0.20888957 0.116348185 0.10237724
000040 71 f2 d1 bd f7 e1 f2 bd 29 7a f8 bd 1a cd cc 3b
       -0.1025132 -0.118595056 -0.12132675 0.006250036
000050 1c 48 e2 3c 09 75 e5 3d 94 f0 bf bd 97 49 0e be
       0.027622275 0.11203963 -0.093720585 -0.1389526
000060 f9 d0 0e be 86 ff dd bd ac f8 44 3d d6 04 9a be
       -0.13946904 -0.10839753 0.048088714 -0.30081815
000070 0c b1 c2 bd 99 35 e8 bd 99 68 d2 3d 1c 70 0d be
       -0.09506425 -0.11338348 0.10273857 -0.13812298
000080 4e 8a 9c bd 81 99 94 bd ea 46 e4 3d 22 2f 1a be
       -0.07643567 -0.07255841 0.11146338 -0.15057042
000090 13 23 d2 bd 0f 65 05 be e5 c6 80 3e 13 71 18 be
       -0.10260596 -0.13026832 0.25151744 -0.14886884
0000a0 58 73 23 3d b9 24 70 be a2 09 f3 bd e1 3f 12 3e
       0.039904922 -0.23451509 -0.11867072 0.1428218
0000b0 c4 99 09 be e0 e8 d0 3c fa 32 5b 3e 56 02 39 3c
       -0.13437563 0.025501668 0.21406165 0.011292061
0000c0 c9 1d fc 3d 47 10 07 3e 96 4c 87 3d 30 55 ca 3d
       0.123103686 0.13189803 0.066064045 0.098795295
0000d0 93 89 83 be 57 92 64 be 81 94 74 3c 3b 52 03 3e
       -0.25690898 -0.22321449 0.014927984 0.12824337
0000e0 df 41 02 3f a8 ec af 3e 84 b9 80 3e 4c e0 99 3e
       0.5088176 0.34360242 0.25141537 0.30053937
0000f0 37 37 b3 3e e5 9d 93 bd ec 3a 00 bf b6 82 e0 3e
       0.35003063 -0.0720785 -0.5008991 0.43849725
000100 cd ac 36 3e b1 e5 4d be 4c 65 df bd f9 a9 8b be
       0.17839356 -0.20107152 -0.10907993 -0.27278116
000110 ed 7c fe bd 76 2f ee 3d 13 26 8a 3e 6a 89 4b 3d
       -0.124261715 0.11630146 0.26982173 0.049691595
000120 dd 63 30 be d6 43 34 3e c2 47 d8 bc 1c 59 2f 3c
       -0.17225595 0.17604002 -0.026401404 0.010702398
000130 bd 92 91 3d 8e 5b 23 3f 0e 73 dc bc 24 ff c8 bd
       0.07108066 0.63811576 -0.026910331 -0.09814289
000140 b2 a9 e7 3e 37 c6 f1 3e 50 f8 9b bc 19 e7 11 bd
       0.45246655 0.47221538 -0.019039303 -0.035620783
000150 15 c8 1e 3f 94 8a 50 3e 92 7a e1 bd 9d 1d 43 3c
       0.6202405 0.20365363 -0.110097066 0.011908916
000160 7a 05 57 be 4c 54 22 be 14 1a d2 3d 80 4d 80 3e
       -0.20998183 -0.15852469 0.1025888 0.25059128
000170 73 e6 0a 3d 3e 10 19 3d ca 63 42 3d 8e de 1a bd
       0.03391118 0.037369005 0.047458448 -0.0378099
000180 aa 57 ba 3e 4d bd e2 3e 09 ce cc 3e bc 30 58 3e
       0.36395007 0.4428505 0.40000942 0.2111234
000190 a5 fe 90 3e b6 b4 05 3e 7c f4 00 3e 8c 87 0c bd
       0.28319278 0.13057217 0.12593263 -0.034308955
0001a0 1a e3 99 3c c4 2d 0b 3f 56 ca 3b 3e 8b d4 55 3e
       0.018785048 0.5436671 0.18338904 0.2088186
0001b0 8f e1 0c 3e 78 97 98 3e 98 a6 2c 3e b4 ab 65 be
       0.13757919 0.2980306 0.16860425 -0.22428781
0001c0 ea 52 7b 3b 8d 1d 44 be 36 2f ac bd f5 a9 b6 3e
       0.0038348981 -0.19151898 -0.08407442 0.35676542
0001d0 c1 75 10 be 63 d1 27 be 63 24 12 be 31 4d b7 3e
       -0.1410742 -0.16388468 -0.14271693 0.3580108
0001e0 f8 a0 9c 3e c2 ca 4d 3d 05 ed 46 bd 4c 9b 26 be
       0.3059156 0.050242193 -0.048565883 -0.16270179
0001f0 9a ce f4 bc b6 42 1e 3d c4 b9 03 3f 89 84 c6 3e
       -0.029883672 0.03863784 0.5145533 0.3877299
000200 0d 23 9f be 9e 35 8e bd 52 26 75 3e ef bb 91 3d
       -0.3108143 -0.069438204 0.239404 0.071159236
000210 26 45 c4 bb e2 c4 11 3f 00 4f 94 bd 68 0b 87 be
       -0.0059896884 0.56941044 -0.072416306 -0.2637589
000220 ed dc 43 bd 59 3b 89 3e 9b 44 f3 bd da a6 a0 bd
       -0.047818113 0.2680309 -0.1187832 -0.078443244
000230 be 8e 0e 3f 4f b5 a6 3e 44 f3 92 3e d2 ea 21 bd
       0.5568656 0.32560202 0.28701222 -0.039530583
000240 bc e5 04 be c4 ae 51 3e 6d a5 c7 3e 45 7f ce bd
       -0.12978262 0.20476824 0.38993397 -0.100828685
000250 46 c2 ea bd 45 ff b6 bd 10 0a 71 bd e8 17 d4 bd
       -0.11462836 -0.089354075 -0.058847487 -0.10356122
000260 27 4e 04 be 55 24 b1 bd b8 d2 e6 bd 9e 64 e4 bd
       -0.12920438 -0.08649508 -0.1127066 -0.11152004
000270 28 a8 dd bd 90 d4 0d bd 4c 3c de bd 78 70 c4 bd
       -0.10823089 -0.034626544 -0.108513445 -0.09591764
000280 b4 43 e9 bc 87 30 12 be cf 11 5b be e9 0e 81 3d
       -0.028474666 -0.14276324 -0.21393512 0.06301672
000290 87 16 88 bd f2 14 0f be 2d 3d 88 bd ee 24 8b bd
       -0.06644922 -0.13972834 -0.06652293 -0.06794153
0002a0 b3 54 e5 bd 3e a3 c0 bd 78 2e 31 bd fb d7 4e be
       -0.11197796 -0.09406136 -0.043257207 -0.20199578
0002b0 e3 75 a7 bd d6 f1 65 bd 5a df c5 bd cc ae c1 bd
       -0.08176782 -0.056138836 -0.096617416 -0.09457168
0002c0 70 cd e0 bc 7b c8 8e bd 95 8f 51 be 10 ed 10 bc
       -0.02744171 -0.06971832 -0.20464928 -0.008845583
0002d0 1f 1d 81 bd b2 68 94 bd 7a 0f ad bd e7 06 a4 bc
       -0.063043825 -0.072465315 -0.084502175 -0.020022823
0002e0 9c 90 91 bd 81 b3 ae bd 90 9c 2a bd d4 bf 15 be
       -0.0710766 -0.085303314 -0.041653216 -0.14623958
0002f0 0a cb ee bd b7 c2 fa bd 0d 95 a6 bd 4f 95 88 bd
       -0.116598204 -0.1224417 -0.08133898 -0.06669103
000300 55 8b ec bd 02 ba 91 bd 30 bd 83 bd a5 fd ea bd
       -0.11550013 -0.07115556 -0.06432569 -0.1147416
000310 b8 e9 d1 bd 41 4e 01 be c6 96 c6 bd cc fa 07 3e
       -0.102496564 -0.12627508 -0.096967265 0.13279265
000320 9f 99 21 bd f9 d2 4e bc 71 c8 f6 bd a8 a6 bd bd
       -0.039453145 -0.012623542 -0.1204995 -0.09260303
000330 02 87 29 bc 19 46 8b 3d b8 e8 d3 3d 9a 1d 6a bd
       -0.01034713 0.068004794 0.10347122 -0.057157136
000340 fd 5b 61 bb 27 54 01 be 2f 7b aa bd 1a f9 be bd
       -0.0034387105 -0.12629758 -0.08324277 -0.09324856
000350 e3 2c ea 3d a3 13 dd bd 12 8c b2 3d 8f 1d e6 bd
       0.11434343 -0.10794761 0.087181225 -0.112361066
000360 01 99 0c be 4a 94 0a be 47 be af bd 82 21 af bd
       -0.13730241 -0.1353313 -0.085812144 -0.08551313
000370 74 e9 9b bd 82 a8 92 3d 2a ec df bc 39 cc 00 be
       -0.07612887 0.071610466 -0.027334291 -0.12577905
000380 09 58 aa bd e5 46 08 3e 6a b1 97 bd fe e1 fe 3c
       -0.083175726 0.13308294 -0.07406886 0.03111362
000390 19 1d c4 bd 01 9c d3 bd b8 24 0a be 4f 01 fd bd
       -0.095758624 -0.1033249 -0.1349057 -0.12353765
0003a0 62 09 d3 bd a2 88 81 3d e9 e9 af bd 13 75 4d bd
       -0.10304524 0.06324889 -0.08589537 -0.05016048
0003b0 c9 89 bb bd e1 0b fc bd 48 86 0f be dd e3 da bd
       -0.0915714 -0.12306953 -0.14016068 -0.10687993
0003c0 d9 1f 70 bd f9 bf 25 3e ad ab 9a bd 51 28 e0 bd
       -0.058624122 0.16186513 -0.07552276 -0.1094519
0003d0 bf 50 09 be 27 9f e0 bd 64 87 1e bd 86 6e 1e bd
       -0.13409708 -0.10967856 -0.038703337 -0.038679622
0003e0 d1 83 28 3d db 9e 3b bd c9 dc 3a 3d f4 01 43 bd
       0.041141335 -0.045805793 0.045620713 -0.047609285
0003f0 19 a0 1b bd 8b b9 11 3d f8 dd 0e 3f 2a 8d bf 3e
       -0.037994478 0.03557734 0.5580745 0.37412387

fc1.bias f4 [50]
000000 80 75 04 3d 70 4c c8 be f1 03 3c be c9 c3 46 bd
       0.03233862 -0.39120817 -0.18360879 -0.04852656
000010 cc 3d 89 3d eb 08 76 be 24 8e 10 be 94 57 25 3e
       0.0670124 -0.2402684 -0.14116722 0.1614669
000020 d7 7f 83 3b 37 ee 61 be 28 06 87 3d 4a 02 b1 3e
       0.0040130424 -0.22063528 0.06592971 0.3457206
000030 04 32 a1 3e d1 7e d3 bd c1 3a 8e 3e fe 88 e6 bb
       0.3148347 -0.10326923 0.277792 -0.0070353737
000040 c4 96 68 3e 1c cd 51 3e 19 03 06 be 5c 1a cf 3d
       0.22713763 0.204884 -0.13087119 0.101124495
000050 9b a2 ec bd f2 af b4 bd 42 14 7f 3e 93 4a 47 3d
       -0.11554452 -0.088226214 0.24910071 0.048655104
000060 12 7e 87 be 20 40 1e 3d 8f 46 77 be 98 4e 2e 3e
       -0.26463372 0.038635373 -0.2414801 0.17022169
000070 7d 25 3a 3e f1 47 85 3e 1c cc 38 3d c4 f1 98 3e
       0.18178363 0.2603145 0.04511653 0.29871953
000080 e5 f8 07 be 20 eb 6f 3d 13 5e 8a be 08 f8 e7 3b
       -0.1327854 0.058573842 -0.27024898 0.007079128
000090 05 cf ce 3d aa 87 05 be cd 02 59 3e 56 1d 29 3e
       0.100980796 -0.13040033 0.21192475 0.16515097
0000a0 20 96 b0 3d 17 d4 89 3d 0e 2d 52 3d d0 82 86 bd
       0.08622384 0.06729906 0.0513125 -0.06567919
0000b0 74 d3 27 be 27 6b 40 be c5 22 40 be f4 28 5c 3e
       -0.16389257 -0.18790875 -0.18763264 0.21499997
0000c0 2c 11 7c bd fd 0a 0b be
       -0.061539814 -0.1357841

fc2.weight f4 [10, 50]
000000 2e 79 3f bf 82 ff 10 3e 6d 13 1c bd 51 69 16 bf
       -0.7479428 0.14159968 -0.038104463 -0.5875445
000010 de 1c a1 3e 48 49 7f be d7 d8 00 bc 77 01 2c bf
       0.31467336 -0.24930298 -0.007864199 -0.67189735
000020 c2 ab 71 be 13 47 99 3e 7a f1 e4 3d 3c aa 9b 3c
       -0.23600677 0.29937038 0.111788705 0.019002073
000030 ad 4f 38 be 83 a8 54 3d 3d 34 c8 bd 97 fe 95 3e
       -0.17999144 0.051918518 -0.09775589 0.292958
000040 0c 12 35 3e 94 ce 0f 3e af 07 1f be 1c 90 00 bf
       0.17682666 0.14043647 -0.15530275 -0.50219893
000050 c1 3c e5 3e 3a a9 a0 3d f4 d4 8c be d8 81 24 3e
       0.44772914 0.078447774 -0.2750622 0.16065156
000060 41 b4 d1 bd 08 20 91 be 54 fa eb be bd 9c 2c be
       -0.10239459 -0.2834475 -0.46089423 -0.16856666
000070 0c d3 29 3e e2 21 8c be f8 ee cc 3d 8f 71 66 be
       0.16584414 -0.273696 0.10006517 -0.22504257
000080 55 89 2a bf 9a 03 b4 3c 4d c0 91 3e 77 72 b1 bd
       -0.666158 0.021974374 0.28467026 -0.086644106
000090 90 ab 98 be c1 86 81 bf df f4 c1 be f5 4e 12 3e
       -0.29818392 -1.0119249 -0.37882134 0.14287932
0000a0 d7 a5 45 be 4f d7 2b be ab 1a 93 be 29 bb 47 be
       -0.19301544 -0.16781352 -0.28731284 -0.1950499
0000b0 25 df 18 3f 59 4d eb bd ae e8 b2 bd 89 4f f4 be
       0.5971549 -0.11489362 -0.087357864 -0.4771693
0000c0 a6 d7 84 3e b2 e1 18 bb 8d 12 3c 3e 3c fb 61 be
       0.25945777 -0.0023327884 0.18366452 -0.22068495
0000d0 28 8e aa be e6 b7 97 3d 2c 7a eb 3d 18 7b 13 bf
       -0.33311582 0.07408123 0.11497912 -0.576097
0000e0 9d 19 76 3d 73 b1 27 3e 97 3d 35 bd dc aa 05 bf
       0.06008302 0.16376285 -0.04424819 -0.52213836
0000f0 ba 44 0d bf 92 93 76 3e 7f aa e9 3e 72 3f 4d bc
       -0.55182993 0.24079731 0.4563789 -0.012527334
000100 56 ba 01 3f cf f1 80 3c ef 63 3a bf a5 38 ee be
       0.5067495 0.015740303 -0.72808737 -0.4652759
000110 43 c1 8f be f6 03 62 3e 85 7c 61 be 46 83 b8 be
       -0.28077134 0.22071823 -0.22020157 -0.36037654
000120 50 eb 1e 3e e4 84 77 be 01 aa 2e be 23 6c 54 be
       0.15519452 -0.24171788 -0.17057039 -0.20744376
000130 50 85 31 3c 3e 92 ea be a9 40 aa be 21 99 58 3e
       0.010835007 -0.458147 -0.33252457 0.21152164
000140 f4 48 c1 be 9f d4 4b 3e 0a f3 17 be 3d aa 03 bf
       -0.3775097 0.19905327 -0.14838806 -0.5143164
000150 66 4a 03 bf 9f f6 aa bc f6 7b 04 bf 2b da a3 3e
       -0.512854 -0.020869551 -0.5175165 0.32002386
000160 75 a9 c1 3e 70 d2 a2 3c bd b5 c0 be 65 55 49 3e
       0.37824598 0.019875735 -0.37638655 0.19661482
000170 c9 8b 5a be 9c 68 06 bf 45 e3 04 3d d0 64 77 ba
       -0.21342386 -0.5250337 0.032443304 -0.00094373245
000180 dc 98 14 be 13 9d c7 be 00 e7 91 be 11 8d 92 3d
       -0.14511436 -0.38987026 -0.28496552 0.071558125
000190 c2 ab 3c 3e a8 d2 e6 bd d3 08 64 3c fa 3f a6 be
       0.18424895 -0.11270648 0.0139181195 -0.32470685
0001a0 77 00 01 bc c0 c6 de 3c bb 06 f1 bd 49 7c 6a be
       -0.007873646 0.02719438 -0.11768862 -0.22898974
0001b0 58 9b 38 be b6 3a c9 bd ed 8a a6 be 14 ca 48 bd
       -0.18028009 -0.09825651 -0.32527867 -0.04902084
0001c0 21 0d 71 3d 3a db a4 bd 3a 55 cc bd 0f 12 16 3e
       0.05885041 -0.08049627 -0.09977193 0.14655326
0001d0 2e fe 6f be f6 4f 23 bc 29 7e 26 be 28 4f 9c be
       -0.23436806 -0.009967795 -0.16259064 -0.3052914
0001e0 e3 5d ab bd a4 ae f0 3d 8a d2 50 3e 79 b1 ca bc
       -0.08367517 0.1175206 0.20392814 -0.024742829
0001f0 4c 6e f7 bc 8d 94 59 3e 0b 67 6c be 4e 3f b2 3e
       -0.03020396 0.21248074 -0.23086183 0.34813923
000200 04 75 76 3e 48 f4 b5 3e 6c 22 d5 3e a0 b7 2c 3e
       0.24068075 0.35537934 0.41627824 0.16866922
000210 c7 7d 1a be c3 39 2d bc f2 cd 6a bd 56 73 f8 bd
       -0.15087043 -0.0105728535 -0.05732531 -0.121313736
000220 81 31 71 be 70 3b 00 be b5 6b 29 be fd f5 b2 bd
       -0.2355404 -0.12522674 -0.16544993 -0.08738325
000230 cf 54 c3 bd 2a 59 a6 3e 8b a1 1c be d9 ba 99 be
       -0.0953766 0.32489902 -0.15295999 -0.30025366
000240 07 a5 b2 be 10 b0 40 be 94 d1 82 bd 37 95 1d bf
       -0.3489153 -0.18817163 -0.0638763 -0.6155581
000250 60 ec 1a be 71 2f f5 bd 9e 88 3a 3e 9f af f0 bd
       -0.15129232 -0.11971939 0.18216178 -0.11752247
000260 4b 5f 87 3e 29 47 88 3e e7 a6 3e be 64 93 30 be
       0.2643989 0.2661679 -0.18618356 -0.17243725
000270 1a cd 4e be 7d 49 d1 be 12 7f 0b 3e aa 6e 84 bd
       -0.20195428 -0.4087638 0.13622692 -0.0646642
000280 6c 59 8b 3e 07 90 b2 be fe a6 11 bf e3 2f 92 be
       0.2721666 -0.3487551 -0.56895435 -0.2855216
000290 31 c4 04 bf 97 e7 a2 be 43 82 45 3e 9c b7 61 be
       -0.51861864 -0.31817314 0.19287972 -0.22042698
0002a0 2e e9 2e be c8 a0 85 3c 92 7f 2b 3e a6 45 bf be
       -0.17081138 0.016312018 0.16747883 -0.37357825
0002b0 9e 93 8d 3e c3 77 be be 44 ce 46 3d 9a de 23 3e
       0.27651685 -0.37200746 0.048536554 0.16002885
0002c0 9a bf ca bd 39 98 20 bc f6 0c 0b 3e ab 3e 8c be
       -0.09899826 -0.009801918 0.13579163 -0.27391562
0002d0 63 19 55 be 1e 13 e2 bd 7e b4 af 3d d9 58 0f bf
       -0.20810466 -0.110388026 0.08579348 -0.55994946
0002e0 ee 00 ad bd c6 1b 94 3d 47 30 fc be 78 b1 2e be
       -0.08447443 0.0723186 -0.49255583 -0.17059886
0002f0 2e da b1 bc 9e f0 3f 3e 9b d0 c7 3d d6 7e 0f 3e
       -0.021710481 0.18744132 0.09756585 0.14013228
000300 36 64 92 3b 8f 8c 33 be 47 90 44 be 85 db 1a be
       0.0044675125 -0.17534088 -0.19195662 -0.15122803
000310 e8 ce 9f 3c dd 17 c7 bd 4a c0 94 be 4c 3f 3b 3d
       0.01950784 -0.097213484 -0.29052955 0.04571466
000320 2f 5c a3 3d ef 53 5c be a6 0e d3 bd 3a 11 5f 3b
       0.07976567 -0.21516393 -0.10305528 0.0034037367
000330 d9 85 ff 3c 9a c0 98 3e 60 f5 8b bd 37 d6 78 3e
       0.031191753 0.29834443 -0.06833911 0.24300466
000340 77 30 52 be 05 34 10 be c2 61 69 be e5 fa d4 bd
       -0.205263 -0.14082344 -0.22791198 -0.10399417
000350 90 1d bf be 12 74 b1 bd 38 21 2a be 16 fb 3e be
       -0.37327242 -0.08664717 -0.16614234 -0.18650469
000360 6d 04 fb be 02 e2 28 3e 5d 75 45 be ab 18 27 be
       -0.49026814 0.16492465 -0.19283052 -0.16318004
000370 4d 76 80 be e9 81 60 3e 11 14 3f be fb a4 39 bd
       -0.25090256 0.21924557 -0.18659998 -0.045323353
000380 99 78 8b be 5f 27 10 bf a8 6b 6e 3e 1e 59 89 be
       -0.27240446 -0.56310076 0.23283255 -0.26825804
000390 28 15 01 bf ae 7f 66 bd f6 ce 7e be ed 6e 8a bc
       -0.50422907 -0.05627411 -0.24883637 -0.016898597
0003a0 63 6e 3f 3e 82 6b 4b 3e 7b 1b 1d be a0 b1 c7 bd
       0.18694453 0.1986523 -0.15342514 -0.09750676
0003b0 28 47 a1 3e 79 8e 25 bf 39 97 df bd 39 71 a7 be
       0.314996 -0.6467052 -0.10917515 -0.3270357
0003c0 90 cf 71 bd 7d a5 fa be a2 01 46 be 30 67 cc 3e
       -0.059035838 -0.48954383 -0.1933656 0.39922476
0003d0 e0 a0 d0 be 22 05 5c be 25 22 4a 3d f4 b2 2e 3e
       -0.40747738 -0.21486333 0.04934897 0.17060453
0003e0 db 6b 94 be f8 39 e2 b8 99 13 3e be 08 07 b6 3e
       -0.28988537 -0.00010787317 -0.18562163 0.3555224
0003f0 39 e0 27 3e ad 4e 90 3e 7b bc 9e be 26 21 e7 be
       0.16394128 0.28185025 -0.31003174 -0.45142478

fc2.bias f4 [10]
000000 fe 1a 76 be 3d 80 5a 3e 6e c8 64 bd 2f 5b 95 3e
       -0.24033734 0.21337982 -0.055855207 0.2917113
000010 33 32 20 be e4 be 84 3e 99 dc fd be 81 7e 76 be
       -0.1564415 0.25926888 -0.49582365 -0.24071695
000020 e6 25 ac 3d ed 06 ca 3d
       0.08405666 0.09864602

exp_avg f4 [10, 1, 3, 3]
000000 3f 6a cc 39 c9 be d2 38 3b b5 a2 34 66 1a 9e 39
       0.00038989072 0.00010049117 3.0306714e-07 0.00030155777
000010 ce f6 f7 39 e0 7f e2 37 fd 93 12 38 d2 b4 fb 39
       0.00047295395 2.7000846e-05 3.4946937e-05 0.00048009172
000020 01 ad 36 38 96 fd ec 3c f7 06 81 3c d0 24 be bc
       4.3553304e-05 0.028929513 0.015750391 -0.023210913
000030 17 99 02 3d 00 0a f3 3a 7a c5 0a bd 72 cb ab bc
       0.03188428 0.0018542409 -0.033879735 -0.020971034
000040 6a 00 f4 bc ca 24 2e bd 69 e5 10 bd c1 dd fc bc
       -0.029785354 -0.042515554 -0.035375033 -0.03086746
000050 c2 6f 0c bd 92 35 45 bd c7 28 31 bc a0 37 6c bb
       -0.034286268 -0.04814679 -0.010812945 -0.0036043897
000060 7c 80 e8 bc 0a e7 d7 3b bf 4b 10 3c f0 14 2e 3a
       -0.028381579 0.0065888213 0.008807122 0.0006640693
000070 2c 73 a5 3b 17 13 31 b8 fa 98 07 bb 46 c2 a8 3a
       0.00504913 -4.2217867e-05 -0.0020690546 0.0012875281
000080 bc 58 d5 38 7c f1 29 bb 14 f0 c4 b9 89 10 b4 3a
       0.000101731595 -0.002593129 -0.00037562905 0.0013737838
000090 e0 64 74 b9 b5 21 0c 3a ec 31 06 3d 52 03 37 b9
       -0.00023307232 0.0005345599 0.032762453 -0.00017453477
0000a0 68 9f 5a 3a 9d 35 28 3c e4 4a 5f 3a 5e 9f 4a ba
       0.00083397934 0.010266689 0.00085179345 -0.0007729436
0000b0 b4 3d 91 3b 7c 12 17 2d c1 c9 69 2d c3 9e 11 2f
       0.0044324044 8.587461e-12 1.3289315e-11 1.3244077e-10
0000c0 13 7f e9 29 09 bd 64 2e 5a 6b 0d 2f f5 99 3d 2d
       1.03693225e-13 5.2009095e-11 1.2862014e-10 1.07775915e-11
0000d0 df 15 c6 2e 22 0f 0a 2f 48 94 51 bb f8 24 01 bb
       9.0078826e-11 1.2556403e-10 -0.0031979252 -0.0019705873
0000e0 71 6b a9 bb e0 54 9e 3a a0 52 25 3a c8 a1 1b b9
       -0.0051702787 0.0012079738 0.00063065626 -0.0001484222
0000f0 f0 81 47 3c ec 36 6f 3c 76 f5 f3 3a c0 8c 1f bb
       0.012176976 0.014600497 0.0018612582 -0.0024345368
000100 c0 9f 9e 39 bc a1 18 bc 76 2f 05 3c e2 0d 96 3c
       0.0003025513 -0.009315904 0.008128991 0.018317167
000110 54 4b bf 39 d5 2d c7 3c c8 ca f2 3c 71 cb 26 3c
       0.00036486483 0.024313847 0.02963771 0.01018034
000120 00 00 00 00 00 00 00 00 00 00 00 00 00 00 00 00
       0.0 0.0 0.0 0.0
000130 00 00 00 00 00 00 00 00 00 00 00 00 00 00 00 00
       0.0 0.0 0.0 0.0
000140 00 00 00 00 61 de d0 33 9a ba ec 35 c7 21 52 33
       0.0 9.726205e-08 1.7637678e-06 4.8925155e-08
000150 80 ed 8c 2d 99 87 4b 2e c1 f3 1a 2f 30 48 07 2f
       1.6021628e-11 4.627729e-11 1.4092817e-10 1.2303825e-10
000160 dd 37 74 2f 79 5f 92 2f
       2.2211517e-10 2.6625083e-10

exp_avg_sq f4 [10, 1, 3, 3]
000000 5d 52 59 38 b9 9d 0b 38 81 dc 81 36 cf 23 ac 38
       5.181354e-05 3.3287073e-05 3.8701696e-06 8.208269e-05
000010 ff 10 af 38 2a a4 8c 37 18 7b 8c 38 9a ea a9 38
       8.347816e-05 1.6765745e-05 6.698648e-05 8.102246e-05
000020 3b e5 07 38 dd fd dc 3a b5 c8 c9 3a 17 c2 a1 3a
       3.2399996e-05 0.0016860325 0.0015394898 0.0012341168
000030 8b 2c 0d 3b 01 69 01 3b 03 f7 cb 3a 03 7d df 3a
       0.0021541442 0.0019746425 0.0015561286 0.0017050806
000040 65 3b c3 3a 8b b1 be 3a 23 94 b1 3a 60 67 a5 3a
       0.001489502 0.0014548762 0.0013548177 0.0012619309
000050 7c 55 9c 3a 67 be d0 3a 42 a8 c4 3a fb fd b2 3a
       0.0011927332 0.0015925885 0.0015003758 0.0013656014
000060 f1 d1 96 3a b0 06 70 3a 88 fa 9a 3a ea a0 5a 3a
       0.0011506659 0.000915627 0.0011823932 0.0008340018
000070 5f f5 27 39 1b 98 00 37 0e 26 41 3a 22 4a 4f 38
       0.00016017769 7.664809e-06 0.00073680363 4.9421687e-05
000080 bf 0d 09 37 b8 03 00 3a 8a 7d 8a 38 88 ba 11 38
       8.169037e-06 0.00048833666 6.603736e-05 3.4744415e-05
000090 1e f0 82 36 83 7a 1f 36 8d 3e 0b 39 64 6f 42 36
       3.9022552e-06 2.3764158e-06 0.00013279375 2.897309e-06
0000a0 ac 67 e7 35 eb 11 4c 37 24 19 c6 35 40 0d 0f 36
       1.7241014e-06 1.2163519e-05 1.4759466e-06 2.1316373e-06
0000b0 73 15 88 36 e2 c8 42 2f 47 c7 d2 30 4b 20 b2 33
       4.055613e-06 1.7715565e-10 1.5336149e-09 8.294645e-08
0000c0 30 c4 bb 2a fd 36 27 32 1b 11 b2 33 c3 aa ed 2f
       3.3354005e-13 9.733182e-09 8.2918824e-08 4.3231382e-10
0000d0 d6 3c 3b 33 e6 d6 ba 33 a1 74 aa 3a f1 75 91 3a
       4.359466e-08 8.70039e-08 0.0013004729 0.0011097771
0000e0 b6 df ff 39 85 9c b8 3a 74 75 61 3a f5 cd 20 39
       0.00048804068 0.0014084732 0.0008600571 0.00015335514
0000f0 a7 e6 ac 3a f9 2f e9 39 96 96 a8 38 db 94 fc 3a
       0.0013191298 0.00044476966 8.038913e-05 0.0019270437
000100 a8 47 a7 3a 65 64 f9 39 c5 c0 16 3b a1 53 a0 3a
       0.0012762444 0.0004756778 0.0023003083 0.0012231955
000110 a0 8b 18 39 b8 10 39 3b 8d 00 78 3a 6d 5d bd 38
       0.00014547864 0.0028238725 0.00094605313 9.029624e-05
000120 00 00 00 00 00 00 00 00 00 00 00 00 00 00 00 00
       0.0 0.0 0.0 0.0
000130 00 00 00 00 00 00 00 00 00 00 00 00 00 00 00 00
       0.0 0.0 0.0 0.0
000140 00 00 00 00 c7 98 f8 32 b1 e0 04 34 9e 00 95 33
       0.0 2.8940475e-08 1.23752e-07 6.9384654e-08
000150 46 74 3e 30 43 91 77 32 a1 02 0d 34 09 28 7c 33
       6.928683e-10 1.4410321e-08 1.3132605e-07 5.8709734e-08
000160 37 4d 54 34 87 9f 61 34
       1.9772129e-07 2.1012794e-07

exp_avg f4 [10]
000000 f8 34 00 3a 42 f1 6d bd c0 2f 13 3d a7 7d 27 bc
       0.00048907055 -0.05809141 0.03593421 -0.010222829
000010 26 a7 47 3d 74 99 1a 2f 3e c4 33 3c 44 c4 e7 3c
       0.04874339 1.4060736e-10 0.010972081 0.028291829
000020 00 00 00 00 9c be ed 35
       0.0 1.7713351e-06

exp_avg_sq f4 [10]
000000 85 06 48 39 41 45 30 3b c1 18 20 3b e0 7e 92 3a
       0.00019075915 0.0026896747 0.0024428817 0.0011176728
000010 6e 35 91 3b f8 64 d3 33 21 46 f0 3a f9 9f 51 3b
       0.004431418 9.843819e-08 0.0018331447 0.003198622
000020 00 00 00 00 64 79 45 35
       0.0 7.3564865e-07

exp_avg f4 [20, 10, 3, 3]
000000 94 13 3d 2d 85 4a a4 2c 91 69 90 ac 1b 91 82 2c
       1.0747753e-11 4.6694337e-12 -4.1044464e-12 3.710932e-12
000010 d7 fc 10 ac 95 e0 bd 2b 2d 6c a6 2d c3 98 e4 2c
       -2.0603985e-12 1.3491592e-12 1.8920055e-11 6.4971097e-12
000020 c4 5d 82 2d 95 6b ea 30 43 ee f4 2d d7 84 8a 2d
       1.482093e-11 1.7056317e-09 2.7845398e-11 1.5747776e-11
000030 04 13 6f 2f 50 e6 61 2e df 2f 34 2e 07 02 aa 2e
       2.1743679e-10 5.1363636e-11 4.096978e-11 7.731065e-11
000040 04 31 b0 2e 3a 11 86 2e aa 0e 02 31 65 2e 4d 2d
       8.01226e-11 6.0966746e-11 1.8925825e-09 1.16632025e-11
000050 fb d0 90 2c 65 fd ef 2f 17 00 42 2c e3 75 34 ad
       4.1159277e-12 4.3653894e-10 2.7569108e-12 -1.02579915e-11
000060 5a 74 64 2e ab 0d d3 2d 86 f9 b6 2d 77 f4 24 30
       5.194454e-11 2.3993993e-11 2.0801815e-11 6.001026e-10
000070 c8 d3 41 2d a7 a9 be ab c7 8d 5e 2f 8c 13 ea aa
       1.1017805e-11 -1.35474e-12 2.0241152e-10 -4.1580313e-13
000080 61 f0 59 aa cb 76 1c ab 50 bd 84 ab c3 a6 e0 ab
       -1.935687e-13 -5.558719e-13 -9.431709e-13 -1.5962443e-12
000090 69 61 b8 2e 4f b0 f4 2e 4f 14 f8 2e cd 4b ef 2e
       8.384655e-11 1.1127154e-10 1.1281342e-10 1.08819266e-10
0000a0 0e 79 cd 2e 0f fd fb 2e 56 12 2d 2f 97 63 2e 2f
       9.343824e-11 1.1459111e-10 1.5740773e-10 1.5860589e-10
0000b0 1c 73 48 2f 00 00 00 00 3e ce 54 ab aa ca 0b 2b
       1.8230789e-10 0.0 -7.560375e-13 4.9663973e-13
0000c0 85 90 b3 a7 77 ff fd aa 8b 0b 50 2a 6e e7 af 2a
       -4.983917e-15 -4.5119092e-13 1.8478116e-13 3.124683e-13
0000d0 7b 7e ed 2a 01 8d 58 a8 52 89 99 30 28 e4 41 ac
       4.218742e-13 -1.2020984e-14 1.1171244e-09 -2.7553602e-12
0000e0 ba 4a 96 ab 16 66 47 2f bf 3d 27 2b da dc 2f ab
       -1.0678882e-12 1.8135213e-10 5.941601e-13 -6.247898e-13
0000f0 11 84 05 ac e0 8b 53 2b d1 cf 97 2c 05 e4 33 30
       -1.8973748e-12 7.5156374e-13 4.3147504e-12 6.5443856e-10
000100 cc 42 74 2d ff 84 49 ac 46 f6 b4 2e 54 21 d8 2d
       1.3884626e-11 -2.8637646e-12 8.229199e-11 2.4571158e-11
000110 b6 bd ac 2d 90 a0 35 2e a0 79 6a 2e 97 ce 31 2e
       1.9638385e-11 4.1297243e-11 5.3313465e-11 4.042863e-11
000120 00 00 00 00 00 00 00 00 00 00 00 00 00 00 00 00
       0.0 0.0 0.0 0.0
000130 00 00 00 00 00 00 00 00 00 00 00 00 00 00 00 00
       0.0 0.0 0.0 0.0
000140 00 00 00 00 88 b6 33 ac 34 b2 71 2c 2a a0 df 2b
       0.0 -2.5538755e-12 3.4347082e-12 1.5889557e-12
000150 11 7b a3 2c ca 13 8b ab ac 28 d7 2b 42 1b f1 2b
       4.6464018e-12 -9.882037e-13 1.5287958e-12 1.7131645e-12
000160 cc 6b 97 2b 7d f1 18 ac ed 4c 8b 33 66 30 20 36
       1.0759115e-12 -2.1734552e-12 6.4866846e-08 2.387003e-06
000170 8a 50 2b b3 c1 9a 11 32 7c 6d 2b b6 ad ff dc b5
       -3.988729e-08 8.475298e-09 -2.5544714e-06 -1.6465689e-06
000180 28 40 89 30 dd 83 fe b3 43 3f 80 b5 1e c3 96 3b
       9.986296e-10 -1.18517825e-07 -9.555155e-07 0.0046008965
000190 72 16 5a 3c 24 34 ac 3b 24 bf 6c bb 4c 96 b1 bb
       0.013311015 0.005255239 -0.003612467 -0.005419528
0001a0 16 62 a4 bb 1d 90 1e 3c 91 e8 2a 3c 05 3b 5d 3c
       -0.0050165756 0.009677914 0.010431425 0.013502841
0001b0 32 84 6b 3c ff 0f e4 3b 44 cc 87 3b cb d8 a6 bb
       0.01437478 0.0069599147 0.0041442234 -0.0050917617
0001c0 0a e4 04 bc 95 b8 cd bb c9 6e 8e ba 90 0c b4 3a
       -0.008111009 -0.0062781074 -0.0010866757 0.0013736654
0001d0 78 81 f2 bb 48 01 f8 b8 83 51 8a ba 9c 88 61 3b
       -0.007400688 -0.000118258 -0.0010552857 0.00344137
0001e0 2c 17 13 b8 ae 4b f5 b9 98 af e6 38 fa ac 37 b9
       -3.506911e-05 -0.00046786427 0.000109999615 -0.00017516679
0001f0 eb ca 51 b9 0f 3a fc ba b1 a0 04 bb 8d 79 3a 3a
       -0.00020007386 -0.0019243377 -0.002023738 0.00071134494
000200 a6 b5 b2 ba f5 73 98 ba d8 1b c7 39 03 37 60 39
       -0.0013634458 -0.0011631238 0.00037976983 0.00021382798
000210 12 5f 42 bb c8 f6 19 bb a1 a2 92 ba 2e 13 2c 2d
       -0.0029658717 -0.002349304 -0.0011187383 9.781327e-12
000220 91 1f f0 2c f0 a8 62 2d 86 76 74 ac de 96 02 2d
       6.824715e-12 1.2884124e-11 -3.474028e-12 7.423144e-12
000230 6c f9 35 2d cc 56 47 2d 82 16 63 2d ec 99 99 2c
       1.0344042e-11 1.1331113e-11 1.2908454e-11 4.3656103e-12
000240 87 37 29 3b 1f dc c1 3a 6a f8 27 3b 1a 8c 68 3a
       0.002582045 0.0014790333 0.0025630244 0.00088709744
000250 81 a7 11 3b 53 67 ca 39 ea 79 7e 39 21 e5 a4 b9
       0.0022225084 0.00038605425 0.00024268744 -0.00031451232
000260 1e 80 2b bb ba f1 f6 3b 29 10 ae bb 91 fb 6e 3b
       -0.0026168893 0.0075361403 -0.005311985 0.0036465863
000270 e0 68 a1 3b 8f cf 70 3b 38 a9 e3 bb 4c b5 af 3a
       0.004925832 0.0036744808 -0.0069476627 0.0013405471
000280 64 60 ff 39 ec 83 fc bb 00 00 00 00 00 00 00 00
       0.00048709207 -0.007706156 0.0 0.0
000290 00 00 00 00 00 00 00 00 00 00 00 00 00 00 00 00
       0.0 0.0 0.0 0.0
0002a0 00 00 00 00 00 00 00 00 00 00 00 00 70 ba 4c ad
       0.0 0.0 0.0 -1.1637455e-11
0002b0 f5 43 54 2d 38 0e d3 2d 12 e4 96 2d 27 b0 2b af
       1.2065894e-11 2.3994237e-11 1.715431e-11 -1.5614941e-10
0002c0 89 e8 1c 2e e4 b9 82 2e d6 eb 92 2e 44 1c 25 2e
       3.5676826e-11 5.9447364e-11 6.681204e-11 3.754176e-11
0002d0 24 2d 2f 38 e5 d2 6a b8 06 71 04 b6 d5 fb 24 b5
       4.1765292e-05 -5.598636e-05 -1.973532e-06 -6.1461225e-07
0002e0 9a ef 8a 38 dc 0f 3d 38 c1 b3 a6 32 c8 c8 e9 35
       6.624982e-05 4.507588e-05 1.9406686e-08 1.7418288e-06
0002f0 de ed 34 b7 b8 6e d5 3c ba 52 59 3c 0e 61 06 3c
       -1.0784219e-05 0.026053771 0.013264352 0.008201851
000300 d8 d2 9c 3c 17 ce f9 3c b2 80 a2 3c 80 73 b5 3c
       0.019143507 0.03049378 0.019836757 0.022149801
000310 9c fe 59 3d e5 46 50 3d 79 65 eb 3c a0 1f 78 3c
       0.05322133 0.05084886 0.02873491 0.015144259
000320 4a a1 54 3c 3e b3 a5 3c 55 db 94 3c bb cf 88 3c
       0.012977907 0.02022707 0.018170992 0.016700616
000330 1a 52 fe ba ca c8 d6 3c cf fc 0f 3d f6 cf d3 39
       -0.001940313 0.02621879 0.035153206 0.000404
000340 07 c7 d8 ba df 0c 19 3a f5 2b 7b ba e1 4d 6c ba
       -0.0016538807 0.0005838405 -0.000958144 -0.00090142904
000350 78 b9 6f ba 1f a2 24 b7 c4 ae 9a 3a 48 37 f7 ba
       -0.00091447635 -9.8129085e-06 0.0011801352 -0.001886108
000360 ef 5a ea 3b 50 79 da 3b 88 53 14 3c ae 85 eb 3b
       0.0071519534 0.0066672936 0.0090531185 0.0071875667
000370 a7 8f 00 3c d2 2c 1d 3c d7 ff d5 3b 11 01 91 3b
       0.007846749 0.0095932055 0.0065307426 0.004425176
000380 7a e5 cb 3b a2 b2 22 ac 3a cc 2d 27 13 27 cd aa
       0.006222424 -2.3120746e-12 2.4119284e-15 -3.6442428e-13
000390 b2 45 1b 2b b4 9b db aa 91 23 ce 26 e4 69 08 2c
       5.5163784e-13 -3.9010256e-13 1.4303762e-15 1.9385544e-12
0003a0 76 ad 22 a9 c1 85 35 aa 49 12 b1 39 38 18 a2 3b
       -3.612168e-14 -1.6122435e-13 0.00033773694 0.0049467348
0003b0 97 3d 0c ba a0 32 3d 39 68 69 61 3b d0 e9 b6 ba
       -0.0005349754 0.00018043304 0.0034395102 -0.001395518
0003c0 e8 51 fe b7 f7 4b b3 3a 2a 2a 0e 3a a8 22 30 3c
       -3.03173e-05 0.0013679255 0.0005423153 0.01075045
0003d0 7c 37 41 3c 66 63 1c 3b a5 cb 42 bb 3c 4e 72 3b
       0.011793014 0.0023862957 -0.0029723432 0.00369729
0003e0 05 f5 f2 3b 69 42 54 ba f8 cc 9c 3a 33 1d 73 3c
       0.0074144625 -0.0008097054 0.0011962941 0.014838505
0003f0 00 00 00 00 00 00 00 00 00 00 00 00 00 00 00 00
       0.0 0.0 0.0 0.0

exp_avg_sq f4 [20, 10, 3, 3]
000000 8d b1 86 2f 06 8c b2 2e 16 f4 89 2e d2 89 61 2e
       2.4500615e-10 8.119376e-11 6.273397e-11 5.1281486e-11
000010 0f 0e 8b 2d 73 7d ee 2c bf 35 b7 30 00 d6 2c 2f
       1.5808714e-11 6.7782945e-12 1.3330278e-09 1.5719337e-10
000020 8d d8 60 30 13 a6 e3 34 df 82 f0 30 e3 d8 7d 30
       8.179846e-10 4.240288e-07 1.7499494e-09 9.234908e-10
000030 b3 b8 87 32 2a c8 28 32 c8 c4 d6 31 4b 3f bb 32
       1.580006e-08 9.824399e-09 6.250591e-09 2.1798447e-08
000040 8e 59 cd 32 0c 8b 32 32 b8 6a f3 34 87 58 1b 2f
       2.3905866e-08 1.0392579e-08 4.5339925e-07 1.4128619e-10
000050 fb b9 8a 2e ae e9 5b 33 b3 9f 82 2e da 6b d7 2f
       6.30855e-11 5.120244e-08 5.940084e-11 3.9184905e-10
000060 66 d5 ba 2f 71 53 13 31 2d 77 dd 30 51 09 25 33
       3.3984832e-10 2.1438746e-09 1.6113738e-09 3.842553e-08
000070 ba c3 f5 2d 8c 77 f0 2c 9c 10 1e 32 b5 38 35 2b
       2.7940195e-11 6.8344826e-12 9.200587e-09 6.4382814e-13
000080 7d 18 1d 2a e4 8c ae 2c 56 1b 69 2c f1 eb 26 2d
       1.3952897e-13 4.9610194e-12 3.3126466e-12 9.488397e-12
000090 0b e2 44 30 3d 6f 48 31 35 cd 41 31 64 36 17 31
       7.162561e-10 2.9167062e-09 2.8201843e-09 2.200431e-09
0000a0 69 d7 13 31 bf 0c 40 31 26 32 e3 31 32 50 e6 31
       2.1513762e-09 2.7946923e-09 6.6122707e-09 6.702998e-09
0000b0 3d 57 17 32 00 00 00 00 47 c8 15 2c 3c 44 81 2b
       8.8091925e-09 0.0 2.128535e-12 9.18494e-13
0000c0 a5 49 d5 24 72 61 55 2b ec 27 0f 2a 1b ae cc 2a
       9.2498784e-17 7.5808034e-13 1.2714802e-13 3.635849e-13
0000d0 4d 8d 3a 2b c8 19 1b 26 fd 42 6c 34 47 ba db 2d
       6.627657e-13 5.381137e-16 2.2003583e-07 2.4980141e-11
0000e0 59 6a 95 2c 03 c5 13 32 40 04 b9 2b 93 95 cc 2b
       4.2466417e-12 8.601321e-09 1.314622e-12 1.4536587e-12
0000f0 39 50 15 2d d6 03 14 2c e9 73 98 2e ed f8 65 33
       8.487482e-12 2.1034194e-12 6.9327495e-11 5.3544614e-08
000100 6f ce 43 30 fa 50 06 2e dc be 59 30 b9 7f 1a 31
       7.1233947e-10 3.0539994e-11 7.921537e-10 2.2482551e-09
000110 b8 62 c5 30 68 d3 32 32 cd d6 35 32 03 22 d1 31
       1.4361694e-09 1.0409032e-08 1.0584427e-08 6.0865673e-09
000120 00 00 00 00 00 00 00 00 00 00 00 00 00 00 00 00
       0.0 0.0 0.0 0.0
000130 00 00 00 00 00 00 00 00 00 00 00 00 00 00 00 00
       0.0 0.0 0.0 0.0
000140 00 00 00 00 46 bf 1b 2c 2e 36 41 2e a0 66 25 2d
       0.0 2.2133003e-12 4.393124e-11 9.4019514e-12
000150 3a ca b0 2e d9 e5 7f 2c 05 1d 19 2d 2d 45 40 2d
       8.039476e-11 3.636527e-12 8.703487e-12 1.09292965e-11
000160 44 ab 97 2c da bb 9a 2d 32 89 09 36 92 6a 80 36
       4.3106924e-12 1.7591196e-11 2.049445e-06 3.8271037e-06
000170 e7 66 1e 36 b1 91 da 35 05 1a 59 36 4f 8d 5a 36
       2.3603732e-06 1.6284667e-06 3.2350665e-06 3.2566784e-06
000180 3d f5 04 36 ab 6c 00 36 7b 3b 37 36 e0 4e 8d 3a
       1.981228e-06 1.913674e-06 2.7303747e-06 0.0010780953
000190 f0 0f 89 3a 64 3d 45 3a e4 91 8c 3a b8 9a b6 3a
       0.001045702 0.00075241015 0.0010724631 0.0013931608
0001a0 95 ab a7 3a cb ce d6 39 87 09 46 3a 83 6d 8d 3a
       0.0012792224 0.00040971334 0.000755452 0.0010790083
0001b0 52 65 a6 39 e4 6a f8 39 c2 39 b3 39 4e bf c2 39
       0.00031737477 0.00047381886 0.00034184573 0.00037145097
0001c0 5d e0 0f 3a 5c 86 15 3a 56 a4 33 39 77 35 9b 39
       0.000548845 0.000570392 0.0001713199 0.00029603738
0001d0 34 cb fb 39 4b 62 37 36 38 07 6b 37 bd 53 94 37
       0.0004802585 2.732634e-06 1.4008772e-05 1.7681969e-05
0001e0 5d e6 c2 35 29 e5 30 37 7d b7 97 37 a9 0e 98 35
       1.4521171e-06 1.0543773e-05 1.8086046e-05 1.1329149e-06
0001f0 17 72 88 36 44 08 27 37 c1 ad e0 36 a4 cb 9b 36
       4.0663977e-06 9.9559e-06 6.695948e-06 4.643067e-06
000200 36 77 d8 36 bc 07 03 37 58 32 98 36 32 ac 96 36
       6.4511796e-06 7.810009e-06 4.535814e-06 4.4903945e-06
000210 5d 6e 63 37 bd 82 37 37 84 e9 ca 36 67 4b b7 2f
       1.355595e-05 1.093809e-05 6.047254e-06 3.3341083e-10
000220 8a 01 ac 2e 99 ad af 2f 88 1b 7f 2e 79 89 52 2f
       7.821928e-11 3.1955663e-10 5.800474e-11 1.9148229e-10
000230 b2 4b 71 2f 90 0f 3d 30 50 c6 88 2f f0 12 f3 2d
       2.1945715e-10 6.8779915e-10 2.4879165e-10 2.7634312e-11
000240 6e 15 84 37 05 20 4c 38 db 46 37 38 2f a6 8f 37
       1.5745605e-05 4.866721e-05 4.369659e-05 1.7124314e-05
000250 97 f9 10 38 82 9f 70 38 0d ad 13 37 94 25 b5 37
       3.4564724e-05 5.7369012e-05 8.802174e-06 2.159438e-05
000260 a2 50 32 38 2c 33 b1 37 49 cf f6 38 27 07 14 39
       4.2513602e-05 2.1123873e-05 0.00011768804 0.00014117044
000270 3f a9 94 37 4d 8c 41 38 51 2f 02 39 86 3c 3a 37
       1.7721786e-05 4.614545e-05 0.00012415393 1.1100556e-05
000280 3a 0b c2 37 b5 d9 df 38 00 00 00 00 00 00 00 00
       2.313183e-05 0.0001067402 0.0 0.0
000290 00 00 00 00 00 00 00 00 00 00 00 00 00 00 00 00
       0.0 0.0 0.0 0.0
0002a0 00 00 00 00 00 00 00 00 00 00 00 00 92 f1 da 31
       0.0 0.0 0.0 6.3720984e-09
0002b0 3f 44 a1 31 ab 9c 62 30 7c 17 67 32 e1 e7 67 31
       4.6934754e-09 8.244096e-10 1.3451309e-08 3.3746732e-09
0002c0 86 02 30 31 5b 2a 59 32 46 f2 09 32 bc 42 2d 31
       2.5612805e-09 1.2640693e-08 8.029536e-09 2.5212747e-09
0002d0 dc 03 74 35 11 78 87 35 11 eb fa 34 5a 61 95 35
       9.09027e-07 1.0093228e-06 4.6737162e-07 1.1129698e-06
0002e0 23 18 78 36 fb 92 a0 35 b4 1e a0 34 b4 c3 8b 36
       3.696893e-06 1.1963706e-06 2.9824662e-07 4.1653057e-06
0002f0 fb 49 cb 36 bb 42 5a 3a e3 53 0f 3a 89 7e 4f 39
       6.058484e-06 0.00083259837 0.0005467517 0.00019788196
000300 3d 59 95 3a b2 63 9d 3a ed 04 55 3a ae ac 7f 3a
       0.0011394393 0.0012007861 0.0008126039 0.00097532093
000310 39 fa bf 3a 0d 4d b2 3a c5 e8 b3 39 e8 72 c7 39
       0.0014646716 0.0013603285 0.00034314967 0.0003804185
000320 73 75 00 39 9e d7 ce 39 99 91 13 3a d7 c2 9e 39
       0.00012250784 0.0003945203 0.0005629301 0.00030281275
000330 04 52 4f 39 96 5f 0f 3a 62 f9 17 3a fe 5c 9a 36
       0.00019771612 0.00054692605 0.0005797354 4.6003834e-06
000340 be 31 91 37 08 4f 16 37 2e a1 24 36 93 9e ba 37
       1.730851e-05 8.959098e-06 2.4531723e-06 2.224677e-05
000350 d3 86 69 37 2b 60 be 34 53 da 31 37 35 f5 e3 37
       1.3919273e-05 3.546023e-07 1.0600855e-05 2.7174692e-05
000360 63 3b 88 37 83 e9 bc 37 52 37 ff 37 10 0d 98 37
       1.6240117e-05 2.2520084e-05 3.042413e-05 1.8125895e-05
000370 6c 46 aa 37 21 9a cc 37 a7 e4 a6 37 b9 39 67 37
       2.0298372e-05 2.4390467e-05 1.9895217e-05 1.3782113e-05
000380 65 3e 54 37 0f 55 e3 2c 14 b6 2c 23 27 77 bd 2a
       1.2650712e-05 6.4611714e-12 9.362695e-18 3.3655823e-13
000390 64 39 a4 2b 66 6c fc 29 1c 83 01 22 7e e4 d1 2d
       1.166883e-12 1.1209852e-13 1.7552169e-18 2.386202e-11
0003a0 e0 a8 1c 29 6a 90 14 2b a8 f9 00 38 98 2c 5d 38
       3.4785434e-14 5.2780577e-13 3.075009e-05 5.2732037e-05
0003b0 39 3e 88 37 8c 1f 83 37 28 79 3d 38 03 80 f3 37
       1.6241438e-05 1.5631107e-05 4.5173947e-05 2.9027467e-05
0003c0 62 e6 60 37 3d 64 4c 38 b3 1b 2d 38 4b cc b4 38
       1.3405081e-05 4.8730744e-05 4.127221e-05 8.6211214e-05
0003d0 a3 cb 25 39 f6 3a 7b 38 b5 dc c4 37 d8 b1 19 39
       0.00015811487 5.9897975e-05 2.3467795e-05 0.00014657469
0003e0 4a 05 ee 38 30 8f 06 37 9d 46 a9 38 9a bc 1c 39
       0.000113497095 8.020361e-06 8.071701e-05 0.00014947579
0003f0 00 00 00 00 00 00 00 00 00 00 00 00 00 00 00 00
       0.0 0.0 0.0 0.0

exp_avg f4 [20]
000000 5a 59 53 31 7f 0a 8f bc f0 11 03 3e f8 ea bc 32
       3.0755332e-09 -0.01746106 0.12799811 2.1992932e-08
000010 93 a8 d0 30 02 77 28 bd 18 76 1f 31 7e d5 e7 31
       1.5181904e-09 -0.04112912 2.3204674e-09 6.747256e-09
000020 ef d3 ea 2e ed e4 62 30 b0 77 db 2d 83 67 01 32
       1.0678735e-10 8.2543644e-10 2.495057e-11 7.532324e-09
000030 a6 21 89 3b 8e 51 00 32 d2 c5 18 bc e7 38 b2 32
       0.0041849194 7.469124e-09 -0.009324508 2.0747803e-08
000040 50 df 54 bd 49 6d 46 31 60 98 3b 32 df 76 bc 31
       -0.05197078 2.8874914e-09 1.0919479e-08 5.485034e-09

exp_avg_sq f4 [20]
000000 54 c4 ab 35 5f 9c 2a 3b d9 7a 9d 3b a8 1d 05 3a
       1.2797632e-06 0.0026033146 0.0048059043 0.00050779665
000010 e9 3c 73 36 11 08 35 3b a0 65 dd 36 cf ec 22 39
       3.6245276e-06 0.0027623216 6.598144e-06 0.00015537742
000020 09 63 36 33 4d ee 62 35 9b 4e 1f 31 f4 9a 5c 38
       4.246525e-08 8.4538334e-07 2.3182227e-09 5.25964e-05
000030 89 1b fd 3a 4f 20 19 39 57 b3 91 3a ad fd 0b 3a
       0.0019310574 0.00014603253 0.001111607 0.000534023
000040 c2 79 25 3b 8c b1 94 37 fc 75 57 39 87 be 59 38
       0.0025249575 1.7725652e-05 0.0002054795 5.1914274e-05
