lightning_logs/version_4/checkpoints/epoch=1-step=36.ckpt (torch, 273474 bytes, 24 tensors)

conv1.weight f4 [10, 1, 5, 5]
00000000: c5a8 20be a3ed 2ebe b9f8 d3bd b99f 26be
00000010: bb0a d9bc 7e09 80be d0e5 4cbe 6816 87be
00000020: 43e4 b43b 682e 4fbe be0a a2be 819a 60be
00000030: 273e aa3d ff86 91bd 529e 27be 3163 23be
00000040: 4be5 b0bd 4670 73be 0dbe 48bd e9b2 c3be
00000050: 5ba4 e1bd 2ec7 96bd 3153 f7bb 52b1 52be
00000060: 4af9 48be 4bf0 c9bd 6c94 2d3e bbb4 ee3d
00000070: 2113 b43e 973e b13e 0bc8 4fbe 6522 adbd
00000080: 891d ca3d 6a2d 933a b608 133d 6556 83be
00000090: ba5b acbd d0f5 74be 9286 e7bd b084 96be
000000a0: c32e 85be 89a0 66be e83e c2be 40c7 6ebe
000000b0: acf5 48be 2d50 7ebe 01c6 1c3d 0dc9 9dbd
000000c0: 2dcc 74be 16f3 80be 2b18 a63d e3d6 32be
000000d0: 757f 5dbe 685b 28be 3f97 9a3d a7d1 30be
000000e0: ff84 d93d b0a0 b9bd fbd9 a13d 3a03 45be
000000f0: ecea b3bd 6a86 9dba e2ee 1dbe a601 18bb
00000100: 4894 533d 0990 81be 554d 9fbe 5fe7 88be
00000110: 58af 3d3d 3c36 51be f188 d8bc 3e43 d5bd
00000120: 472c 45be 9bd8 71be 6045 a6be 628d 133e
00000130: 890f 85be 3e3b 5abe e467 f53d 6922 463e
00000140: 03d4 463e 2a77 0fbc 5f33 74bd d045 32be
00000150: 9a51 1dbe d362 d7bd b36f bfbd c171 88be
00000160: 9a8a 8fbe 362f 89bd 22cd 24be b555 9abd
00000170: 92c8 80be ed21 09be a09d c2be 45c6 80be
00000180: 306c fdb9 e858 4cbe 3d4e 4dbe 18ad bdbe
00000190: fde1 f2bd 9d02 773d 4084 d53b 9497 85be
000001a0: 5b0c a8bd 2015 bebd 63b9 44bd bcf4 0dbe
000001b0: 7716 48be 7a01 943c 5dd4 08be e6f2 4abe
000001c0: 30c1 1ebe 7ed6 3fbe fc6f a8bd 857a 4dbe
000001d0: 51c8 42be 25d1 a8bc c9df 3fbe a307 8abe
000001e0: 8937 46be 7324 d5bd ca60 16be 8df8 32be
000001f0: bd84 a6be cb32 51be 9842 7f3e e559 c73e
00000200: e4fd 0e3e 52f2 bb3e 846f a3be e8db 063d
00000210: dd9c 5fbe 522c 4fbe 6bd8 90bd ef0f 73be
00000220: 9362 fabd 3232 b9bd f0ca 97bd 25a8 cdbd
00000230: b171 01bd c7f5 c03c 5418 9dbe 8d59 35bc
00000240: 7fd5 babe eb37 03be 8380 2ebc ec43 0abd
00000250: adbf 06be 1339 a1bd 0cb9 99be c021 09be
00000260: 1b70 2ebd 11ab 00be b88e f7bd 0ec4 11be
00000270: eda0 d6bd e405 dabc 4be7 5abe f8c8 a2be
00000280: f0e2 a1bd b408 90bd dfdf 8ebe 9b2f c7bd
00000290: 7156 a1be 0db3 7fbd 46ea 84be 4e9e 8dbe
000002a0: 70f5 a63c 3475 09be a298 70be c58e 24be
000002b0: 8f3b acbe 80ef 76be 2914 5cbe 0151 15be
000002c0: 19d8 cd3d 67ed 6ebe 8c79 33be fe8c a1bd
000002d0: 444b aeba a626 423d c81e 59be 01ee a0bd
000002e0: 610e 63bd 7e46 6ebe bcf9 84be e925 9bbe
000002f0: 100a 32be b66c afbd 8888 32be 1b9e 51bd
00000300: 030e 81bd 1b98 2c3d e300 37be 9f7d 4fbe
00000310: b877 23bc fe69 9dbd 1d89 3abe b727 98bd
00000320: ddc4 eebd fce1 c7bc ab62 3ebe ce12 87be
00000330: 1a5d 5abe 82eb c63c 5bf6 d1bd 3157 30be
00000340: c2fd a4be b8c6 6d3c 11cf a839 aa86 0fbe
00000350: 0513 8dbe cae3 65be d0ef 903c 76bc 7dbe
00000360: d87f a1bd d877 7fbe 2cbb 6e3d e34e abbd
00000370: 531e c1bd 7de9 2bbe c7f6 5fbd 9ca2 aa3d
00000380: 8462 9abe ef2f 623c eac1 37bd d7b3 ed3c
00000390: b672 923c 0ac0 60be de2a a93d c5cb 83bc
000003a0: 6718 003d 12fa 133d 7d81 a33d e7e0 98be
000003b0: 7099 b43a 8bdc 3ebe d0de 5bbe 6e59 94be
000003c0: 5707 06be 2af2 453a fef8 cd3d e1cf 04be
000003d0: 4ab9 a73d a1f0 31be 8a82 f9bc d0cb d13c
000003e0: 9b93 4bbe c1e9 af3d
-0.1568938 -0.17082839 -0.103501745 -0.16271867 -0.026494374 -0.25007242 -0.20009542 -0.26384282
0.005520375 -0.20232546 -0.3164882 -0.21933939 0.08312636 -0.071058266 -0.16368988 -0.15955807
-0.08637484 -0.23773298 -0.04900937 -0.38222435 -0.110176764 -0.07362209 -0.007547759 -0.20575455
-0.19626346 -0.09860285 0.1695115 0.11655565 0.35170844 0.34618065 -0.20291154 -0.08453826
0.09868915 0.0011228744 0.03589698 -0.2565185 -0.08415933 -0.23921895 -0.11304964 -0.29398108
-0.2601224 -0.22522177 -0.3793862 -0.23318195 -0.19624966 -0.24835272 0.03827477 -0.07704363
-0.23906012 -0.2518546 0.081100784 -0.17464785 -0.21630652 -0.16441119 0.07548379 -0.17267476
0.1062107 -0.09063852 0.079029046 -0.19239512 -0.08785042 -0.0012018208 -0.15423158 -0.0023194342
0.051655084 -0.25305203 -0.31113687 -0.26739022 0.0463098 -0.20430845 -0.026432486 -0.10413216
-0.19255172 -0.23617785 -0.32474804 0.14409402 -0.25988415 -0.21311662 0.11982706 0.19349064
0.19416814 -0.008756438 -0.059619304 -0.17409444 -0.1536316 -0.10516896 -0.09347477 -0.26649287
-0.28035432 -0.06698458 -0.16093877 -0.075358786 -0.25153023 -0.13391848 -0.38010883 -0.25151268
-0.00048336526 -0.1995579 -0.20049377 -0.37046123 -0.1185951 0.060305227 0.0065160096 -0.26092207
-0.082054816 -0.09281373 -0.04802836 -0.1386289 -0.1953982 0.01806711 -0.1336226 -0.19819221
-0.15503383 -0.18734166 -0.08224484 -0.20066269 -0.19021727 -0.02060754 -0.18737711 -0.2695895
-0.19357122 -0.10407343 -0.1468536 -0.17477627 -0.32523146 -0.20429532 0.24927747 0.38935772
0.13964039 0.36708313 -0.31921017 0.032924563 -0.21837182 -0.2023175 -0.070725285 -0.23736547
-0.12225833 -0.09042777 -0.07411754 -0.10041837 -0.031602565 0.023554696 -0.30682623 -0.011068714
-0.3649101 -0.128143 -0.010650757 -0.03375618 -0.13159056 -0.07872214 -0.30023992 -0.13391781
-0.04258738 -0.12565257 -0.12087768 -0.14234945 -0.10479913 -0.026614137 -0.21377294 -0.31793952
-0.07904613 -0.0703291 -0.27905175 -0.09725877 -0.31511262 -0.062426616 -0.25959986 -0.2765984
0.020380706 -0.13423616 -0.23495725 -0.16070087 -0.3363919 -0.241148 -0.21492065 -0.14581682
0.10050983 -0.2333275 -0.17526835 -0.0788822 -0.0013297577 0.04740014 -0.21203148 -0.07857896
-0.055433635 -0.23269078 -0.25971782 -0.3030236 -0.17386651 -0.08565657 -0.17434895 -0.05117617
-0.06301501 0.042137247 -0.17871432 -0.20262764 -0.009977274 -0.07686232 -0.18216367 -0.0742945
-0.116586424 -0.02439975 -0.18592326 -0.26381534 -0.21324578 0.02428222 -0.10252067 -0.17220761
-0.32224852 0.01451271 0.00032197734 -0.14016214 -0.27553573 -0.22450176 0.017692477 -0.24778923
-0.078857124 -0.2494806 0.05828397 -0.08364656 -0.09429612 -0.16788287 -0.054678705 0.083317965
-0.30153286 0.013805374 -0.044862665 0.029016418 0.017876964 -0.21948257 0.082601294 -0.016088376
0.031273272 0.036127158 0.07983682 -0.29859087 0.0013778638 -0.18638818 -0.21471715 -0.2897448
-0.13088737 0.0007551039 0.10057257 -0.12969925 0.08189638 -0.17376949 -0.030457754 0.02560988
-0.19880526 0.08589507

conv1.bias f4 [10]
00000000: dca3 eebd d3fd d73d 59ea 90be 21ef f83d
00000010: f7eb 063e 2f2a 4e3e fb92 26be b467 a1be
00000020: 88c4 67be 2b31 90be
-0.116523474 0.1054646 -0.28303793 0.12154985 0.13175951 0.2013328 -0.16267006 -0.31524432
-0.22633564 -0.28162512

conv2.weight f4 [20, 10, 5, 5]
00000000: 59e6 40be aa78 6c3d 7236 4bbe 6037 14be
00000010: 1e37 4abe 591c 3bbd 3958 0f3d 9e78 37be
00000020: 37f2 bdbd 690f f8bd b54b e4bd f4bc dcbc
00000030: c98b 3bbe 9550 a4bd 3fc4 f2bd a0f4 d3bd
00000040: abb7 1dbe 7a82 1dbe 6bfe 45be 7ebe ddbd
00000050: 05a1 f7bd 5289 ffbd 47e3 0dbe ac72 d2bd
00000060: f65b e43b d9c2 f03c 9307 f73d 8f4d 033e
00000070: c084 06be b011 12be 6b7e 00be 9dba c4bd
00000080: c6ee 73bd 6b2f d1bd 4630 48be 8049 e5bd
00000090: 65be d1bc 0868 20be ff81 ffbc 0ff4 413d
000000a0: cab5 e9bd 1064 24bd e935 45be 5d3b aabd
000000b0: 5ab1 dd3d 0403 bebd 6e25 eb3c bee8 3fbe
000000c0: 1cfb 21be e732 36be 50a9 523e 9079 c23d
000000d0: 846b 0fbe 1169 363c cfd5 94bd 7034 4bbe
000000e0: 1831 333e d1ae 87bd 10cb 44be a5c1 d8bc
000000f0: 1a14 a73d a41f c2bd bb5b d7bd 6f4b 86bd
00000100: 8662 cdbd a2b4 6a3b 2d5e 00be 9308 85bd
00000110: ea80 e9bd 0e49 ecbd e58b 363e b524 3ebe
00000120: b0d3 f7bd 6085 c0bd 021a 36be bd89 ddbd
00000130: 636b 09be d3f6 be3c 3b14 02be 9750 83bc
00000140: 81c2 54bd d721 1dbe a5f2 25be a6b8 44be
00000150: 909f 4ebe 08b3 803b f9b2 22be f215 32be
00000160: af04 b0bd 92c3 9cbd b539 14be 6ec8 10be
00000170: 8965 d3bd 8321 20be f9ed 5dbe a0b1 d2bd
00000180: b829 f0bd 39d5 32bd 1bd2 00be 9814 57bd
00000190: 741d 9e3d a1d5 88bb 5661 7cbd a77c 96bc
000001a0: 32fa 47be 6814 a2bd cca3 41be 8972 25be
000001b0: 2aaa ffbc 3103 22bd 7417 32be e899 12be
000001c0: e6bd 20be 874e 32be d970 cfbd 27c3 1bbe
000001d0: 93f1 c7bd 176b dabd 32b2 1ebe e68b 14be
000001e0: eedb efbd bb2d f3bc 16c5 fabd 1e7b 33be
000001f0: 3c11 c2bd bb11 a7bc 8800 61be d98f 1bbb
00000200: 4115 a1bd 2b21 8bbd cb9c babd 118a d7bd
00000210: 3751 8abd 75a1 e3bd 99e9 c8bc b794 09be
00000220: 3967 cabd a039 d0bd 2c97 17be 4dd5 18be
00000230: 7cce 06be d725 c83d 4b1b 0fbe 01c5 243e
00000240: 568b 2fbc 3331 16be fdfb a43c 4efe 00be
00000250: ce0a a13d 0cdc 0cbd 04dd fabd b0d9 653e
00000260: 426c 053e bbf8 2dbd 67ec b23c 8a77 dfbd
00000270: 1cd6 193e def2 ae3d 6b2f e2bd 3480 65bc
00000280: 2f89 0ebe 9ecb 583b d1db bbbd 8df6 cfbd
00000290: 5e59 b5bc a5ad 60be 940a 8a3d 5408 16be
000002a0: 7021 32be 2361 833d d3f8 dfbb 0f0d 923d
000002b0: 6236 3cbe 280b 8ebd 7201 43be 3220 293e
000002c0: 64c7 003e a00f cf3d afad d9bd 945e 8e3d
000002d0: a79e 2cbe 9f5e a73d 0a55 0f3e 190c c6bd
000002e0: ad1f 35be 0665 9abd c026 9a3d 5d44 37be
000002f0: 54b6 963d 8aa6 b33d 9409 2e3e 894f b3bd
00000300: c336 99bd 6173 00be f77d 323e c9da 21be
00000310: eeb5 fc3d c1e1 b43d 35c5 f23d 874c a53d
00000320: 896b 5cbe b696 8dbd e77a 0dbd 1399 203e
00000330: c3a5 07bd 8143 1bbb 24cf eebd c27f ef3d
00000340: 6b77 06bd 70c4 17be 6a8e 61bd c0d8 56be
00000350: 3699 673d da76 f5bd 5f56 57bd a640 02be
00000360: b726 65bd dc35 0e3a 1842 febd 0d60 223d
00000370: 76ad aabd 6adc 5fbd 26bf bcbd 854b febd
00000380: 617e c03d 75ae f43c db20 2fbe dde8 0dbe
00000390: 23e1 6d3d d54d 9dbd f016 bd3c 2ed9 03be
000003a0: 5182 38be 2022 4abe 0c01 f8bc e960 21be
000003b0: 9385 9abd 17c3 763d 45af 25be 0aa7 81bc
000003c0: fbba d43d 5af6 3dbe 8301 23be d87d 94bd
000003d0: daa5 86bd 59ef 0ebe b4fe 94bd fb1e b7bc
000003e0: abf5 89bc 9a2a 30bd 7708 a3bd d5a3 37be
000003f0: dae1 33be 0e17 1cbe 4a1f 1bbe 82fe a8bd
-0.1883787 0.05773226 -0.19844988 -0.14474249 -0.19747588 -0.04568133 0.034996245 -0.17917106
-0.092747144 -0.12112314 -0.111472525 -0.026945569 -0.18315043 -0.08023182 -0.11853837 -0.10349393
-0.15402095 -0.15381804 -0.19335334 -0.10827349 -0.12091259 -0.12477364 -0.1385623 -0.10275778
0.0069689704 0.029389786 0.120619915 0.12822555 -0.13136578 -0.1426456 -0.12548225 -0.09605906
-0.059553884 -0.102141224 -0.19549665 -0.1119566 -0.025603482 -0.15664685 -0.031189917 0.047351893
-0.11411627 -0.04013449 -0.19258846 -0.08312104 0.10824843 -0.09277919 0.028704371 -0.18741128
-0.15818447 -0.17792855 0.205724 0.094958425 -0.14005858 0.011133448 -0.07267343 -0.19844222
0.17499197 -0.066251405 -0.19218087 -0.026459524 0.08158131 -0.09478691 -0.10515543 -0.065573566
-0.100285575 0.0035813232 -0.12535925 -0.06495776 -0.114015415 -0.115373716 0.17826803 -0.1856869
-0.12100923 -0.09400439 -0.17783359 -0.10817287 -0.13419871 0.023311054 -0.1270303 -0.01602964
-0.051943306 -0.1534494 -0.16205843 -0.19211063 -0.20178056 0.003927592 -0.15888585 -0.17391184
-0.08594643 -0.076544896 -0.14475138 -0.14138958 -0.10322101 -0.15637784 -0.2167281 -0.102877855
-0.11726707 -0.043660376 -0.12580149 -0.052509874 0.077204615 -0.004175857 -0.061616264 -0.018369986
-0.19529036 -0.079140484 -0.1891014 -0.16156973 -0.03120907 -0.039553825 -0.17391759 -0.14316523
-0.1569744 -0.17412768 -0.10128946 -0.15211163 -0.097628735 -0.10664957 -0.15497664 -0.14506492
-0.1171187 -0.029684892 -0.122446224 -0.17527434 -0.094759434 -0.020394197 -0.21972859 -0.0023736863
-0.07865382 -0.06793436 -0.09111937 -0.10524381 -0.06753772 -0.1111478 -0.02452545 -0.13435636
-0.098829694 -0.10167241 -0.14803761 -0.14925118 -0.13164705 0.097728424 -0.13975255 0.16090776
-0.010714373 -0.14667206 0.020139689 -0.1259701 0.07863389 -0.03438954 -0.12249187 0.22446322
0.13029578 -0.042473536 0.021841241 -0.10911472 0.15023082 0.08542417 -0.110442005 -0.014007617
-0.13919519 0.003308035 -0.09172786 -0.10154448 -0.02213734 -0.2194124 0.06740299 -0.14651614
-0.17395568 0.06415012 -0.006835082 0.07131397 -0.1838012 -0.06935722 -0.1904352 0.16516188
0.12576061 0.10110402 -0.10628831 0.06951633 -0.16857396 0.081723444 0.13997284 -0.09670276
-0.17687865 -0.075388 0.07526922 -0.17897172 0.07358995 0.08771999 0.16995841 -0.087554045
-0.07481148 -0.12544014 0.17430864 -0.15806116 0.12339388 0.08832122 0.118540205 0.08071237
-0.21525396 -0.069135115 -0.034541037 0.15683393 -0.033117067 -0.0023691359 -0.11660603 0.1169429
-0.03282873 -0.14821029 -0.055067457 -0.20981121 0.056542598 -0.1198556 -0.052572604 -0.12719974
-0.055945124 0.0005424896 -0.1241495 0.039642382 -0.08333866 -0.054653563 -0.09216146 -0.12416748
0.09399105 0.029868344 -0.17102377 -0.13858362 0.058076035 -0.07680861 0.023082227 -0.12875816
-0.18018462 -0.1973958 -0.030273937 -0.15759625 -0.075450085 0.060244646 -0.16180141 -0.01582672
0.10387226 -0.18551007 -0.15918545 -0.07250565 -0.065746024 -0.13958491 -0.07275143 -0.02235364
-0.016840776 -0.043009378 -0.07960599 -0.1793359 -0.17566624 -0.1524317 -0.15148655 -0.082516685

conv2.bias f4 [20]
00000000: 61ef 2bbe 1ffd fbbd 3eec 19be e21f 983d
00000010: b6b4 aebd 5153 05be ebd0 47bd ed7e c0bd
00000020: 2301 03bd 4a39 07be 1f58 07be 985c 68be
00000030: 9749 82bc 2c2c 32be f692 34be c029 26be
00000040: 1ac3 133d b501 05bc 2d2e d5bd 9e21 1fbe
-0.16790535 -0.123041384 -0.15031525 0.07427956 -0.085305616 -0.13020064 -0.048783224 -0.09399209
-0.031983506 -0.13205448 -0.1321721 -0.22691572 -0.015904231 -0.17399663 -0.17634186 -0.16226864
0.036074735 -0.008118083 -0.10409198 -0.15540168

fc1.weight f4 [50, 320]
00000000: 071e 293e 5db8 0fbe dd24 fbbd 4a8c bf3d
00000010: be88 edbd 42cf de3d 1523 1bbe 1182 0b3e
00000020: f44c e2bd 71cf 143e b94d debd 979b fd3d
00000030: da02 06be c344 ddbd b1d6 bfbd 8fb4 07be
00000040: b32b 073e da68 febd 9762 823d 8797 143e
00000050: de89 d83d ad06 19be b2cc f13d 3f2e 28be
00000060: e8ed c83d a9f2 cf3d 3445 293e 3217 ba3d
00000070: fc17 fa3c b318 2e3e aa9e 88bd 8432 86bd
00000080: 32ed 5fbd cf24 f33d a404 de3c 5c96 1f3d
00000090: 50b2 23be 095e 2fbe 0594 1e3e e8c7 2d3d
000000a0: fa0c a6bd 3234 96bd 562f 5b3d f4b5 15bd
000000b0: c912 aebd a4a2 b33c 1961 9d3d 4104 e9bc
000000c0: 8fac 25be ae3f e4bd 3ade 94bd 0fdd 35be
000000d0: d8d5 1fbe c902 d7bd c748 16be 76e6 02be
000000e0: 2209 1c3d fe87 10be dc60 ffbd 577e 00be
000000f0: 9407 31be 58ee 1ebe 11ed cfbd ea14 bdbd
00000100: 0384 b83d 4da0 793d 62ea ddbc 906c c83c
00000110: bc73 f7bd ae11 91bd cc08 163d 0030 02b8
00000120: 701c 813c 6a64 1abd 4698 2a3d c451 d4bc
00000130: 308b 6cbb f1ec 4fbd 40f0 fc3a e8aa a63c
00000140: 94d0 183d 4839 b23d 07cf f5bd 70c0 9fbd
00000150: 5494 453d 4476 113e 9bde b8bd 438c f9bd
00000160: 390a 2abe 641b fbbc 29e1 13be ab08 813d
00000170: 8546 2a3e 796b 23be ef32 c9bd 5e30 223e
00000180: 253e b2bd b9c3 b2bd 5a3a 303e 219e ea3d
00000190: 0983 113e 27e3 e43d 550a 2e3e 64d4 2abe
000001a0: c91b e1bd 62c3 e5bd f263 23be 3011 093e
000001b0: a027 23be f7cb 033e 2c89 2a3e 11a0 91bd
000001c0: 73e8 023e 29b0 c8bd 7003 0a3e cc7b c6bd
000001d0: c42d 06be 7580 13be cf4b 2cbe f7db f0bd
000001e0: de3e 263e 986c 9bbd c5d9 e3bd 5dfb 06be
000001f0: 57a9 7ebd b215 f3bd 0784 d5bd 682f e8bd
00000200: d4cf efbd b512 dfbd 842e bdbd 1781 b4bd
00000210: 432d 47bd 8fac febc 9af3 02bd ed4f 50bd
00000220: 2d3e c5bd c948 b0bd a6d6 7abd 1acb b8bd
00000230: c771 fd3a 9e87 cfbd bf37 d5bb 055f 0fbd
00000240: 8484 c6bd b71a 0cbe 3610 0dbe d65f 25be
00000250: c39f 13be 4c6e 3bbe 08cf d7bd af69 ffbd
00000260: 747f c3bd 01db 34be 3fa7 18be c07b 6abd
00000270: 15e5 10be a43d 9ebd 4e2b 12be f1b7 05be
00000280: c3f5 a8bd f4fc 04be 79dc acbd d562 57be
00000290: ef19 c9bd dff9 c2bc 5dde 4bbd 9fd2 39be
000002a0: a411 01be 4b3c 60bd 10ed 1abb a25b 04be
000002b0: af71 58bd 9dce aebd 25db 07be 0dd6 41be
000002c0: 9733 fdbd 8a05 e4bd 464f 2dbe faa9 91bd
000002d0: 1c8d 1bbe 6856 1cbe 93c2 42be 76db 0dbe
000002e0: 716c 09be 7732 2bbe 1813 073e 5fa1 66bd
000002f0: 6cf3 8cbd cbcb 03be 673c 19be 9cb1 93bd
00000300: 58dc 4a3c 5022 423b d04a 223b 60d4 443d
00000310: e4fc 22bd f016 b53b fcd1 fdbc c4fa e8bc
00000320: 44b0 5ebd 60e8 10bb d0f9 b43c 4c19 343d
00000330: c87e 5fbd e48d db3c a848 d53c b06c 1e3d
00000340: 363f 8dbd f37f 94bd fecd 17bc 20bf a8bd
00000350: fac5 cbbd c106 8fbd 6ef4 33bd c96e 04bd
00000360: 8aa5 82bd a852 9cbd 9c8f 0cbe a2b8 54bd
00000370: 9e17 91bd 4840 56bd 86b9 cebd 2c5e f6bc
00000380: 9d85 a73d 2fb3 243e 2fde e6bd 97d3 303e
00000390: 28f2 143e 3947 f9bd 2a45 0cbe 3bff cc3d
000003a0: 319f 183e 9bed 2b3e 2f77 303e 4f0a 893d
000003b0: f5e1 1b3e 09a4 fa3d 0d89 df3d e56b 103e
000003c0: 47a9 0bbe 23b6 40bd fb46 78bd 1a8e d7bd
000003d0: 7e77 2bbe aaf4 38be fec9 c4bd d472 c6bd
000003e0: dcea d1bd ad02 b8bd 94f3 f6bc 36dd d2bd
000003f0: c9cf ecbd ed03 00be 3bd1 fcbd 851a 9bbd
0.16515361 -0.14035173 -0.122628905 0.0935293 -0.11598347 0.10879375 -0.15150101 0.13623835
-0.11049834 0.14532258 -0.10854668 0.12383192 -0.13087025 -0.10804131 -0.09367121 -0.13252471
0.13200264 -0.124223426 0.06366461 0.14510928 0.10573171 -0.14943953 0.11806621 -0.16423891
0.09811002 0.101537056 0.16530305 0.090864554 0.030529015 0.1700161 -0.06670888 -0.06552604
-0.054669566 0.11872255 0.027101822 0.038961753 -0.1598599 -0.17125715 0.15486152 0.042426974
-0.08107944 -0.07334174 0.05351194 -0.036550477 -0.08499677 0.021928139 0.076845355 -0.028444411
-0.16179107 -0.111449584 -0.07268949 -0.17760108 -0.15608919 -0.10498578 -0.146762 -0.12783226
0.038094647 -0.14114377 -0.12469646 -0.12548195 -0.17288047 -0.15520608 -0.10152639 -0.09232505
0.09009554 0.06094389 -0.027089301 0.02446583 -0.120826215 -0.0708345 0.036629483 -3.103912e-05
0.01576063 -0.03769342 0.041649126 -0.025917895 -0.0036093704 -0.050763074 0.0019297674 0.020345166
0.03730829 0.08702332 -0.12002378 -0.078003764 0.04823716 0.14205271 -0.090268336 -0.12184956
-0.16605462 -0.03065271 -0.1444136 0.063004814 0.16628464 -0.15958966 -0.09824168 0.15838763
-0.087032594 -0.087287374 0.1720976 0.11455942 0.14210142 0.11176138 0.16996129 -0.16682583
-0.10991628 -0.11218907 -0.15956095 0.13385463 -0.15933084 0.12870775 0.1665389 -0.07110608
0.12783985 -0.09799225 0.13477874 -0.09691581 -0.13103396 -0.14404471 -0.16825794 -0.11760705
0.1623492 -0.07589072 -0.111255206 -0.13181825 -0.062173214 -0.118693724 -0.10425573 -0.11337167
-0.11709562 -0.1089224 -0.09237388 -0.088136844 -0.04862715 -0.031088142 -0.031970598 -0.050857473
-0.09631 -0.08607633 -0.06123986 -0.090231135 0.0019336276 -0.10133289 -0.0065068896 -0.035002727
-0.09693244 -0.13682066 -0.13775715 -0.1614984 -0.14416413 -0.18303794 -0.10537535 -0.124713294
-0.09545794 -0.17661668 -0.1490755 -0.057246923 -0.14149888 -0.07726601 -0.14274332 -0.1305845
-0.0825 -0.12987119 -0.08440489 -0.21033795 -0.098193996 -0.023800788 -0.04977261 -0.18146752
-0.12604386 -0.054745 -0.0023639835 -0.1292558 -0.052842792 -0.08535502 -0.13267191 -0.1892931
-0.123633556 -0.11133869 -0.16924772 -0.071124986 -0.15190548 -0.15267336 -0.19019537 -0.13853249
-0.13420273 -0.1671847 0.13190877 -0.05630624 -0.068823665 -0.1287071 -0.14964448 -0.07211611
0.012381636 0.0029622503 0.002476383 0.0480541 -0.039791957 0.005526416 -0.030983917 -0.028439887
-0.05436732 -0.0022111163 0.022091776 0.043969437 -0.054564267 0.026801057 0.026035622 0.03867787
-0.06896822 -0.07250967 -0.009265421 -0.08239579 -0.099498704 -0.0698371 -0.04393428 -0.032332215
-0.0637923 -0.07632953 -0.13726658 -0.051933892 -0.07084583 -0.052307397 -0.100939795 -0.030074202
0.081797816 0.16083978 -0.11272847 0.17268215 0.145455 -0.12171788 -0.13698259 0.10009619
0.14904477 0.16789858 0.17232965 0.06691419 0.15222915 0.122383185 0.10914812 0.14103658
-0.13638793 -0.0470487 -0.060614567 -0.105251506 -0.16744801 -0.18062082 -0.096088395 -0.096898705
-0.10249874 -0.08984885 -0.030145444 -0.10296099 -0.115630694 -0.12501498 -0.12344595 -0.075734176

fc1.bias f4 [50]
00000000: 7095 2ebe de79 d7bd 8822 51bd 6ca9 2bbe
00000010: c901 fbbd a288 0abe 9195 ed3c d81e 1bbe
00000020: c6e8 f33c c560 23be d1db 01be a155 0e3e
00000030: 64ff 16bd 8f9c 63bd 30ff 9cbd fd7f cbbd
00000040: 116a 25be 2737 56bd e06f afbc 456d f7bc
00000050: eca4 a0bc e5f6 6abe 76b3 81bd 1081 773d
00000060: dcb8 0cbe ab6c ecbd da84 c2bd 78ed 6bbd
00000070: e7d8 f9bd 8bcb 03be 4203 8b3d 017a 15be
00000080: 1ece 27be 2087 b0bd 6570 06be c1ca c3bd
00000090: e7b1 153e 3b22 fc3d 17a2 85bd 907f 9a3c
000000a0: c893 333e 5605 47be cbe5 a83d d022 0fbe
000000b0: cd45 9dbc ee55 63be 20a4 36be ed0d 2abe
000000c0: 6ead c6bd 7534 c0bc
-0.17049193 -0.10521291 -0.051058322 -0.16763848 -0.122562 -0.13528684 0.029001983 -0.15148485
0.029774081 -0.15954883 -0.1268151 0.13899852 -0.036864653 -0.055569228 -0.07665861 -0.09936521
-0.16153742 -0.05229869 -0.02141565 -0.030203471 -0.01960989 -0.22945745 -0.063330576 0.060425818
-0.13742393 -0.11544164 -0.09497996 -0.057599515 -0.12199574 -0.12870614 0.06787731 -0.14597322
-0.16387221 -0.08619523 -0.13128813 -0.095601566 0.14618646 0.123112164 -0.06525057 0.018859655
0.17536843 -0.19435629 0.082469545 -0.13978124 -0.019198323 -0.22200748 -0.17836046 -0.16606875
-0.09701048 -0.023462513

fc2.weight f4 [10, 50]
00000000: f49f 6fbd 6084 2bbe 4d1d 48be 99c5 42be
00000010: f36c 76be ca90 bb3c 6bd6 a0be f851 26bd
00000020: 2e7b 43be 2cb8 dd38 5521 80be 9cc1 26bd
00000030: f2a4 5d3d 5879 40be 0175 623e 6530 9ebd
00000040: aa08 963b 3db9 81be 9015 41be 3116 f8be
00000050: f4d7 943e e3e6 91be b29e 9fbd cbff 25be
00000060: 9bac 1bbe 3c7e 0f3e 6e48 87bc 6796 bcbb
00000070: fe2c f2bc 9040 18be 2a7b 753e 4043 84bb
00000080: c263 8abe 6dee 67bd 4865 0dbe 5322 2fbd
00000090: ba45 e53d 7a7a e0bc fe0e 33bd c86e 35be
000000a0: f46d 1abe 0139 8ebc bd7d 7ebe c63c 5cbd
000000b0: cce2 87bc 62bc eebd 148c 97be c750 15bd
000000c0: 67ab 43bc da00 80bc 27f7 673d d26e 32be
000000d0: 614c afbe eb6b a1bc 9836 49bc d38b 30be
000000e0: 7a6c 48be 5117 b63d c088 db3d 85cd e7bd
000000f0: fa94 05be dd34 bbbd 58f6 06be 0d6b 36bd
00000100: d530 9ebe eceb 9c3c 7aa9 69bd 6e1f 65be
00000110: 1426 8cbd 1190 0dbe 9f63 ffbd e0b8 6bbe
00000120: fbdf f0be bc45 ef3d f64e 01be 8907 44bd
00000130: 431e 803d 1300 71bd 84bb 7e3b 0e47 1e3e
00000140: 7180 133d 7174 e2bd 8af4 57be e7b4 b6bd
00000150: fe8c e5bd a1f2 55bd 9076 373e 386c 84bd
00000160: 8455 1abe 1185 a93d aa43 963e b6f3 0abd
00000170: 0c4d 233d 69c9 c83d c357 fabd 0d16 833d
00000180: eac7 6fbe 4265 83bd 73fd 353e ee3e 523d
00000190: f0f2 423e 6467 fa3b 14a6 d7bd 7804 5e3d
000001a0: 8178 f33d 31ac 143d f88d 37be 49de 843d
000001b0: 71be 0a3e f031 0b3e 23f3 9a3c 9fcb 1dbe
000001c0: d2aa 993c f721 b63d acf5 0dbe e182 be3d
000001d0: e73b 03bd 7e00 323d 7f7a 92bd 32d2 b1bd
000001e0: 2fd0 233e 59c4 0b3e 3afc 27be 27c7 563e
000001f0: 9204 d23c e53a 503d a7e6 90be 72c0 763c
00000200: 8bbc 2abd 4e9c aabc f493 8a3d 996c db3c
00000210: 6662 853d d7d2 29be fa67 343d 7162 64bd
00000220: b42e af3d c777 763e 5667 5cbd 5398 02be
00000230: 33a2 533e 6c9e 42be 4a80 3c3e dbd3 ad3d
00000240: f3f6 33be bf22 603d 6320 fc3d d41b 6abb
00000250: 1391 103d 06b1 cd3d 11e5 693d 0085 993d
00000260: bbb5 683c 9b18 5abe 7452 67bd 1224 86bc
00000270: 3f9c a0bd 2d70 103d 93e3 003e fca9 353c
00000280: d5e8 6cbc 7d90 223e 3f9b 2e3e 403f fa3c
00000290: 1a63 103d b0a2 9abd a40c 1a3d 34bf ad3d
000002a0: fc47 b2be 4a3a 663e 7de1 00be 225d dd3c
000002b0: 7aef 913c 1d5f e73d 744c 39bb 6721 87be
000002c0: 2f36 22be 0bdd 183d cc60 803b 231e aebd
000002d0: 1d16 13bd c671 833c 3681 e33d c7c0 ffbd
000002e0: 97c5 2ebe 4845 333e 9a5b 03bd b8a3 cfbd
000002f0: 05b3 273e 2ea0 a9bd be9d f83d 1bca 45be
00000300: d7d5 c3bd 7623 46bc 4164 893c 2135 05be
00000310: 78bf ca3d 2a23 31bc 5bb4 dd3c 135c 01be
00000320: 144f f2bd c81d 1abe 17b1 1ebe 2508 95bd
00000330: 3445 1a3b eaf8 5e3e 8c68 5c3d 32ea 6cbe
00000340: 6b17 1ebe 048a b9bc fd1f 89bb 70a4 bfbd
00000350: 6066 95be 86b3 babd 0890 093e 7c4c 45be
00000360: c03e 0ebe faf2 03be 43e1 aa3d f59b 673e
00000370: c9b7 e5bd e241 95bd 193d 9fbd a0bb 82be
00000380: 92e1 b83d 0e6e 46be c490 a93d aab7 493e
00000390: c616 03bc bc54 3bbe ba44 9fbd e06a a3be
000003a0: f4f7 3abe 8419 b53d ec3d e7bd 660b 233e
000003b0: 91ab 79be 376c 6bbe d09f b73d 6241 1ebe
000003c0: 79aa 77be 2006 6fbe eb61 f63c bcc7 dabc
000003d0: fb49 85bd bfa1 66bd 04b3 f8bd 861a 2ebd
000003e0: 29c5 29be a372 97bd 1059 e03c 1c29 54be
000003f0: 8015 2cbd 977d 26bd 7b88 013e fede 18be
-0.058502153 -0.16749716 -0.19542427 -0.1902069 -0.24064998 0.02289619 -0.31413588 -0.040605515
-0.19089958 0.00010572406 -0.2502543 -0.040711984 0.054112382 -0.18796289 0.22114946 -0.07724074
0.0045786696 -0.25336638 -0.18855882 -0.4845443 0.2907101 -0.28496465 -0.077939406 -0.16210859
-0.15202563 0.14012998 -0.01651403 -0.005755234 -0.02956247 -0.14868379 0.23972765 -0.004036337
-0.27029234 -0.056623865 -0.13808167 -0.042757344 0.1119494 -0.027402151 -0.04371547 -0.17718041
-0.15081006 -0.017361166 -0.24852653 -0.053768896 -0.016587637 -0.11657025 -0.2959906 -0.03645399
-0.011942721 -0.015625406 0.056632187 -0.17425087 -0.3423796 -0.01970478 -0.012281083 -0.17240839
-0.1957263 0.08891166 0.10719442 -0.113184966 -0.13045111 -0.09140942 -0.1317991 -0.044535685
-0.3089663 0.019155465 -0.05704639 -0.2237527 -0.068432 -0.13824488 -0.12470173 -0.23019743
-0.47045884 0.11683223 -0.12627777 -0.04785875 0.06255772 -0.05883796 0.0038869092 0.15456793
0.036011163 -0.11057366 -0.21089378 -0.08921223 -0.11208533 -0.052233342 0.17916322 -0.064659536
-0.15071684 0.082773335 0.293485 -0.033923827 0.0398684 0.09804041 -0.122237705 0.0640069
-0.23416105 -0.06415798 0.17772464 0.051329546 0.19037986 0.0076417197 -0.10529724 0.05420348
0.11888219 0.036297027 -0.1792525 0.0648771 0.1354921 0.13593268 0.018914765 -0.15409707
0.018758211 0.08893197 -0.13863248 0.09302307 -0.03203955 0.0434575 -0.071522705 -0.0868267
0.15997384 0.1364912 -0.1640481 0.20974408 0.025636945 0.050837416 -0.28300974 0.015060531
-0.041683715 -0.020826485 0.06766501 0.026785182 0.06512909 -0.16584335 0.044044472 -0.055757944
0.0855383 0.24069129 -0.053809486 -0.1275342 0.20667343 -0.19005746 0.18408313 0.08487674
-0.17574672 0.054720636 0.12310865 -0.0035722153 0.035294604 0.1004353 0.05710322 0.07496071
0.014203484 -0.21298449 -0.056475118 -0.016374622 -0.078423016 0.03526323 0.12586813 0.011087891
-0.014459808 0.1587543 0.17051409 0.030547738 0.03525076 -0.075505614 0.03760971 0.08483735
-0.34820545 0.22483173 -0.12586017 0.027021948 0.017814387 0.11297438 -0.002827433 -0.2639267
-0.15840982 0.037320178 0.003917789 -0.08501842 -0.03590976 0.016045462 0.111086294 -0.12487941
-0.17067562 0.17506897 -0.03206978 -0.10138649 0.16376884 -0.08282505 0.12139462 -0.19315378
-0.09562271 -0.0120934155 0.016771438 -0.13008548 0.09899801 -0.010811606 0.02706354 -0.1263278
-0.11831489 -0.15050423 -0.15497242 -0.07276944 0.0023539783 0.2177464 0.05381064 -0.23136213
-0.15438621 -0.022648819 -0.0041847215 -0.09357536 -0.29179668 -0.09116273 0.1343385 -0.19267458
-0.13891125 -0.12885657 0.083437465 0.22618087 -0.11216695 -0.07287957 -0.07775325 -0.25533772
0.09027399 -0.1937792 0.08279565 0.19698969 -0.008001035 -0.18294042 -0.077767804 -0.31917477
-0.18258649 0.08842757 -0.112911075 0.15922317 -0.24381854 -0.229905 0.08966029 -0.15454629
-0.24186124 -0.2334218 0.030075988 -0.026706569 -0.06508251 -0.056306597 -0.121435195 -0.042505763
-0.16579117 -0.07394912 0.027386218 -0.20718807 -0.04201269 -0.040647116 0.1264972 -0.14928815

fc2.bias f4 [10]
00000000: 64e6 ea3d 340c 293e 718c 31be 582e 60bd
00000010: 2f00 8dbb c2fe f7bd 96d3 c9bc e90b 7fbd
00000020: 6059 3fbd 31c8 23bd
0.11469725 0.16508561 -0.1733873 -0.054731697 -0.0043030004 -0.12109138 -0.024637025 -0.062267218
-0.046716094 -0.03998584

exp_avg f4 [10, 1, 5, 5]
00000000: 3680 cb38 bb20 9938 17da d438 6c0c 0539
00000010: 79ac 3839 1bd6 f137 434a 1e38 c197 9c38
00000020: ec1a b638 11cb b738 5452 1938 654f 6a38
00000030: 08b3 ac38 428b ae38 d5f4 9438 20d4 bc38
00000040: b391 d938 cef5 cf38 d2d6 ac38 ab56 8f38
00000050: b3ae 3539 1e22 2639 12ad 1239 8df0 e538
00000060: ba28 de38 b5d1 283c 0cc4 bc3b a864 23bb
00000070: 6db4 57bc 625c a7bc a34c 843c b632 183c
00000080: 66d0 643b d031 3cbb 4c26 2dbb fc74 6a3c
00000090: 6d13 0e3c 1cb7 783b 828a 603b 58db 443c
000000a0: 281d 923b 807a a939 4005 d638 91ea e6b9
000000b0: 1d88 a23b fd1f a4ba 4de7 0dbb 4ce5 18ba
000000c0: d8da ce3a a26b 863b 2b29 65b6 20dd d1b4
000000d0: ded5 a736 93dc 7937 e441 dd37 d51d b537
000000e0: 60ea d637 b349 df37 dfea 1c38 e277 0538
000000f0: 76a8 bf37 f518 c337 ba15 dc37 c199 3c38
00000100: 7d5f 5338 7211 e635 cf9f 2736 8202 8636
00000110: d44c 4a37 1930 e037 82b1 93b4 fe0b 2c35
00000120: 86ef a736 c8b2 4037 110b 7237 1051 47bc
00000130: 2353 a1bb 7386 0fbb 27d2 29bb e848 c1ba
00000140: 812b edbb 2590 d4ba d44c d138 a4e9 5f39
00000150: 906e f038 8805 b2ba 40e9 df36 4e81 0639
00000160: 2f76 6f38 c5c3 b0b9 c09d 7eb7 33be c339
00000170: f250 bd38 1be6 ae37 4016 c738 9867 a9b9
00000180: 3405 6639 3420 3538 b53e bcb8 b7bd 163a
00000190: 8ff9 21bb c118 99b9 27fd 513a 243a b139
000001a0: 9833 b8b9 9771 c238 6032 a239 ab09 c739
000001b0: 49ed 3139 d845 98b9 cacf e339 4d14 e738
000001c0: 1449 c938 0a6a af38 c0bf 0435 4f5d 7238
000001d0: 25a1 b838 cd20 1339 f2eb 8638 9bab 2a39
000001e0: b2b9 373a d1bc 2a39 7462 0039 4ecb c038
000001f0: 4dd9 fe39 66e0 cdbb a547 43bc 7419 93bc
00000200: ddf8 83bc 5c9b 8fbc 46e1 7cbb b4eb 00bc
00000210: ce6e bebb 471d 5fbb 60ad 92b9 3806 51bb
00000220: ac2f 8ebb 09ec 00bb 40df 7d3a c9f6 7d3b
00000230: 94f3 29bb a7f9 55bb ede0 95ba b432 35ba
00000240: 219e 1dba d424 34bb 16ec 1dbb 6e41 adba
00000250: a0eb 7ab8 2ce5 0a3b 7001 9738 1453 aa38
00000260: 657c 6b38 a035 f437 b746 ee36 eca8 bd38
00000270: d463 b238 f890 4b38 9a36 8637 f201 f436
00000280: 641a bd38 0efe 6e38 2bbe d737 197a 8937
00000290: 6317 eb36 ca8d 9138 a198 0038 05f5 3c37
000002a0: ab4b 4737 ef3d d836 c624 3738 fbd8 a837
000002b0: 97e7 8836 0558 3236 2a8c 2136 3ee0 1fb4
000002c0: 781b 7233 fdfb 3836 7adf bb36 5df7 bc36
000002d0: 558a 3136 8f14 3d36 e3fc 5936 43b6 9e36
000002e0: a766 9936 7612 6035 3eed 1a36 3b49 ab36
000002f0: 0ce0 9236 ce17 9d36 466f 7234 fd93 7736
00000300: 6c55 d036 ee04 5b36 ec7c f935 fb66 7536
00000310: 11b8 d536 07ea 9b36 05cc 1636 82c9 7335
00000320: a460 3b38 5f3a 2138 8a42 3f37 1914 0236
00000330: 3126 fd36 5e4a 4638 4844 ee37 0f5b 1336
00000340: 9a5d a435 6b51 f036 8315 2b38 2408 ba37
00000350: 8314 b336 f650 6736 9944 6437 cc5c ea37
00000360: a1e7 c837 003e 9e37 8d4e f937 92fe 0838
00000370: 437b f237 493d 0538 6ef6 2a38 8380 3a38
00000380: ed3a 2b38 47ac 1837 b043 9735 1fd3 ac37
00000390: 5925 2037 0f3c 1836 ad46 9937 5bed 6637
000003a0: a0ef aa37 2be4 9637 00c2 9937 3e90 5636
000003b0: 9ecb f6b4 c89b 2634 f531 5436 100a 2e37
000003c0: 9e0d a835 5263 c636 33b4 a236 0792 cc36
000003d0: 72ab 4937 89a5 cc35 1ea4 9a36 787d 8e36
000003e0: 6aec c936 cda4 7737
9.7036755e-05 7.301705e-05 0.0001014957 0.00012688496 0.00017611858 2.882914e-05 3.7739297e-05 7.466926e-05
8.683451e-05 8.763944e-05 3.6554717e-05 5.586389e-05 8.234946e-05 8.322905e-05 7.1027935e-05 9.00405e-05
0.00010374505 9.916314e-05 8.2416125e-05 6.8349145e-05 0.00017326586 0.00015843703 0.00013988119 0.00010964377
0.00010593371 0.010303904 0.0057606753 -0.0024931822 -0.013165575 -0.020429794 0.016149824 0.009289434
0.0034914254 -0.0028716214 -0.0026420532 0.014310118 0.008671624 0.0037950939 0.0034262245 0.012015186
0.004459042 0.00032325462 0.00010205293 -0.00044043784 0.0049600736 -0.001252174 -0.0021652759 -0.0005832508
0.0015781773 0.0041021863 -3.4147622e-06 -3.9090173e-07 5.0018853e-06 1.4892913e-05 2.6375936e-05 2.1590773e-05
2.5619927e-05 2.661799e-05 3.741204e-05 3.182132e-05 2.284742e-05 2.3257433e-05 2.6236161e-05 4.4965887e-05
5.039525e-05 1.7141413e-06 2.497796e-06 3.993803e-06 1.2058026e-05 2.6725278e-05 -2.7510038e-07 6.4092444e-07
5.004872e-06 1.1485718e-05 1.4426901e-05 -0.012165323 -0.0049232407 -0.0021900206 -0.0025912614 -0.0014746459
-0.007237852 -0.0016217275 9.980207e-05 0.00021353975 0.00011464686 -0.0013581971 6.6730718e-06 0.00012827406
5.7092107e-05 -0.00033715196 -1.5176309e-05 0.00037335008 9.0272995e-05 2.0849568e-05 9.493204e-05 -0.00032311375
0.00021936448 4.3183754e-05 -8.976219e-05 0.00057503156 -0.00247154 -0.00029200877 0.000801044 0.0003380339
-0.00035133655 9.2717986e-05 0.0003093658 0.0003796344 0.00016968431 -0.00029043737 0.0004345163 0.0001101872
9.598039e-05 8.3644016e-05 4.9452865e-07 5.7784197e-05 8.803819e-05 0.00014031232 6.433566e-05 0.00016276391
0.0007008567 0.00016282803 0.00012243708 9.193142e-05 0.00048608557 -0.006282854 -0.011918937 -0.017956473
-0.016109878 -0.017530136 -0.0038586422 -0.007868696 -0.005811549 -0.003404455 -0.00027976464 -0.0031894576
-0.004339179 -0.0019671938 0.0009684451 0.0038751832 -0.0025932537 -0.0032650025 -0.0011434831 -0.00069121574
-0.0006012638 -0.0027487772 -0.0024097017 -0.0013218352 -5.9824088e-05 0.0021193726 7.200509e-05 8.121706e-05
5.6144218e-05 2.9112038e-05 7.101185e-06 9.0436864e-05 8.506296e-05 4.8533984e-05 1.599947e-05 7.271993e-06
9.017138e-05 5.698023e-05 2.5718551e-05 1.6388529e-05 7.0062683e-06 6.940549e-05 3.0659725e-05 1.1262721e-05
1.1878942e-05 6.4445117e-06 4.3664848e-05 2.01282e-05 4.0800765e-06 2.65753e-06 2.4072456e-06 -1.4889608e-07
5.637e-08 2.7564813e-06 5.5990504e-06 5.6316335e-06 2.6455575e-06 2.8175161e-06 3.248272e-06 4.729985e-06
4.5717056e-06 8.3473367e-07 2.3085881e-06 5.1047223e-06 4.3772216e-06 4.681736e-06 2.2578487e-07 3.6892009e-06
6.2088275e-06 3.2636412e-06 1.8588303e-06 3.6567787e-06 6.369323e-06 4.6466043e-06 2.2470497e-06 9.0817787e-07
4.4674278e-05 3.8439754e-05 1.13999795e-05 1.9383208e-06 7.5444336e-06 4.727614e-05 2.8403607e-05 2.195771e-06
1.2246194e-06 7.1620357e-06 4.078961e-05 2.2176719e-05 5.3370036e-06 3.4468808e-06 1.3605831e-05 2.7938186e-05
2.3949719e-05 1.8863939e-05 2.9719691e-05 3.2662014e-05 2.8906046e-05 3.1766747e-05 4.0760664e-05 4.446554e-05
4.0824456e-05 9.100017e-06 1.1270076e-06 2.0602309e-05 9.545439e-06 2.2684724e-06 1.8271932e-05 1.3764332e-05
2.0377163e-05 1.7987642e-05 1.832936e-05 3.1972445e-06 -4.5969222e-07 1.5516628e-07 3.161954e-06 1.0373551e-05
1.2520939e-06 5.9124222e-06 4.848954e-06 6.0966736e-06 1.2020451e-05 1.5247361e-06 4.6086634e-06 4.2465363e-06
6.017789e-06 1.4760718e-05

exp_avg_sq f4 [10, 1, 5, 5]
00000000: cc11 b734 a75c b734 42f4 1535 f014 5d35
00000010: 7d95 6a35 e4f5 a133 7a27 1334 4d39 0a35
00000020: cdf9 4335 eab5 ef34 7179 b433 350c 9234
00000030: 59fe 5f35 d28c 3935 08ee a334 430d a934
00000040: 925c 4b35 2b25 7f35 4827 0c35 71b9 5e34
00000050: 2b25 3d35 175e 9835 6278 9035 5ebf 0535
00000060: 0809 8c34 ca2d 2039 2188 8739 5e3f d039
00000070: 563b 0c3a 1d55 133a eba8 a738 2969 c738
00000080: d9db 1039 1661 3f39 f57f 6f39 f0a8 b637
00000090: 08d9 3637 c0ed 4437 4e86 9537 0fe5 1238
000000a0: 0d86 8536 91b7 3635 32d0 d034 3e2e e934
000000b0: 3b17 8a36 3eb4 a635 90a0 5035 3e2e bf34
000000c0: 6602 d134 f57f ef36 2f03 6231 63de cc31
000000d0: 92e3 5b32 f7f2 e732 28e4 8833 039e 2533
000000e0: 8bef 5933 8d7f 8a33 0087 f433 4e6a e933
000000f0: 06c8 e532 3459 0f33 3714 2933 82e2 da33
00000100: ef65 0f34 2c0a 5330 35d2 6930 a5d4 9630
00000110: 25b2 5832 d715 6733 9ace 1b2f 8e8d 0130
00000120: a275 c330 56a3 2132 1b75 a432 8819 5937
00000130: 7d7d 3c36 3be6 f835 1ea7 4d36 daa0 0337
00000140: 5a54 dc36 8d54 1736 fc8d b335 4ceb 5635
00000150: 8546 fe35 4537 0936 8190 9835 7c87 c334
00000160: a4e7 fe33 6dc8 7234 c6db 4e35 d2d0 3135
00000170: b430 5334 8f7a 7533 f2a6 0933 76e0 2135
00000180: a199 3735 1b31 7934 d45a af33 5d09 6c33
00000190: 1d93 4e36 b418 8836 bc83 4836 30ec da35
000001a0: 2dc9 1a36 58c1 2236 94f4 2e36 f36b e335
000001b0: e1b3 9f35 2563 0036 da3d a835 ff74 8635
000001c0: c9b6 4d35 dcb7 2a35 ad88 4f35 1c0e 2e35
000001d0: 7a51 1a35 f1e4 2735 3fb6 c134 a40f 7b34
000001e0: a5b5 1835 c07b 5735 2e89 4335 b67a 9734
000001f0: 987b 8634 84c5 9836 f9de 4937 2bd5 a837
00000200: d8f7 cb37 47b0 f637 13e1 1b36 4588 7f36
00000210: 7a49 4436 1475 c136 8dbf 0437 4da3 9b35
00000220: 8f85 ab35 c819 cc34 28c6 9435 d16a e435
00000230: 69c5 b035 c694 7a35 723c d333 2678 b233
00000240: d938 fc34 6bfb 0f36 7c9f 1b35 1a9b af34
00000250: e24d 2635 20d1 c136 6411 5f34 3dce 9934
00000260: f8b1 3634 843a 7e33 1a28 bd32 095e ae34
00000270: 7aaf a634 b8f0 1234 3e97 ad32 020f c031
00000280: d0f4 b034 d458 3334 05f6 3433 01c6 a632
00000290: e419 7931 17fd 7134 1fa1 3f33 18d9 fc31
000002a0: 2023 2332 30db 5731 2f63 df33 1a82 c032
000002b0: 8bb4 8130 c56a 9430 1ea8 a530 2211 432e
000002c0: 8726 c02d 0d44 8030 6638 9331 f2e1 7631
000002d0: e831 3030 90a4 5030 ffb0 a530 4a64 1c31
000002e0: d489 0a31 cebf ad2e a3ab 4f30 f68c 6231
000002f0: f97e 0131 cf8b 3731 c034 0a2d de24 0431
00000300: 7357 a331 f7d9 c130 0409 1830 8622 e930
00000310: 32bb b231 b096 3131 d0c8 8c30 2d06 582f
00000320: c993 5234 2d53 1d34 92aa 7732 73e1 532f
00000330: a9b9 c031 5342 7534 b227 b033 1509 0e30
00000340: d216 ef2e c379 e831 81ae 3934 d0b0 7633
00000350: 196d 7731 be7e 7431 5cab 0333 494c cf33
00000360: 0bf3 6c33 cf71 3133 c77f ce33 c488 ce33
00000370: ead2 a733 1c4e 9b33 f7fa 2234 f500 3a34
00000380: 0a08 0f34 9d4e e131 84ad 0232 18de 6332
00000390: ed6d 4e32 e78f c831 40e5 9431 b627 9b31
000003a0: 0049 1d32 fc65 5132 1649 cd31 9330 2e30
000003b0: 4dec c52d 14b2 832f 3f71 3931 e096 4a32
000003c0: 96cf d22e d705 0731 c513 0b31 be28 4c31
000003d0: 9fa3 e332 8a58 b82f ce35 b530 cc37 1231
000003e0: 3811 9831 11a7 f232
3.4099355e-07 3.415382e-07 5.586227e-07 8.2359384e-07 8.7389327e-07 7.541874e-08 1.3704803e-07 5.149239e-07
7.300667e-07 4.464958e-07 8.403993e-08 2.72035e-07 8.34441e-07 6.912279e-07 3.0534306e-07 3.1488352e-07
7.57581e-07 9.504899e-07 5.2211226e-07 2.0742824e-07 7.0462073e-07 1.1352266e-06 1.0763872e-06 4.9824837e-07
2.6083603e-07 0.00015275847 0.0002585063 0.00039720064 0.0005349418 0.0005620288 7.994644e-05 9.508647e-05
0.0001381481 0.00018251347 0.00022840484 2.1774758e-05 1.0898577e-05 1.1737866e-05 1.7824725e-05 3.502244e-05
3.9793144e-06 6.806741e-07 3.88945e-07 4.3433278e-07 4.115425e-06 1.2420421e-06 7.771969e-07 3.5610168e-07
3.893103e-07 7.137651e-06 3.2889138e-09 5.962464e-09 1.2799221e-08 2.7002427e-08 6.374495e-08 3.8560767e-08
5.0742113e-08 6.449327e-08 1.1386692e-07 1.0869245e-07 2.6750069e-08 3.3375912e-08 3.9366764e-08 1.01926176e-07
1.3354996e-07 7.677581e-10 8.506363e-10 1.0974374e-09 1.261336e-08 5.3803742e-08 1.4170567e-10 4.713109e-10
1.4221551e-09 9.408572e-09 1.9145366e-08 1.2940152e-05 2.8087227e-06 1.8544446e-06 3.0644655e-06 7.84566e-06
6.5663307e-06 2.2549968e-06 1.3377862e-06 8.0063614e-07 1.8944999e-06 2.0446762e-06 1.1366939e-06 3.6420158e-07
1.1869932e-07 2.2610921e-07 7.706079e-07 6.624151e-07 1.9668624e-07 5.7154974e-08 3.2049634e-08 6.030381e-07
6.839637e-07 2.3207797e-07 8.165594e-08 5.4956548e-08 3.0782023e-06 4.0559917e-06 2.9879002e-06 1.6311005e-06
2.3064888e-06 2.4252422e-06 2.6070384e-06 1.6944235e-06 1.1898775e-06 1.9131196e-06 1.2534977e-06 1.0017828e-06
7.663444e-07 6.3597486e-07 7.73124e-07 6.4840583e-07 5.7488035e-07 6.25455e-07 3.6081653e-07 2.3381887e-07
5.688874e-07 8.027382e-07 7.2842784e-07 2.8215226e-07 2.504937e-07 4.552947e-06 1.20324485e-05 2.0126425e-05
2.4314897e-05 2.940757e-05 2.322781e-06 3.807728e-06 2.9249045e-06 5.765478e-06 7.912412e-06 1.1595927e-06
1.2779363e-06 3.801672e-07 1.108453e-06 1.7018411e-06 1.3170476e-06 9.334875e-07 9.836448e-08 8.310626e-08
4.698002e-07 2.1455005e-06 5.797408e-07 3.270914e-07 6.1953153e-07 5.7761936e-06 2.077482e-07 2.864853e-07
1.7014816e-07 5.9192203e-08 2.2020732e-08 3.2478445e-07 3.1047585e-07 1.3684883e-07 2.0208628e-08 5.5896416e-09
3.296068e-07 1.670299e-07 4.213327e-08 1.9414985e-08 3.6248986e-09 2.2536948e-07 4.461719e-08 7.358846e-09
9.495835e-09 3.1411211e-09 1.0402288e-07 2.2410905e-08 9.437299e-10 1.0798763e-09 1.2053112e-09 4.4353084e-11
2.1844982e-11 9.332567e-10 4.284675e-09 3.5926147e-09 6.409935e-10 7.5903817e-10 1.2055635e-09 2.2757995e-09
2.015999e-09 7.9012005e-11 7.555007e-10 3.2967455e-09 1.8844146e-09 2.6709477e-09 7.856105e-12 1.9229485e-09
4.753866e-09 1.4104548e-09 5.531009e-10 1.6962793e-09 5.2017635e-09 2.5842546e-09 1.0243415e-09 1.964728e-10
1.9611538e-07 1.4652024e-07 1.44160754e-08 1.9270434e-10 5.6090426e-09 2.2841532e-07 8.202859e-08 5.1672205e-10
1.08725154e-10 6.7659314e-09 1.7292952e-07 5.743715e-08 3.6005245e-09 3.5578718e-09 3.0656665e-08 9.653065e-08
5.5169078e-08 4.1314532e-08 9.615865e-08 9.6175e-08 7.8149085e-08 7.231958e-08 1.5178726e-07 1.7322948e-07
1.3320837e-07 6.557299e-09 7.606449e-09 1.3263637e-08 1.2015772e-08 5.837126e-09 4.3334296e-09 4.5156083e-09
9.155201e-09 1.218859e-08 5.974594e-09 6.336986e-10 2.2501246e-11 2.3955293e-10 2.6985416e-09 1.17922525e-08
9.586569e-11 1.9648405e-09 2.02384e-09 2.9709066e-09 2.6500684e-08 3.3532316e-10 1.3184775e-09 2.1277513e-09
4.4257398e-09 2.824848e-08

exp_avg f4 [10]
00000000: e86f e83a 82f3 b83d ed56 6838 7094 49bc
00000010: 0b72 cabc 6c61 e2bc c71b 0339 d28b ef36
00000020: 16c7 9c38 02ef 2f38
0.0017733546 0.090308204 5.5394066e-05 -0.012303457 -0.024712583 -0.027634345 0.00012503481 7.1390323e-06
7.475742e-05 4.1945845e-05

exp_avg_sq f4 [10]
00000000: 1554 1038 faea 0e3b 24ac 3c34 8505 d739
00000010: 036e c239 dda7 7639 c251 4635 5891 d431
00000020: 9a4a 1f35 afb8 5133
3.4410583e-05 0.0021807537 1.7571489e-07 0.00041012108 0.0003708453 0.00023522922 7.387972e-07 6.1865357e-09
5.9340675e-07 4.8829573e-08

exp_avg f4 [20, 10, 5, 5]
00000000: 501e 8b36 77bf 9534 a12c c236 97a2 7f36
00000010: dba7 1b36 e44f dc34 2800 4836 2dcc 0737
00000020: d1f3 3036 8569 8736 70bd ba36 72d2 b136
00000030: 1aa8 d536 5634 6136 a426 ad36 9769 8736
00000040: a8e4 8b36 78ac 9236 6e0e 0836 2ed8 b636
00000050: 5dd0 8136 9268 5e36 aae1 b836 d8d5 9536
00000060: 7429 ca36 e368 b1b4 d97c 5db4 079f 08b6
00000070: 2fd4 1d36 990a e734 8450 9035 1c13 6035
00000080: 84e7 a235 d485 de35 53bf 4c35 f3d4 b335
00000090: 7181 a833 7642 b435 4fb0 8635 d427 28b5
000000a0: 55a6 6e35 ebc3 6d35 fc39 1436 1dc9 2835
000000b0: f172 ddb4 8271 b735 31d5 c235 25ee 0e36
000000c0: 560e 6d34 2637 b535 ce49 27b6 a13c 36b5
000000d0: 2f10 db35 d75c 6d35 04e8 ce34 4a61 a835
000000e0: bf1b f7b4 16b5 d234 4fa6 2835 7b09 9b35
000000f0: a3c6 36b4 47f7 8734 4f4b aa33 c606 4435
00000100: 3352 2935 748d e535 97e1 d335 679a 0236
00000110: f9c1 8735 0a38 0b36 91bb 99b5 89c8 8235
00000120: 47c0 1835 22eb a435 50ff 2636 62ae d335
00000130: e7b4 ed35 7260 8b35 157b 3f36 dd6b ccb4
00000140: 59d6 1a36 4a3b 9036 1969 7036 e1cf d336
00000150: 4757 4636 9a03 b934 c77e 3736 e576 9336
00000160: 4da0 3a36 80df 8c35 5a26 9336 b601 ad36
00000170: 794b fc36 6724 a336 825d 6436 e63f cf36
00000180: 42b7 8736 4fb6 8436 af79 ae36 4714 4e36
00000190: 8e16 ecb5 cba0 8ab5 2dde 6e35 21a5 7fb3
000001a0: fb5e 3836 03a6 1f36 72e4 0336 54d7 2536
000001b0: 7429 6936 d631 3e36 910b 3b36 3bd7 a135
000001c0: 351e 6236 c13f 5036 7a2e 2f36 fe3e 9f35
000001d0: 1141 5936 8ef4 dc36 8753 ac36 6bd4 5136
000001e0: bc0d 8936 567b 1736 3dfe f136 dd92 ac36
000001f0: 9ec6 3936 8c1a e635 ebf2 1f36 c411 bf34
00000200: b8df 5a36 5743 9535 858b aa35 22ee fd34
00000210: 101c 7d35 2d23 2136 7375 e033 80a3 8d35
00000220: daa9 0135 cb42 a935 4df5 8935 3d05 5d35
00000230: b856 8d35 3f4b 84b5 834d 8235 e131 acb4
00000240: f713 8a34 911c 8735 9a84 40b5 d556 f235
00000250: 9442 b2b4 2abf 0534 20bd 2e35 0cb0 16b5
00000260: 4f5f 8fb6 b0d9 b734 5440 3034 2d02 0436
00000270: 87ad 32b5 d6ab 8db5 c8c0 0136 6e0d a1b3
00000280: 0730 8a35 bd95 b2b3 a772 f435 ec75 5e36
00000290: 78ec 8033 07b2 a135 9875 80b4 6ad3 1036
000002a0: feb3 2036 2a0b b2b4 b308 2635 8164 20b4
000002b0: 6658 7f35 bf18 b935 07d9 0a35 53c4 d0b3
000002c0: 6d50 8bb5 2d84 9fb4 8f8e 3833 6203 e3b3
000002d0: cba8 1234 d4f4 5bb4 017d 11b4 d349 5b34
000002e0: 7918 0b34 70ec 6733 4de5 e1b2 5903 6c34
000002f0: c0c3 94b3 8da3 73b4 5ca8 ceb4 bd13 5c32
00000300: a0a8 dc33 f149 8a31 b356 6fb5 3a4b 6d34
00000310: 5add 48b4 5f07 93b3 4e2e 4fb4 f95b 07b5
00000320: 4de6 3434 3646 b035 ace8 2b35 af91 93b5
00000330: f4d7 9435 90aa b235 9686 0636 a8ab 79b5
00000340: f867 3335 9712 4e34 d43b 1836 f61e 6634
00000350: da7d 5ab5 4056 3235 c803 4635 c0b3 9733
00000360: 0af5 d9b1 e375 7eb4 0258 2c36 2fb8 3235
00000370: b681 8735 d82c 7b34 04c1 4e35 e9d6 0436
00000380: b647 bdb4 4f13 e6b4 3ddb 0b35 6cab dd33
00000390: ec72 bfb3 61b7 af34 b1c4 5b34 97d3 0935
000003a0: a809 9f34 061f 2535 557d 6134 3737 fd34
000003b0: 4b73 2a34 e4f7 47b3 ad94 4f35 f765 4834
000003c0: 6fc6 93b3 0f07 fe34 3cd3 4f34 2659 9134
000003d0: a8e1 7034 c452 ad34 2131 2334 cf7c 1735
000003e0: e82f 1d35 752f b334 a231 fe36 eb0a 9e36
000003f0: 8d78 5c36 59fe 4436 faff d735 8eb4 3737
4.1460517e-06 2.7892722e-07 5.786846e-06 3.80926e-06 2.3194505e-06 4.103632e-07 2.9802413e-06 8.094165e-06
2.6367964e-06 4.0355976e-06 5.5652854e-06 5.29951e-06 6.3674643e-06 3.3558076e-06 5.1603e-06 4.035606e-06
4.169142e-06 4.371217e-06 2.0273978e-06 5.4491893e-06 3.8687563e-06 3.3141446e-06 5.509898e-06 4.4654407e-06
6.024895e-06 -3.3045134e-07 -2.0627648e-07 -2.0358145e-06 2.351833e-06 4.3034814e-07 1.0752269e-06 8.347431e-07
1.213732e-06 1.6579238e-06 7.6274335e-07 1.3398516e-06 7.846655e-08 1.3430388e-06 1.003509e-06 -6.2642835e-07
8.8903954e-07 8.857448e-07 2.208747e-06 6.2877535e-07 -4.124809e-07 1.3667598e-06 1.4516173e-06 2.1298267e-06
2.207756e-07 1.3501601e-06 -2.49279e-06 -6.788851e-07 1.6321482e-06 8.842448e-07 3.8539304e-07 1.254529e-06
-4.6027523e-07 3.9247305e-07 6.282689e-07 1.1551159e-06 -1.7022334e-07 2.5325627e-07 7.9299404e-08 7.3025546e-07
6.307702e-07 1.7102998e-06 1.578638e-06 1.9461384e-06 1.0114737e-06 2.0745233e-06 -1.1453977e-06 9.744118e-07
5.6904213e-07 1.2287385e-06 2.488454e-06 1.5771477e-06 1.7710526e-06 1.0384376e-06 2.853286e-06 -3.8076442e-07
2.3072555e-06 4.2984366e-06 3.5823962e-06 6.3124903e-06 2.9555101e-06 3.4461556e-07 2.734292e-06 4.3947825e-06
2.7809467e-06 1.049586e-06 4.385406e-06 5.156001e-06 7.5189714e-06 4.8620163e-06 3.4029076e-06 6.1765195e-06
4.0446475e-06 3.95513e-06 5.19977e-06 3.0708195e-06 -1.7589934e-06 -1.0328598e-06 8.898522e-07 -5.9521998e-08
2.7473423e-06 2.3789478e-06 1.9653494e-06 2.4712253e-06 3.4743834e-06 2.8341215e-06 2.7871904e-06 1.2058075e-06
3.3694207e-06 3.1031525e-06 2.6104085e-06 1.1864756e-06 3.2373393e-06 6.584981e-06 5.1357233e-06 3.126707e-06
4.084517e-06 2.2572544e-06 7.211957e-06 5.1430966e-06 2.7682759e-06 1.7144062e-06 2.3834243e-06 3.5589449e-07
3.2614753e-06 1.1120964e-06 1.2706593e-06 4.7298187e-07 9.429068e-07 2.4011345e-06 1.0452177e-07 1.0552903e-06
4.830341e-07 1.261092e-06 1.0278687e-06 8.233654e-07 1.0530557e-06 -9.856666e-07 9.708314e-07 -3.2073788e-07
2.571903e-07 1.0066598e-06 -7.1718534e-07 1.8055676e-06 -3.3203526e-07 1.2456135e-07 6.5095264e-07 -5.6135536e-07
-4.2728275e-06 3.4244795e-07 1.641468e-07 1.96708e-06 -6.656268e-07 -1.055533e-06 1.9334711e-06 -7.4995896e-08
1.0295779e-06 -8.316008e-08 1.8212785e-06 3.3149217e-06 6.003478e-08 1.2047248e-06 -2.392742e-07 2.1580731e-06
2.3946627e-06 -3.3163207e-07 6.185248e-07 -1.4937724e-07 9.512354e-07 1.3790776e-06 5.172482e-07 -9.721466e-08
-1.0379714e-06 -2.9712228e-07 4.2970495e-08 -1.05711266e-07 1.3658716e-07 -2.0485032e-07 -1.3549653e-07 2.0422821e-07
1.2954287e-07 5.3998917e-08 -2.6297721e-08 2.198043e-07 -6.927394e-08 -2.2690638e-07 -3.8492988e-07 1.2810173e-08
1.0275221e-07 4.0247348e-09 -8.91606e-07 2.2099712e-07 -1.8706979e-07 -6.846562e-08 -1.9295223e-07 -5.0425257e-07
1.6847589e-07 1.3133456e-06 6.4041046e-07 -1.0994753e-06 1.108971e-06 1.3311674e-06 2.0045895e-06 -9.300952e-07
6.683399e-07 1.9192008e-07 2.268459e-06 2.1431683e-07 -8.1394467e-07 6.643568e-07 7.376625e-07 7.064182e-08
-6.343389e-09 -2.369848e-07 2.5681225e-06 6.657819e-07 1.0096035e-06 2.339251e-07 7.7021855e-07 1.9794627e-06
-3.525617e-07 -4.2854887e-07 5.210057e-07 1.0322296e-07 -8.915035e-08 3.2729716e-07 2.046752e-07 5.134438e-07
2.9623084e-07 6.1512435e-07 2.1000353e-07 4.7165096e-07 1.5874427e-07 -4.6558753e-08 7.732986e-07 1.8663546e-07
-6.881316e-08 4.7316323e-07 1.9355224e-07 2.707322e-07 2.2433835e-07 3.228398e-07 1.5198431e-07 5.6433504e-07
5.855677e-07 3.3375878e-07 7.575568e-06 4.710038e-06 3.2852724e-06 2.9354326e-06 1.6093247e-06 1.0949689e-05
