lightning_logs/version_10/checkpoints/epoch=2-step=12.ckpt (torch, 273474 bytes, 24 tensors)

conv1.weight f4 [10, 1, 5, 5]
0	0x3dfd7a86	0.12376885
1	0x3e0c2f5c	0.13689941
2	0xbdafbba7	-0.08580714
3	0x3e0a5ddd	0.13512369
4	0xbd977d80	-0.07396984
5	0x3bcb8574	0.006210977
6	0xbdf5fd6f	-0.12011229
7	0x3dbae5b2	0.09125842
8	0x3e480d08	0.19536221
9	0xbde41154	-0.111361176
10	0x3e130e12	0.14360836
11	0x3c4618d6	0.012090882
12	0x3df33a45	0.118763484
13	0x3d5711f3	0.052507352
14	0x3e11ef03	0.14251332
15	0xbd4449e5	-0.047922034
16	0x3e0a0631	0.13478924
17	0x3bf2d66c	0.007410815
18	0xbdc64dc2	-0.096828
19	0x3d9d6937	0.07686084
20	0xbe28b156	-0.16473898
21	0xbdcc190a	-0.09965713
22	0xbe1301e4	-0.1435619
23	0x3db8a3e5	0.090156354
24	0xbe2ae2bb	-0.16688053
25	0xbd89f778	-0.06736654
26	0xbd80b880	-0.062851906
27	0xbe25ebac	-0.16203183
28	0xbd3fcf93	-0.046828818
29	0xbe84f7a8	-0.25970197
30	0x3e603e9a	0.2189888
31	0xbe16dbd1	-0.14732291
32	0x3e09c458	0.13453805
33	0xbc6792b8	-0.014134102
34	0xbdcab010	-0.098968625
35	0x3e28d2fd	0.16486736
36	0x3d87a3cc	0.06623039
37	0x3e27757a	0.16353408
38	0x3c346f5d	0.011012879
39	0xbd687b89	-0.056758437
40	0x3db4cc16	0.08827989
41	0xbceed988	-0.029156461
42	0x3dc9e45c	0.09858009
43	0x3e48a95f	0.1959586
44	0x3e1a047f	0.15040778
45	0xbd908b4a	-0.07057817
46	0x3de92e0f	0.11385738
47	0x3d1f5bda	0.038905956
48	0x3dfaed58	0.12252301
49	0xbd9cb144	-0.07650998
50	0xbe81d100	-0.25354767
51	0xbe03a16a	-0.12854543
52	0xbe5322a5	-0.20618685
53	0x3d8116ca	0.06303175
54	0xbd413d8a	-0.04717783
55	0x3d0b203c	0.033966288
56	0x3c1d8b0f	0.009615674
57	0xbd785a82	-0.06063319
58	0x3d65d2e0	0.05610931
59	0xbe78e639	-0.24306573
60	0xbcd60ce6	-0.026129197
61	0xbe41d792	-0.1892989
62	0xbd19fc75	-0.037594277
63	0xbe306d44	-0.17229182
64	0xbd28a834	-0.041176036
65	0xbd9969bc	-0.0749087
66	0x3df60b72	0.12013902
67	0xbe5f6b4e	-0.21818277
68	0xbe641b48	-0.22276032
69	0xbe6827ad	-0.22671385
70	0x3e19eab2	0.15030935
71	0x3cfc91ea	0.030831296
72	0x3e179c63	0.1480575
73	0xbe838344	-0.25686085
74	0xbe9ae190	-0.30250216
75	0xbe092aca	-0.13395229
76	0xbe878200	-0.2646637
77	0xbd39e03b	-0.04537986
78	0xbd23ffbe	-0.040038817
79	0x3d832c5a	0.06404944
80	0xbe49cc93	-0.19706945
81	0xbe80f51e	-0.2518701
82	0xbb76d86e	-0.0037665623
83	0xbe479fc7	-0.19494544
84	0x3ca01d9d	0.01954537
85	0xbe2ee82e	-0.17080757
86	0x3be339cd	0.0069343806
87	0xbe5a25d5	-0.21303494
88	0xbe614ab1	-0.22001149
89	0xbd809f36	-0.06280367
90	0xbda81f36	-0.08209078
91	0xbe2950e1	-0.16534759
92	0x3bf35ca7	0.0074268165
93	0x3c04415f	0.008072226
94	0xbdfb30e8	-0.122651875
95	0xbe6c509c	-0.23077625
96	0x3d8cebb0	0.06880891
97	0xbe3c5270	-0.18390822
98	0xbe466fdc	-0.19378608
99	0xbe97706b	-0.29577956
100	0xbd817f82	-0.06323148
101	0x3da18f60	0.07888675
102	0xbd06bacf	-0.032893
103	0xbe5314c7	-0.20613395
104	0x3d8ee4df	0.069772474
105	0xbe87e1a5	-0.2653934
106	0xbe9089c6	-0.28230113
107	0xbe50a64c	-0.20375937
108	0xbe615041	-0.2200327
109	0xbd18d831	-0.03731555
110	0x3de9c633	0.114147566
111	0xbd26468e	-0.04059463
112	0x3d0ea803	0.034828197
113	0xbd31132a	-0.043231167
114	0xbc90edfd	-0.017691607
115	0xbe0e2e79	-0.13884915
116	0xbd0cb7ef	-0.0343551
117	0xbe691814	-0.22763091
118	0x3d1ea8ec	0.038735315
119	0xbd2b6537	-0.041844573
120	0xbdc66428	-0.09687072
121	0xbe0b33ae	-0.13593933
122	0xbdcc7355	-0.09982935
123	0xbe6cc150	-0.23120618
124	0xbd6112dc	-0.054949626
125	0xbe62db19	-0.22153892
126	0xbdff6323	-0.12470081
127	0xbe547038	-0.20745933
128	0x3ddf3b15	0.10899941
129	0xbdd2588e	-0.10270797
130	0x3d842cd3	0.06453862
131	0xbd4adf40	-0.049529314
132	0xbe8a3309	-0.26992062
133	0x3db608ec	0.088884205
134	0xbde2a55c	-0.11066696
135	0xbe441c90	-0.1915152
136	0xbe8ef644	-0.2792226
137	0xbe837286	-0.25673312
138	0x3a1f11ac	0.0006068002
139	0xbdccdd08	-0.10003096
140	0x3d1fd39c	0.039020166
141	0xbe769926	-0.24081859
142	0x3dc377f7	0.09544366
143	0xbe4ffcaf	-0.20311235
144	0xbdb9772b	-0.090559326
145	0x3dc3036f	0.09522139
146	0x3dd744c6	0.10511164
147	0x3e012ce5	0.12614782
148	0x3e1af414	0.15132171
149	0xbddd930b	-0.10819062
150	0x3ad79af6	0.001644938
151	0xbe101470	-0.14070296
152	0xbd9de111	-0.07708944
153	0xbe4cfb1a	-0.20017663
154	0x3e1c4bfa	0.15263358
155	0xbe80552b	-0.25064978
156	0x3d3a2066	0.045441054
157	0x3c17597f	0.009237646
158	0x3be8f49f	0.007109239
159	0xbe568e38	-0.2095269
160	0x3d98fb69	0.07469828
161	0xbca38a23	-0.01996333
162	0xbd140bfa	-0.036144234
163	0xbe8e144d	-0.27749863
164	0xbc899cfe	-0.016798493
165	0xbe0f50e7	-0.13995706
166	0xbe214961	-0.15750648
167	0x3d8ac2fe	0.06775473
168	0xbd6e5d2f	-0.058194336
169	0xbe2742a2	-0.16334012
170	0xbe594bf3	-0.21220379
171	0xbdf2be9a	-0.118527606
172	0x3a6a0920	0.00089277513
173	0xbe263104	-0.16229635
174	0xbe25e60c	-0.16201037
175	0xbde2b851	-0.11070312
176	0xbe4a93d7	-0.19782959
177	0x3cc75855	0.024334112
178	0x3de04f76	0.10952656
179	0xbe8dd9e3	-0.27705297
180	0x3ba2a108	0.004963044
181	0x3d748a8e	0.05970245
182	0xbc0bc5d2	-0.008531051
183	0xbdf260e4	-0.11834887
184	0x3c82c16d	0.015961373
185	0x3c90e212	0.017685924
186	0xbc3dd26f	-0.011585816
187	0xbda55b59	-0.08074064
188	0xbdc9fdec	-0.09862885
189	0xbce21b37	-0.027600868
190	0xbdb5502d	-0.08853183
191	0xbde1a6f1	-0.1101817
192	0x3dab33c9	0.083594866
193	0x3e03f348	0.12885773
194	0xbdd6ffbe	-0.10497998
195	0xbdcd22e7	-0.10016423
196	0xbd48b39e	-0.04899942
197	0xbd661594	-0.056172922
198	0x3c1342b9	0.008988076
199	0xbccd4a85	-0.025059948
200	0xbe8d4e1a	-0.2759865
201	0xbe3b97f0	-0.18319678
202	0x3d932759	0.07185239
203	0xbcd9b400	-0.026575089
204	0xbe06ef1c	-0.1317715
205	0xbe2ae4e1	-0.16688873
206	0xbe6a0e12	-0.2285693
207	0xbe98e552	-0.29862458
208	0xbe44d6fe	-0.19222638
209	0xbd840e52	-0.06448044
210	0x3d83792c	0.06419596
211	0xbb01001b	-0.00196839
212	0xbe9323b4	-0.28738177
213	0xbe66218e	-0.22473738
214	0xbe0b9a61	-0.1363311
215	0x3e3f826c	0.18702096
216	0x3c9140a2	0.017731015
217	0xbda2896d	-0.07936368
218	0x3d2167c5	0.039405603
219	0xbe3da553	-0.18520097
220	0xbe01d2df	-0.12678097
221	0x3e225aa6	0.15854892
222	0xbd9b1523	-0.07572391
223	0xbd12a15a	-0.035798408
224	0xbe8fa90d	-0.28058663
225	0x3d48cecc	0.049025342
226	0x3d6bd02b	0.05757157
227	0xbc9c638b	-0.019090435
228	0xbe6e7509	-0.23286833
229	0xbe982455	-0.2971522
230	0xbe832dd4	-0.25620902
231	0x3d5781c0	0.052613974
232	0x3a2d3090	0.00066066626
233	0x3d8f0924	0.06984165
234	0x3bbbb9b3	0.005728924
235	0xbb452a97	-0.00300852
236	0xbd761c4a	-0.060085572
237	0xbe5602e6	-0.20899543
238	0xbe89ff4e	-0.26952595
239	0xbe912f53	-0.28356418
240	0x3ccfa8c0	0.025349021
241	0xbe227fca	-0.1586906
242	0xbdca6c80	-0.09883976
243	0xbe2f9bbb	-0.1714925
244	0xbdae2ba2	-0.08504416
245	0xbe506892	-0.2035239
246	0xbe4433d2	-0.19160393
247	0x3bd14cbd	0.0063873217
248	0xbde3ac4b	-0.11116847
249	0x3db0df24	0.08636311

conv1.bias f4 [10]
0	0xbde28935	-0.110613264
1	0xbe14fcf6	-0.14549622
2	0xbd9066bf	-0.07050847
3	0xbe4f16f0	-0.20223594
4	0xbe19bea1	-0.15014125
5	0xbe652844	-0.22378641
6	0x3d8dd43e	0.069252476
7	0xbe3cfe09	-0.18456282
8	0x3de98688	0.11402613
9	0x3dc17a55	0.09447161

conv2.weight f4 [20, 10, 5, 5]
0	0x3d98c31b	0.074590884
1	0xbdc6ab07	-0.097005896
2	0x3c46a38b	0.012123953
3	0xbd949792	-0.07255472
4	0xbb623c4c	-0.0034520803
5	0x3cccb352	0.02498785
6	0xbddc4b84	-0.10756591
7	0xbdeb126d	-0.11478124
8	0xbde81e2a	-0.11333878
9	0xbdbd4312	-0.09241308
10	0xbd665e60	-0.056242347
11	0xbe68b0ad	-0.22723646
12	0xbe0466b4	-0.12929803
13	0xbc8e9358	-0.017404243
14	0x3db6ba02	0.08922197
15	0xbcafaa9a	-0.021443654
16	0xbe04f661	-0.12984611
17	0xbbc86ab8	-0.0061162375
18	0xbdb7a1cb	-0.089664064
19	0xbdb43005	-0.087982215
20	0xbd191553	-0.037373852
21	0xbe408333	-0.18800049
22	0xbe288fef	-0.16461156
23	0xbe0da1c1	-0.13831235
24	0xbd97f152	-0.07419075
25	0xbda65947	-0.08122497
26	0xbe52d84d	-0.20590325
27	0xbdb259f5	-0.08708564
28	0xbcd2ac01	-0.025716783
29	0x3da32428	0.07965881
30	0xbd5c3839	-0.053764556
31	0xbe3d28e0	-0.18472624
32	0xbe585ca3	-0.21129088
33	0xbe1029fe	-0.14078519
34	0x3dbd17cf	0.09233057
35	0xbddb8610	-0.1071893
36	0xbe127e2f	-0.14305948
37	0xbdd46c13	-0.10372176
38	0xbe1b97fc	-0.15194696
39	0xbcdc2f90	-0.026878148
40	0xbd432f3c	-0.047652468
41	0xbe417aa7	-0.18894444
42	0xbddd9a16	-0.10820405
43	0xbe54d627	-0.20784818
44	0xbe1604ea	-0.14650312
45	0xbd852791	-0.06501687
46	0xbe5c099f	-0.21488045
47	0xbe1f72e3	-0.1557117
48	0xbe5740ec	-0.2102086
49	0xbdb52ba3	-0.08846214
50	0x3dd83847	0.10557609
51	0xbd1c0cae	-0.03809803
52	0xbe2c28ba	-0.16812411
53	0xbdf1faee	-0.11815439
54	0xbd0809a6	-0.033212326
55	0x370e5a80	8.484931e-06
56	0xbdcc1330	-0.09964597
57	0xbd7e99a4	-0.062158242
58	0xbe5adac3	-0.21372513
59	0x3d51bcc5	0.051205415
60	0xbd116157	-0.03549322
61	0xbd8e06e0	-0.06934905
62	0xbd857709	-0.06516845
63	0xbd051088	-0.03248647
64	0xbd72400b	-0.059143107
65	0xbcac9a79	-0.021069752
66	0xbdd23fd7	-0.10266083
67	0xbe300edf	-0.17193173
68	0xbd8e5c8e	-0.06951247
69	0xbe1e699e	-0.15469977
70	0x3d7f2987	0.062295463
71	0xbd98f075	-0.074677385
72	0xbddee502	-0.108835235
73	0xbe5d4e33	-0.21611862
74	0xbdd3ae3e	-0.103359684
75	0x3d4d33e3	0.05009831
76	0xbe148858	-0.14505136
77	0xbdd26a1b	-0.10274144
78	0xbdc2cc78	-0.095116556
79	0xbd9af13e	-0.075655445
80	0xbdc3e87d	-0.09565828
81	0x3cecd4ce	0.028910067
82	0xbe0c35b7	-0.13692366
83	0xbe1595aa	-0.14607874
84	0x3d9191ca	0.07107885
85	0xbdf53eb1	-0.11974848
86	0x3e1be286	0.1522313
87	0xbd7e4485	-0.062077064
88	0x3d722f0c	0.0591269
89	0x3dfeec4c	0.12447414
90	0x3dd14b9c	0.102194995
91	0x3e0e0f1a	0.13872948
92	0x3e4602c6	0.19336995
93	0x3e22eee3	0.1591144
94	0x3d4db40e	0.05022054
95	0x3de86c53	0.11348786
96	0x3e02c5a4	0.12770706
97	0x3d911187	0.07083421
98	0xbe0638c7	-0.13107596
99	0xbd3ad49e	-0.045612924
100	0x3d1afeb7	0.03784057
101	0xbd887a5b	-0.066639625
102	0x3dbbe77c	0.091750115
103	0xbd87e8e4	-0.06636217
104	0xbdb9c454	-0.0907065
105	0x3d5fc151	0.05462772
106	0x3cd07d93	0.025450503
107	0xbd204717	-0.039130297
108	0x3d0e4639	0.03473494
109	0x3ddf5078	0.1090402
110	0x3e196cdf	0.14982937
111	0xbd87e4c4	-0.066354305
112	0xbd92130e	-0.07132541
113	0xbe073179	-0.13202466
114	0x3dad6cd7	0.08468025
115	0x3d3bde22	0.04586614
116	0x3d973ea8	0.073849976
117	0x3bc47cc3	0.005996318
118	0xbc90283d	-0.017597312
119	0xbdecc753	-0.115614556
120	0x3d9b696c	0.07588467
121	0xbe19b42e	-0.1501014
122	0xbdefe934	-0.11714402
123	0x3d1f9b3e	0.03896641
124	0xbe06c5a2	-0.13161328
125	0xbdc978f0	-0.0983752
126	0xbdb61c6c	-0.0889214
127	0x3d17831c	0.03699027
128	0xbde1859c	-0.11011812
129	0xbd8d6a39	-0.06905026
130	0x3ca3456f	0.01993057
131	0xbdd17e80	-0.10229206
132	0xbda5ecfd	-0.081018426
133	0x3dc75f11	0.09734929
134	0x3df29790	0.118453145
135	0x3c8e5d03	0.017378336
136	0xbdb4a1e1	-0.088199385
137	0xbdc5e2fc	-0.096624345
138	0x3d349a88	0.044092685
139	0xbcba2806	-0.022724163
140	0xbdf28529	-0.118418045
141	0xbe076da4	-0.13225418
142	0x3d8f2cfd	0.06991003
143	0xbe102c6c	-0.14079446
144	0x3d06b3f1	0.03288645
145	0xbe381556	-0.17976889
146	0xbe3c18ec	-0.18368882
147	0xbdc451ae	-0.09585892
148	0xbd81f8a7	-0.06346255
149	0x3d142c00	0.036174774
150	0x3df0fd66	0.11767082
151	0x3d10dd9b	0.03536759
152	0x3df4815e	0.11938737
153	0x3cfb02e0	0.03064102
154	0x3ceea59a	0.0291317
155	0x3c2c6de6	0.010524249
156	0x3e0706cd	0.13186188
157	0x3df3793d	0.11888359
158	0x3c26091f	0.010134011
159	0xbc49ec5a	-0.012324417
160	0x3d2ea69b	0.042639356
161	0x3e482ac2	0.19547561
162	0x3df04605	0.11732105
163	0x3e6ddab8	0.23227966
164	0x3dfbaf3d	0.122892834
165	0x3dd64afd	0.10463522
166	0x3e54078d	0.20706005
167	0x3dfee178	0.124453485
168	0x3ddfb79c	0.109236926
169	0x3ddee365	0.10883216
170	0x3df3ff1e	0.11913894
171	0x3ddd1355	0.10794703
172	0x3dd4bac0	0.10387182
173	0x3e0a8dfc	0.13530725
174	0xbbc13fec	-0.0058975127
175	0xbc9a4e88	-0.018836275
176	0xbdd7495a	-0.105120376
177	0xbdd0faf6	-0.10204117
178	0xbdc1c879	-0.09462065
179	0xbc164b59	-0.009173238
180	0xbdd55e8c	-0.10418424
181	0xbdd3d72d	-0.10343776
182	0xbda13b89	-0.078726836
183	0xbce7c058	-0.028289959
184	0x3db5e16e	0.08880888
185	0xbdfc87ae	-0.12330566
186	0xbe53a504	-0.20668417
187	0xbcf0bb80	-0.029386282
188	0xbd2dac52	-0.042400666
189	0xbbe494ee	-0.0069757616
190	0xbdc4ebfa	-0.096153215
191	0xbe08d760	-0.13363409
192	0xbe5ebabf	-0.21750925
193	0xbde4d132	-0.11172713
194	0xbdaf8c8d	-0.0857173
195	0xbdd2c2ba	-0.102910474
196	0xbe2ebcfa	-0.17064276
197	0xbdbd0dfd	-0.09231184
198	0xbe0708f3	-0.13187008
199	0xbdbea086	-0.09307961
200	0x3d647275	0.055773217
201	0x3d8f89ad	0.070086814
202	0x3dbd1f20	0.09234452
203	0x3ce3b6be	0.0277971
204	0x3d264fc7	0.040603425
205	0x3c37e4c2	0.011223974
206	0x3ced5615	0.028971711
207	0x3d1a451d	0.037663568
208	0x3e00857d	0.12550922
209	0x3db6e250	0.089298844
210	0x3e382f01	0.1798668
211	0x3e23644b	0.15956227
212	0x3ddf9767	0.109175496
213	0x3cd173da	0.025567938
214	0x3d1867b6	0.03720828
215	0x3e5dc155	0.21655782
216	0x3e139b2e	0.14414665
217	0x3e06bf91	0.13159014
218	0x3d84f6db	0.064923964
219	0x3da47ea6	0.08031969
220	0x3e5ee125	0.21765573
221	0x3e0e818b	0.13916604
222	0x3de9830b	0.114019476
223	0x3e0cbceb	0.13743941
224	0x3d4811e4	0.048845187
225	0x3de98e61	0.1140411
226	0x3e4331e5	0.19062002
227	0x3d4276c8	0.04747656
228	0x3df54ccb	0.11977538
229	0x3d11fd2a	0.035641827
230	0x3e5a4fd2	0.21319512
231	0x3df239de	0.118274435
232	0x3dccfe8e	0.1000949
233	0x3c1ac643	0.009446683
234	0xbcc858e4	-0.024456449
235	0x3e422a7d	0.1896152
236	0x3e145e35	0.14489062
237	0x3e1de3f0	0.15418983
238	0x3d2620c6	0.0405586
239	0x3afd63e8	0.0019332143
240	0x3df609df	0.120136015
241	0x3e22a6b2	0.15883902
242	0x3e2a9c1d	0.16661115
243	0x3e4ea189	0.20178808
244	0x3e26d210	0.1629107
245	0x3e4769cc	0.19473952
246	0x3e057de7	0.13036309
247	0x3e158a72	0.14603594
248	0x3e2163d3	0.15760736
249	0x3d9ab3dc	0.07553837
250	0xbdae032c	-0.08496699
251	0xbe17c87f	-0.14822577
252	0xbd905899	-0.07048149
253	0xbe0dbd44	-0.1384173
254	0xbe054fe2	-0.13018754
255	0xbe122d20	-0.14275026

conv2.bias f4 [20]
0	0x3dc94c4f	0.09829008
1	0xbe0c8f79	-0.13726605
2	0xbe23fd64	-0.1601463
3	0xbd80a732	-0.0628189
4	0xbdc39f81	-0.09551907
5	0xbdc27346	-0.09494643
6	0xb90ccc40	-0.0001342753
7	0xbd2c971b	-0.042136293
8	0x3c976faa	0.018485863
9	0xbdd228e2	-0.10261704
10	0xbda0249d	-0.078194834
11	0xbc532e22	-0.012889417
12	0xbe025fc0	-0.12731838
13	0xbc4e2998	-0.012583159
14	0xbd489971	-0.048974458
15	0xbdb0ed2f	-0.08638989
16	0xbdc7319c	-0.09726259
17	0xbe12412e	-0.14282677
18	0x3d814cd4	0.06313482
19	0xbd86291c	-0.0655081

fc1.weight f4 [50, 320]
0	0x3d951b65	0.07280616
1	0x3e444ab6	0.19169125
2	0x3e5d63c7	0.21620093
3	0x3dbd92ac	0.09256491
4	0x3d94d4f6	0.072671816
5	0x3e0d19b4	0.13779336
6	0x3e5a51e4	0.21320301
7	0x3dd9ab21	0.106283434
8	0xbd6b2d09	-0.057415996
9	0x3e0adacc	0.13560027
10	0x3e03449b	0.1281914
11	0x3d7c7416	0.061634146
12	0x3dfd4a23	0.12367656
13	0x3e00dee3	0.12585025
14	0x3c948d21	0.018133702
15	0x3dc4ee26	0.09615736
16	0xbd71b88a	-0.05901388
17	0xbd521576	-0.051289998
18	0xbe01fca4	-0.12694031
19	0xbdcd3683	-0.10020163
20	0xbdbe9f9b	-0.09307786
21	0xbdcbae66	-0.09945373
22	0xbdd212d1	-0.10257495
23	0x3d8f632a	0.07001336
24	0xbd913c90	-0.070916295
25	0xbd824253	-0.063603066
26	0xbdcee6e1	-0.101026304
27	0x3e09509d	0.13409658
28	0x3db80bc7	0.08986621
29	0x3dd4932a	0.10379632
30	0x3dd54f16	0.10415475
31	0xbddf7a0c	-0.109119505
32	0x3db37962	0.08763386
33	0x3dabcf4f	0.0838915
34	0x3cad2f64	0.021140762
35	0xbdb38427	-0.087654404
36	0xbded35f1	-0.11582554
37	0xbd5d0483	-0.05395938
38	0xbcc7373c	-0.02431833
39	0x3c91f7e4	0.017818399
40	0x3e0a95f5	0.13533767
41	0xbd61bc92	-0.055111475
42	0xbca4bf0c	-0.02011063
43	0x3d100eb8	0.035170287
44	0xbcf7a572	-0.030230258
45	0x3e02ef97	0.12786709
46	0x3b13d9f0	0.002256032
47	0xbd574837	-0.052559104
48	0x3deea4a4	0.116524965
49	0xbd2f8338	-0.04284975
50	0xbdcda3ad	-0.10040984
51	0xbe0ab0aa	-0.13543954
52	0x3e068fc1	0.13140775
53	0x3c1318e9	0.008978107
54	0xb9913f78	-0.00027703843
55	0xbd47d4e6	-0.04878702
56	0x3d3167eb	0.043311995
57	0xbce7ba32	-0.028287027
58	0x3b969c09	0.0045962376
59	0x3cfb9a80	0.03071332
60	0xbe301d0a	-0.17198578
61	0xbe080705	-0.13283928
62	0xbd708c94	-0.058727816
63	0xbd79ae79	-0.060957406
64	0x3dcb0916	0.099138424
65	0xbdabc7d6	-0.08387725
66	0xbd630a82	-0.055429943
67	0x3d0d0d44	0.03443648
68	0x3e097788	0.13424504
69	0x3d21eabe	0.03953051
70	0xbdd7afd7	-0.10531586
71	0xbe29c3f0	-0.1657865
72	0xbe04084f	-0.12893794
73	0xbdcc9b03	-0.09990504
74	0xbd9fb23c	-0.077976674
75	0xbdb4a0a5	-0.08819703
76	0x3beb5709	0.0071820063
77	0xbcbe7676	-0.023249846
78	0xbe292519	-0.16518058
79	0xbe20749b	-0.15669481
80	0x3db98436	0.0905842
81	0x3dc84f53	0.09780755
82	0xbd2693ab	-0.04066817
83	0x3d4c26d2	0.04984171
84	0xbd798676	-0.060919248
85	0xbb2226ab	-0.0024742286
86	0xbe0b1235	-0.13581164
87	0xbe0513d9	-0.12995853
88	0xbdd89d2e	-0.10576855
89	0xbd8f09c2	-0.06984283
90	0xbd7512da	-0.05983243
91	0xbda06b6e	-0.078329906
92	0x3e031044	0.12799174
93	0x3e116c3d	0.14201446
94	0x3e0a740c	0.13520831
95	0x3d2501f7	0.040285077
96	0xbdadb2ac	-0.084813446
97	0x3ddfcaf8	0.10927385
98	0xbd39ed7b	-0.045392495
99	0x3d9894c1	0.074502476
100	0x3dac2344	0.08405164
101	0x3e2f1af1	0.17100121
102	0xbd5d919e	-0.05409395
103	0x3ac61ad0	0.0015114192
104	0xbe0ceeba	-0.13762942
105	0xbe19c2d8	-0.15015733
106	0x3baf8c6e	0.0053573167
107	0x3e002a7e	0.1251621
108	0x3dade83c	0.08491561
109	0x3d5fa736	0.054602824
110	0x3dc2fae9	0.095205136
111	0x3dd53930	0.10411298
112	0x3cdc54f8	0.026895985
113	0xbda5d91b	-0.0809805
114	0x3da81f13	0.08209052
115	0xbd094a37	-0.033518042
116	0xbd8e4953	-0.06947579
117	0x3c365fba	0.011131221
118	0x3da5c120	0.08093476
119	0x3d97f8c2	0.07420494
120	0xbdf4beec	-0.11950478
121	0x3dbfd35c	0.093664855
122	0x3d3718ff	0.044701573
123	0x3912cf88	0.00014000956
124	0xbd32f1ad	-0.04368751
125	0xbd97d3fb	-0.07413479
126	0xbd8e5b8f	-0.06951057
127	0x3be6e513	0.0070463507
128	0x3c8e6ac6	0.017384898
129	0x3d87d3fd	0.066322304
130	0x3e0bb6fa	0.13644019
131	0x3d9f1682	0.07767965
132	0x3c78ecbf	0.015193163
133	0x3dfd2b99	0.12361831
134	0x3e1900b1	0.1494167
135	0x3db1e96d	0.086871006
136	0xbd571d20	-0.05251801
137	0xbe3401bf	-0.17578791
138	0xbcdc53ce	-0.02689543
139	0x3cfe6118	0.031052157
140	0x3dc4dfa0	0.096129656
141	0x3cc36148	0.023850098
142	0x3e34e506	0.1766549
143	0x3de4a5a3	0.11164405
144	0xbe08b242	-0.1334925
145	0xbde2c218	-0.11072177
146	0xbe02a7cc	-0.12759322
147	0xbe2a152c	-0.16609639
148	0xbddbce66	-0.10732727
149	0xbdc84eb7	-0.09780639
150	0xbd7f551a	-0.06233702
151	0xbd8d9c4f	-0.06914579
152	0xbdba2ad1	-0.09090198
153	0xbdd2d03f	-0.10293626
154	0xbdd0fccf	-0.102044694
155	0xbe126fc0	-0.14300442
156	0xbd52291c	-0.051308736
157	0xbd23ef09	-0.040022884
158	0xbe1a9c70	-0.15098739
159	0xbdb6ce61	-0.089260824
160	0x3d1aad48	0.03776291
161	0xbdcb1dd2	-0.09917797
162	0xbdb8f03c	-0.09030196
163	0xbe01b5b8	-0.12666976
164	0xbd71d5c6	-0.05904176
165	0xbdb03c93	-0.086053036
166	0xbdf1e18e	-0.11810599
167	0x3d12b4cc	0.035816953
168	0xbd3ecfe2	-0.04658497
169	0xbd0e2be3	-0.034709822
170	0x3dc31f0b	0.09527405
171	0x3d81b79a	0.06333847
172	0x3dfc96ba	0.12333436
173	0x3dfc1f86	0.123107
174	0x3da8355f	0.08213305
175	0xbd1a8913	-0.03772838
176	0xbe06a14d	-0.13147469
177	0xbdc5c8d4	-0.096574455
178	0xbc2fe1ea	-0.010735014
179	0xbe0c37c4	-0.13693148
180	0xbdea778d	-0.11448584
181	0xbde933c8	-0.113868296
182	0xbde78884	-0.11305335
183	0xbd11ee21	-0.035627488
184	0xbd678485	-0.056522865
185	0xbe104412	-0.14088467
186	0xbdfeb056	-0.12435977
187	0xbdb46130	-0.088075995
188	0xbdde3db2	-0.10851611
189	0xbdf7b701	-0.12095452
190	0xbe0d7569	-0.1381432
191	0xbd68a4d3	-0.056797814
192	0x3d0032fc	0.031298622
193	0x3c84e038	0.016220197
194	0x3d9ed372	0.07755174
195	0x3d12d7ac	0.035850212
196	0xbde83dd0	-0.11339915
197	0xbd676bcc	-0.056499287
198	0xbc84e7a2	-0.016223732
199	0x3d343c12	0.0440026
200	0x3dd2ca46	0.10292487
201	0xbb35c910	-0.002773825
202	0x3cb4fc24	0.022092886
203	0x3df40445	0.11914877
204	0xbe05e950	-0.13077283
205	0x3c8b4310	0.016999751
206	0x3d2123a3	0.039340626
207	0x3da09e74	0.078427225
208	0xbdddb3f7	-0.10825341
209	0x3d805291	0.06265748
210	0x3d444013	0.04791267
211	0xbd1e4d46	-0.038647912
212	0xbe105464	-0.14094692
213	0x3cc68680	0.024234056
214	0x3cd56fa8	0.026054218
215	0x3bf8b258	0.0075896196
216	0xbd96827d	-0.073491074
217	0x3cfe2764	0.031024642
218	0x3b98f3a8	0.004667718
219	0xbdf0f19b	-0.117648326
220	0x3d9af896	0.07566945
221	0xbd8b1157	-0.06790417
222	0xbc45ddff	-0.012076854
223	0x3d240782	0.040046223
224	0xbdb07f0c	-0.08617982
225	0xbde0eaeb	-0.10982307
226	0xbdd69d5a	-0.10479231
227	0xbdb110f2	-0.0864581
228	0xbd44f89b	-0.04808865
229	0xbdd8ee6a	-0.10592349
230	0xbdd69fc0	-0.10479689
231	0xbda2df23	-0.07952716
232	0xbde291a0	-0.11062932
233	0xbd299bc6	-0.041408323
234	0xbd451520	-0.04811585
235	0xbdb3d889	-0.08781535
236	0xbe0158bb	-0.12631504
237	0xbd989fbe	-0.074523434
238	0xbd2f23e1	-0.042758826
239	0xbd92f2bb	-0.071752034
240	0x3e1152c3	0.14191727
241	0xbdbf5d59	-0.093439765
242	0xbdc5e8bf	-0.096635334
243	0xbdee97f3	-0.11650076
244	0x3da5a4db	0.08088084
245	0xbd2e54dd	-0.0425614
246	0xbd5b8252	-0.05359108
247	0xbdc8415f	-0.097780935
248	0xbd4ae86e	-0.04953807
249	0xbdcbd9da	-0.09953661
250	0x3dcfec98	0.101525486
251	0xbdadac4a	-0.08480127
252	0x3d4a5a28	0.049402386
253	0xbd3bd2ae	-0.045855217
254	0x3e300f79	0.17193402
255	0xbc34d5ac	-0.0110372715

fc1.bias f4 [50]
0	0x3d3c15e1	0.045919303
1	0xbdcd1901	-0.10014535
2	0x3db478d6	0.0881211
3	0xbd969606	-0.073528334
4	0xbcd50aa4	-0.02600605
5	0xbdcbcbfc	-0.09951016
6	0xbd1b15ef	-0.037862714
7	0xbd473ed9	-0.04864392
8	0x3d2359e8	0.039880663
9	0xbe1af3ef	-0.15132116
10	0xbda78130	-0.081789374
11	0xbe2573a3	-0.16157393
12	0xbd413776	-0.047172032
13	0xbde2cc18	-0.11074084
14	0x3d1f76c7	0.038931634
15	0xbd4a2067	-0.049347308
16	0xbe00897c	-0.12552446
17	0x3d8678d9	0.065660186
18	0xbd42d365	-0.047564883
19	0xbcdccc33	-0.026952839
20	0xbcc1e182	-0.0236671
21	0x3d86b63a	0.06577726
22	0xbddfb536	-0.10923235
23	0xbc5d3435	-0.013501217
24	0xbe01c128	-0.1267134
25	0x3d2f5d86	0.0428138
26	0x3c91f659	0.017817663
27	0xbe146556	-0.14491782
28	0x3d36edd4	0.044660404
29	0x3c92541b	0.01786237
30	0xbc9f7732	-0.019466016
31	0xbe162382	-0.14661983
32	0xbdc8dd65	-0.09807853
33	0x3ceb183e	0.028698083
34	0x3d005938	0.031335086
35	0x3d7dd732	0.061972804
36	0xbe07457e	-0.13210103
37	0xbe10a5dc	-0.1412577
38	0xbde56b4a	-0.112021044
39	0xbe26338b	-0.162306
40	0x3d03d98c	0.03218989
41	0xbcd2d126	-0.025734495
42	0xbda2f12f	-0.07956158
43	0x3e1ee11e	0.15515563
44	0x3dd05200	0.1017189
45	0xbcf9d04b	-0.03049483
46	0xbca2f301	-0.019891264
47	0x3d9dd684	0.07706931
48	0x3ce0fc60	0.027464092
49	0x3d39f331	0.04539794

fc2.weight f4 [10, 50]
0	0x3d606c1f	0.054790612
1	0xbcfa98c9	-0.030590432
2	0x3c7127d8	0.014718972
3	0xbe29cd8c	-0.16582316
4	0xbc8ac26c	-0.01693841
5	0x3c09c184	0.008407954
6	0x3d4c90c6	0.049942754
7	0x3bae4a2e	0.0053189015
8	0xbdbc5f09	-0.09197814
9	0xbe31a3f5	-0.17347701
10	0x3ddec891	0.10878099
11	0x3ced2b33	0.028951263
12	0xbe6937e1	-0.22775222
13	0xbe188f22	-0.14898351
14	0x3cc3ef83	0.023917919
15	0x3d3b4fa3	0.045730244
16	0x3db342ee	0.08753
17	0xbe34bc6b	-0.17650001
18	0xbdb192c1	-0.08670569
19	0x3bc46bb3	0.005994284
20	0x3d9bfa3d	0.076160885
21	0x3de6d777	0.112715654
22	0xbe67a8a2	-0.22622922
23	0x3d7225ca	0.05911807
24	0xbe2bc964	-0.16776043
25	0xbd7e4b86	-0.062083744
26	0xbe4c10cc	-0.19928282
27	0xbd8ae6de	-0.06782316
28	0xbe033687	-0.1281377
29	0xbdadbd6c	-0.08483395
30	0x3d5b00d9	0.053467605
31	0xbd041451	-0.032245938
32	0xbe3b3dbb	-0.18285267
33	0xbd76b17f	-0.060227867
34	0xbde5172b	-0.111860596
35	0x3e00672d	0.12539358
36	0xbe0e2705	-0.13882072
37	0xbd026b6a	-0.03184072
38	0x3c464e6f	0.012103661
39	0x3d82c25d	0.06384728
40	0xbd780928	-0.060555607
41	0xbdf2d287	-0.11856561
42	0x3e051d76	0.1299952
43	0x3e82e661	0.2556639
44	0xbd8f20a9	-0.06988651
45	0x3df579c5	0.11986116
46	0x3db76216	0.08954255
47	0x3da982b2	0.08276881
48	0xbe33caa7	-0.17557774
49	0x3e679172	0.22614077
50	0x3e2ccba3	0.16874556
51	0x3e22d935	0.1590317
52	0xbe632a8f	-0.22184204
53	0xbc35e429	-0.011101761
54	0x3bd2c726	0.0064324317
55	0xbdbb6463	-0.091500066
56	0xbdf763b6	-0.12079565
57	0xbda74f4a	-0.0816942
58	0x3e3ba48f	0.18324493
59	0x3e70a166	0.23499069
60	0xbcb2c77e	-0.02182364
61	0xbd804573	-0.062632464
62	0xbccf1fdd	-0.025283748
63	0x3d13bb11	0.036067072
64	0xbd94cadd	-0.072652556
65	0x3da7a503	0.0818577
66	0xbe30e589	-0.1727506
67	0x3d08176a	0.033225454
68	0x3da3a056	0.07989566
69	0xbe892b8b	-0.26791033
70	0xbcd126ae	-0.02553114
71	0x3e3b2bba	0.18278399
72	0x3d928925	0.071550645
73	0x3d98d677	0.07462781
74	0xbde0337d	-0.109473206
75	0xbdacb76f	-0.08433425
76	0xbe187a88	-0.14890492
77	0x3d97c834	0.074112326
78	0x3d91af38	0.071134984
79	0xbdb72080	-0.08941746
80	0x3e40b5a9	0.18819298
81	0xbc2c6307	-0.010521657
82	0xbd7a54ad	-0.06111591
83	0xbd08375a	-0.033255912
84	0x3e79b5f5	0.24385817
85	0xbe2618fd	-0.1622047
86	0xbdb76d1a	-0.08956356
87	0xbe614943	-0.22000603
88	0x3ce0241d	0.02736097
89	0x3de0a7e7	0.10969525
90	0xbe45dd04	-0.19322592
91	0xbdae4ea0	-0.0851109
92	0x3d6a09dd	0.057138313
93	0x3e1724f1	0.14760186
94	0xbd9faf23	-0.077970766
95	0x3d889329	0.066686936
96	0xbe42aad0	-0.19010472
97	0x3e40f450	0.18843198
98	0x3e3a96a6	0.1822153
99	0xbe5e93db	-0.2173609
100	0x3d732344	0.059359804
101	0xbd23cef8	-0.039992303
102	0x3e0a56b4	0.13509637
103	0x3cfca999	0.03084259
104	0xbdee9630	-0.1164974
105	0xbe566e5a	-0.20940533
106	0xbc380636	-0.01123195
107	0x3d920e9f	0.07131695
108	0xbe2cb1ec	-0.16864747
109	0xbac7da54	-0.0015247562
110	0xbd0df037	-0.034652915
111	0xbd9ce4f3	-0.07660856
112	0xbd9b606f	-0.075867526
113	0xbe1abc5f	-0.1511092
114	0xbdf26ddf	-0.118373625
115	0xbd047cdf	-0.03234565
116	0xbe1e0539	-0.1543168
117	0x3d4d9e4a	0.050199784
118	0xbd5721e8	-0.05252257
119	0x3c501894	0.012701172
120	0xbe7fa049	-0.24963488
121	0xbe0e6e10	-0.13909173
122	0xbe35e94d	-0.17764778
123	0xbe53ee44	-0.2069636
124	0xbd2e45b1	-0.04254693
125	0xbe106486	-0.14100847
126	0xbdff46f2	-0.124647036
127	0xbdb84e09	-0.08999259
128	0xbd31194e	-0.043237023
129	0x3c881570	0.016611785
130	0xbdd71b0c	-0.10503206
131	0x3d55b651	0.052175824
132	0xbe4b23ed	-0.19837923
133	0xbbfd3a10	-0.007727869
134	0xbd293cba	-0.04131768
135	0x3af8e109	0.0018987964
136	0x3cda2d93	0.02663306
137	0xbde341c0	-0.11096525
138	0xbc461003	-0.012088778
139	0x3d416b36	0.047221385
140	0x3de67921	0.11253572
141	0xbe08a537	-0.13344274
142	0xbd7e20b4	-0.062042907
143	0xbdf3eab0	-0.119099975
144	0x3d47dc29	0.048793945
145	0xbe5c4ffc	-0.21514887
146	0xbdc9469e	-0.09827922
147	0x3e2ac719	0.16677512
148	0xbd47691d	-0.04868423
149	0x3e242ba1	0.16032268
150	0xbe67463e	-0.22585389
151	0x3def4433	0.1168293
152	0x3e3b9bc7	0.18321143
153	0x3cce9fe9	0.025222735
154	0x3e100b55	0.14066823
155	0xbd082ae4	-0.03324403
156	0x3e2448fa	0.16043463
157	0xbe2bc97d	-0.1677608
158	0xbe3207f8	-0.17385852
159	0xbde5e840	-0.11225939
160	0xbe0dad6b	-0.13835685
161	0x3db4d88f	0.08830368
162	0x3de353ab	0.11099943
163	0x3d2c9c5c	0.042141303
164	0xbda48cbc	-0.080346555
165	0x3df7f1c0	0.12106657
166	0x3da5a82e	0.08088718
167	0x3e6fab70	0.23405242
168	0x3e1f447b	0.15553467
169	0x3db6f941	0.0893426
170	0xbe1b2a66	-0.15152892
171	0x3d5380bf	0.051636454
172	0xbda61ddc	-0.08111164
173	0xbc5ff7b1	-0.013669894
174	0xbc0fbbd6	-0.008772811
175	0xbd6fbf7b	-0.05853222
176	0x3df85a6b	0.12126621
177	0x3e216795	0.1576217
178	0xbc43f542	-0.0119603295
179	0x3df98a5b	0.12184592
180	0xbdb2080a	-0.086929396
181	0xbcc1e290	-0.023667604
182	0xbd6e3dfa	-0.058164574
183	0x3d854be3	0.06508615
184	0xbddaaec4	-0.10677865
185	0x3dcf9da2	0.10137488
186	0xbbb0f21c	-0.0053999554
187	0xbda43efe	-0.08019827
188	0xbd6fa338	-0.058505267
189	0xbdb2cbee	-0.08730303
190	0xbd6b04a0	-0.057377458
191	0xbdd1f99c	-0.10252687
192	0x3d08b05d	0.033371318
193	0xbdaca903	-0.08430674
194	0x3d91863b	0.071056806
195	0x3c8b2c27	0.016988827
196	0xbcf58f16	-0.029975455
197	0x3d3f73c6	0.04674127
198	0x3dd1f894	0.10252491
199	0x3dc8660f	0.09785091
200	0xbde4ed64	-0.11178091
201	0xbe2d26ea	-0.16909376
202	0xbd8afb15	-0.06786171
203	0xbd64ce64	-0.055860892
204	0x3d758238	0.05993864
205	0xbc833eec	-0.016021214
206	0xbdfac07c	-0.12243745
207	0x3c71d445	0.014760082
208	0x3db14870	0.086563945
209	0x3dbc3c11	0.09191144
210	0x3c91626a	0.017747123
211	0x3e132fb3	0.14373665
212	0x3dc51aee	0.09624277
213	0xbdc1324c	-0.094334215
214	0xbe8846e0	-0.26616573
215	0x3d9766a4	0.07392624
216	0xbc394e9e	-0.011310248
217	0x3d97ac19	0.07405872
218	0x3dd18066	0.10229568
219	0xbe83333c	-0.25625026
220	0x3d50fe4b	0.051023763
221	0xbbe7d034	-0.0070743803
222	0xbe67399b	-0.22580568
223	0x3d28705a	0.04112277
224	0x3e1ce588	0.15321934
225	0xbe71dd79	-0.23619641
226	0x3d516356	0.051120125
227	0x3d5274b1	0.051380817
228	0x3e1de226	0.154183
229	0x3c0c9b86	0.008582002
230	0xba493c99	-0.0007676571
231	0xbbbe239e	-0.0058025857
232	0x3d7466e3	0.059668433
233	0x3bdbb0b1	0.006704413
234	0xbe11ed78	-0.14250743
235	0x3cfa0874	0.030521609
236	0x3ce0c990	0.027439862
237	0x3d45329b	0.048143964
238	0x3b8810a6	0.0041523753
239	0xbd8d9244	-0.069126636
240	0x3e0da70e	0.13833258
241	0xbc80a53f	-0.015703795
242	0x3b2d3a8e	0.0026432606
243	0x3ce96910	0.02849248
244	0xbe6c31cd	-0.23065872
245	0x3df7a5c6	0.12092166
246	0x3b98871a	0.0046547772
247	0x3e101f7d	0.14074512
248	0xbd3a918a	-0.045548953
249	0xbd07360b	-0.033010524
250	0xbdedadb1	-0.11605395
251	0x3cd0a5d6	0.025469702
252	0x3e215975	0.15756781
253	0xbdd4e54a	-0.10395296
254	0x3d2c7274	0.04210134
255	0xbe62af0f	-0.22137092

fc2.bias f4 [10]
0	0x3cd013e1	0.025400104
1	0x3d60676e	0.05478614
2	0xbdbcf1bf	-0.09225797
3	0xbc9b9e1e	-0.018996295
4	0x3cf9f3a6	0.030511688
5	0x3ceac196	0.028656762
6	0x3dc90f1c	0.09817335
7	0x3d71f465	0.059070963
8	0x3c009778	0.007848613
9	0xbe028b5f	-0.12748478

exp_avg f4 [10, 1, 5, 5]
0	0xbaea6b2a	-0.0017884721
1	0xbbcf44df	-0.0063253487
2	0xbb9b5c82	-0.0047412524
3	0xbb7365d2	-0.0037139547
4	0xbc289a0a	-0.010290632
5	0xbb86a582	-0.0041090855
6	0xbc26d02d	-0.010181469
7	0xbc2913f3	-0.010319698
8	0xbc61c22b	-0.013779203
9	0xbcae450c	-0.021273158
10	0xbbbb6ad2	-0.005719521
11	0xbc355bb7	-0.01106923
12	0xbc3a1289	-0.011356958
13	0xbc954ca2	-0.018225018
14	0xbccc23e3	-0.024919456
15	0x3b38f1f2	0.0028220383
16	0x3a8dafd0	0.0010809842
17	0xba6cec24	-0.0009037873
18	0xbc055e66	-0.008140182
19	0xbc4b9920	-0.012426645
20	0x3c4ff5e2	0.0126929
21	0x3c712901	0.014719249
22	0x3bed3da4	0.007240014
23	0x3b563842	0.003268734
24	0xba65356a	-0.0008743616
25	0xbbe12786	-0.0068711666
26	0xbb3d24ab	-0.0028860967
27	0x3b41a642	0.002954856
28	0x3c32181a	0.010870004
29	0x3c1bd0d9	0.009510242
30	0xbc620777	-0.013795725
31	0xbc2dbee9	-0.010604599
32	0x3b240714	0.0025028633
33	0x3c28de40	0.010306895
34	0x3bb2cac8	0.0054563023
35	0xbc92fed7	-0.017943783
36	0xbc99ba55	-0.018765608
37	0xbb980fce	-0.004640556
38	0x3a153b30	0.00056927186
39	0xbbd7d8e7	-0.006587136
40	0xbc4f6bb1	-0.012659953
41	0xbc4ae928	-0.01238469
42	0xbc1e0af0	-0.009646162
43	0xbc4b4578	-0.012406699
44	0xbcaa6e0a	-0.020804424
45	0xbb2e8eea	-0.0026635476
46	0x3b4cee9f	0.003127016
47	0x3a05c458	0.0005102805
48	0xbc2c4e85	-0.010516767
49	0xbca2387a	-0.01980232
50	0x3ac2ef0a	0.0014872265
51	0x3adfc41e	0.0017071997
52	0x3af821b6	0.0018930945
53	0x3b148d6a	0.0022667297
54	0x3aea95c4	0.0017897417
55	0x3ab7fcf9	0.0014037184
56	0x3b28aaa9	0.0025736487
57	0x3b243980	0.0025058687
58	0x3b0baf5f	0.0021314246
59	0x3aa02b96	0.0012220021
60	0xba2df948	-0.0006636572
61	0x3b1a0a16	0.0023504547
62	0x3b2b1dde	0.0026110332
63	0x3ac98320	0.0015374161
64	0x3a51542d	0.00079852605
65	0xbac6c9ca	-0.0015166339
66	0x3aaeb1f9	0.0013328186
67	0x3b211e7f	0.0024584827
68	0x3a5dd479	0.0008462142
69	0x39a88c1e	0.00032147852
70	0xbafea687	-0.0019428291
71	0xba0c7060	-0.00053573214
72	0x39edf653	0.00045387688
73	0x38d996a6	0.00010375427
74	0x392ecdec	0.00016670645
75	0x35616887	8.397114e-07
76	0x385be2d2	5.242491e-05
77	0x39629b58	0.0002161091
78	0x39a27958	0.00030989456
79	0x3997b6ac	0.00028937066
80	0x37bfc7c4	2.2861997e-05
81	0x381f397d	3.7962094e-05
82	0x39299973	0.0001617426
83	0x3971e7a6	0.00023069847
84	0x39417dce	0.0001845278
85	0x3814fce1	3.552146e-05
86	0x3895cb36	7.142725e-05
87	0x390b0d79	0.00013261092
88	0x38f58ff7	0.00011709326
89	0x385fa9a7	5.3325344e-05
90	0x3856f4dc	5.124962e-05
91	0x38e9a301	0.000111406676
92	0x39135062	0.00014048957
93	0x3909966c	0.00013121375
94	0xb6da334b	-6.5028776e-06
95	0x38c026ab	9.162476e-05
96	0x3928fe31	0.00016116422
97	0x390cc0cc	0.00013423263
98	0x38e02444	0.00010687907
99	0x374a32ca	1.20519635e-05
100	0x3530c234	6.584771e-07
101	0x37695c31	1.3909347e-05
102	0x373339a2	1.068265e-05
103	0x3589b919	1.0261166e-06
104	0xb5926580	-1.0907388e-06
105	0x37b3c44a	2.1429867e-05
106	0x3704726b	7.894453e-06
107	0x36ff8468	7.6150063e-06
108	0x3510f47b	5.3999946e-07
109	0xb4db7350	-4.087583e-07
110	0x3931c022	0.0001695161
111	0x3895fadc	7.1516e-05
112	0x3701e7aa	7.742938e-06
113	0xb6154ced	-2.2247507e-06
114	0xb503397f	-4.888497e-07
115	0x390a67ba	0.00013199347
116	0x38d7a64b	0.000102829734
117	0x375a909a	1.302748e-05
118	0xb5985c34	-1.1351717e-06
119	0xb5d9cc19	-1.622716e-06
120	0x389ce170	7.480651e-05
121	0x3888d890	6.525323e-05
122	0x3792f585	1.7518885e-05
123	0x365bd317	3.2756413e-06
124	0xb73e33cf	-1.1336945e-05
125	0x3880068e	6.1047365e-05
126	0x38765590	5.8730657e-05
127	0x38c9edf9	9.628753e-05
128	0x399fc9cc	0.00030477194
129	0x39d4e4d0	0.0004060627
130	0x38f35e7e	0.000116047435
131	0x37dea6b2	2.6542086e-05
132	0x38f8f274	0.00011870722
133	0x39a39fc2	0.00031208812
134	0x39de05f6	0.0004234758
135	0x38cd5cfb	9.792481e-05
136	0x38386fe9	4.3973243e-05
137	0x3976e394	0.00023545168
138	0x39f1759c	0.00046054728
139	0x39c66bcf	0.00037845827
140	0xb97dc050	-0.00024199602
141	0xb981cd6e	-0.00024757854
142	0x39e07a9a	0.00042815955
143	0x3a2208e1	0.00061811326
144	0x3a02ba46	0.00049868634
145	0xba48a5fc	-0.0007654128
146	0xb9b38dca	-0.00034247182
147	0x396b28c8	0.00022426539
148	0xb90842ca	-0.00012994852
149	0xba198ec5	-0.0005857761
150	0xb9dd4655	-0.00042204806
151	0x3ac66f06	0.0015139289
152	0x3aed1b35	0.0018089773
153	0x3a8cfcdb	0.0010756509
154	0xba883c8f	-0.0010394024
155	0x3ae17b6a	0.0017202918
156	0x3b2966ba	0.0025848583
157	0x3b3fa81b	0.0029244486
158	0x3b138112	0.0022507352
159	0x3b0f4fe0	0.0021867678
160	0x3b10fc44	0.0022123018
161	0x3b3e51f9	0.0029040559
162	0x3b3dcf3d	0.0028962635
163	0x3b009106	0.001961769
164	0x3acc071e	0.0015566086
165	0x3af29a40	0.0018509105
166	0x3b1a1eee	0.002351697
167	0x3b20aba4	0.0024516368
168	0x3ad0d247	0.0015931808
169	0x3a4b2515	0.0007749361
170	0x3aba7b39	0.0014227397
171	0x3aeb1275	0.0017934578
172	0x3af246b7	0.001848421
173	0x3ab1a516	0.0013553228
174	0x39ea8d10	0.00044737058
175	0x3a8fb1fa	0.0010963075
176	0x3af7b740	0.0018899217
177	0x3b2ac6ad	0.0026058361
178	0x3b25d5d4	0.0025304453
179	0x3addc78e	0.0016920434
180	0x3ac4f8bd	0.0015027743
181	0x3b163caa	0.0022924342
182	0x3b3a5186	0.002842994
183	0x3b3851f1	0.0028125013
184	0x3b0a30a8	0.002108613
185	0x3b018fba	0.0019769506
186	0x3b280975	0.0025640402
187	0x3b44c31d	0.0030023523
188	0x3b3dfe7a	0.0028990791
189	0x3b20daf6	0.0024544573
190	0x3b0a1ee6	0.0021075546
191	0x3b2c74c1	0.0026314708
192	0x3b3fe5cb	0.0029281254
193	0x3b38c8a5	0.0028195765
194	0x3b0ed0bd	0.0021791898
195	0x3afc193a	0.0019233592
196	0x3b249003	0.0025110252
197	0x3b2a44de	0.002598099
198	0x3b108a49	0.002205508
199	0x3ad38c9a	0.0016139925
200	0xb8807470	-6.125204e-05
201	0x39ce034a	0.00039293832
202	0x38d60b86	0.000102064616
203	0x397d28f0	0.0002414321
204	0x3a0f899f	0.0005475524
205	0xb9e3055c	-0.00043300807
206	0x3a0517fb	0.0005077121
207	0x39ba7d5d	0.00035570087
208	0x397b0f84	0.00023943005
209	0x39775ca2	0.00023590264
210	0xbb3d9532	-0.0028928039
211	0x39edf612	0.000453875
212	0x39ae6236	0.0003326104
213	0x3912be94	0.00013994641
214	0x39306a87	0.00016824352
215	0xbbbc3192	-0.005743214
216	0xbb596c5d	-0.0033176162
217	0xba28c5cf	-0.0006438167
218	0xb811713b	-3.4676148e-05
219	0x39636e6f	0.00021689547
220	0xbbc82ba8	-0.00610872
221	0xbbca95e1	-0.0061824177
222	0xbb6127a6	-0.0034355908
223	0xbab0af82	-0.001348004
224	0xb97bf12e	-0.00024027072
225	0xbadb1906	-0.0016715832
226	0x3b162852	0.0022912216
227	0x3b0ed632	0.002179515
228	0x3ac2ee6e	0.0014872083
229	0x3a9bf48f	0.0011898446
230	0x3b4160f1	0.0029507244
231	0x3b81fd4d	0.0039669634
232	0x3b35a1e0	0.0027714893
233	0x3aded50d	0.001700075
234	0x3a85d54f	0.0010210666
235	0x3b695756	0.0035605035
236	0x3b569aad	0.0032746003
237	0x3ae7b4be	0.0017677767
238	0x3a70cda4	0.0009185916
239	0x3a102f66	0.0005500227
240	0x3b4c4938	0.0031171571
241	0x3b1a750f	0.0023568308
242	0x3acbf4ce	0.0015560628
243	0x3a8497d4	0.0010116049
244	0x398a85df	0.00026421153
245	0x3b3d62e8	0.0028898064
246	0x3b1a5b2e	0.0023552882
247	0x3b1fdaeb	0.002439196
248	0x3ac9891b	0.0015375944
249	0xbb31970a	-0.0027098083

exp_avg_sq f4 [10, 1, 5, 5]
0	0x376e79dc	1.4214278e-05
1	0x378882a6	1.6273301e-05
2	0x379165c4	1.7332735e-05
3	0x379be73f	1.8585122e-05
4	0x377c2481	1.502887e-05
5	0x377eeeb6	1.5195159e-05
6	0x37b39c49	2.1411239e-05
7	0x38009e99	3.0665284e-05
8	0x380601e0	3.1949836e-05
9	0x37e81d20	2.7670118e-05
10	0x37b389c4	2.1402615e-05
11	0x37f5bfe6	2.9295636e-05
12	0x38102285	3.4364424e-05
13	0x380dc6f6	3.3802316e-05
14	0x3809984c	3.2805183e-05
15	0x3784a5b3	1.5812786e-05
16	0x37b15fa6	2.1144584e-05
17	0x37b44225	2.1488473e-05
18	0x378a7103	1.6503507e-05
19	0x376f67ca	1.4269675e-05
20	0x373c9861	1.1241152e-05
21	0x376dc2d9	1.4171667e-05
22	0x373f3e5f	1.1399009e-05
23	0x3711560a	8.662706e-06
24	0x369ff344	4.766889e-06
25	0x36fddfbc	7.5660337e-06
26	0x36d5db87	6.373451e-06
27	0x3706dcb9	8.038413e-06
28	0x374788ec	1.1893204e-05
29	0x3706affd	8.027998e-06
30	0x3798499c	1.8154089e-05
31	0x377229d2	1.4434061e-05
32	0x37931043	1.7531338e-05
33	0x379854c5	1.8159286e-05
34	0x3761d14d	1.3459777e-05
35	0x37fb0ba1	2.9926947e-05
36	0x380907f4	3.2670752e-05
37	0x380e0d06	3.3867567e-05
38	0x3805a0c3	3.1859392e-05
39	0x37d6bb6a	2.559806e-05
40	0x37de92f1	2.6532887e-05
41	0x380e8ba6	3.3985496e-05
42	0x383923a6	4.4140637e-05
43	0x38429af3	4.6397512e-05
44	0x381f5201	3.7984926e-05
45	0x3777abf9	1.4762388e-05
46	0x37ea21bc	2.7910683e-05
47	0x3813bb29	3.5221838e-05
48	0x380709a0	3.2195472e-05
49	0x37c43b45	2.339262e-05
50	0x360026ac	1.9095996e-06
51	0x3644fdfc	2.9354114e-06
52	0x3671e041	3.6042331e-06
53	0x368253c4	3.8840535e-06
54	0x360f3dc4	2.1344613e-06
55	0x3692c322	4.3738555e-06
56	0x36d06569	6.2106888e-06
57	0x36b13874	5.281583e-06
58	0x36624e15	3.3722074e-06
59	0x35956730	1.1131397e-06
60	0x36f2a9df	7.2319376e-06
61	0x37064268	8.002484e-06
62	0x36b06d4c	5.2579326e-06
63	0x35d5fdfb	1.5943655e-06
64	0x34f1bd31	4.5027403e-07
65	0x3724a7cd	9.814231e-06
66	0x3726cb8a	9.941761e-06
67	0x3686d722	4.018556e-06
68	0x350107e1	4.806771e-07
69	0x338dca15	6.602583e-08
70	0x3748bcca	1.1964885e-05
71	0x372b7a6f	1.0220901e-05
72	0x36932307	4.385019e-06
73	0x34b80c0b	3.4281433e-07
74	0x331e0039	3.6787444e-08
75	0x2d4bf291	1.1593075e-11
76	0x309504b5	1.0842515e-09
77	0x32ab95f6	1.9975214e-08
78	0x3379479a	5.803995e-08
79	0x33941808	6.896158e-08
80	0x30027e66	4.747335e-10
81	0x305449a7	7.7229817e-10
82	0x32871472	1.5725366e-08
83	0x32fb64c9	2.9266078e-08
84	0x32f97c28	2.9043875e-08
85	0x30209301	5.8416566e-10
86	0x3162753e	3.2953973e-09
87	0x32765df3	1.4340446e-08
88	0x31e4b850	6.6566272e-09
89	0x30b7a581	1.3362041e-09
90	0x30a3dd1f	1.1922657e-09
91	0x31ec8afd	6.884305e-09
92	0x3243b37e	1.1391306e-08
93	0x31f8042a	7.2182234e-09
94	0x2f1c4ff6	1.4216525e-10
95	0x3184d7cb	3.8662384e-09
96	0x327902c2	1.4494335e-08
97	0x32238fc4	9.520537e-09
98	0x31b6fd21	5.3256746e-09
99	0x2f003e31	1.1663627e-10
100	0x2df6a58a	2.8040476e-11
101	0x2eea7053	1.0661041e-10
102	0x2e704bd7	5.463704e-11
103	0x2b2662ef	5.9112345e-13
104	0x2cc6e7c7	5.653231e-12
105	0x2f37e056	1.6723453e-10
106	0x2e0b5310	3.1678715e-11
107	0x2e601020	5.0946025e-11
108	0x2ac01a4b	3.4124296e-13
109	0x2a3cf006	1.6781029e-13
110	0x3215b5e8	8.714302e-09
111	0x31003835	1.8658401e-09
112	0x2eb081dc	8.026621e-11
113	0x2bcefb75	1.4706974e-12
114	0x2a16df7e	1.3400216e-13
115	0x32086373	7.938854e-09
116	0x31e0c536	6.5416783e-09
117	0x2f2fe2be	1.5996712e-10
118	0x2b0c21d9	4.9784965e-13
119	0x2c16e4af	2.1443227e-12
120	0x319ebcf7	4.619888e-09
121	0x31543fca	3.088632e-09
122	0x2f01553a	1.176276e-10
123	0x2cbb088b	5.315808e-12
124	0x2ec90e99	9.143015e-11
125	0x31bbb459	5.4629195e-09
126	0x315b8c1b	3.1948335e-09
127	0x322f6bf8	1.021089e-08
128	0x336ce02a	5.5151908e-08
129	0x33cc2da8	9.507795e-08
130	0x3202ad51	7.6064035e-09
131	0x2fedc0ed	4.324713e-10
132	0x3233a879	1.04574776e-08
133	0x33ab126f	7.966161e-08
134	0x34090d27	1.2763904e-07
135	0x312abfd8	2.4847306e-09
136	0x3087926f	9.864162e-10
137	0x33283d4f	3.9171308e-08
138	0x341c0284	1.4529547e-07
139	0x33dc529a	1.02595735e-07
140	0x3292ecb4	1.7104277e-08
141	0x326f4ad2	1.3928643e-08
142	0x34195054	1.4278459e-07
143	0x3425f3ee	1.5455564e-07
144	0x3350206c	4.845826e-08
145	0x341b739d	1.447756e-07
146	0x346acd8d	2.1867727e-07
147	0x34a7e9cd	3.1276286e-07
148	0x34677f0d	2.1559772e-07
149	0x333480ed	4.2026773e-08
150	0x35a4bfb5	1.2274746e-06
151	0x361cf46a	2.338808e-06
152	0x366a432c	3.4907816e-06
153	0x365425e2	3.1612512e-06
154	0x36784022	3.699221e-06
155	0x3614431b	2.209278e-06
156	0x369f56d9	4.7486797e-06
157	0x36ca427c	6.027809e-06
158	0x369019e0	4.2945467e-06
159	0x36106d4e	2.1521296e-06
160	0x36586463	3.224494e-06
161	0x36b477a9	5.3783483e-06
162	0x36cac11c	6.04255e-06
163	0x36402b30	2.8635368e-06
164	0x35d13711	1.558774e-06
165	0x3607deea	2.024632e-06
166	0x366670e5	3.4338384e-06
167	0x368a6978	4.1249987e-06
168	0x35fce2fc	1.8841524e-06
169	0x352b2bb5	6.3766066e-07
170	0x358f416f	1.0673374e-06
171	0x35fbce72	1.8761041e-06
172	0x361adbba	2.3075686e-06
173	0x3594ae3d	1.1077569e-06
174	0x34bbaaa1	3.4955613e-07
175	0x35fe3b5f	1.8941754e-06
176	0x36919eb2	4.3398113e-06
177	0x3716ef64	8.996434e-06
178	0x37185032	9.078578e-06
179	0x366252a0	3.3724718e-06
180	0x369e727c	4.7220947e-06
181	0x371d7b22	9.386598e-06
182	0x3751387c	1.2470522e-05
183	0x37275562	9.973855e-06
184	0x36b1e22e	5.301342e-06
185	0x36cc42aa	6.0874345e-06
186	0x372f8211	1.0461096e-05
187	0x376ab4f2	1.39896165e-05
188	0x37456a84	1.1766915e-05
189	0x36f041d9	7.160223e-06
190	0x369d3e44	4.6862133e-06
191	0x370870c4	8.132487e-06
192	0x3768c3bb	1.387385e-05
193	0x3766084b	1.3710999e-05
194	0x36ec34af	7.0394813e-06
195	0x365a768b	3.2553532e-06
196	0x36d3281b	6.292959e-06
197	0x3727af88	9.994845e-06
198	0x372a94ea	1.0167461e-05
199	0x36ad310d	5.161512e-06
200	0x33f2421f	1.12810305e-07
201	0x33f73064	1.1510636e-07
202	0x3418c7f0	1.422884e-07
203	0x33ec6443	1.1007844e-07
204	0x337754df	5.758636e-08
205	0x34e12973	4.1939674e-07
206	0x344443c0	1.827857e-07
207	0x33703bfd	5.5933914e-08
208	0x32d423b4	2.4696284e-08
209	0x330b2ac4	3.2402355e-08
210	0x35deb7e5	1.6593809e-06
211	0x35166093	5.601989e-07
212	0x335a5284	5.0832128e-08
213	0x32718dd3	1.4060293e-08
214	0x32c0b826	2.2435483e-08
215	0x3662b472	3.3781657e-06
216	0x35ce227f	1.5358236e-06
217	0x348b9e13	2.6005782e-07
218	0x337eadc1	5.929701e-08
219	0x32a70a93	1.9446167e-08
220	0x365912ea	3.234653e-06
221	0x362bcaf2	2.5599115e-06
222	0x354afcf6	7.561897e-07
223	0x3424cde2	1.534859e-07
224	0x32ce99ce	2.4051499e-08
225	0x378e3af5	1.6955173e-05
226	0x37988bee	1.8184972e-05
227	0x372a8673	1.01640935e-05
228	0x3646fc7a	2.965126e-06
229	0x35af29bf	1.3050666e-06
230	0x374e2e1a	1.2289291e-05
231	0x376f8af7	1.4277865e-05
232	0x36eb8b9c	7.0197984e-06
233	0x362246fc	2.41812e-06
234	0x35a563e9	1.2322536e-06
235	0x373b75a2	1.1173457e-05
236	0x3704f4e6	7.924833e-06
237	0x363b4ea1	2.791094e-06
238	0x353645f4	6.790208e-07
239	0x351381dd	5.4950743e-07
240	0x3706fd27	8.045964e-06
241	0x3689b4b6	4.1039557e-06
242	0x35ff2aae	1.9011402e-06
243	0x355c7841	8.213138e-07
244	0x35d242ba	1.5665639e-06
245	0x36ace0e7	5.1521815e-06
246	0x3683fc90	3.9335064e-06
247	0x3684a61a	3.9532433e-06
248	0x36691572	3.4732188e-06
249	0x36e401a3	6.79512e-06

exp_avg f4 [10]
0	0xbb51259c	-0.0031913286
1	0xbb1683be	-0.0022966708
2	0xba23b360	-0.00062446855
3	0x39a737fc	0.00031894434
4	0x39678fbb	0.0002208342
5	0x398a0e6e	0.00026332162
6	0xbd4dd07b	-0.05024765
7	0x3b8dfd09	0.0043331427
8	0xbda3c14b	-0.07995852
9	0xbda8cff2	-0.082427874

exp_avg_sq f4 [10]
0	0x388ad83f	6.620632e-05
1	0x389e57c5	7.5503754e-05
2	0x37ae3b54	2.0770043e-05
3	0x33a5d850	7.722758e-08
4	0x32637ead	1.3241942e-08
5	0x34c053eb	3.5823845e-07
6	0x390915ad	0.00013073413
7	0x37ee9826	2.844266e-05
8	0x39630cef	0.00021653225
9	0x39bc1701	0.00035875294
