lightning_logs/version_20/checkpoints/epoch=2-step=138.ckpt (torch, 273474 bytes, 24 tensors)

conv1.weight f4 [10, 1, 5, 5]
-0.07379701 -0.307923 -0.27303228 -0.16514699 -0.22863378 -0.07716067 -0.2859747 -0.048569
-0.105030574 0.06122408 -0.2075154 -0.07096085 -0.277357 -0.17143601 -0.1509319 -0.16581409
-0.32179677 -0.12725651 -0.014505023 0.029453758 -0.15245585 -0.21601403 -0.004992521 -0.13383965
-0.047337193 -0.4053449 -0.42751727 -0.024620242 0.079945736 -0.24008086 -0.3038987 0.093120724
-0.19589809 -0.14674312 -0.48435286 -0.17871997 -0.17486617 -0.19322647 -0.09580889 -0.17049824
-0.13483635 -0.3213474 -0.26541653 0.03180882 -0.17247047 -0.28445807 -0.034294438 0.0002532089
-0.1715672 -0.38162735 -0.21991554 -0.073427826 -0.15731487 -0.14634906 -0.1368617 -0.039231386
-0.12045163 -0.12837778 -0.3442414 -0.12559178 -0.24601613 -0.029658886 -0.16646217 -0.20061143
-0.09538664 -0.05008622 -0.23304033 0.052057818 -0.34653386 -0.08841659 -0.018361833 -0.12855864
-0.28633824 -0.016774064 -0.11244556 0.22682019 0.030689124 -0.43106052 -0.59289974 -0.3951123
0.37307498 0.0001011705 0.17540592 -0.051656306 -0.1603502 0.16323301 -0.20432135 -0.19994764
-0.21241462 0.030769994 0.14397077 -0.039943896 -0.58990914 -0.26917374 0.032902032 -0.11757568
-0.34011889 -0.6257249 -0.27839628 -0.043341544 -0.040358037 -0.323712 -0.032530602 -0.1718068
-0.01652147 -0.056067947 0.01568779 -0.1946081 -0.261262 -0.21070074 -0.21124652 0.101142615
-0.16433984 -0.07481697 -0.20094116 -0.26884633 -0.079205 -0.08759537 -0.32872793 0.051914215
0.031756826 -0.048281122 -0.05771019 -0.17766115 -0.31974116 -0.21125527 0.017376449 -0.13809782
-0.32553568 -0.12936603 -0.08326345 -0.22652704 0.008034898 0.09178446 -0.16266456 -0.1307211
-0.2569293 -0.25006366 0.08457042 -0.008524984 -0.17048481 0.13282888 -0.32433087 -0.30923823
-0.12261469 0.059227955 -0.2961001 -0.04103268 -0.29422995 -0.10321673 -0.5582824 0.15959403
0.28539956 0.027812647 -0.37179202 -0.5730782 -0.41655692 0.1646598 0.008855643 -1.1069221
-0.14003283 -0.21355578 -0.7646197 -0.43144158 -0.5737722 -0.6100726 -0.17175487 -0.62025833
-0.25509736 -0.37998828 -0.57752556 -0.25337383 -0.051658344 -0.02461953 0.31892163 0.21461493
-0.28905553 0.16952899 -0.3416696 -0.98508817 0.30274323 0.1328028 0.34051368 -0.041292965
-0.5162499 -0.13835575 -0.32610166 -0.4004441 -0.7964064 -0.53848743 -0.12744282 -0.5549923
-0.61368215 -0.29603192 -0.1951999 -0.28886437 -0.4144317 0.22661462 0.21813975 0.0527601
-0.3083197 -0.15098065 -0.25848818 -0.11225035 -0.08101631 -0.09276494 -0.17081606 -0.28198364
0.0040711244 -0.00035965894 -0.03804905 -0.21361053 -0.2831531 -0.120896 -0.09004914 -0.18162361
-0.15488927 -0.30684748 -0.04792558 0.049435064 -0.22971803 -0.16808589 -0.006996052 -0.15427701
-0.32863766 -0.21393856 -0.0582295 0.01167034 -0.20862295 -0.28976417 -0.112376355 0.09977252
-0.06295971 -0.20378122 -0.3317322 0.04447613 -0.2795083 -0.009318751 0.05188029 -0.0362669
-0.23976894 0.077716574 -0.022152793 -0.16779695 -0.06779086 -0.19436586 -0.284121 -0.119892895
-0.16939081 -0.180184
00000000: e322 97bd 15a8 9dbe e3ca 8bbe 4b1c 29be
00000010: f91e 6abe 6a06 9ebd 476b 92be 4af0 46bd
00000020: 451a d7bd 1ac6 7a3d eb7e 54be ec53 91bd
00000030: bd01 8ebe ec8c 2fbe e48d 1abe 2bcb 29be
00000040: 8cc2 a4be 884f 02be 7aa6 6dbc 0249 f13c
00000050: 631d 1cbe c832 5dbe 4d98 a3bb 430d 09be
00000060: a5e4 41bd 5e89 cfbe 8be3 dabe 64b0 c9bc
00000070: 97ba a33d c2d7 75be 9c98 9bbe 14b6 be3d
00000080: 8299 48be d443 16be 19fd f7be 5e02 37be
00000090: 1e10 33be 29dd 45be 7437 c4bd 1797 2ebe
000000a0: 8a12 0abe a587 a4be ade4 87be f749 023d
000000b0: 199c 30be 7da4 91be 5378 0cbd 20c1 8439
000000c0: 50af 2fbe a964 c3be 8a31 61be 5461 96bd
000000d0: 2617 21be 87dc 15be 7925 0cbe 17b1 20bd
000000e0: 58af f6bd 7775 03be 6940 b0be 229b 00be
000000f0: a7eb 7bbe 31f7 f2bc 0f75 2abe 156d 4dbe
00000100: 125a c3bd 3527 4dbd 20a2 6ebe 943a 553d
00000110: e36c b1be c213 b5bd 8e6b 96bc e0a4 03be
00000120: ed9a 92be c369 89bc dc49 e6bd 8d43 683e
00000130: c267 fb3c f7b3 dcbe 47c8 17bf 294c cabe
00000140: af03 bf3e 802b d438 9c9d 333e 9095 53bd
00000150: d832 24be 8e26 273e 9e39 51be 13bf 4cbe
00000160: 3883 59be 5b11 fc3c 136d 133e 369c 23bd
00000170: 4904 17bf 24d1 89be 48c4 063d 85cb f0bd
00000180: 1024 aebe 822f 20bf f589 8ebe e786 31bd
00000190: 784e 25bd 94bd a5be cf3e 05bd 1fee 2fbe
000001a0: 0958 87bc 81a7 65bd ae83 803c 5947 47be
000001b0: 22c4 85be efc1 57be 0251 58be dc23 cf3d
000001c0: b448 28be a439 99bd 85c3 4dbe 3aa6 89be
000001d0: 3b36 a2bd 3465 b3bd 074f a8be 00a4 543d
000001e0: 7213 023d 6dc2 45bd 8561 6cbd ceec 35be
000001f0: 1db5 a3be 4d53 58be 0e59 8e3c 8469 0dbe
00000200: 9dac a6be 8778 04be 0786 aabd b4f6 67be
00000210: cea4 033c 7ef9 bb3d 8a91 26be c1db 05be
00000220: 3d8c 83be 5808 80be 4233 ad3d 60ac 0bbc
00000230: 9293 2ebe 4b04 083e b20e a6be 7954 9ebe
00000240: 691d fbbd 0399 723d 6f9a 97be e211 28bd
00000250: 4fa5 96be 4b63 d3bd 98eb 0ebf 9e6c 233e
00000260: e41f 923e 59d7 e33c 865b bebe 41b5 12bf
00000270: f346 d5be 949c 283e 4217 113c a0af 8dbf
00000280: c464 0fbe 5eae 5abe 1ebe 43bf e9e5 dcbe
00000290: bce2 12bf b82d 1cbf 82e0 2fbe 40c9 1ebf
000002a0: 1f9c 82be d38d c2be b7d8 13bf 37ba 81be
000002b0: b397 53bd e6ae c9bc b249 a33e 04c4 5b3e
000002c0: 16ff 93be 0299 2d3e 51ef aebe bd2e 7cbf
000002d0: 2901 9b3e 75fd 073e cf57 ae3e d022 29bd
000002e0: f428 04bf 21ad 0dbe ccf6 a6be 0207 cdbe
000002f0: 4ae1 4bbf 50da 09bf 5f80 02be fa13 0ebf
00000300: 461a 1dbf 7f91 97be 7ce2 47be 08e6 93be
00000310: 6430 d4be aa0d 683e 0760 5f3e fa1a 583d
00000320: 14dc 9dbe ac9a 1abe 9058 84be 83e3 e5bd
00000330: e1eb a5bd 8bfb bdbd 68ea 2ebe 2960 90be
00000340: 1167 853b 9b90 bcb9 52d9 1bbd b8bc 5abe
00000350: 71f9 90be 5298 f7bd af6b b8bd 8afb 39be
00000360: 4b9b 1ebe 1d1b 9dbe 9d4d 44bd 6c7c 4a3d
00000370: 343b 6bbe b51e 2cbe 233f e5bb cbfa 1dbe
00000380: 3243 a8be b612 5bbe 0e82 6ebd f434 3f3c
00000390: 41a1 55be f85b 94be 9325 e6bd 8955 cc3d
000003a0: 05f1 80bd 06ac 50be ced8 a9be 9a2c 363d
000003b0: b61b 8fbe adad 18bc 6d80 543d 9a8c 14bd
000003c0: fd85 75be de29 9f3d c679 b5bc f7d2 2bbe
000003d0: efd5 8abd d807 47be 4f78 91be 688a f5bd
000003e0: c974 2dbe 2882 38be

conv1.bias f4 [10]
-0.29395783 0.010296917 -0.064077884 -0.11454626 -0.23765866 -0.17972584 0.24446532 -0.0748268
-0.09634042 -0.115334556
00000000: a481 96be 66b4 283c 443b 83bd 3b97 eabd
00000010: cb5c 73be 0d0a 38be 1e55 7a3e cb3e 99bd
00000020: 204e c5bd 8634 ecbd

conv2.weight f4 [20, 10, 5, 5]
-0.05955374 -0.018697884 0.12189983 0.1317072 -0.04205241 -0.039403256 0.059893284 0.12819716
0.097048305 0.011398539 -0.015829107 0.07588091 0.1347084 0.07531435 0.022830382 -0.050800085
0.02224514 0.0124283675 0.025385652 0.086424194 -0.080715284 0.06887046 0.046854928 0.006424143
0.04875695 -0.058218475 -0.08148783 0.005707226 -0.02280733 -0.022870542 -0.042368617 0.0023000296
-0.067523874 0.030692408 -0.065572955 0.0037587367 -0.049533244 0.022793295 -0.015264374 0.034382958
-0.06076246 0.009392992 0.01277414 -0.0374995 -0.08152531 -0.076159246 -0.031624917 -0.028603066
-0.047071755 -0.06251028 -0.0677699 0.053316746 0.031233478 -0.08923315 0.043831695 -0.10785261
0.052787997 0.046248358 0.017562412 0.04566191 -0.037521165 -0.0049018734 -0.033135794 -0.008008654
0.04650658 -0.059212603 0.016429214 -0.036400523 0.075467125 0.011507978 -0.045298934 -0.026238965
0.04204974 0.06298408 0.041145142 0.001311045 -0.053473428 0.012416389 0.012471812 -0.00014782452
-0.07191514 -0.03280176 -0.050921537 -0.027445605 -0.030970939 -0.13101849 0.015484883 0.0059290263
0.005569427 0.03860726 -0.13508607 -0.097001545 0.035867404 0.03146143 0.05874672 -0.047967564
-0.15380359 0.026568113 -0.0554561 -0.059112344 -0.05758119 -0.011467577 0.12668534 0.0927398
0.13984907 -0.07907515 0.028021086 0.10355076 -0.007118011 0.066101424 0.06612359 -0.1645895
0.082131036 0.015184065 0.040751453 0.1701421 0.01221211 -0.11329453 0.06468925 0.1502672
-0.17200439 0.06516093 0.10743857 0.048738915 0.04408577 0.13914627 0.024797974 -0.17787853
-0.010312409 0.10630924 0.04869047 -0.10759409 -0.107015915 -0.18798165 -0.16551162 -0.17903596
0.08160258 -0.027900085 -0.22765392 -0.15210028 -0.044827837 -0.29545256 -0.114588976 -0.074630946
0.09722828 0.016081788 0.11653849 0.010189511 0.027937572 0.01743746 -0.14775953 0.06497306
-0.10654022 -0.08313998 -0.034144934 -0.12634045 0.019676555 -0.05718652 -0.103953615 0.017374096
-0.07319972 -0.093342915 -0.11187579 -0.06311693 -0.0047842786 -0.0052336496 0.016673034 -0.12345025
-0.039302062 -0.0004023647 -0.11216018 -0.08426733 0.06465225 0.061028454 0.032780416 -0.06536408
-0.06394027 -0.0631739 -0.08214603 -0.063885845 -0.088191494 -0.01522043 -0.03522771 -0.064594634
-0.01308915 -0.16886906 -0.14930668 -0.027421897 0.031034349 0.023791865 -0.017914081 -0.10518466
-0.01520809 -0.017891478 -0.054221287 -0.097801834 -0.05853785 -0.09137251 -0.0791837 0.0075967573
-0.070911735 -0.068263255 0.047912236 0.04932467 -0.051297806 0.07056691 -0.016782092 0.059449717
0.028940728 -0.038226243 0.018456612 0.10585511 0.012631302 0.017588012 -0.017304562 0.018109675
0.008514941 0.06498023 0.08185376 0.00878312 0.026491499 0.013386504 0.023964453 -0.02061166
-0.055334818 0.016762666 0.05997266 -0.0046177334 -0.023397377 -0.033092972 -0.041763622 0.011193203
0.0004652896 0.029861728 0.043740276 -0.044571195 0.002432542 -0.039186288 -0.029995972 0.009480026
-0.089299396 -0.09893933 0.03009581 -0.011425157 0.035714388 -0.06045842 -0.04422115 0.02107109
-0.008028165 -0.0478302 -0.096231386 -0.12738076 -0.14344788 -0.07028448 -0.123747304 -0.1076555
00000000: 9fee 73bd 4e2c 99bc 9ea6 f93d 41de 063e
00000010: 263f 2cbd 4f65 21bd a952 753d 1e46 033e
00000020: 43c1 c63d f0c0 3a3c 0bac 81bc 7367 9b3d
00000030: 00f1 093e 693e 9a3d c806 bb3c c013 50bd
00000040: 713b b63c 5aa0 4b3c 92f5 cf3c 2bff b03d
00000050: 0e4e a5bd f50b 8d3d f4ea 3f3d 9e81 d23b
00000060: 5eb5 473d 7f76 6ebd 17e3 a6bd af03 bb3b
00000070: 70d6 babc 015b bbbc b78a 2dbd 18bc 163b
00000080: f549 8abd a56e fb3c 1d4b 86bd 2355 763b
00000090: 5fe3 4abd 01b9 ba3c 6d17 7abc 25d5 0c3d
000000a0: 0fe2 78bd 10e5 193c a04a 513c 1399 19bd
000000b0: bef6 a6bd 61f9 9bbd 2189 01bd fa50 eabc
000000c0: 50ce 40bd 6405 80bd f2ca 8abd a962 5a3d
000000d0: 5add ff3c dfbf b6bd dd88 333d d4e1 dcbd
000000e0: 3a38 583d eb6e 3d3d 0cdf 8f3c fc07 3b3d
000000f0: cbaf 19bd e59f a0bb 66b9 07bd bb36 03bc
00000100: af7d 3e3d ea88 72bd 8f96 863c b718 15bd
00000110: 828e 9a3d f58b 3c3c 608b 39bd 19f3 d6bc
00000120: 593c 2c3d ccfd 803d cf87 283d 5fd7 ab3a
00000130: f406 5bbd 1c6e 4b3c 9256 4c3c 5801 1bb9
00000140: 3f48 93bd 235b 06bd 1a93 50bd 9bd5 e0bc
00000150: c4b6 fdbc b629 06be 4fb4 7d3c 4748 c23b
00000160: bd7f b63b a522 1e3d 0154 0abe bfa8 c6bd
00000170: b3e9 123d b3dd 003d 67a0 703d a379 44bd
00000180: b07e 1dbe 5fa5 d93c ef25 63bd c91f 72bd
00000190: 41da 6bbd 81e2 3bbc cdb9 013e 5dee bd3d
000001a0: 9834 0f3e 27f2 a1bd 7a8c e53c 6c12 d43d
000001b0: 343e e9bb 2f60 873d ce6b 873d 268a 28be
000001c0: 5134 a83d 96c6 783c ffea 263d bb39 2e3e
000001d0: 4d15 483c f606 e8bd cc7b 843d a5df 193e
000001e0: eb21 30be 1873 853d c108 dc3d 75a2 473d
000001f0: 4893 343d 5c7c 0e3e 1f25 cb3c ca25 36be
00000200: 61f5 28bc a9b8 d93d a96f 473d 4a5a dcbd
00000210: 292b dbbd 437e 40be e17b 29be 3455 37be
00000220: 411f a73d b88e e4bc 1c1e 69be 2dc0 1bbe
00000230: 659d 37bd 8f45 97be a0ad eabd 1cd8 98bd
00000240: 9f1f c73d f4bd 833c bbab ee3d e8f1 263c
00000250: 56dd e43c 01d9 8e3c 464e 17be 9810 853d
00000260: c231 dabd 4b45 aabd 8fdb 0bbd 645f 01be
00000270: ba30 a13c 6a3c 6abd a2e5 d4bd 1f54 8e3c
00000280: bce9 95bd 922a bfbd 221f e5bd 7343 81bd
00000290: 70c5 9cbb 097f abbb e395 883c 7cd3 fcbd
000002a0: 33fb 20bd 7af4 d2b9 3db4 e5bd 5a94 acbd
000002b0: 6668 843d f9f8 793d c244 063d 9add 85bd
000002c0: 1ef3 82bd 5161 81bd 2e3c a8bd 95d6 82bd
000002d0: be9d b4bd 1c5f 79bc ee4a 10bd 314a 84bd
000002e0: e073 56bc 03ec 2cbe dae3 18be e3a3 e0bc
000002f0: bf3b fe3c 28e7 c23c 8dc0 92bc 0e6b d7bd
00000300: 5a2b 79bc 2691 92bc 2417 5ebd 544c c8bd
00000310: 62c5 6fbd 8321 bbbd 102b a2bd 38ee f83b
00000320: 2c3a 91bd 9bcd 8bbd 9f3f 443d aa08 4a3d
00000330: a61d 52bd 6285 903d 997a 89bc 8c81 733d
00000340: 1b15 ed3c 1f93 1cbd 5232 973c 90ca d83d
00000350: 85f3 4e3c bc14 903c 4cc2 8dbc be5a 943c
00000360: 4082 0b3c 5b14 853d f2a2 a73d 13e7 0f3c
00000370: b304 d93c 1153 5b3c 1a51 c43c c9d9 a8bc
00000380: c3a6 62bd dc51 893c e4a5 753d 5b50 97bb
00000390: dbab bfbc 7f8c 07bd 5510 2bbd b263 373c
000003a0: 1df2 f339 95a0 f43c 0129 333d 4990 36bd
000003b0: 486b 1f3b cd81 20bd 1dba f5bc 1c52 1b3c
000003c0: 9ae2 b6bd b4a0 cabd 7d8b f63c 9530 3bbc
000003d0: 4049 123d 40a3 77bd 3d21 35bd 479d ac3c
000003e0: 9188 03bc 9ae9 43bd f614 c5bd 1a70 02be
000003f0: 00e4 12be 4ff1 8fbd 3a6f fdbd 7d7a dcbd

conv2.bias f4 [20]
-0.086796634 -0.05815852 -0.10247712 -0.09502567 -0.15994371 -0.11574848 -0.003662737 -0.10179513
-0.1052889 -0.025530005 -0.10372666 -0.011411985 -0.13947584 -0.09427816 -0.13455014 -0.263773
-0.18282276 0.05415496 -0.118243426 -0.23361182
00000000: 6fc2 b1bd a137 6ebd 86df d1bd d29c c2bd
00000010: 49c8 23be 8a0d edbd 880a 70bb f779 d0bd
00000020: b5a1 d7bd 4d24 d1bc a56e d4bd 56f9 3abc
00000030: c1d2 0ebe e814 c1bd 83c7 09be 410d 87be
00000040: e435 3bbe 97d1 5d3d 9c29 f2bd f037 6fbe

fc1.weight f4 [50, 320]
0.020173188 0.044003557 0.15166417 0.09481739 0.09038282 0.18602094 0.09861963 -0.1235227
0.10304924 0.23534574 0.047431335 -0.09657322 0.12166891 0.11453515 0.020861903 0.007287733
0.06637885 0.108957484 -0.106063545 0.13398387 -0.13756725 0.056516916 0.095125504 -0.05797032
-0.14575976 0.1497552 -0.13422066 -0.064170346 0.18660621 0.16302061 0.080530085 -0.074144796
0.040599745 -0.33455563 -0.23287918 -0.14360009 -0.027651226 -0.45539907 -0.0609744 -0.25626945
0.44845977 0.06548967 0.41712904 -0.40599057 1.1348708 0.47881034 0.4293433 -0.25406533
-0.13254952 -0.14158835 -0.14304017 -0.06840148 -0.076736234 -0.051755413 -0.12364405 -0.110823296
-0.11641544 -0.1612912 -0.061757978 -0.131727 -0.120963685 -0.11257484 -0.14371058 -0.067730606
-0.11396068 -0.05132182 -0.12883867 -0.0655207 -0.09014567 -0.07040462 -0.12352755 0.15854281
-0.09967019 0.12057406 0.14291954 0.11981282 -0.109197184 0.15521392 0.120901465 0.07003719
0.009317324 -0.0073585436 0.064173505 0.04044064 0.08078606 0.017860867 0.0415738 -0.03522919
0.0065080114 0.055568308 0.0036959425 0.03548518 0.12618291 0.043981656 0.09224429 0.04154951
-0.2779979 -0.23761432 0.016597489 -0.18240918 -0.69266653 -0.25126883 0.21380658 0.3470412
-0.3701269 -0.066191375 0.20996572 0.17737651 -0.45740464 -0.8064167 -0.1755564 0.139779
-0.07307623 0.18040882 -0.040935114 0.16207263 0.0547595 -0.010715318 -0.036463536 0.10357268
0.15878063 0.12217338 0.013958003 0.13925664 0.1776322 0.10365903 -0.036207408 0.116614744
-0.11204683 -0.14415653 -0.08064198 -0.16456744 -0.10926011 -0.11657836 -0.14322421 -0.14117464
-0.13324058 -0.13707657 -0.0932239 -0.12467759 -0.14457823 -0.14455317 -0.10358521 -0.16394988
0.12676364 0.1367314 0.1834494 0.07971272 0.10276888 0.112569176 0.14494292 0.07106279
-0.0988799 0.11276567 -0.0025563757 0.0858676 -0.056812324 0.16672158 0.080624364 0.13575318
-0.19909984 0.10191397 -0.14658327 -0.12152729 -0.09401977 0.03370597 -0.10878414 0.09402199
-0.019513935 0.09628961 0.13298213 0.12565574 0.019105278 0.10353953 0.07961655 -0.04650721
-0.20623933 -0.38804471 -0.03448172 -0.21884845 -0.1410062 -0.32862088 -0.04144162 -0.21731487
0.43620095 0.2577733 -0.10917324 0.065363996 0.38193807 0.3531906 -0.032228965 0.051064104
-0.07663238 -0.04232674 -0.13204052 -0.057027988 -0.06947677 -0.10219146 -0.073095724 -0.08595226
-0.11132188 -0.106283 -0.05748078 -0.082522735 -0.034710918 -0.03555693 -0.06769325 -0.12157617
0.12898071 0.10239238 0.18318379 -0.09819405 0.107271895 0.18798317 0.109240346 0.085931376
0.13828728 0.1231447 0.13704349 0.09463327 0.12723728 0.16171892 0.17319085 0.0918661
-0.1000918 -0.14845765 -0.05465784 -0.12499611 -0.102925114 -0.115073785 -0.114269994 -0.055519763
-0.08448697 -0.11522659 -0.06481968 -0.06795789 -0.09610935 -0.076093525 -0.13359895 -0.085782625
0.043720134 0.008475088 -0.14428094 -0.006775476 0.045312703 -0.0057288483 0.22265677 0.005890757
0.14009485 -0.021792032 0.025090776 -0.049405817 0.0338459 0.18145351 -0.0011161081 0.039348744
00000000: 3e42 a53c 133d 343d da4d 1b3e 9f2f c23d
00000010: a11a b93d 467c 3e3e 17f9 c93d 78f9 fcbd
00000020: 7b0b d33d 79fe 703e 5c47 423d 2ec8 c5bd
00000030: 8d2d f93d 6891 ea3d 95e6 aa3c efcd ee3b
00000040: a2f1 873d 1a25 df3d d837 d9bd 1133 093e
00000050: 6ede 0cbe 487e 673d 29d1 c23d 4972 6dbd
00000060: 0c42 15be 6d59 193e 2471 09be be6b 83bd
00000070: b315 3f3e e0ee 263e f5ec a43d 3ad9 97bd
00000080: eb4b 263d e04a abbe e177 6ebe e70b 13be
00000090: d384 e2bc 112a e9be 4bc0 79bd c035 83be
000000a0: 859c e53e 731f 863d f091 d53e ffdd cfbe
000000b0: 7243 913f a126 f53e e3d2 db3e da14 82be
000000c0: 10bb 07be 89fc 10be 1f79 12be 1316 8cbd
000000d0: e327 9dbd 7cfd 53bd 1739 fdbd 53f7 e2bd
000000e0: 386b eebd 8529 25be eff5 7cbd 71e3 06be
000000f0: cfbb f7bd a38d e6bd de28 13be 58b6 8abd
00000100: 3864 e9bd d436 52bd 49ee 03be b72f 86bd
00000110: 4b9e b8bd 4c30 90bd 03fc fcbd 0c59 223e
00000120: e21f ccbd 88ef f63d 8059 123e 6c60 f53d
00000130: c6a2 dfbd 66f0 1e3e 309b f73d a96f 8f3d
00000140: b0a7 183c f01f f1bb 666d 833d 16a5 253d
00000150: 2973 a53d f450 923c 4a49 2a3d 7c4c 10bd
00000160: 2841 d53b 989b 633d a037 723b e858 113d
00000170: 1836 013e 1c26 343d 93ea bc3d d22f 2a3d
00000180: be55 8ebe 2b51 73be 75f7 873c 79c9 3abe
00000190: 9852 31bf 4fa6 80be 1df0 5a3e 62af b13e
000001a0: 4681 bdbe 588f 87bd 4101 573e 30a2 353e
000001b0: f130 eabe 5371 4ebf 0fc5 33be 3a22 0f3e
000001c0: fea8 95bd 17bd 383e 94ab 27bd 5ef6 253e
000001d0: 7f4b 603d 4d8f 2fbc ca5a 15bd ea1d d43d
000001e0: 6497 223e 0936 fa3d 1cb0 643c 4b99 0e3e
000001f0: 37e5 353e 2f4b d43d 384e 14bd b6d3 ee3d
00000200: cf78 e5bd c59d 13be 9f27 a5bd 5e84 28be
00000210: c4c3 dfbd a3c0 eebd 5ea9 12be 1690 10be
00000220: 3870 08be cd5d 0cbe 2cec bebd f756 ffbd
00000230: 510c 14be bf05 14be 7c24 d4bd 7ae2 27be
00000240: 54ce 013e 5103 0c3e 29da 3b3e 6c40 a33d
00000250: 7e78 d23d ab8a e63d eb6b 143e 5e89 913d
00000260: 8c81 cabd b0f1 e63d de88 27bb 5adb af3d
00000270: 0ab4 68bd 10b9 2a3e 631e a53d e202 0b3e
00000280: d4e0 4bbe 46b8 d03d ed19 16be 4de3 f8bd
00000290: 708d c0bd 450f 0a3d 38ca debd 9a8e c03d
000002a0: b0db 9fbc 7d33 c53d 782c 083e e6ab 003e
000002b0: ac82 9c3c 880c d43d 000e a33d 587e 3ebd
000002c0: 6730 53be ccad c6be b43c 0dbd cf19 60be
000002d0: ee63 10be ff40 a8be b0be 29bd ca87 5ebe
000002e0: bb55 df3e ddfa 833e 3896 dfbd 8fdd 853d
000002f0: 638d c33e 66d5 b43e 8502 04bd 9828 513d
00000300: 70f1 9cbd ce5e 2dbd a135 07be 2e96 69bd
00000310: d649 8ebd c249 d1bd 36b3 95bd bd07 b0bd
00000320: bafc e3bd e7aa d9bd f770 6bbd ae01 a9bd
00000330: 092d 0ebd 25a4 11bd c2a2 8abd edfc f8bd
00000340: 8513 043e 19b3 d13d 8894 3b3e f619 c9bd
00000350: 5eb1 db3d a97e 403e 67b9 df3d cafc af3d
00000360: 2e9b 0d3e 4a33 fc3d 2155 0c3e 16cf c13d
00000370: 7d4a 023e a599 253e f158 313e 4b24 bc3d
00000380: eefc ccbd 4805 18be e6e0 5fbd f6fd ffbd
00000390: 67ca d2bd ceab ebbd 6306 eabd b168 63bd
000003a0: 8107 adbd ebfb ebbd 2ec0 84bd 822d 8bbd
000003b0: fbd4 c4bd ecd6 9bbd 2ace 08be cdae afbd
000003c0: e213 333d 18db 0a3c 62be 13be d004 debb
000003d0: d099 393d 10b9 bbbb 2300 643e 4007 c13b
000003e0: 0675 0f3e 3485 b2bc 2c8b cd3c c15d 4abd
000003f0: 00a2 0a3d f3ce 393e 604a 92ba 262c 213d

fc1.bias f4 [50]
0.4661744 -0.04666471 -0.1621766 0.09877269 -0.14817548 -0.090410694 -0.013279592 -0.04271353
-0.1199858 -0.1470531 -0.09792737 -0.26262087 0.021092221 -0.1358322 0.2103889 -0.010564989
-0.065704964 -0.3135821 -0.059522413 -0.19398195 -0.1722164 -0.23714048 0.20828784 -0.39456987
-0.03440254 0.025494434 -0.032026287 -0.27370125 0.13572526 0.078432634 -0.10600356 -0.20809802
0.04087655 0.10299821 -0.0321432 -0.16522525 -0.24031505 0.053068228 -0.037322108 0.06402885
-0.54883033 -0.2084377 0.07306885 0.10368869 -0.31328443 -0.25352523 -0.08902447 -0.080755495
-0.32614443 -0.1329051
00000000: 69ae ee3e 7f23 3fbd 9f11 26be 5649 ca3d
00000010: 50bb 17be 3e29 b9bd a592 59bc 62f4 2ebd
00000020: 1dbb f5bd 1695 16be 258e c8bd 3e76 86be
00000030: 98c9 ac3c 9917 0bbe 3070 573e c718 2dbc
00000040: 5390 86bd d58d a0be c6cd 73bd 34a3 46be
00000050: 7f59 30be f4d4 72be 6849 553e 1005 cabe
00000060: aee9 0cbd b4d9 d03c ff2d 03bd 9222 8cbe
00000070: 90fb 0a3e 4aa1 a03d 6518 d9bd a617 55be
00000080: 2b6e 273d baf0 d23d 97a8 03bd cf30 29be
00000090: 2615 76be 125e 593d 11df 18bd 8f21 833d
000000a0: 2580 0cbf b170 55be 1fa5 953d bc5a d43d
000000b0: d166 a0be 0fce 81be 7652 b6bd 2363 a5bd
000000c0: 67fc a6be 4618 08be

fc2.weight f4 [10, 50]
0.44719058 0.17890528 -0.002505764 0.34178677 -0.675644 -0.07915381 0.4424603 0.2181723
-0.6093286 -0.3230387 0.2686352 -0.0063887318 -0.06625833 -0.5509746 0.24535754 0.0424649
-0.80340225 0.081193745 -0.67185843 -0.2313878 0.50546914 -0.33252594 -0.9633971 0.04740148
-0.5922736 0.42532557 0.15501237 -0.1440726 -0.44532815 -0.10930936 0.48356587 0.30050328
0.31318063 0.1837769 -0.62143475 -0.048004337 -0.3109548 -0.4638068 -0.768662 -1.1641072
-0.17632261 -0.12064352 -0.7108095 0.53441936 -0.11102401 -0.045762435 -0.45419696 0.16346231
-0.0443705 0.06166885 0.3226572 -0.83639544 -0.17507108 -0.22443308 -0.010637738 -0.42452434
-0.14612341 0.27294365 -0.3614895 -0.92545456 -0.34117126 -0.08570022 -0.068660185 -0.14721952
0.3059743 -0.041238487 0.005806834 -0.32757208 -0.19923101 -0.4326815 0.13654208 -0.5007741
0.2660935 -0.4507756 -0.2424165 -0.5885831 -0.00970845 0.15154962 0.4551646 0.49993503
-0.33795726 -0.64039576 0.055074994 -0.46171856 0.19973327 -0.3797641 -0.3050023 0.37297532
-0.20473526 0.43679297 -0.3101193 0.037900187 0.047100887 -0.2532117 0.000811018 0.0089302985
-0.6366477 0.059617102 -0.015236992 0.05717757 -0.0142121 0.104361705 -0.073239684 0.25922525
-0.29944432 -0.044234756 -0.16886097 -0.12321361 -0.09459838 0.13898373 -0.25616023 0.073629834
0.3322983 0.10814709 0.19030565 0.13483042 0.10172792 0.16852286 0.15883815 0.3990383
0.18644157 0.089159414 -0.6186996 -0.22190091 -0.050653096 -0.47702777 -0.07878342 -0.0044635227
0.24453494 -0.28951618 -0.14654958 -0.114191815 0.19463275 -0.5043883 0.29205307 -0.020591605
-0.41201386 -0.5326576 -0.6237134 -0.2412156 -0.8991391 -0.022840394 0.18971325 0.20064457
0.003970192 0.22140335 -0.3630398 -0.045587264 -0.21017519 -0.37022397 -0.33783132 -0.4065143
-0.13025816 -0.2116464 -0.27138555 0.10301267 -0.10470903 0.08465671 -0.051168904 -0.47681427
-0.27926195 -0.0029034866 0.23556873 0.25864342 -0.26238847 -0.019637816 -0.04076495 0.21897961
0.061766285 0.3252021 -0.11747656 0.004953943 -1.0733343 -0.3125284 -0.13833354 -0.064294435
-0.057579134 0.1658854 0.19782996 -0.086558156 -0.12226493 -0.12439588 -0.14793359 -0.22578196
-0.090416946 -0.19690788 -0.29741818 -0.1116596 0.30308366 -0.49391016 -0.8781667 0.018212931
0.15181376 -0.08786859 -0.22212206 0.060368136 0.47098672 -0.013066606 -0.061602704 0.0013146321
-0.32217908 0.24928397 0.17039482 -0.21046892 0.2914899 -0.16997752 -0.17051783 -0.31735024
0.464442 0.28027943 0.20467925 -0.2695005 -0.27012068 -0.86913866 -0.40018216 -0.32197022
-0.10969602 -0.23650491 0.002897175 -0.55679655 -0.31185433 0.29120976 -0.10427253 -0.03192923
-1.0730233 0.053566758 0.281278 -0.11886944 -0.08031324 -0.12530667 -0.040891744 -0.2022452
-0.016871763 0.20733534 -0.22675206 -0.05006578 -0.1058417 -0.34729213 0.044128694 0.06861403
-0.089411505 0.21381816 -2.8815586e-05 -0.3080678 -0.15247236 0.04831082 -0.29020447 -0.07736997
0.06587191 -0.06900782 -0.0063117193 -0.25211865 0.02293199 -0.08949508 0.16955347 0.046359926
00000000: 2af6 e43e f232 373e be37 24bb adfe ae3e
00000010: 01f7 2cbf 651b a2bd 288a e23e 8f68 5f3e
00000020: f6fc 1bbf 5465 a5be 8e8a 893e 9158 d1bb
00000030: 73b2 87bd ac0c 0dbf 023f 7b3e adef 2d3d
00000040: c5ab 4dbf e848 a63d eafe 2bbf ecf0 6cbe
00000050: 6d66 013f d740 aabe 31a1 76bf 0e28 423d
00000060: 3e9f 17bf 46c4 d93e 90bb 1e3e c587 13be
00000070: 0d02 e4be 96dd dfbd f295 f73e 91db 993e
00000080: 3659 a03e 0330 3c3e 5916 1fbf 32a0 44bd
00000090: 7835 9fbe 1678 edbe 08c7 44bf 7701 95bf
000000a0: ea8d 34be f313 f7bd 9df7 35bf b5cf 083f
000000b0: 8e60 e3bd 6471 3bbd 818c e8be aa62 273e
000000c0: d7bd 35bd 7a98 7c3d 5333 a53e 031e 56bf
000000d0: d545 33be c9d1 65be e849 2ebc 415b d9be
000000e0: 60a1 15be 45bf 8b3e 2715 b9be 97ea 6cbf
000000f0: 00ae aebe 9983 afbd b69d 8cbd b7c0 16be
00000100: aaa8 9c3e b0e9 28bd 4147 be3b 87b7 a7be
00000110: 3703 4cbe 6e88 ddbe b0d1 0b3e bb32 00bf
00000120: 683d 883e 0fcc e6be 083c 78be 62ad 16bf
00000130: 3110 1fbc d32f 1b3e 560b e93e 7cf7 ff3e
00000140: bc08 adbe faf0 23bf 5196 613d 6066 ecbe
00000150: e186 4c3e 7170 c2be 4329 9cbe 9ff6 be3e
00000160: 1fa6 51be 54a3 df3e f5c7 9ebe 3a3d 1b3d
00000170: dcec 403d f7a4 81be 7f9a 543a 6350 123c
00000180: 58fb 22bf 1031 743d 94a4 79bc 0733 6a3d
00000190: ded9 68bc 97bb d53d b0fe 95bd 2cb9 843e
000001a0: c450 99be 812f 35bd e4e9 2cbe 6b57 fcbd
000001b0: ccbc c1bd c051 0e3e 6f27 83be 3dcb 963d
000001c0: 0123 aa3e 397c dd3d 7cdf 423e fc10 0a3e
000001d0: ba56 d03d 4291 2c3e 78a6 223e c04e cc3e
000001e0: 8aea 3e3e 3699 b63d 1963 1ebf fe39 63be
000001f0: 9f79 4fbd fc3c f4be 3459 a1bd be42 92bb
00000200: 5e67 7a3e 773b 94be 1811 16be 66dd e9bd
00000210: cf4d 473e 971f 01bf fb87 953e baaf a8bc
00000220: 7bf3 d2be 405c 08bf aeab 1fbf 3901 77be
00000230: fb2d 66bf c71b bbbc 3144 423e c575 4d3e
00000240: 6218 823b 8fb7 623e 5ae0 b9be b6b9 3abd
00000250: 2a38 57be ff8d bdbe 3af8 acbe a422 d0be
00000260: 6562 05be d5b9 58be 0cf3 8abe 4ff8 d23d
00000270: b071 d6bd 7f60 ad3d 7c96 51bd 0021 f4be
00000280: 6cfb 8ebe 6c48 3ebb ee38 713e e96c 843e
00000290: c857 86be 7cdf a0bc 26f9 26bd 313c 603e
000002a0: a5fe 7c3d e480 a63e 8d97 f0bd b054 a23b
000002b0: 0563 89bf b903 a0be 4fa7 0dbe cdac 83bd
000002c0: 19d8 6bbd dddd 293e f093 4a3e 6745 b1bd
000002d0: 0966 fabd 44c3 febd e77b 17be 6333 67be
000002e0: 852c b9bd 38a2 49be 3247 98be caad e4bd
000002f0: c82d 9b3e cbe1 fcbe 88cf 60bf 4933 953c
00000300: 1175 1b3e 73f4 b3bd f773 63be 9444 773d
00000310: 2c25 f13e 5115 56bc 1e53 7cbd bc4f ac3a
00000320: a8f4 a4be 4c44 7f3e fb7b 2e3e 2a85 57be
00000330: 2a3e 953e 960e 2ebe 3a9c 2ebe bb7b a2be
00000340: 58cb ed3e c980 8f3e 7097 513e f8fb 89be
00000350: 424d 8abe df7f 5ebf ade4 ccbe 48d9 a4be
00000360: 4fa8 e0bd 582e 72be 88de 3d3b 388a 0ebf
00000370: 5fab 9fbe 7219 953e d68c d5bd 39c8 02bd
00000380: d458 89bf d168 5b3d ac03 903e d271 f3bd
00000390: 457b a4bd 6450 00be 1a7e 27bd 5e19 4fbe
000003a0: a736 8abc b74f 543e b131 68be c611 4dbd
000003b0: 89c3 d8bd 46d0 b1be 4ac0 343d 8385 8c3d
000003c0: 611d b7bd 26f3 5a3e 00b9 f1b7 10bb 9dbe
000003d0: b721 1cbe 91e1 453d ae95 94be 2674 9ebd
000003e0: dae7 863d f953 8dbd 8ad2 cebb b215 81be
000003f0: dedb bb3c 3249 b7bd 6d9f 2d3e e8e3 3d3d

fc2.bias f4 [10]
-0.2191324 0.08514747 -0.12699105 0.2775191 0.0660095 -0.059196584 -0.31067675 -0.1797696
0.2848671 -0.09797055
00000000: 3e64 60be cc61 ae3d f109 02be fc16 8e3e
00000010: fd2f 873d 1e78 72bd 0611 9fbe 8615 38be
00000020: 1ada 913e c9a4 c8bd

exp_avg f4 [10, 1, 5, 5]
2.0391304e-09 1.587735e-09 1.5869732e-09 2.7312033e-09 3.6095407e-09 2.1474125e-09 1.9239383e-09 2.3549027e-09
4.0483066e-09 4.884382e-09 1.9679645e-09 2.0129993e-09 2.8658231e-09 5.132333e-09 5.7417475e-09 1.8338031e-09
2.163835e-09 4.157757e-09 6.56026e-09 6.778342e-09 2.446812e-09 3.6333678e-09 5.6740115e-09 6.993762e-09
6.202879e-09 0.00030195483 0.00017374227 0.0015674726 0.002346906 0.0025984198 -1.8411796e-05 -0.00034465213
7.747944e-06 -4.5029297e-05 8.451226e-05 0.00016221155 5.7779175e-06 -9.630529e-07 0.000100051126 0.00014346329
0.0006796086 -8.3169125e-06 -3.0561966e-07 0.00014733462 9.848841e-05 -0.00011985579 0.0003527914 0.0008067202
0.00043350863 -0.00024439607 6.513159e-09 8.293791e-09 7.547523e-09 5.7925464e-09 4.746555e-09 7.864577e-09
8.5737115e-09 6.3980887e-09 3.5525745e-09 3.903021e-09 8.18769e-09 8.919724e-09 5.990703e-09 4.05052e-09
4.913519e-09 1.0456485e-08 9.259632e-09 7.474049e-09 5.508941e-09 6.7188934e-09 1.1502416e-08 1.0155912e-08
7.767307e-09 8.013248e-09 7.945513e-09 0.014489798 0.05925755 0.017986529 0.0048831874 -0.0058058077
0.017942384 0.05389078 0.0013372292 0.0024703254 -0.001335255 0.026701346 0.033313327 0.0012072359
-0.00030969921 -0.0013826243 -0.0023682062 -0.00122913 0.0027369107 -0.0004350351 0.0036992005 -0.04042768
-0.021515487 0.0035560064 0.00513175 0.013536994 4.955787e-10 6.0333655e-10 7.8567997e-10 3.8724396e-10
1.8660881e-10 6.693382e-10 9.77868e-10 6.4326877e-10 2.525199e-10 6.317261e-11 8.0751533e-10 1.2313313e-09
5.829009e-10 1.9633714e-10 1.9061771e-11 9.918506e-10 1.2642479e-09 6.2028177e-10 7.694723e-11 3.8464832e-11
1.1685053e-09 1.146821e-09 5.388126e-10 7.984035e-11 3.3093485e-12 9.214816e-11 4.29727e-10 5.944811e-10
2.0377867e-10 7.581105e-11 6.301993e-11 4.1623993e-10 7.249363e-10 4.5458057e-10 1.238527e-10 1.0465666e-10
1.3968494e-10 3.0375155e-10 6.2229566e-10 5.061523e-10 2.3213148e-10 1.6564826e-10 7.564844e-11 1.7757275e-10
5.7736915e-10 2.5989616e-10 9.7857375e-11 1.2239433e-10 1.02499655e-10 2.169524e-10 0.023401938 0.041646734
0.031241503 0.01885314 -0.0005977303 0.018282874 0.029341467 0.031219011 0.024516022 0.008637001
-0.0010929834 0.0010511767 0.0029582267 0.0044962787 -0.0041783005 0.0011861107 -0.00047486761 0.00061313226
0.0023838463 0.00037807412 -0.00012914813 -0.00021775905 -0.007987129 -0.0031949051 0.019569045 0.100275695
0.04635267 0.016219791 0.016414918 0.0043689664 0.07199255 0.026928345 0.002295238 0.00122627
0.00035449647 0.047659405 0.0076666563 0.0012524351 0.0017936155 -0.0018333215 0.0054125385 0.00094424566
0.0011151488 0.0036674717 0.01031816 0.003398385 0.009591947 0.009612702 0.008118708 0.03806203
3.967482e-09 3.7986205e-09 3.945318e-09 5.478696e-09 5.671457e-09 4.466961e-09 3.505939e-09 3.6746193e-09
5.7279754e-09 6.1358763e-09 4.3884296e-09 3.2669953e-09 3.879993e-09 5.783851e-09 6.457521e-09 3.4616665e-09
3.7456807e-09 4.627302e-09 6.2292767e-09 6.353997e-09 3.4208867e-09 4.436854e-09 5.4876637e-09 6.052256e-09
4.9513638e-09 1.4586533e-09 3.028243e-09 3.0125835e-09 1.3517192e-09 1.2300401e-10 3.1150074e-09 3.818044e-09
3.251115e-09 1.7202397e-09 7.681869e-10 3.7073664e-09 3.329781e-09 2.97467e-09 2.1464004e-09 1.7164543e-09
2.8036953e-09 2.9141096e-09 2.6141946e-09 2.1839186e-09 2.6351645e-09 2.2238535e-09 2.1054052e-09 2.2045459e-09
2.5150309e-09 2.9182268e-09
00000000: c320 0c31 7637 da30 a81c da30 d6af 3b31
00000010: b60b 7831 ae91 1331 4836 0431 e3d3 2131
00000020: 4819 8b31 7ad3 a731 cc3c 0731 0f55 0a31
00000030: 18f0 4431 7a58 b031 f248 c531 3609 fc30
00000040: 96b2 1431 04dc 8e31 a868 e131 ede6 e831
00000050: c624 2831 e2ae 7931 22f5 c231 c84d f031
00000060: 1a21 d531 b14f 9e39 962e 3639 a773 cd3a
00000070: 8dce 193b 404a 2a3b 0873 9ab7 6db2 b4b9
00000080: 2bfd 0137 d7dd 3cb8 2d3c b138 5517 2a39
00000090: efdf c136 3f42 81b5 8ad2 d138 a26e 1639
000000a0: c327 323a de88 0bb7 0c14 a4b4 d67d 1a39
000000b0: 908b ce38 165b fbb8 dcf6 b839 147a 533a
000000c0: 8b48 e339 4922 80b9 5aca df31 7b7c 0e32
000000d0: 5baa 0132 c707 c731 2417 a331 c71c 0732
000000e0: 954b 1332 2fd6 db31 8d21 7431 561b 8631
000000f0: d7a9 0c32 5c3d 1932 c8d6 cd31 c02c 8b31
00000100: c5d3 a831 1ba4 3332 4b14 1f32 3767 0032
00000110: 2849 bd31 03dc e631 299c 4532 2c7a 2e32
00000120: fa70 0532 a3aa 0932 bc80 0832 9e66 6d3c
00000130: 0bb8 723d 7c58 933c 2503 a03b a53e bebb
00000140: e8fb 923c 94bc 5c3d f745 af3a 2fe5 213b
00000150: b903 afba c8bc da3c 8e73 083d 1d3c 9e3a
00000160: 205f a2b9 2c39 b5ba e833 1bbb c21a a1ba
00000170: be5d 333b 6c15 e4b9 496e 723b 7f97 25bd
00000180: 3f41 b0bc e30b 693b 3d28 a83b 45ca 5d3c
00000190: 4039 0830 09d8 2530 50f7 5730 bee3 d42f
000001a0: b62d 4d2f 7dfc 3730 ac65 8630 04d2 3030
000001b0: 04d3 8a2f 05eb 8a2e d7f7 5d30 9e3b a930
000001c0: 013a 2030 fedf 572f 4bab a72d a451 8830
000001d0: c5c1 ad30 7380 2a30 7135 a92e 8d2b 292e
000001e0: 2099 a030 2d9e 9d30 911b 1430 1f92 af2e
000001f0: ecdf 682c cda2 ca2e b33e ec2f e368 2330
00000200: 990e 602f d4b5 a62e 1195 8a2e 90d4 e42f
00000210: db44 4730 87e8 f92f 702d 082f 7624 e62e
00000220: d195 192f 3bfd a62f 2a0e 2b30 4d21 0b30
00000230: 343b 7f2f d721 362f 495a a62e 493e 432f
00000240: beb4 1e30 22e1 8e2f ce30 d72e f192 062f
00000250: 2d66 e12e ac8a 6e2f 6cb5 bf3c c495 2a3d
00000260: 2eee ff3c e671 9a3c 00b1 1cba f7c5 953c
00000270: 845d f03c 03bf ff3c d3d5 c83c 3582 0d3c
00000280: 7042 8fba a3c7 893a cfde 413b 8555 933b
00000290: 20ea 88bb 4577 9b3a a7f7 f8b9 9cba 203a
000002a0: 4e3a 1c3b 4038 c639 f06b 07b9 4056 64b9
000002b0: 72dc 02bc 9d61 51bb 434f a03c 585d cd3d
000002c0: 4cdc 3d3d 5edf 843c 9478 863c 8c29 8f3b
000002d0: d470 933d d598 dc3c b46b 163b cbba a03a
000002e0: b6db b939 8236 433d 9338 fb3b c028 a43a
000002f0: c017 eb3a 104c f0ba aa5b b13b 4187 773a
00000300: 2f2a 923a f759 703b 800d 293c 70b7 5e3b
00000310: 8b27 1d3c 987e 1d3c 5404 053c eee6 1b3d
00000320: 5752 8831 0585 8231 628f 8731 1f3f bc31
00000330: aade c231 ce7b 9931 22ed 7031 9684 7c31
00000340: cecf c431 bdd3 d231 09c9 9631 9781 6031
00000350: c850 8531 4bbb c631 f5e0 dd31 48e2 6d31
00000360: 5bb3 8031 2efe 9e31 4c09 d631 5952 da31
00000370: e014 6b31 fb72 9831 008e bc31 35f4 cf31
00000380: a820 aa31 cd79 c830 6a19 5031 ee05 4f31
00000390: 64c7 b930 8d3e 072f ca0f 5631 df2f 8331
000003a0: 386a 5f31 8e6d ec30 5928 5330 aec4 7e31
000003b0: 20d2 6431 f36a 4c31 e07f 1331 5ee8 eb30
000003c0: 21ab 4031 8f41 4831 66a5 3331 e713 1631
000003d0: 4e16 3531 72d2 1831 aeae 1031 c87e 1731
000003e0: e4d4 2c31 fd89 4831

exp_avg_sq f4 [10, 1, 5, 5]
3.7814263e-07 2.6043284e-07 2.1509058e-07 5.7078825e-07 1.3594703e-06 3.7845237e-07 3.673531e-07 4.7182348e-07
1.5429135e-06 2.9747234e-06 2.676501e-07 3.651329e-07 6.909984e-07 2.7115263e-06 4.0327905e-06 2.4099623e-07
4.1325376e-07 1.4901551e-06 4.287836e-06 4.9104733e-06 3.602663e-07 8.3537174e-07 2.7925234e-06 4.9688524e-06
4.23215e-06 9.64804e-06 8.200734e-06 3.344122e-05 7.1681694e-05 8.0679696e-05 3.2148246e-06 4.01619e-06
4.7364397e-06 9.997611e-06 1.5123698e-05 2.9908308e-06 3.044904e-06 4.842543e-06 1.2368055e-05 1.7068709e-05
3.3923086e-06 2.5285651e-06 6.4216865e-06 1.3256444e-05 1.2708486e-05 7.5452886e-06 6.268661e-06 8.993882e-06
9.133108e-06 5.96091e-06 5.036968e-06 8.181839e-06 7.1003337e-06 4.2560405e-06 2.7372669e-06 7.5031912e-06
8.993792e-06 5.742467e-06 2.0321395e-06 2.3929224e-06 7.870435e-06 9.134833e-06 4.809866e-06 2.525848e-06
3.2854073e-06 1.1388052e-05 8.918847e-06 6.0398534e-06 3.3375857e-06 5.0111794e-06 1.23740765e-05 8.515784e-06
4.847293e-06 5.3896915e-06 5.7497964e-06 0.0052738558 0.00349065 0.0005703985 6.9737645e-05 5.6706813e-05
0.0048724907 0.0017931758 0.00018363044 4.7900172e-05 3.4758697e-05 0.0037143456 0.0009263609 6.0964245e-05
1.870429e-05 2.5174735e-05 0.0025730152 0.00046756022 2.9835728e-05 4.9930077e-06 4.348549e-05 0.0019235386
0.00040980574 5.0764727e-05 3.0510124e-05 0.00014618917 4.5432134e-08 8.2151914e-08 1.5203845e-07 2.9406545e-08
5.2434834e-09 1.13357515e-07 2.524343e-07 1.1898106e-07 1.3930158e-08 6.7641903e-10 1.7057356e-07 3.803906e-07
9.628603e-08 8.948202e-09 1.057078e-10 2.3865485e-07 3.889152e-07 1.0578941e-07 1.4797231e-09 4.1802806e-10
3.1979428e-07 3.2293025e-07 9.967489e-08 1.7766748e-09 2.4616609e-12 1.1838092e-08 1.6035981e-08 1.28157565e-08
5.2677356e-09 2.8984666e-09 4.1876165e-09 8.079217e-09 1.7414491e-08 1.7969088e-08 5.9834693e-09 3.3722651e-09
3.0958263e-09 3.197145e-09 1.655657e-08 1.8040014e-08 1.2260711e-08 6.219129e-09 7.8215356e-10 7.71947e-10
5.0133475e-09 1.914966e-08 8.33539e-10 3.1509289e-09 1.3193491e-09 2.2611457e-09 0.000513393 0.001072675
0.0014205016 0.0010673039 0.0007410383 0.00015640505 0.00013568322 0.00017905766 9.481376e-05 2.243851e-05
1.7865896e-05 1.6472439e-05 1.0583088e-05 8.871785e-06 3.0126464e-06 4.4793833e-06 1.2151493e-05 4.9691403e-06
5.0975086e-06 7.423625e-05 4.7958325e-05 6.319512e-05 8.8920555e-05 0.000217404 0.0008541912 0.0042216736
0.0020416875 0.0008237636 0.00013725944 2.3010956e-05 0.0028695546 0.00082616974 0.0002619556 3.0355071e-05
5.5352557e-06 0.0010755933 0.00014298293 5.0083065e-05 1.314452e-05 1.5836531e-05 0.0003933524 1.3348943e-05
1.3543961e-05 5.80913e-05 0.00022931802 0.0003488154 6.363308e-05 0.0002047656 0.0005264465 0.0009482216
1.014508e-06 9.539496e-07 9.762593e-07 2.5263298e-06 4.197528e-06 1.5434422e-06 9.1723876e-07 1.0135475e-06
3.5144644e-06 5.434891e-06 1.7900958e-06 9.639468e-07 1.6379446e-06 4.3440455e-06 5.8877426e-06 1.0675548e-06
1.4966844e-06 2.701562e-06 5.047041e-06 4.974877e-06 8.791157e-07 1.8878624e-06 3.7684051e-06 4.082153e-06
2.1951694e-06 6.367427e-07 1.969336e-06 1.8087887e-06 3.9927943e-07 1.0249607e-08 1.898449e-06 2.9817616e-06
1.9777028e-06 5.348994e-07 1.3470186e-07 2.6441953e-06 2.6306961e-06 1.9929298e-06 1.0950872e-06 7.7691556e-07
1.7152408e-06 2.0359105e-06 1.6751152e-06 1.0082402e-06 1.0414561e-06 9.681963e-07 9.315991e-07 1.0216526e-06
1.00728e-06 8.747819e-07
00000000: 8703 cb34 9ed1 8b34 a6f3 6634 4538 1935
00000010: 0b77 b635 192e cb34 a038 c534 ed4e fd34
00000020: 1b16 cf35 5ca1 4736 8db1 8f34 7c07 c434
00000030: 0c7d 3935 abf7 3536 6851 8736 4562 8134
00000040: 2add dd34 5701 c835 3be0 8f36 a5c4 a436
00000050: a06a c134 4f3e 6035 3067 3b36 1eba a636
00000060: e401 8e36 04de 2137 e295 0937 3d43 0c38
00000070: d153 9638 9532 a938 44be 5736 cfc2 8636
00000080: b5ed 9e36 6abb 2737 cabb 7d37 15b6 4836
00000090: 0d57 4c36 217d a236 6480 4f37 c62e 8f37
000000a0: 6ba7 6336 6bb0 2936 de79 d736 fe67 5e37
000000b0: 8836 5537 892d fd36 6357 d236 6ee4 1637
000000c0: 663a 1937 d403 c836 3a03 a936 bb44 0937
000000d0: 673f ee36 1ccf 8e36 e3b1 3736 ecc3 fb36
000000e0: 0be4 1637 6aaf c036 e45f 0836 1896 2036
000000f0: 430b 0437 cf41 1937 6f64 a136 bd81 2936
00000100: de7a 5c36 500f 3f37 28a2 1537 f2a9 ca36
00000110: 49fb 5f36 b425 a836 419a 4f37 04df 0e37
00000120: eea5 a236 19d9 b436 60ee c036 4fd0 ac3b
00000130: 64c3 643b cc86 153a 1d40 9238 7ad8 6d38
00000140: 6aa9 9f3b ff08 eb3a ec8c 4039 6be8 4838
00000150: dec9 1138 616c 733b 07d7 723a dcb3 7f38
00000160: 28e7 9c37 552e d337 08a0 283b df22 f539
00000170: bd47 fa37 9c89 a736 3064 3638 3f1f fc3a
00000180: 32db d639 36ec 5438 feef ff37 5b4a 1939
00000190: 2921 4333 7e6b b033 0340 2334 ad99 fc32
000001a0: 2b2a b431 f46e f333 4e86 8734 8882 ff33
000001b0: 7c51 6f32 c2ee 3930 e726 3734 7c38 cc34
000001c0: cec5 ce33 9cba 1932 3374 e82e 7920 8034
000001d0: 19cc d034 582e e333 215f cb30 38d0 e52f
000001e0: 31b0 ab34 325f ad34 da0c d633 302f f430
000001f0: 5739 2d2c 7b60 4b32 7fbf 8932 4b2c 5c32
00000200: 7eff b431 5d2e 4731 aae2 8f31 c6cc 0a32
00000210: df96 9532 715a 9a32 2797 cd31 84bd 6731
00000220: 5abe 5431 c5b4 5b31 4838 8e32 69f6 9a32
00000230: 2da3 5232 0ab0 d531 2aff 5630 f130 5430
00000240: df41 ac31 8c7e a432 181f 6530 ba87 5831
00000250: 7854 b530 7f62 1b31 3995 063a 0099 8c3a
00000260: 2030 ba3a c7e4 8b3a 3d42 423a a900 2439
00000270: 3046 0e39 6dc1 3b39 c0d6 c638 553a bc37
00000280: b8de 9537 4b2e 8a37 048e 3137 07d8 1437
00000290: df2c 4a36 9c4d 9636 44de 4b37 97bc a636
000002a0: 440b ab36 49af 9b38 dc26 4938 9f87 8438
000002b0: dc7a ba38 f1f6 6339 cdeb 5f3a f755 8a3b
000002c0: d5cd 053b d7f1 573a 4ded 0f39 a707 c137
000002d0: 230f 3c3b 5093 583a 1657 8939 05a3 fe37
000002e0: 7cbb b936 ecfa 8c3a b0ed 1539 4810 5238
000002f0: 4987 5c37 b1d8 8437 de3a ce39 46f5 5f37
00000300: df3a 6337 0fa7 7338 1675 7039 36e1 b639
00000310: c072 8538 59b6 5639 3a01 0a3a 1392 783a
00000320: 3b2a 8835 7509 8035 0408 8335 048a 2936
00000330: 7ed8 8c36 4528 cf35 2b38 7635 3a09 8835
00000340: 0ada 6b36 5c5d b636 3943 f035 f660 8135
00000350: 59d7 db35 11c3 9136 538f c536 e748 8f35
00000360: afe1 c835 7b4c 3536 c159 a936 deed a636
00000370: 5ffc 6b35 7562 fd35 b5e4 7c36 6df9 8836
00000380: b950 1336 a0ec 2a35 ef28 0436 82c5 f235
00000390: 8c5c d634 4016 3032 36ce fe35 461a 4836
000003a0: adb8 0436 0296 0f35 91a2 1034 ee72 3136
000003b0: 048b 3036 46be 0536 e9fa 9235 3b8d 5035
000003c0: 3a37 e635 ada0 0836 85d4 e035 df52 8735
000003d0: 29c8 8b35 f9f2 8135 0113 7a35 b71f 8935
000003e0: e131 8735 8ed2 6a35

exp_avg f4 [10]
8.324912e-09 0.020153213 2.5492007e-08 0.005805523 1.4359332e-09 1.1179859e-09 0.029962633 0.2819606
1.5935077e-08 1.9062286e-08
00000000: 5a05 0f32 5a18 a53c 84f9 da32 423c be3b
00000010: 685a c530 a2a7 9930 3274 f53c 245d 903e
00000020: 9be1 8832 69be a332

exp_avg_sq f4 [10]
6.3148123e-06 0.0017278929 5.1251936e-05 0.005987176 4.7435597e-07 4.3039687e-08 0.009603416 0.010058075
1.8262634e-05 1.5734999e-05
00000000: d3e3 d336 777a e23a 59f7 5638 1330 c43b
00000010: fdaa fe34 a3da 3833 a557 1d3c a0ca 243c
00000020: b532 9937 a7fe 8337

exp_avg f4 [20, 10, 5, 5]
5.4600974e-10 9.721176e-11 -9.71449e-10 -1.0128617e-09 -1.4994235e-10 6.025785e-10 -4.4405904e-10 -9.696143e-10
-6.689247e-10 -5.917756e-11 6.122373e-10 -6.217068e-10 -8.6035495e-10 -3.2897024e-10 -1.7218578e-10 4.9086324e-10
-1.401078e-10 -2.7214236e-10 1.2299685e-10 2.6494118e-10 7.33934e-10 2.4914043e-11 -5.857578e-11 6.6360716e-11
3.8630366e-10 1.7912027e-09 1.9541864e-09 1.0870695e-09 1.1841674e-09 2.5183893e-09 6.8980094e-10 7.2309336e-10
1.2212238e-09 1.040319e-09 3.1319976e-09 1.6202015e-09 3.4846634e-10 5.470082e-10 1.3719582e-09 2.0177409e-09
1.7240712e-09 7.915433e-10 7.0984324e-10 2.1979167e-09 2.1130155e-09 2.041548e-09 1.1192715e-09 8.900669e-10
1.7028047e-09 1.9871733e-09 8.6224117e-10 8.073188e-10 2.8652147e-10 8.148274e-10 6.7872363e-10 5.116322e-10
4.6694976e-10 7.7754997e-10 9.555269e-10 5.040025e-10 2.7312483e-10 3.3268494e-10 5.773861e-10 4.4330947e-10
6.446469e-10 5.0360827e-10 5.079881e-10 9.826931e-10 2.728515e-10 8.14303e-10 5.7913907e-10 7.3319933e-10
4.793985e-10 1.9009072e-10 5.7146643e-10 1.4860047e-09 1.3820636e-09 2.3929194e-09 3.0163647e-09 2.5501427e-08
2.1672288e-09 1.7506924e-09 1.611502e-09 2.164337e-09 3.4353754e-08 1.8105151e-09 2.3865494e-09 2.5440146e-09
1.7994473e-08 3.419995e-08 2.2353652e-09 3.0038871e-09 3.0471818e-09 2.0211514e-08 2.5907905e-08 1.8845594e-09
2.5920255e-09 1.7309434e-09 1.428446e-09 6.2016277e-09 1.38109055e-11 -8.046758e-12 -1.9299291e-11 -6.8076815e-11
-1.3574993e-10 2.4124574e-11 5.8675283e-12 -1.9700564e-11 -3.070028e-11 -1.2081337e-10 -5.638636e-12 1.9587531e-11
-1.3873824e-11 -8.140499e-11 -4.4401392e-11 -1.0647734e-11 -3.4955642e-15 2.8067557e-11 -9.0116296e-11 -5.612624e-11
6.247605e-12 -1.987115e-11 -7.122383e-12 -7.254413e-11 -3.9307904e-11 -6.309097e-11 1.1352324e-11 2.8926726e-11
2.7646323e-11 -5.1906656e-11 5.6749787e-13 3.9000726e-11 1.7506229e-11 5.0561777e-11 1.9734958e-11 2.7277477e-11
-2.0452341e-11 2.0505507e-11 4.1027206e-11 4.675693e-11 5.3946726e-11 6.494275e-11 2.3479586e-11 2.9285428e-11
-6.40091e-11 -5.0513444e-11 -7.8857046e-11 -1.1090885e-11 -3.5416902e-11 -6.7561807e-12 4.1858872e-10 -8.918031e-12
4.2687712e-10 7.445327e-10 4.0163953e-10 2.6486865e-10 1.7530803e-10 4.0563763e-10 4.700356e-10 9.06939e-10
2.2840806e-10 4.1865694e-10 5.463416e-10 3.3025713e-10 4.7916293e-10 3.0015e-10 3.0890465e-10 4.2187592e-10
1.7598792e-10 2.3817004e-10 3.0413527e-10 2.0376227e-10 2.5572608e-10 -4.0715414e-10 2.4832046e-11 8.8074364e-10
2.9436217e-10 6.6587175e-10 1.5201591e-09 1.6264871e-09 7.3677014e-10 6.5536687e-10 1.3464788e-09 1.2350679e-09
7.865815e-09 9.812282e-10 1.0079614e-09 1.0091137e-09 1.2889309e-09 1.7807194e-08 9.438831e-10 1.4295809e-09
1.3211638e-09 1.6398977e-09 1.22006885e-08 9.073028e-10 1.372761e-09 8.8011104e-10 3.7603673e-10 1.3951378e-10
1.1731449e-09 7.6411655e-10 -1.8256438e-11 -5.710302e-11 2.8584646e-10 7.0987355e-10 -2.7551619e-11 -6.0809713e-10
-4.208363e-10 2.8017075e-10 1.0242815e-09 -4.042358e-10 -5.3385857e-10 -5.881178e-11 3.0608324e-10 1.1346933e-09
-2.7755426e-10 -2.7192207e-10 3.2959807e-10 3.134894e-10 1.0062561e-09 -1.0169496e-10 -4.3350466e-11 3.5045128e-10
6.964601e-10 2.715425e-10 3.8429537e-10 2.3726215e-10 3.2901074e-10 2.678257e-10 4.0113807e-10 3.004034e-10
7.3198636e-10 4.398983e-10 2.3238686e-10 6.0808375e-10 3.7180847e-10 2.9800531e-10 5.9026545e-10 2.3086552e-10
3.658828e-10 5.572044e-10 1.6035405e-10 3.2274638e-11 1.2495593e-10 4.0781642e-10 2.8100652e-10 2.7100116e-11
-3.032232e-10 4.6592374e-10 4.8773596e-10 7.024938e-10 7.983956e-10 4.8490667e-10 1.8790008e-10 5.883049e-10
00000000: 0516 1630 5bc5 d52e d383 85b0 e734 8bb0
00000010: 05dd 24af b1a2 2530 c11f f4af 4543 85b0
00000020: 64df 37b0 0122 82ae 5f4a 2830 bae4 2ab0
00000030: 197e 6cb0 72da b4af fd51 3daf 6eed 0630
00000040: d70c 1aaf a29c 95af 893c 072f 28a7 912f
00000050: 04be 4930 7025 db2d 3ccf 80ae c3ed 912e
00000060: 685f d42f 582e f630 694a 0631 dc67 9530
00000070: 30c0 a230 f90f 2d31 6d9c 3d30 2cc3 4630
00000080: fed7 a730 f9fa 8e30 af3a 5731 c6ad de30
00000090: 4792 bf2f 485c 1630 7d8f bc30 79a8 0a31
000000a0: 5df4 ec30 e893 5930 c71e 4330 290a 1731
000000b0: 9034 1131 4b4b 0c31 ddd4 9930 e4a8 7430
000000c0: 1d08 ea30 b98e 0831 d402 6d30 03ea 5d30
000000d0: 5084 9d2f 62fa 5f30 ee90 3a30 eaa2 0c30
000000e0: ab5a 0030 37bb 5530 9d53 8330 068a 0a30
000000f0: e726 962f 3ee5 b62f efb5 1e30 43b6 f32f
00000100: fe32 3130 486e 0a30 7ca2 0b30 710f 8730
00000110: 6f00 962f 7bd5 5f30 4a31 1f30 518a 4930
00000120: acc6 0330 c801 512f 6015 1d30 243c cc30
00000130: 0af3 bd30 af70 2431 7348 4f31 3b0e db32
00000140: 4bee 1431 039d f030 b07b dd30 6bbb 1431
00000150: 5a8c 1333 d6d5 f830 9f00 2431 c7d2 2e31
00000160: 4492 9a32 3ee3 1233 f69c 1931 f16c 4e31
00000170: 9766 5131 979d ad32 168c de32 8581 0131
00000180: 651f 3231 28e6 ed30 fa52 c430 1816 d531
00000190: caf6 722d 608f 0dad 24c2 a9ad d7b3 95ae
000001a0: 3542 15af b633 d42d ff71 ce2c ba49 adad
000001b0: 7105 07ae f1d5 04af 5164 c6ac 334b ac2d
000001c0: 2612 74ad ef02 b3ae 8647 43ae 2251 3bad
000001d0: c7e1 7ba7 85e2 f62d f72a c6ae 87d8 76ae
000001e0: 6cd1 db2c dac9 aead b998 faac b786 9fae
000001f0: c4e0 2cae 0fbd 8aae 52b6 472d 3271 fe2d
00000200: fc2d f32d b349 64ae 88bc 1f2b ea86 2b2e
00000210: 86fc 992d 805f 5e2e 2d97 ad2d 6bef ef2d
00000220: 94e6 b3ad 4c5e b42d 8770 342e a0a3 4d2e
00000230: 9d42 6d2e 85cf 8e2e 5487 ce2d 76cc 002e
00000240: ebc1 8cae 1529 5eae 9268 adae e81c 43ad
00000250: e3c3 1bae 44b6 edac 201f e62f 3ee3 1cad
00000260: 9dad ea2f d5a7 4c30 bdcd dc2f f39c 912f
00000270: d3c0 402f 6c00 df2f d133 0130 294c 7930
00000280: 2723 7b2f ba28 e62f 5f2d 1630 8f8f b52f
00000290: 18b6 0330 5b02 a52f 77d2 a92f c2ed e72f
000002a0: 3280 412f 74ef 822f 3c33 a72f fb09 602f
000002b0: 3f96 8c2f dad5 dfaf cc6c da2d d318 7230
000002c0: cbd3 a12f 8f08 3730 d8ed d030 ed8a df30
000002d0: 9785 4a30 5825 3430 030f b930 17bf a930
000002e0: 3822 0732 e6db 8630 7d88 8a30 08b1 8a30
000002f0: 3926 b130 6ff6 9832 efb9 8130 e87a c430
00000300: 5294 b530 c562 e130 329b 5132 c265 7930
00000310: bcab bc30 4fec 7130 77ba ce2f a365 192f
00000320: 5e3c a130 ec09 5230 d895 a0ad 4924 7bae
00000330: 5025 9d2f e920 4330 bb58 f2ad 0827 27b0
00000340: 725b e7af 8706 9a2f b4c6 8c30 223b deaf
00000350: f5be 12b0 1754 81ae 6345 a82f 79f3 9b30
00000360: 4a96 98af a17d 95af ce32 b52f b657 ac2f
00000370: 7d4c 8a30 2ca1 dfae 49a8 3eae a2a9 c02f
00000380: 0671 3f30 3648 952f c444 d32f ae6f 822f
00000390: 25e0 b42f 1e3d 932f 2a87 dc2f 0526 a52f
000003a0: f634 4930 2fd6 f12f 1683 7f2f 1726 2730
000003b0: 6467 cc2f 85d4 a32f 3d40 2230 ded6 7d2f
000003c0: 6d25 c92f c629 1930 a74f 302f 03f2 0d2e
000003d0: f863 092f 0f33 e02f 277c 9a2f 0960 ee2d
000003e0: dfb2 a6af 7812 0030 5e11 0630 9b19 4130
000003f0: 1976 5b30 464a 0530 2c99 4e2f 47b6 2130
