lightning_logs/version_28/checkpoints/epoch=2-step=138.ckpt (torch, 273538 bytes, 24 tensors)

conv1.weight f4 [10, 1, 5, 5]
0	0xbe1487c7	-0.1450492
1	0xbea12bb2	-0.3147865
2	0xbe9bba70	-0.30415678
3	0xbeb5aeb7	-0.3548486
4	0xbe1e0c1a	-0.15434304
5	0xbe09f299	-0.1347145
6	0xbd39520b	-0.045244258
7	0xbdca55a7	-0.09879618
8	0xbeb2ceff	-0.3492355
9	0xbe4e331a	-0.20136681
10	0xbe7a9678	-0.24471462
11	0x3a672999	0.0008818149
12	0xbe113030	-0.14178538
13	0xbe36eab4	-0.1786297
14	0xbaae8605	-0.0013315087
15	0xbe867969	-0.26264504
16	0xbe9d5a5f	-0.3073301
17	0xb98b4f8f	-0.00026571422
18	0xbe590d46	-0.2119647
19	0xbe17c6d2	-0.14821938
20	0xbea5c29f	-0.32375047
21	0x3bdedf3a	0.006801513
22	0x3d0a8a93	0.03382356
23	0xbdb2d761	-0.087324865
24	0xbea5bc16	-0.3237006
25	0xbe9c216b	-0.30494246
26	0xbe52e166	-0.20593795
27	0x3e93e84f	0.28888175
28	0x3ec379b5	0.38178793
29	0x3ede06c0	0.43364525
30	0xbd9e5d25	-0.0773261
31	0xbda495bf	-0.08036374
32	0x3dd78125	0.10522679
33	0x3c54cb10	0.012987867
34	0xbe8c9662	-0.27458483
35	0xbf4434de	-0.7664317
36	0xbe543c87	-0.20726214
37	0xbd761952	-0.06008274
38	0xbbe957d0	-0.007121064
39	0xbee46f98	-0.4461639
40	0xbe8c7f27	-0.2744076
41	0xbf049360	-0.51787376
42	0xbf00a1bc	-0.5024679
43	0xbde7785f	-0.11302256
44	0xbeeda6c5	-0.46416298
45	0x3eada86d	0.3391756
46	0xbd1e7254	-0.03868325
47	0x3deecb1d	0.116598345
48	0xbce9a34d	-0.02852025
49	0xbef89e79	-0.48558405
50	0xbe580279	-0.21094693
51	0xbead586f	-0.33856532
52	0xbd490711	-0.049079005
53	0xbe93db8d	-0.2887844
54	0xbd323fb6	-0.04351779
55	0xbd59d8c2	-0.053185232
56	0xbc074c59	-0.008257949
57	0xbe9a92e3	-0.3019019
58	0x3b84ca81	0.0040524607
59	0xbe6248c6	-0.22098073
60	0xbd8cef4b	-0.06881579
61	0x3d2b298e	0.041787677
62	0xbe2e8764	-0.17043835
63	0xbe1eeda2	-0.15520337
64	0xbe308ad7	-0.17240463
65	0xbe96d5d3	-0.2946001
66	0xbd216f29	-0.03941265
67	0xbea856cc	-0.3287872
68	0xbdf5cba2	-0.120017305
69	0x3c3e6ea3	0.011623058
70	0x3daa3cb8	0.083123624
71	0xbe1cebab	-0.15324275
72	0xbebc9d55	-0.36838785
73	0xbde1d273	-0.11026468
74	0xbc8067ef	-0.01567456
75	0xbf3f02bb	-0.7461354
76	0xbe4e757a	-0.20162001
77	0xbed39207	-0.41322348
78	0xbe437195	-0.19086297
79	0x3e2f8728	0.17141402
80	0xbe8de87b	-0.2771643
81	0xbe2ae074	-0.16687185
82	0xbee5efea	-0.44909602
83	0xbe081f6f	-0.13293241
84	0xbd9ff271	-0.07809914
85	0xbe2f7ba8	-0.17137015
86	0xbd86644d	-0.065620996
87	0xbdbee75d	-0.09321473
88	0xbef01acd	-0.46895447
89	0xbef3a8dc	-0.47589767
90	0xbd19fb7f	-0.03759336
91	0x3e223136	0.15839085
92	0xbe0b0d7b	-0.13579361
93	0xbe20185a	-0.1563429
94	0xbf11593c	-0.56776786
95	0xbe3ad38b	-0.1824476
96	0x3ea4a82f	0.32159564
97	0x3e3f6eb8	0.1869458
98	0xbd9459fb	-0.07243725
99	0xbec7e542	-0.39042097
100	0xbe26bb3a	-0.16282359
101	0x3d572146	0.052521966
102	0xbe815586	-0.25260562
103	0xbe336078	-0.17517269
104	0xbe6f6fc0	-0.23382473
105	0xbda2d438	-0.07950634
106	0x3dc1cad5	0.09462515
107	0x3de4a58a	0.111643866
108	0xbdb9cae2	-0.090719
109	0x3e47a3ea	0.19496122
110	0x3dce6f9e	0.10079883
111	0x3db60a9e	0.08888744
112	0x3e915b2d	0.28389874
113	0x3ec63cae	0.3871817
114	0x3e249a17	0.16074406
115	0xbd8bcccc	-0.06826171
116	0xbd44bcd6	-0.04803165
117	0x3d4da432	0.050205417
118	0x3e57903b	0.21051113
119	0x3e84e5c7	0.25956556
120	0xbe9283a9	-0.28616074
121	0xbec47748	-0.38372254
122	0xbf34717a	-0.7048565
123	0xbf22ba5e	-0.63565624
124	0xbecc201f	-0.39868256
125	0xbe2abbe3	-0.16673236
126	0x3cb86c6d	0.022512639
127	0xbdaa14cb	-0.08304747
128	0xbea7268f	-0.32646605
129	0xbd9b64dd	-0.075875975
130	0xbca23d2b	-0.019804558
131	0xbe8847a2	-0.26617151
132	0xbe1c6c64	-0.15275723
133	0xbd840a80	-0.06447315
134	0xbe5d7a7d	-0.21628757
135	0xbe0702b0	-0.13184619
136	0xbe082591	-0.1329558
137	0xbe312376	-0.17298684
138	0xbe844e5a	-0.25841027
139	0xbeb545ec	-0.3540491
140	0xbea386eb	-0.31938872
141	0xbe829628	-0.25505185
142	0x3dda114b	0.106478296
143	0xbe4a9880	-0.19784737
144	0xbea1fa6d	-0.31636372
145	0xbe11a8e3	-0.14224581
146	0xbd98a71c	-0.074537486
147	0xbc090e78	-0.008365266
148	0x3cdddf8d	0.027084136
149	0xbd0b0f78	-0.0339503
150	0xbeac431b	-0.33644947
151	0xbe05eec8	-0.13079369
152	0xbcdc51b0	-0.02689442
153	0xbe272a9d	-0.1632485
154	0xbe2105e2	-0.157249
155	0x3d543c49	0.051815305
156	0xbe616ae8	-0.22013438
157	0xbe7f1883	-0.24911694
158	0xbe8a69fd	-0.27033988
159	0xbd858dd0	-0.06521189
160	0xbd93c804	-0.07215884
161	0xbdd9f456	-0.106423065
162	0xbdbaa715	-0.091138996
163	0xbe8a488d	-0.27008477
164	0xbea3e3d8	-0.32009768
165	0xbe266fbf	-0.16253565
166	0x3cfd222a	0.03090008
167	0xbcdd6036	-0.027023416
168	0xbe8fa73a	-0.2805727
169	0xbe82296a	-0.2542222
170	0xbea99f8c	-0.33129537
171	0xbe8bbc95	-0.27292314
172	0xbde72752	-0.11286797
173	0xbd797db7	-0.060910907
174	0xbd746047	-0.05966213
175	0xbeab3c45	-0.3344442
176	0xbde776e8	-0.113019764
177	0xbe712a67	-0.23551331
178	0xbd2eb5de	-0.04265391
179	0x3e99f488	0.30069375
180	0xbdfc8979	-0.12330908
181	0xbe30652a	-0.17226091
182	0xbe79a18d	-0.24378033
183	0xbe18d3eb	-0.1492459
184	0x3e6fcc9e	0.23417899
185	0xbe750080	-0.23925972
186	0xbeead71d	-0.45867243
187	0xbe1a0376	-0.15040383
188	0x3dd4c9f2	0.103900805
189	0x3e4a4f1a	0.19756737
190	0xbe1c7af2	-0.15281275
191	0xbecab66f	-0.3959231
192	0xbe367733	-0.17818908
193	0x3c2cf1a8	0.010555662
194	0x3e3f2bbe	0.1866903
195	0xbeafc9bf	-0.34333608
196	0xbdc5fbb6	-0.09667151
197	0x3e2fd2b4	0.1717022
198	0x3c937458	0.017999813
199	0x3e0e5633	0.1390007
200	0xbe97d47b	-0.29654297
201	0xbf0019d7	-0.5003943
202	0xbe843568	-0.25821996
203	0xbe6744da	-0.22584859
204	0xbea756e5	-0.32683483
205	0xbdc4fdcf	-0.09618723
206	0xbedf04bc	-0.435583
207	0xbe326d8d	-0.17424603
208	0xbd616fa5	-0.055038113
209	0x3d0cd405	0.034381885
210	0x3e38a5c5	0.18031986
211	0xbe8e1efa	-0.27758008
212	0xbee0903a	-0.43860036
213	0xbe6569cf	-0.22403644
214	0xbead8e92	-0.33897835
215	0x3d871039	0.06594891
216	0xbe012d38	-0.12614906
217	0xbf07463b	-0.5284154
218	0xbec44734	-0.38335574
219	0x3ce99f77	0.028518422
220	0x3ecda93a	0.40168172
221	0xbcc67494	-0.02422551
222	0xbe7953dd	-0.24348398
223	0xbebdf43f	-0.37100407
224	0xbeb2acd1	-0.34897473
225	0xbd8c132c	-0.06839594
226	0xbce7a456	-0.028276604
227	0xbe14fb78	-0.14549053
228	0xbe46f370	-0.19428802
229	0xbc5fed25	-0.0136673795
230	0xbe8d8f2f	-0.27648303
231	0xba85b623	-0.0010201376
232	0xbe5d00d9	-0.21582355
233	0xbe03dab8	-0.12876403
234	0xbe253a63	-0.16135554
235	0xbdd03a7a	-0.101674035
236	0xbe38e659	-0.1805662
237	0x3cb4c757	0.022067709
238	0xbe0608ae	-0.13089249
239	0x3ce7ae1e	0.028281268
240	0x3d862d0c	0.06551561
241	0xbe53d2c2	-0.20685866
242	0xbe80c140	-0.25147438
243	0x3d519809	0.051170383
244	0x3d02bda0	0.03191912
245	0xbe875f15	-0.2643973
246	0xbdf1f79f	-0.11814808
247	0xbe982670	-0.29716825
248	0xbe86f6d9	-0.26360205
249	0xbd9f2eba	-0.07772584

conv1.bias f4 [10]
0	0xbde2d79a	-0.11076279
1	0x3d319904	0.043358818
2	0xbe81c9d8	-0.25349307
3	0x3dfe84b3	0.12427654
4	0xbcfa6f95	-0.030570785
5	0xbe71cbe5	-0.23612936
6	0xbe3331c1	-0.17499448
7	0xbe467b98	-0.19383085
8	0xbd1daa39	-0.038492415
9	0xbe89e3f7	-0.26931736

conv2.weight f4 [20, 10, 5, 5]
0	0x3e648e64	0.22319943
1	0x3d9cec11	0.076622136
2	0x3df842a1	0.121220835
3	0xbe153c13	-0.14573698
4	0xbd8730f8	-0.06601137
5	0x3e5bce32	0.21465376
6	0x3e291d0d	0.16514988
7	0x3e0c4bfb	0.13700859
8	0x3e1f13af	0.15534852
9	0x3dc23aa7	0.09483843
10	0x3df30f5e	0.118681654
11	0x3e2b6cc1	0.16740705
12	0x3dcd2e2e	0.10018574
13	0x3d3e5ec3	0.04647709
14	0xbc07efeb	-0.008296947
15	0x3cf5a109	0.029984014
16	0x3e122d09	0.14274992
17	0xbe0a94dd	-0.1353335
18	0x3d5c8cdd	0.053845275
19	0x3d56a707	0.052405383
20	0xbd836a84	-0.064168006
21	0xbc88703a	-0.016655076
22	0xbe216d1a	-0.15764275
23	0xbdf24d4a	-0.11831148
24	0xbdd7c738	-0.10536045
25	0xbe0b306e	-0.13592693
26	0x3eb2c17a	0.34913236
27	0x3e08ff36	0.13378605
28	0x3dff4bb6	0.124656126
29	0x3c45aa94	0.012064595
30	0xbeb885b1	-0.36039498
31	0x3ee20e1e	0.44151396
32	0x3e8ff998	0.28120112
33	0xbcc3f672	-0.023921225
34	0xbe018a40	-0.12650394
35	0xbdd5fa4a	-0.104481295
36	0xbd995a74	-0.07487956
37	0x3eea2a56	0.45735425
38	0x3dfac564	0.122446805
39	0xbe9800fc	-0.2968825
40	0xbd8eb4b1	-0.06968058
41	0xbeb45eff	-0.35228726
42	0xbe9e7c4a	-0.309542
43	0xbec2a9c3	-0.38020143
44	0xbf11110e	-0.5666665
45	0xbedf73c1	-0.43643
46	0xbee6069a	-0.44926912
47	0xbf2a860a	-0.6661078
48	0xbed542b7	-0.41652462
49	0xbf2bf0d1	-0.6716433
50	0x3e1fe9fc	0.15616602
51	0xbe2ae137	-0.16687475
52	0xbdb6fdf4	-0.089351565
53	0xbe9234cb	-0.28555903
54	0xbea8c626	-0.32963675
55	0x3e513014	0.20428497
56	0x3e84d806	0.25946063
57	0x3d1f2bad	0.03886001
58	0xbddb0dc7	-0.10695987
59	0x3e4ff291	0.20307375
60	0x3da9d95b	0.082934104
61	0x3e0a86f9	0.1352805
62	0xbdb2803b	-0.08715864
63	0x3e5be53b	0.21474163
64	0x3edbe734	0.4294983
65	0x3d6c50aa	0.057694115
66	0xbda1c7cb	-0.078994356
67	0x3e1fba7f	0.15598486
68	0x3e8884e2	0.26663882
69	0x3ed312a3	0.41225156
70	0x3de7c946	0.11317687
71	0x3bcfecfb	0.006345389
72	0x3d6da1f3	0.058015775
73	0x3e4003be	0.18751428
74	0x3cd8bb08	0.026456371
75	0xbdb08d05	-0.08620647
76	0x3e0a6b02	0.13517383
77	0x3e0d5ba0	0.13804483
78	0x3d270b11	0.040782038
79	0x3e0ca219	0.1373371
80	0xbdce1861	-0.10063244
81	0x3e51e531	0.20497586
82	0x3efcd268	0.49379277
83	0x3e90187d	0.28143683
84	0x3e8051bd	0.2506236
85	0xbe4c2240	-0.1993494
86	0x3e8df1ba	0.27723485
87	0x3e9c2dce	0.30503696
88	0x3dee4122	0.11633517
89	0x3d412e28	0.04716316
90	0xbe42b357	-0.19013725
91	0xbc2773b4	-0.010220457
92	0xbca1bf24	-0.019744463
93	0xbd204172	-0.039124914
94	0xbd742009	-0.059600864
95	0xbe2443a8	-0.16041434
96	0xbe1497e9	-0.14511074
97	0xbe637692	-0.222132
98	0xbe2ff0bf	-0.17181681
99	0xbe2c80d5	-0.1684602
100	0xbe18c150	-0.14917493
101	0x3d4f7fd3	0.050659012
102	0xbe4efe3e	-0.20214173
103	0xbf0f6f47	-0.5602917
104	0xbf024cb7	-0.5089831
105	0x3e937f3f	0.2880802
106	0xbb2536a4	-0.002520957
107	0xbec2bb06	-0.38033313
108	0xbdf45e2e	-0.11932026
109	0xbeb0608a	-0.34448653
110	0x3d9fdbd2	0.07805599
111	0xbda13b1a	-0.07872601
112	0xbe9ecf56	-0.3101756
113	0xbf197e50	-0.5995836
114	0xbf2c103d	-0.6721228
115	0xbd4e9342	-0.050433405
116	0xbe4b0ae6	-0.19828376
117	0xbdb540a1	-0.088502176
118	0xbe265d1f	-0.1624646
119	0xbf06e3e9	-0.52691513
120	0xbe23a54d	-0.15981026
121	0xbe1f7c4b	-0.15574758
122	0xbe9790cc	-0.2960266
123	0xbf3beede	-0.7341136
124	0xbf309b37	-0.6898684
125	0x3e37ca40	0.17948246
126	0x3e129d4a	0.14317814
127	0x3e5b9253	0.21442537
128	0x3e409749	0.1880771
129	0xbc73f5d4	-0.014890153
130	0x3df35545	0.11881498
131	0x3dcdcc36	0.10048716
132	0x3d98ad46	0.07454924
133	0x3d91497f	0.070940964
134	0x3d813bec	0.06310257
135	0x3cdab54c	0.026697777
136	0x3b825366	0.003977227
137	0x3e4c9e77	0.19982325
138	0xbe104409	-0.14088453
139	0xbe2bfce1	-0.16795684
140	0xbd9ed8a5	-0.077561654
141	0x3ce3e618	0.027819678
142	0x3e242664	0.1603027
143	0xbe6eec0d	-0.23332234
144	0xbdd4493b	-0.1036553
145	0xbdda6e5a	-0.10665579
146	0xbc6d4ec5	-0.014484112
147	0xbe278618	-0.16359746
148	0xbe6796f5	-0.2261618
149	0xbdc1da5b	-0.09465476
150	0x3e8ac465	0.27102962
151	0x3dd79eba	0.105283216
152	0xbdc7a02a	-0.09747346
153	0xbde8d1c3	-0.11368134
154	0xbd634af9	-0.05549142
155	0x3e7c10b6	0.2461575
156	0xbcd7b67f	-0.026332138
157	0xbbada995	-0.005299757
158	0xbda1a011	-0.07891858
159	0x3a9fcc2c	0.0012191585
160	0xbd23b044	-0.039963022
161	0x3caa76a4	0.020808525
162	0x3d812bfe	0.06307219
163	0x3dfbf2d4	0.12302175
164	0xbe49c22f	-0.19702981
165	0xbdf2cab0	-0.11855066
166	0xbdc1d5fd	-0.09464643
167	0xbdbd6dfb	-0.09249493
168	0xb91dd63f	-0.000150525
169	0x3d0f56e7	0.034994986
170	0xbd62c8d0	-0.05536729
171	0xbcbd1ffe	-0.023086544
172	0xbd7b03e6	-0.061283015
173	0xbdbab0e1	-0.09115768
174	0xbe1b7d35	-0.15184481
175	0xbe60c797	-0.21951137
176	0x3db982d0	0.09058154
177	0xbf272d9f	-0.6530399
178	0xbecb3207	-0.39686605
179	0xbc348cca	-0.011019895
180	0xbeaf1cc4	-0.34201634
181	0xbd7497a5	-0.059714932
182	0xbeff2457	-0.49832413
183	0xbf23bf8e	-0.63964164
184	0x3e6345a7	0.22194539
185	0xbd7e9c8c	-0.062161013
186	0xbd4888a4	-0.048958436
187	0xbeaed369	-0.34145668
188	0xbe2f362f	-0.17110513
189	0x3ed5582a	0.41668826
190	0x3e8f7030	0.2801528
191	0x3e40152c	0.18758076
192	0xbbe30700	-0.0069283247
193	0xbddc99cd	-0.10771523
194	0x3ece93e9	0.40347221
195	0xbd7aa481	-0.06119204
196	0xbbbb21a0	-0.0057107955
197	0x3d314505	0.043278713
198	0xbd3ecf60	-0.046584487
199	0x3ea7324b	0.32655558
200	0xbe43fa28	-0.19138396
201	0xbbb71dc7	-0.0055882665
202	0xbd981140	-0.07425165
203	0x3e55800a	0.20849624
204	0xbe1c6f9e	-0.15276954
205	0x3abfd5b0	0.0014635827
206	0x3e5de004	0.21667486
207	0x3e43f890	0.19137788
208	0x3f173378	0.5906291
209	0x3e2e037e	0.1699352
210	0x3e4c5225	0.1995321
211	0x3f21c9dc	0.6319864
212	0x3ea6efab	0.32604727
213	0x3f1395e0	0.57650566
214	0x3e138047	0.14404403
215	0x3ea8f613	0.3300024
216	0x3e87b979	0.26508692
217	0x3e979b8a	0.29610854
218	0x3d6265ab	0.05527274
219	0xbd253a2f	-0.04033869
220	0xbcd7e698	-0.026355073
221	0xbdb06981	-0.08613873
222	0xbe949301	-0.29018405
223	0xbe2208c9	-0.15823664
224	0xbeedbf46	-0.46434993
225	0xbe6ad379	-0.22932233
226	0xbdee888e	-0.116471395
227	0xbdce6359	-0.10077543
228	0xbe2ef14d	-0.17084236
229	0x3e658a83	0.2241612
230	0x3c18460c	0.009294044
231	0xbde4c01d	-0.11169455
232	0xbd78fdca	-0.060788907
233	0x3df6f2cc	0.120580286
234	0x3daa57fc	0.08317563
235	0x3e3c4c10	0.1838839
236	0xbd8c08ee	-0.06837641
237	0xbe6bcefc	-0.23028177
238	0x3d45e58d	0.04831462
239	0x3e2e7982	0.17038539
240	0xbd4ea2d5	-0.050448257
241	0xbe225faf	-0.15856813
242	0xbb154003	-0.002277375
243	0xbddaafb5	-0.10678045
244	0x3c37873a	0.011201674
245	0xbe20d512	-0.1570628
246	0xbdfc162c	-0.123089164
247	0xbdae4a3c	-0.08510253
248	0xbcbbaa41	-0.022908332
249	0xbd0b3d2f	-0.033993896
250	0xbd7e5e9a	-0.062101938
251	0xbd895b66	-0.06706886
252	0xbdc27242	-0.09494449
253	0xbe362e85	-0.17791183
254	0xbe121d7b	-0.14269058
255	0x3dd05fbe	0.101745114

conv2.bias f4 [20]
0	0xbde91814	-0.11381546
1	0xbeb68fb3	-0.3565651
2	0xbd8db5e2	-0.06919457
3	0xbdef21c8	-0.11676365
4	0xbd785776	-0.060630284
5	0xbdf66bfa	-0.12032314
6	0xbebbbf81	-0.36669543
7	0xbe1e4d2d	-0.15459128
8	0xbdad2c58	-0.084557235
9	0xbec9e2cf	-0.39430854
10	0xbd9d257b	-0.076731645
11	0xbdbe73e5	-0.09299449
12	0xbdde5355	-0.10855738
13	0xbdab6237	-0.08368342
14	0xbde0ccd9	-0.109765716
15	0xbebc0bd9	-0.3672779
16	0xbcf4555e	-0.029825862
17	0xbda0c7ae	-0.07850586
18	0xbdea00b2	-0.11425914
19	0xbcca4312	-0.024690185

fc1.weight f4 [50, 320]
0	0x3e55591b	0.20834772
1	0x3c89ca56	0.016820114
2	0xbea07c5e	-0.31344885
3	0xbeac871b	-0.33696827
4	0x3e9455c5	0.28971687
5	0xbe9b9007	-0.30383322
6	0xbd891400	-0.06693268
7	0x3c65832e	0.014008326
8	0x3dc61767	0.096724324
9	0xbee98f2a	-0.45617038
10	0xbe5e497c	-0.2170772
11	0x3e008b53	0.12553148
12	0x3d65adb1	0.05607385
13	0xbeacb92f	-0.33735034
14	0xbd19afdb	-0.037521224
15	0x3ea99fcd	0.3312973
16	0xbe8d02bc	-0.2754115
17	0x3c16ad2b	0.00919656
18	0xbe0602c2	-0.1308699
19	0x3ce6ea6f	0.028187959
20	0xbf0148e4	-0.5050185
21	0xbead397d	-0.33832923
22	0xbc1d330d	-0.009594691
23	0xbed74eb4	-0.42052233
24	0xbec1b926	-0.3783657
25	0xbeed07a2	-0.46294886
26	0x3f16bcd1	0.5888186
27	0x3ed34cb7	0.41269466
28	0x3cf4d7ed	0.029888118
29	0xbd3dae63	-0.046308886
30	0xbeb999ea	-0.3625024
31	0xbe9a91ca	-0.30189353
32	0xbe1ffae4	-0.15623051
33	0xbdf76a70	-0.12080848
34	0xbd6ac1ed	-0.05731385
35	0xbe1a8bea	-0.15092435
36	0xbe9998a9	-0.29999283
37	0xbe9143e2	-0.28372103
38	0xbe660b11	-0.22465159
39	0xbe8d1e73	-0.27562293
40	0x3d85880f	0.06520092
41	0xbf03c831	-0.5147734
42	0x3dcebb92	0.1009437
43	0xbf04526b	-0.5168826
44	0xbe9545fd	-0.2915496
45	0x3df4090f	0.1191579
46	0x3f32a807	0.6978764
47	0xbe17cfab	-0.14825313
48	0x3cd93f9a	0.026519585
49	0x3e0955ed	0.13411684
50	0x3c917bc7	0.017759217
51	0x3e750343	0.23927025
52	0xbceeeb5c	-0.029164962
53	0x3c9df576	0.019282084
54	0x3e1a647c	0.15077394
55	0x3d269ce9	0.040676985
56	0x3de41e05	0.11138538
57	0x3e51beee	0.2048299
58	0x3dbe49fe	0.09291457
59	0x3e3277c5	0.17428501
60	0x3e51ce6f	0.20488904
61	0x3e62c4da	0.22145405
62	0x3e506231	0.20349957
63	0x3e6f36e1	0.23360778
64	0xbc9c4e39	-0.019080268
65	0x3f08b769	0.5340486
66	0x3eab64d7	0.33475372
67	0x3e2b1752	0.16708115
68	0x3e21e905	0.15811546
69	0xbcd9c255	-0.026581923
70	0xbf0c9802	-0.54919446
71	0xbe6b7600	-0.22994232
72	0x3e0ddb15	0.13853104
73	0xbec12c3c	-0.3772906
74	0xbf04883a	-0.51770365
75	0x3d6233e6	0.055225275
76	0x3edf7f5e	0.4365186
77	0xbdc8fa90	-0.09813416
78	0xbeb071f6	-0.34461945
79	0xbccb3fc0	-0.024810672
80	0xbe36c534	-0.17848665
81	0xbd7e537a	-0.06209133
82	0xbe51002a	-0.20410219
83	0xbda0e366	-0.07855873
84	0x3db3f962	0.087878
85	0xbe3966dc	-0.18105644
86	0xbddb73c4	-0.1071544
87	0xbdcda0eb	-0.10040458
88	0x3e4af3fa	0.19819632
89	0xbdd65267	-0.10464936
90	0xbe366f6a	-0.17815939
91	0xbdda130e	-0.10648166
92	0xbe1379f5	-0.14401992
93	0xbcf52618	-0.029925391
94	0xbe091bf8	-0.13389575
95	0xbe5a7003	-0.21331792
96	0xbe40d603	-0.18831639
97	0x3ce63ac4	0.028104194
98	0xbe2070b0	-0.15667987
99	0x3e4c938f	0.19978164
100	0x3dea3de0	0.11437583
101	0xbd83d56b	-0.064371906
102	0xbd130774	-0.03589578
103	0x3df4bcc2	0.11950065
104	0xbd984cb5	-0.07436506
105	0xbe3c6e4d	-0.18401451
106	0xbdf36963	-0.11885335
107	0xbe2b0c4a	-0.16703907
108	0xbe15bbd9	-0.1462244
109	0xbe0e62b6	-0.13904843
110	0xba2441fd	-0.00062659365
111	0xbe2e80c8	-0.17041314
112	0xbe1f7294	-0.15571052
113	0xbdd797cc	-0.10527
114	0xbdcf9994	-0.101367146
115	0xbe0f1ae0	-0.13975096
116	0xbd9961ef	-0.074893825
117	0x3de46e9b	0.11153909
118	0x3de358d0	0.11100924
119	0x3e043287	0.129099
120	0xbde1ead8	-0.11031121
121	0xbdb8993e	-0.09013604
122	0xbdb27bcb	-0.08715018
123	0xbe4934ac	-0.19648999
124	0xbdf72548	-0.12067658
125	0x3e2d89f1	0.16947152
126	0xbe1e6204	-0.15467077
127	0xbdc290ab	-0.095002495
128	0x3e561d6a	0.20909658
129	0x3dccaa72	0.09993447
130	0x3d8c1b93	0.06841197
131	0x3dfa500c	0.12222299
132	0x3d0051db	0.031328063
133	0x3dc5958c	0.096476644
134	0x3dd3901e	0.103302225
135	0x3d97a639	0.07404751
136	0x3da117fa	0.07865901
137	0x3d995ff5	0.074890055
138	0x3e070ca0	0.1318841
139	0x3cfd8591	0.030947478
140	0x3e0c9b78	0.13731182
141	0x3d5637e8	0.05229941
142	0x3d99a9b1	0.07503069
143	0x3da17946	0.07884459
144	0xbd8fb95f	-0.070177786
145	0x3e9ae91f	0.30255982
146	0x3e699989	0.22812475
147	0xbe033eb4	-0.12816888
148	0xbec1b678	-0.37834525
149	0xbe254b76	-0.16142067
150	0x3da29b6c	0.079398006
151	0xbe00a138	-0.125615
152	0xbd79348b	-0.060841125
153	0x3d87e987	0.06636339
154	0x3d88eb17	0.06685465
155	0x3df537dc	0.11973545
156	0x3ddee800	0.10884094
157	0xbebdde0c	-0.3708347
158	0x3e1426b4	0.14467889
159	0x3e85080c	0.25982702
160	0x3ebb6d50	0.36606836
161	0x3eef090b	0.46686587
162	0x3e10f9d7	0.14157806
163	0x3e02fc95	0.12791665
164	0x3ef36d35	0.47544256
165	0x3e1a9655	0.1509641
166	0xbebad252	-0.36488587
167	0x3e6d94f1	0.23201348
168	0x3ed88b4d	0.42293778
169	0xbe7c9bb9	-0.24668778
170	0xbec31efd	-0.3810958
171	0x3e720ce7	0.23637734
172	0x3edcfe83	0.43162927
173	0x3e65280b	0.22378556
174	0x3e443df8	0.19164264
175	0xbd3e8584	-0.04651405
176	0x3df242e1	0.118291624
177	0x3e31726e	0.17328808
178	0x3c14c7d5	0.009080847
179	0xbdcfba5a	-0.101429656
180	0xbe56923b	-0.2095422
181	0x3dd31cb3	0.10308208
182	0x3cc44b76	0.023961764
183	0x3e3b89fc	0.18314356
184	0xbdbc93b0	-0.09207857
185	0xbe622dde	-0.2208781
186	0xbe10e756	-0.14150748
187	0xbeab0d12	-0.3340841
188	0x3db468ca	0.088090494
189	0x3e136e39	0.14397515
190	0x3e14c523	0.14528327
191	0x3e855dbe	0.26048082
192	0xbefd7dd7	-0.4951007
193	0xbe36add9	-0.17839755
194	0x3e859512	0.26090294
195	0x3dae8d46	0.085230395
196	0xbed75650	-0.4205804
197	0xbdcd043d	-0.10010574
198	0x3e2555f5	0.16146071
199	0x3dd3092c	0.10304484
200	0xbd2a0f41	-0.041518454
201	0x3e820787	0.25396368
202	0x3e6d029c	0.23145527
203	0xbec3dc1c	-0.38253868
204	0x3db08492	0.08619036
205	0x3e5ec4ac	0.21754712
206	0x3dccc739	0.09998936
207	0xbf087836	-0.5330843
208	0x3d94528a	0.072423056
209	0xbe59b91d	-0.21262021
210	0xbe29e729	-0.16592087
211	0xbda133a6	-0.07871179
212	0xbe35692f	-0.17715906
213	0xbd2f41da	-0.04278741
214	0xbb84e547	-0.0040556523
215	0x3e05697e	0.13028523
216	0xbe2a0b71	-0.16605927
217	0xbdfd4c15	-0.12368027
218	0xbe26c92d	-0.1628768
219	0xbddbf2aa	-0.10739644
220	0xbe5acfc8	-0.21368325
221	0x3dcaa7ac	0.09895262
222	0x3cbdb7b6	0.02315889
223	0xbd3c1ba7	-0.04592481
224	0xbbf9439d	-0.007606937
225	0x3c525b19	0.012839102
226	0x3d6f9aa0	0.05849707
227	0x3ded2c70	0.115807414
228	0x3da1c33a	0.07898565
229	0x3d8630d9	0.06552286
230	0x3dfd1c62	0.12358929
231	0x3da3deb1	0.080014594
232	0x3d3b1fa5	0.045684475
233	0x3e20b872	0.1569536
234	0x3de1ed2a	0.110315636
235	0x3e29e1a1	0.16589977
236	0x3df2ba1c	0.11851904
237	0x3e39de27	0.1815115
238	0x3dee59a5	0.11638192
239	0x3db08055	0.086182274
240	0xbeae8a56	-0.34089917
241	0x3de6b673	0.11265268
242	0x3d8ea36c	0.06964764
243	0x3daa4da5	0.08315591
244	0xbe9360a4	-0.28784668
245	0xbe1c062f	-0.15236734
246	0xbe5b27ae	-0.21401855
247	0xbe87cc7b	-0.26523194
248	0x3dd67cd8	0.10473031
249	0xbdec377f	-0.115340225
250	0xbe82c20f	-0.2553868
251	0xbe4ba7fa	-0.19888297
252	0xbe0fb2f6	-0.14033112
253	0xbdad817e	-0.08471964
254	0xbe950e0d	-0.29112282
255	0xbd17f277	-0.037096467

fc1.bias f4 [50]
0	0x3d80ac35	0.06282846
1	0x3cb949c6	0.022618186
2	0xbd820d23	-0.06350162
3	0xbe44d09a	-0.192202
4	0xbd54058d	-0.051763106
5	0x3bf61c84	0.0075107235
6	0xbe308e2f	-0.17241739
7	0xbe4146d3	-0.18874674
8	0xbddd25b4	-0.10798207
9	0x3e8142da	0.25246316
10	0xbe519d72	-0.20470217
11	0x3df3eb36	0.11910097
12	0xbe039f22	-0.12853673
13	0x3dc69c19	0.09697742
14	0x3d978e80	0.074002266
15	0xbe8fdc50	-0.28097773
16	0x3c7a95be	0.01529449
17	0x3dbf3027	0.09335356
18	0xbe3240bc	-0.17407507
19	0xbe12d5cb	-0.14339368
20	0x3e04606e	0.1292741
21	0xbe4fe08c	-0.20300502
22	0x3d9bc035	0.0760502
23	0x3e43e148	0.19128907
24	0xbd94426c	-0.072392315
25	0xbe89ebc2	-0.2693768
26	0xbc9854b9	-0.018595086
27	0x3e19df1a	0.15026513
28	0x3cc08812	0.023502383
29	0xbe852b8e	-0.26009792
30	0xbdab23cd	-0.08356438
31	0x3e10e026	0.14148006
32	0x3dd57cc5	0.104241885
33	0xbe0476af	-0.12935899
34	0x3c298c8b	0.010348449
35	0x3e01e1c4	0.12683779
36	0xbcbecfd4	-0.02329246
37	0xbc664e88	-0.014056809
38	0xbe54dae8	-0.20786631
39	0xbebb3606	-0.36564654
40	0x3aaab520	0.001302395
41	0x3e433ca0	0.19066095
42	0xbcfcd000	-0.0308609
43	0x3a41428c	0.0007372282
44	0xbe1f74f0	-0.15571952
45	0xbe281e25	-0.16417749
46	0xbe105660	-0.1409545
47	0x3df48580	0.119395256
48	0x3e096ed2	0.13421181
49	0xbe8c937b	-0.2745627

fc2.weight f4 [10, 50]
0	0xbf44a4e3	-0.768141
1	0x3e898781	0.26861194
2	0xbea7219d	-0.32642832
3	0xbe88bada	-0.26705056
4	0xbe70d1b3	-0.23517494
5	0xbeaa8555	-0.3330485
6	0x3e70eb2a	0.23527208
7	0xbda8330c	-0.082128614
8	0xbe974c4b	-0.29550394
9	0xbedf27ff	-0.43585202
10	0xbce83d62	-0.028349582
11	0xbe3a6e23	-0.18206076
12	0xbe8f0d8c	-0.27940023
13	0xbec9527a	-0.39320737
14	0x3e100c66	0.1406723
15	0xbd5949a5	-0.05304875
16	0xbe9fc537	-0.3120515
17	0x3df62300	0.120183945
18	0xbe644511	-0.22291972
19	0x3e844f45	0.25841728
20	0x3e5859da	0.21128026
21	0xbec9ffbc	-0.39452922
22	0xbe1b8fe4	-0.15191609
23	0xbe715550	-0.235677
24	0x3d66482d	0.056221176
25	0xbf0d6a46	-0.55240285
26	0xbdcaefb4	-0.09909001
27	0xbeb391a9	-0.35072067
28	0xbedae46c	-0.42752397
29	0x3da1c701	0.07899285
30	0x3e84d9bc	0.25947368
31	0xbec4ee5d	-0.38463107
32	0x3d65930e	0.056048445
33	0x3d9ec445	0.07752279
34	0x3e71033b	0.23536389
35	0xbf271cef	-0.65278524
36	0x3e247bfa	0.16062918
37	0xbf16a4a4	-0.5884497
38	0xbf0d6abf	-0.55241007
39	0xbe2f0fa3	-0.17095809
40	0xbe9c89bb	-0.3057383
41	0x3e46a287	0.19397937
42	0xbe4550fb	-0.19269173
43	0x3e44c10a	0.19214264
44	0xbef30860	-0.47467327
45	0xbe87c087	-0.26514074
46	0xbc0f4a7c	-0.008745786
47	0x3e72e749	0.23721041
48	0xbe6cb2a6	-0.23115024
49	0xbeeca308	-0.46218133
50	0x3e9efbf0	0.31051588
51	0xbf1354ed	-0.5755146
52	0xbdbe4164	-0.09289816
53	0x3e943c9f	0.289525
54	0xbc4cba66	-0.012495613
55	0xbee8c5df	-0.45463464
56	0xbf2a63bf	-0.6655845
57	0xbdb7ca20	-0.08974099
58	0xbe15b3d8	-0.14619386
59	0x3df29b22	0.118459955
60	0x3c86c3b0	0.016450733
61	0xbd9fd2ac	-0.07803854
62	0xbeac9b5f	-0.3371229
63	0x3e45d172	0.19318178
64	0xbdb4f2e6	-0.08835392
65	0xbe172b6e	-0.14762661
66	0x3e9745c5	0.29545417
67	0xbda2c046	-0.079468295
68	0xbe7943a8	-0.24342215
69	0x3e4f7080	0.20257759
70	0xbefb666b	-0.49101576
71	0x3e24daeb	0.16099136
72	0xbeef56dc	-0.46745956
73	0xbca85812	-0.020549808
74	0xbe19c043	-0.15014748
75	0xbed34c58	-0.41269183
76	0xbef25cad	-0.4733633
77	0xbed2c444	-0.41165364
78	0x3e1e57f9	0.15463246
79	0x3d4f1fd8	0.050567478
80	0xbef4391d	-0.47699824
81	0xbecbe5f9	-0.39823893
82	0x3e61281e	0.2198796
83	0xbbf3f681	-0.007445157
84	0xbe861416	-0.261872
85	0x3e9119d7	0.28340027
86	0x3e974363	0.295436
87	0xbeafbfc7	-0.34326002
88	0x3e630732	0.22170714
89	0xbe6584b4	-0.22413903
90	0xbecf95c3	-0.40543947
91	0x3d775653	0.06038506
92	0xbec26c55	-0.37973276
93	0xbf10e5af	-0.5660047
94	0xbeabe087	-0.33569738
95	0x3dbc7508	0.092020094
96	0xbd760f2a	-0.060073055
97	0x3e3ca092	0.18420628
98	0x3e8f4c2d	0.27987805
99	0x3c8b8e95	0.017035762
100	0xbec5e2cd	-0.38649598
101	0x3e02c1a8	0.12769186
102	0x3dbb7823	0.09153774
103	0x3cc3e50a	0.023912925
104	0x3e1687ca	0.14700237
105	0xbdfbcfd5	-0.122955
106	0xbe8f7c0a	-0.28024322
107	0x3d5eba14	0.054376677
108	0xbef61c30	-0.4806838
109	0xbf08eba2	-0.5348455
110	0xbc2ca011	-0.01053621
111	0xbe9a1e7d	-0.30101386
112	0x3e414809	0.18875135
113	0xbe94300d	-0.2894291
114	0x3e783bf7	0.24241625
115	0xbd1b38b7	-0.037895884
116	0x3cc86d03	0.024466043
117	0x3e37b8df	0.17941616
118	0x3e491cbc	0.19639868
119	0x3d149574	0.036275342
120	0x3e07126f	0.13190626
121	0xbdcdb65b	-0.10044547
122	0xbedc7bd3	-0.4306322
123	0xbeeb3de5	-0.4594566
124	0xbed7f0aa	-0.421758
125	0x3e8a7640	0.27043343
126	0xbdd6c861	-0.10487438
127	0xbe58abec	-0.21159333
128	0x3e157b90	0.14597917
129	0xbe297910	-0.16550088
130	0xbd7fe91a	-0.062478162
131	0xbe322643	-0.17397408
132	0x3e325f38	0.17419136
133	0xbda560fc	-0.08075139
134	0xbe148aa7	-0.14506017
135	0x3d8b6408	0.06806189
136	0xbe60f55b	-0.21968596
137	0xbe816776	-0.25274247
138	0xbe9601e4	-0.29298317
139	0xbe87a4ef	-0.26493022
140	0x3e90e324	0.28298295
141	0x3e31079b	0.17288058
142	0xbe831b00	-0.25606537
143	0xbd4fe38b	-0.05075411
144	0xbe849091	-0.25891545
145	0xbe707ebe	-0.23485848
146	0x3dc0e00b	0.09417733
147	0xbd8fc2b8	-0.070195615
148	0x3d8cff99	0.06884689
149	0xbe85c0af	-0.26123568
150	0xbeb468cb	-0.352362
151	0x3d865ec9	0.065610476
152	0x3e1bb5b7	0.15206037
153	0xbd04b250	-0.032396615
154	0x3eaa6ad8	0.3328464
155	0x3b225e25	0.0024775353
156	0xbe6637f0	-0.22482276
157	0xbdb6b779	-0.089217134
158	0xbe36e544	-0.17860895
159	0xbec2626b	-0.37965712
160	0xbe20eb02	-0.15714648
161	0x3e666a7c	0.22501558
162	0xbeb371fb	-0.35047898
163	0x3d222ce4	0.039593592
164	0x3e4a6402	0.19764712
165	0xbe28bbe3	-0.16477923
166	0xbe93ce06	-0.2886812
167	0xbe0a547b	-0.13508789
168	0x3e890d14	0.2676779
169	0xbe5bb384	-0.21455199
170	0xbe603348	-0.21894562
171	0xbe424784	-0.18972594
172	0xbde2357f	-0.1104536
173	0xbf287e25	-0.6581748
174	0xbd76b597	-0.06023177
175	0x3e6547a0	0.22390604
176	0x3b012166	0.0019703745
177	0x3e829145	0.25501457
178	0x3dd26663	0.10273435
179	0xbc95643f	-0.018236278
180	0xbeebbcb7	-0.46042415
181	0x3e940e54	0.28917181
182	0xbea47471	-0.32120088
183	0xbde69eff	-0.11260795
184	0xbe96b793	-0.2943693
185	0xbf030c07	-0.5119023
186	0xbe9c97bc	-0.30584514
187	0xbd65e696	-0.056128107
188	0x3da96faf	0.08273255
189	0x3e8f1643	0.27946672
190	0x3e310dea	0.17290464
191	0xbdb18489	-0.08667857
192	0x3e9ad242	0.3023854
193	0x3e11b7a7	0.14230214
194	0x3d4127fc	0.047157273
195	0xbe3ef537	-0.1864823
196	0x3cd769d6	0.026295584
197	0xbe97869e	-0.29594892
198	0x3e30e2cf	0.1727402
199	0xbe74e89c	-0.23916858
200	0xbd6547c7	-0.055976655
201	0xbf2731f0	-0.65310574
202	0xbda03bfc	-0.07823941
203	0x3e905708	0.281914
204	0x3d4c4a95	0.049875814
205	0x3e66374e	0.22482035
206	0x3e471300	0.19440842
207	0xbddb177c	-0.10697839
208	0xbe32576e	-0.17416164
209	0x3ca743dc	0.0204181
210	0xbd720eff	-0.059096333
211	0xbebf4a97	-0.37361595
212	0x3e9fbb84	0.3119775
213	0xbe8bdaab	-0.27315268
214	0xbed32f41	-0.4124699
215	0x3df82dd7	0.12118118
216	0x3c60d4f4	0.013722647
217	0x3baf3c10	0.005347736
218	0xbec44339	-0.38332537
219	0xbcb4aa56	-0.022053879
220	0xbe06a76a	-0.13149801
221	0x3eb84039	0.35986498
222	0x3de52fd3	0.11190762
223	0x3e331d11	0.17491557
224	0xbe25bd51	-0.161855
225	0xbf219f15	-0.63133365
226	0x3e9495dd	0.29020587
227	0xbd84d654	-0.06486192
228	0xbeb27d55	-0.34861246
229	0x3ce1222c	0.027482115
230	0xbe4dd656	-0.20101294
231	0xbeddc3a8	-0.43313336
232	0xbc0f26d8	-0.008737288
233	0xbbb2fb84	-0.005462112
234	0xbe359a3a	-0.17734614
235	0x3e9ce920	0.3064661
236	0xbdfdefa8	-0.123992264
237	0xbe4ce37b	-0.20008652
238	0xbdc12506	-0.0943089
239	0xbeaea6b9	-0.34111574
240	0x3e45fa5e	0.19333789
241	0xbf03db9f	-0.5150699
242	0x3e18e191	0.14929797
243	0xbeaac8bb	-0.3335627
244	0xbe865d25	-0.2624294
245	0x3d165f42	0.03671194
246	0xbe1ac215	-0.15113099
247	0x3df5d6e8	0.12003881
248	0xbe97a663	-0.2961913
249	0xbd0edd16	-0.034878813
250	0xbccaf8b8	-0.024776801
251	0xbc71e28a	-0.014763484
252	0xbdc77aaf	-0.09740197
253	0xbe95c790	-0.29253817
254	0x3e054e6e	0.130182
255	0xbde1a58a	-0.11017902

fc2.bias f4 [10]
0	0x3db6706e	0.08908163
1	0x3d159727	0.036521103
2	0x3e4d8aa4	0.20072418
3	0x3e2a4980	0.166296
4	0xbeec9d07	-0.46213552
5	0xbe65e137	-0.22449194
6	0x3e23d395	0.15998681
7	0x3cc0db97	0.023542209
8	0x3eb290ad	0.34876004
9	0x3e81a12c	0.25318277

exp_avg f4 [10, 1, 5, 5]
0	0x307b0010	9.1313357e-10
1	0x2fe7cd93	4.2164724e-10
2	0x300e0198	5.1661564e-10
3	0x2f1cc449	1.4257852e-10
4	0x2e69894c	5.310001e-11
5	0x3067063d	8.4046176e-10
6	0x30537647	7.6929435e-10
7	0x3037d0ff	6.6872013e-10
8	0x2f5c4575	2.003356e-10
9	0x2f0ee545	1.2996278e-10
10	0x30449707	7.151901e-10
11	0x3089b216	1.0018677e-09
12	0x30721f87	8.808389e-10
13	0x2fe7d950	4.2173065e-10
14	0x2fa9b676	3.0870567e-10
15	0x30123ddf	5.3202415e-10
16	0x305167bb	7.6181167e-10
17	0x30511405	7.6062207e-10
18	0x3006563e	4.8871474e-10
19	0x2fcebeb3	3.7606682e-10
20	0x30138487	5.366662e-10
21	0x30048e80	4.8223825e-10
22	0x2fe913b5	4.2396456e-10
23	0x303bcd7a	6.8322203e-10
24	0x30052727	4.8440757e-10
25	0x3cd79605	0.026316652
26	0x3cd92f2c	0.026511751
27	0x3c3e3490	0.011609212
28	0x3b131540	0.0022443086
29	0x3c64dad8	0.013968192
30	0x3c3b718c	0.011440646
31	0x3c036d7e	0.00802171
32	0x3ba4ef55	0.0050334134
33	0x3c00aafb	0.007853265
34	0x3bf1aa5c	0.0073750447
35	0x3c04bc98	0.008101605
36	0xba8ff374	-0.0010982589
37	0xbc06c8ab	-0.008226554
38	0xbbdc42ca	-0.006721829
39	0xbbe08038	-0.0068512224
40	0x3ba9f5b8	0.0051867627
41	0x3b8eb1c1	0.004354686
42	0xbbe4aaef	-0.0069783847
43	0xbb929cce	-0.004474259
44	0xbb3341f0	-0.0027352534
45	0xbc823358	-0.015893623
46	0xbc3e9ba5	-0.011633788
47	0xbc60f350	-0.013729885
48	0xbb990425	-0.0046696835
49	0xbaf62d4b	-0.0018781809
50	0x31f9c45d	7.2691777e-09
51	0x31b1c4fa	5.1737716e-09
52	0x31d0e0a4	6.0791354e-09
53	0x31b22bf3	5.1854783e-09
54	0x3124165e	2.3877855e-09
55	0x3139f86e	2.706226e-09
56	0x31f83b7e	7.2245134e-09
57	0x31aec25b	5.086162e-09
58	0x31a46d2c	4.7854396e-09
59	0xb23c31eb	-1.095439e-08
60	0x318d35fc	4.1097774e-09
61	0x31fc4b5c	7.3427326e-09
62	0x3192eb44	4.275906e-09
63	0x329bd70f	1.8142172e-08
64	0x33175d14	3.524208e-08
65	0xb13c8f14	-2.7438931e-09
66	0x31a82387	4.8934825e-09
67	0x31ed1dac	6.900981e-09
68	0x344051e8	1.7911191e-07
69	0x34f53faf	4.5681142e-07
70	0xb2e788da	-2.6954172e-08
71	0xb1d1bb23	-6.1039755e-09
72	0x3396a6df	7.015273e-08
73	0x34cc7598	3.8083522e-07
74	0x351beef0	5.80897e-07
75	0x3916d3b6	0.00014383983
76	0x3a3943f2	0.00070673146
77	0x3a905fda	0.0011014894
78	0xba247774	-0.00062739034
79	0x3b4db846	0.0031390353
80	0x3aee9c2e	0.0018204504
81	0x3a0fcae0	0.0005485248
82	0x39250680	0.00015738048
83	0x3a2dd8e2	0.00066317443
84	0x3a1f9cec	0.0006088752
85	0x3bd9dc87	0.0066486034
86	0x3bf011f5	0.0073263594
87	0x3bae305d	0.005315824
88	0xb9bb5b3d	-0.00035735397
89	0x38548310	5.06668e-05
90	0x3c214376	0.009842744
91	0x3bf4c4cd	0.0074697495
92	0x3c27a740	0.010232747
93	0x3b9a82cf	0.0047153006
94	0x394f3617	0.00019761208
95	0x3ab747b0	0.0013983157
96	0x3c0608d1	0.008180813
97	0x3c1d257d	0.009591457
98	0x3ac4678e	0.0014984475
99	0xbbc02470	-0.0058637187
100	0x3c51e26a	0.012810329
101	0x3cefd5c4	0.029276736
102	0x3d4d4ef1	0.050124113
103	0x3d78c1b4	0.060731605
104	0x3d5cf8cc	0.05394821
105	0x3c3fa629	0.0116973305
106	0x3c95ca97	0.018285079
107	0x3cd63082	0.026146177
108	0x3d17f4be	0.03709864
109	0x3d1b1446	0.03786113
110	0x3c3ef1bf	0.011654316
111	0xbaf58444	-0.0018731435
112	0xbbdb9429	-0.0067010117
113	0x3be23f12	0.006904491
114	0x3c0c5a74	0.008566488
115	0x3b0a1cae	0.0021074223
116	0xbb9e6964	-0.004834341
117	0x3c03d379	0.0080460245
118	0x3bf07270	0.0073378608
119	0x3bbc8644	0.0057533104
120	0xbbe9d87d	-0.007136403
121	0x3b0c03f9	0.0021364673
122	0x3c3d230a	0.0115439985
123	0x3c98d1e2	0.018654767
124	0x3c446305	0.011986499
125	0x30e1a448	1.6417596e-09
126	0x30e55554	1.6686195e-09
127	0x309c1ae7	1.135814e-09
128	0x2fc7c21f	3.633582e-10
129	0xae8a5b2f	-6.291711e-11
130	0x30d5a375	1.5544247e-09
131	0x30cc01ab	1.4843428e-09
132	0x30addf60	1.2650894e-09
133	0x300ab395	5.045931e-10
134	0x2de82e01	2.6395776e-11
135	0x30a956a7	1.2320996e-09
136	0x30bd6f94	1.3783272e-09
137	0x30af60e4	1.2760464e-09
138	0x2fe4722d	4.1554085e-10
139	0x2eebffbc	1.073199e-10
140	0x308ae361	1.0105446e-09
141	0x30a2fe89	1.1859395e-09
142	0x307dc337	9.231828e-10
143	0x30483436	7.283377e-10
144	0x3054a199	7.7354795e-10
145	0x30b78c97	1.335496e-09
146	0x30d07a1c	1.5168697e-09
147	0x30ed221e	1.7253716e-09
148	0x30cbf93c	1.4841031e-09
149	0x30b05fa2	1.2832866e-09
150	0x312b0a03	2.4889466e-09
151	0x31777423	3.6009247e-09
152	0x314ccbc5	2.9801737e-09
153	0x3072d8bc	8.8347085e-10
154	0x2e758f33	5.5833737e-11
155	0x317a2897	3.640286e-09
156	0x318919c6	3.990155e-09
157	0x3120044d	2.328551e-09
158	0x2f9c7608	2.84601e-10
159	0x2ee635ce	1.0468747e-10
160	0x31a3324d	4.749643e-09
161	0x31927124	4.262022e-09
162	0x3124cfe7	2.398332e-09
163	0x3033cc5c	6.5410233e-10
164	0x302855a9	6.1239774e-10
165	0x31967144	4.3784514e-09
166	0x318a1153	4.018298e-09
167	0x312c0400	2.5031568e-09
168	0x30b3f6bd	1.3094091e-09
169	0x30f984ec	1.8154913e-09
170	0x31441c10	2.8537706e-09
171	0x3136d2fd	2.6604419e-09
172	0x311e61fb	2.3047722e-09
173	0x311ffe9f	2.328228e-09
174	0x31614762	3.2782386e-09
175	0x3ba6dce9	0.0050922525
176	0x3aa55efd	0.001261681
177	0xbae98d04	-0.0017818515
178	0x3c98cc20	0.018652022
179	0x3d35f55e	0.044423454
180	0x3a0a27fa	0.0005270239
181	0xb9672dec	-0.00022046984
182	0xbb03899a	-0.002007103
183	0x3bfbc28a	0.007683103
184	0x3d286b04	0.041117683
185	0xba08157f	-0.00051911914
186	0xba25ea17	-0.00063291326
187	0xbc166225	-0.009178673
188	0x3b48c621	0.0030635672
189	0x3d26347a	0.04057739
190	0xb8895158	-6.5478205e-05
191	0xbbb0b7e0	-0.0053930134
192	0xbbd004ee	-0.006348244
193	0x3cb8d956	0.022564571
194	0x3d38d148	0.04512146
195	0xbc7c68cb	-0.015405844
196	0xbd01545b	-0.03157459
197	0x3a293810	0.00064551923
198	0x3d225a9b	0.03963719
199	0x3d087b20	0.033320546
200	0xbb6782a3	-0.0035325668
201	0x3a96a832	0.0011494218
202	0x3a5d3447	0.0008438271
203	0x3b3cc566	0.0028804182
204	0xbaf1e5a0	-0.0018455274
205	0xbc30bcf2	-0.010787236
206	0x3a2deb22	0.0006634464
207	0x39b0bcbb	0.0003370995
208	0x39cce5be	0.00039081083
209	0xbaa22c73	-0.0012372866
210	0xbb204301	-0.0024454
211	0x3b8a8983	0.0042278185
212	0x39046bc3	0.00012628645
213	0x387af8f4	5.98365e-05
214	0x39c1111b	0.00036824573
215	0xb91df580	-0.00015064143
216	0x3b3a000b	0.0028381373
217	0x3aa8150e	0.0012823658
218	0x38cb3f61	9.6915996e-05
219	0x39c103ec	0.0003681475
220	0xbbd04ccb	-0.0063568107
221	0xbc373c54	-0.011183817
222	0xbaefa6b0	-0.001828393
223	0xba1cbcf4	-0.0005979084
224	0xba156d86	-0.0005700219
225	0x315300c8	3.0704985e-09
226	0x31898256	4.0020423e-09
227	0x315d3f36	3.2195664e-09
228	0x31447d18	2.8592861e-09
229	0x319553af	4.3459845e-09
230	0x314d30b5	2.9859113e-09
231	0x318c5049	4.0836636e-09
232	0x31890e76	3.988869e-09
233	0x31924ee0	4.2581263e-09
234	0x31a5b457	4.8226343e-09
235	0x315d51f7	3.2206324e-09
236	0x31575ed8	3.134053e-09
237	0x3173d3ec	3.5481618e-09
238	0x3197596a	4.4048436e-09
239	0x31c0dcd3	5.6130403e-09
240	0x31616811	3.2800964e-09
241	0x3113a825	2.1486894e-09
242	0x310eb56f	2.0766853e-09
243	0x3183975a	3.8298085e-09
244	0x31b7b46c	5.3465126e-09
245	0x31145395	2.1584345e-09
246	0x30d86254	1.5744015e-09
247	0x30f8d31a	1.8104374e-09
248	0x3154a589	3.0944156e-09
249	0x319cd9d5	4.564962e-09

exp_avg_sq f4 [10, 1, 5, 5]
0	0x33c933ab	9.36919e-08
1	0x328e77da	1.6585478e-08
2	0x32f452f2	2.8443058e-08
3	0x312900ae	2.4593123e-09
4	0x30c13eca	1.4060444e-09
5	0x337f8d85	5.9500525e-08
6	0x339a6deb	7.191178e-08
7	0x333fa797	4.4623075e-08
8	0x31aad5b8	4.971948e-09
9	0x324ec790	1.2036153e-08
10	0x3323ab1a	3.810701e-08
11	0x33d23153	9.787859e-08
12	0x33d18b39	9.7576454e-08
13	0x333c129d	4.378909e-08
14	0x337f310c	5.9416422e-08
15	0x32fdf2d5	2.9563504e-08
16	0x33a3a5c5	7.620432e-08
17	0x3425d12d	1.544292e-07
18	0x33a2c1a7	7.578938e-08
19	0x335bcb32	5.1174716e-08
20	0x332419ef	3.8207812e-08
21	0x34381fbe	1.7147883e-07
22	0x3494b03b	2.7695373e-07
23	0x33e4877b	1.0641721e-07
24	0x32d58519	2.485699e-08
25	0x3a85e9e8	0.0010216804
26	0x3aace7a8	0.0013191598
27	0x3b059c11	0.0020387212
28	0x3b2c6083	0.0026302643
29	0x3b28e762	0.002577268
30	0x3a0f0c31	0.0005456834
31	0x3a0e58df	0.0005430113
32	0x3a2ffe0c	0.0006713576
33	0x3a69d06e	0.0008919303
34	0x3a739eb6	0.0009293364
35	0x38bc0771	8.965925e-05
36	0x384c4890	4.870497e-05
37	0x38dde5fe	0.000105809406
38	0x392c2d32	0.00016420035
39	0x390bbd53	0.00013326602
40	0x38de23f5	0.000105924824
41	0x383921d4	4.4138942e-05
42	0x38bbe051	8.958637e-05
43	0x390ad8a1	0.00013241406
44	0x38b7e112	8.7680426e-05
45	0x3a37b7fc	0.0007008312
46	0x3a02d6f6	0.0004991138
47	0x3a10ca04	0.0005523267
48	0x39ddbaa5	0.00042291466
49	0x39890b92	0.00026139297
50	0x360415b7	1.9682172e-06
51	0x360f9f6a	2.1401452e-06
52	0x3600ffff	1.9222496e-06
53	0x35d8c290	1.6149879e-06
54	0x3631c4fc	2.6489715e-06
55	0x36823195	3.880074e-06
56	0x368d4e61	4.211252e-06
57	0x360a69c9	2.0625178e-06
58	0x360b2fc4	2.0740417e-06
59	0x3624d3f3	2.4561275e-06
60	0x36959992	4.458424e-06
61	0x368a8845	4.1285844e-06
62	0x35e883b8	1.7323682e-06
63	0x35ea5273	1.7458354e-06
64	0x36903276	4.297409e-06
65	0x365d95da	3.3018791e-06
66	0x361b7e97	2.3170485e-06
67	0x35837519	9.79434e-07
68	0x36745550	3.6408492e-06
69	0x376b607d	1.4029557e-05
70	0x36522141	3.1311795e-06
71	0x35e26ba6	1.6869642e-06
72	0x35ab017a	1.2740923e-06
73	0x370f7b22	8.552133e-06
74	0x3799a986	1.8317962e-05
75	0x36c88c71	5.976814e-06
76	0x36907552	4.3051923e-06
77	0x35ce1be4	1.5356313e-06
78	0x375ab233	1.3035303e-05
79	0x39181a5e	0.00014505672
80	0x3829475a	4.035919e-05
81	0x371a4701	9.195647e-06
82	0x3669e39d	3.4852194e-06
83	0x372c63aa	1.0275204e-05
84	0x3808c150	3.2604963e-05
85	0x3986fa46	0.0002574494
86	0x38e0ef2a	0.000107257
87	0x38891dbb	6.538207e-05
88	0x37c5f571	2.3598523e-05
89	0x36f674bd	7.3449614e-06
90	0x3a4b1f7f	0.0007748529
91	0x3a376472	0.00069958635
92	0x39c9d0ba	0.0003849322
93	0x392d44aa	0.00016524145
94	0x389114be	6.918002e-05
95	0x3a8c4b79	0.0010703645
96	0x3ac0a11e	0.0014696454
97	0x3a89e608	0.0010520825
98	0x39fdb32b	0.0004838941
99	0x398184cd	0.00024703742
100	0x3aa1d350	0.0012346301
101	0x3ae07d02	0.0017127099
102	0x3afa80aa	0.0019111831
103	0x3b1deeb0	0.0024098568
104	0x3b6f20a1	0.0036487954
105	0x3b0495b9	0.0020230843
106	0x3b323163	0.0027190081
107	0x3b41ccc6	0.0029571517
108	0x3b7950cb	0.003804254
109	0x3bca6190	0.006176181
110	0x3b2e4c9e	0.002659596
111	0x3b3feaf8	0.002928434
112	0x3b552ee6	0.0032529174
113	0x3ba7456d	0.0051047117
114	0x3bed6dff	0.0072457786
115	0x3aba6ca2	0.0014223049
116	0x3a9f8070	0.0012169015
117	0x3ab54494	0.0013829642
118	0x3b370dd9	0.0027931838
119	0x3bb89fbe	0.005634277
120	0x39cf2c7a	0.00039515254
121	0x39434963	0.00018623988
122	0x3964ee82	0.00021832625
123	0x3a9194ec	0.0011107004
124	0x3b61e3b0	0.0034467988
125	0x34d71a36	4.0065942e-07
126	0x34eface4	4.4643014e-07
127	0x34533250	1.966921e-07
128	0x32862995	1.5618562e-08
129	0x308d069c	1.0260979e-09
130	0x34ba55ec	3.4707716e-07
131	0x34afb1de	3.2725706e-07
132	0x345953a0	2.0240122e-07
133	0x331e3272	3.683312e-08
134	0x2f620a52	2.0558247e-10
135	0x3489e12a	2.5682067e-07
136	0x349e5dd9	2.9498077e-07
137	0x346597ae	2.1382468e-07
138	0x32e4d82a	2.6640993e-08
139	0x30b7f56a	1.3384753e-09
140	0x34276f26	1.5593523e-07
141	0x34905bc6	2.6888864e-07
142	0x34bd91b1	3.5309998e-07
143	0x3411065e	1.3506494e-07
144	0x338e4917	6.625685e-08
145	0x34326ddc	1.6617508e-07
146	0x34a9dd6f	3.1639817e-07
147	0x3509fb55	5.1402213e-07
148	0x34b5c606	3.3857958e-07
149	0x343ba96b	1.7477366e-07
150	0x35295bbc	6.3090897e-07
151	0x35a12629	1.2006541e-06
152	0x355f5704	8.32006e-07
153	0x33a2f748	7.588693e-08
154	0x31ebe0a4	6.864939e-09
155	0x35b3c2ac	1.3393196e-06
156	0x35ca29cc	1.5062337e-06
157	0x351b1618	5.777415e-07
158	0x3291ee09	1.6988468e-08
159	0x3135a1d6	2.643096e-09
160	0x35df734c	1.664835e-06
161	0x35d0ac53	1.5547361e-06
162	0x3524e2a2	6.1424555e-07
163	0x335b1d47	5.101654e-08
164	0x3326be2f	3.8822858e-08
165	0x35b5337f	1.3500538e-06
166	0x35b9f85f	1.385586e-06
167	0x35171640	5.628426e-07
168	0x33dad6f3	1.0190515e-07
169	0x343def10	1.7688967e-07
170	0x355b2843	8.1642446e-07
171	0x35566ee1	7.988256e-07
172	0x35009f06	4.7915125e-07
173	0x34c712a3	3.7080198e-07
174	0x352a877c	6.352709e-07
175	0x3882c3a0	6.235321e-05
176	0x381a4ee7	3.6789945e-05
177	0x38bacfbd	8.9078654e-05
178	0x3a92f858	0.0011212928
179	0x3b9a3402	0.004705907
180	0x37fbadd2	3.0002473e-05
181	0x37669fad	1.3746246e-05
182	0x388f4184	6.8309746e-05
183	0x3ae41e45	0.001740404
184	0x3bd5fd5a	0.006530446
185	0x3753b3e3	1.2618463e-05
186	0x3728bf55	1.0058128e-05
187	0x395b24ea	0.00020899219
188	0x3b6acbc4	0.003582702
189	0x3bf984fa	0.007614729
190	0x380be134	3.334992e-05
191	0x387018a5	5.724341e-05
192	0x3a8138a8	0.0009858804
193	0x3baedd0e	0.0053364104
194	0x3be88150	0.0070954934
195	0x38f69b3f	0.00011759111
196	0x39cf322e	0.00039519503
197	0x3b3801ee	0.0028077322
198	0x3bba7076	0.005689676
199	0x3bc196cb	0.0059078685
200	0x394e26db	0.00019660166
201	0x36af6ff9	5.2284418e-06
202	0x35227f4f	6.053496e-07
203	0x36802525	3.8190215e-06
204	0x36ccd6ad	6.1046653e-06
205	0x39d1a115	0.00039983602
206	0x372e5799	1.0391604e-05
207	0x3493b5bf	2.751312e-07
208	0x3483e010	2.4563678e-07
209	0x35ae50f5	1.2987572e-06
210	0x3a7f22bd	0.00097326544
211	0x388a0c06	6.582592e-05
212	0x3591bef5	1.0858918e-06
213	0x33ea9df0	1.0925203e-07
214	0x35892059	1.021671e-06
215	0x3aea438b	0.0017872913
216	0x399035ec	0.00027505995
217	0x369650f3	4.479772e-06
218	0x34d8ae19	4.0359808e-07
219	0x36983f87	4.5373486e-06
220	0x3b318908	0.0027089734
221	0x3a522266	0.000801599
222	0x388243f4	6.21154e-05
223	0x36547b83	3.1662355e-06
224	0x3761d77d	1.3461217e-05
225	0x35aec303	1.3020766e-06
226	0x3609b53c	2.0520083e-06
227	0x35bc2584	1.401801e-06
228	0x35a4d0ea	1.2279754e-06
229	0x361e099e	2.3549433e-06
230	0x35b11213	1.3192788e-06
231	0x3605ce6d	1.99387e-06
232	0x35d78465	1.605728e-06
233	0x3606deac	2.0097168e-06
234	0x365071b4	3.10606e-06
235	0x35b0f092	1.3183037e-06
236	0x35b09c40	1.3158497e-06
237	0x35d00dd7	1.5501236e-06
238	0x361d25a4	2.3416733e-06
239	0x367c3429	3.7581287e-06
240	0x35b64a37	1.3581656e-06
241	0x35499abb	7.51035e-07
242	0x35476a2c	7.428778e-07
243	0x3620a8c6	2.3940097e-06
244	0x366e9c37	3.5555693e-06
245	0x354a0466	7.5257265e-07
246	0x34fb0bc1	4.6760945e-07
247	0x35311a68	6.5976064e-07
248	0x36020799	1.9375932e-06
249	0x364a8557	3.017796e-06

exp_avg f4 [10]
0	0x31d1cdf0	6.106113e-09
1	0xbd2abded	-0.041685034
2	0x35321223	6.633656e-07
3	0xbb905cd0	-0.0044055954
4	0x3cf48082	0.029846434
5	0x312d9a3c	2.5262485e-09
6	0x32229f4d	9.465862e-09
7	0x3dcb43a4	0.09925011
8	0x3db83ee2	0.08996369
9	0x3211d12a	8.487669e-09

exp_avg_sq f4 [10]
0	0x36ca0544	6.020682e-06
1	0x3cd13261	0.025536718
2	0x3810ccd7	3.4523047e-05
3	0x3c070feb	0.008243541
4	0x3c41db13	0.0118320165
5	0x358bfc2a	1.0429696e-06
6	0x36e3f885	6.7940587e-06
7	0x3c1ee4d0	0.009698108
8	0x3c115c35	0.0088720815
9	0x37127fed	8.732063e-06
