lightning_logs/version_3/checkpoints/epoch=2-step=3.ckpt (torch, 273474 bytes, 24 tensors)

conv1.weight f4 [10, 1, 5, 5]
0.0797704 0.016442241 -0.026543554 0.044421874 -0.033985466 -0.124457374 -0.18171129 -0.20314874
0.13622318 -0.0025328593 -0.007235679 -0.033835724 -0.13761032 0.10678158 -0.16791321 0.06940198
-0.17276153 0.033447884 0.032487035 0.06722872 0.09284063 0.15588766 -0.09249246 -0.0030672438
0.06672433 0.101568595 -0.24460632 0.049847767 -0.08766761 -0.1435403 -0.03326772 0.13618153
0.090084665 -0.14716448 0.034353983 -0.2190757 0.10917434 0.11870822 -0.23721243 -0.20251076
-0.0737385 -0.122990906 0.1051427 0.04936841 0.09332757 -0.18817006 0.05279665 0.050487496
-0.24781542 -0.01982645 0.022932036 -0.011578938 -0.22767298 -0.20240246 0.059167765 -0.15061842
-0.04062875 -0.07054667 -0.19159389 0.10768092 -0.092626385 -0.025024183 -0.0980219 -0.19792444
0.0012323037 0.024462968 -0.0045778938 -0.083459616 0.10771769 -0.12401819 -0.09334516 -0.05557015
-0.028796 0.070028596 0.09939622 -0.09927471 0.031108126 0.057995327 -0.029760508 0.14773276
0.11707107 -0.03283512 -0.230322 0.03343976 0.12498799 -0.18665825 0.03483233 -0.23102207
-0.22116567 -0.19067772 0.004238529 -0.09036307 -0.073712006 0.061463974 -0.108468875 0.03538982
-0.23172188 -0.055015083 -0.15707105 -0.10956338 0.080575444 -0.12756537 -0.057914525 -0.057750452
-0.17814265 -0.24109119 -0.15551142 0.036210075 -0.22671014 0.061721973 0.017860498 0.018393356
0.05786418 0.1843853 0.050577536 -0.15205029 -0.089387886 0.09195125 -0.13031417 0.13599277
0.13966052 0.1191715 -0.037746213 0.05694308 -0.13786164 0.03634505 0.1556788 -0.04983453
-0.15625316 0.035209674 -0.24782039 0.12351921 -0.10559346 0.16529049 -0.019514866 -0.017907195
0.1556291 0.05692748 -0.09379883 0.10170548 -0.030235823 0.036529884 0.0123328995 -0.10323107
-0.011026906 -0.1791926 0.08307341 -0.045768224 0.088128 -0.11489617 -0.18706243 0.083149835
-0.042601068 -0.17146753 -0.11607097 -0.1046629 -0.08324354 -0.13021663 -0.079208784 0.03542514
-0.2381685 -0.22479439 -0.2313514 0.12792176 -0.12916632 -0.11170852 -0.056008387 0.11133319
0.05437406 -0.023404907 0.032492515 -0.109010614 0.04403043 -0.057663165 0.03055584 -0.20376275
-0.21532094 -0.041575715 0.07027946 -0.22906123 -0.09056974 -0.03576207 0.026704367 -0.16341422
-0.0805073 0.017663572 -0.1220587 0.08993114 0.11560375 0.15142514 0.12581666 -0.20293686
-0.19835675 -0.20427044 -0.137144 0.0008284813 0.11958789 -0.025173081 0.11322164 0.047100164
-0.1494332 -0.13931838 0.08489862 -0.057392582 0.12793817 -0.084657334 -0.15146202 -0.037657905
-0.21602598 -0.23462503 0.1269395 -0.15838324 0.12027313 -0.10554282 -0.047447637 0.05548439
0.14922322 0.10686041 -0.23264931 0.042141266 0.15535134 -0.12256845 -0.1390414 0.0690128
-0.028257813 -0.024542954 0.013805492 -0.007730226 -0.19904613 0.16080154 -0.076913536 -0.030668963
-0.22489643 0.0746982 -0.046068124 -0.02892758 0.1908119 -0.12902032 0.1619602 -0.15847842
-0.04652283 0.12770438 -0.03540956 0.062388267 -0.099056594 -0.19802368 -0.03917405 -0.09383603
0.15478493 0.12949921
00000000: aa5e a33d e1b1 863c de71 d9bc b6f3 353d
00000010: 5834 0bbd 82e3 febd 8612 3abe 3906 50be
00000020: 177e 0b3e 54fe 25bb 4619 edbb 5497 0abd
00000030: b8e9 0cbe 4db0 da3d 71f1 2bbe a022 8e3d
00000040: 66e8 30be a600 093d 2011 053d 36af 893d
00000050: 3a23 be3d 04a1 1f3e b06c bdbd d003 49bb
00000060: c4a6 883d 3203 d03d 147a 7abe 2c2d 4c3d
00000070: 138b b3bd 3afc 12be bc43 08bd 2c73 0b3e
00000080: 4f7e b83d 49b2 16be c3b6 0c3d 6155 60be
00000090: cc96 df3d 4c1d f33d d1e7 72be fb5e 4fbe
000000a0: 3604 97bd a8e2 fbbd 0e55 d73d 8836 4a3d
000000b0: 8622 bf3d a7af 40be 4d41 583d facb 4e3d
000000c0: 53c3 7dbe 146b a2bc f7db bb3c 96b5 3dbc
000000d0: 1b23 69be 9742 4fbe e659 723d b73b 1abe
000000e0: 556a 26bd c67a 90bd 3031 44be d087 dc3d
000000f0: e7b2 bdbd 84ff ccbc b5bf c8bd b4ac 4abe
00000100: 4085 a13a 9066 c83c 2802 96bb e0ec aabd
00000110: 189b dc3d 40fd fdbd bf2b bfbd 879d 63bd
00000120: 97e5 ebbc 276b 8f3d 3f90 cb3d 8a50 cbbd
00000130: 78d6 fe3c 828c 6d3d 4fcc f3bc 4247 173e
00000140: f5c2 ef3d 1e7e 06bd 88d9 6bbe 21f8 083d
00000150: b4f9 ff3d 5723 3fbe 58ac 0e3d 0d91 6cbe
00000160: 4179 62be 0541 43be 5ce3 8a3b 4610 b9bd
00000170: 52f6 96bd a6c1 7b3d ee24 debd eaf4 103d
00000180: 8048 6dbe 7f57 61bd 3cd7 20be c462 e0bd
00000190: bd04 a53d 7fa0 02be c837 6dbd bd8b 6cbd
000001a0: 076b 36be 9ce0 76be 633e 1fbe 0451 143d
000001b0: b426 68be 2ed0 7c3d 2e50 923c aaad 963c
000001c0: fe02 6d3d 80cf 3c3e 642a 4f3d 12b3 1bbe
000001d0: ff10 b7bd f050 bc3d 1471 05be b041 0b3e
000001e0: 2b03 0f3e 3010 f43d c69b 1abd 263d 693d
000001f0: 9a2b 0dbe 8cde 143d 436a 1f3e 4b1f 4cbd
00000200: d400 20be 0538 103d a1c4 7dbe a4f7 fc3d
00000210: 6241 d8bd e941 293e a4dd 9fbc 1cb2 92bc
00000220: 3c5d 1f3e ca2c 693d 9a19 c0bd f64a d03d
00000230: 1eb1 f7bc 5ca0 153d ee0f 4a3c d06a d3bd
00000240: 32aa 34bc 447e 37be 6422 aa3d 7677 3bbd
00000250: 747c b43d af4e ebbd 4b8d 3fbe 764a aa3d
00000260: 757e 2ebd 2f95 2fbe 9eb6 edbd 8159 d6bd
00000270: 977b aabd 8257 05be 3738 a2bd f419 113d
00000280: 71e2 73be 8030 66be 62e7 6cbe ecfd 023e
00000290: 2d44 04be 70c7 e4bd 0d69 65bd a802 e43d
000002a0: 56b7 5e3d a6bb bfbc df16 053d f540 dfbd
000002b0: 4159 343d 3630 6cbd 3e50 fa3c 2fa7 50be
000002c0: 187d 5cbe 4c4b 2abd adee 8f3d 078f 6abe
000002d0: a17c b9bd 407b 12bd 1ec3 da3c 0f56 27be
000002e0: 03e1 a4bd 32b3 903c e9f9 f9bd d12d b83d
000002f0: a9c1 ec3d 310f 1b3e 15d6 003e aece 4fbe
00000300: 081e 4bbe 452c 51be 7a6f 0cbe 702e 593a
00000310: 7fea f43d c737 cebc bfe0 e73d 1aec 403d
00000320: 0405 19be 7aa9 0ebe 54df ad3d 7c14 6bbd
00000330: 3902 033e d360 adbd dc18 1bbe 2d3f 1abd
00000340: ea35 5dbe 8b41 70be 6efc 013e 372f 22be
00000350: c251 f63d d626 d8bd 7458 42bd 9a43 633d
00000360: f9cd 183e a1d9 da3d 9f3b 6ebe 529c 2c3d
00000370: 6c14 1f3e 2b05 fbbd de60 0ebe 9556 8d3d
00000380: ee7c e7bc 4e0e c9bc 6e30 623c d64d fdbb
00000390: c0d2 4bbe 29a9 243e d884 9dbd 7a3d fbbc
000003a0: 404b 66be 5ffb 983d eeb1 3cbd 88f9 ecbc
000003b0: 3264 433e e71d 04be e5d8 253e 2b48 22be
000003c0: b98e 3ebd f0c4 023e 9d09 11bd d78a 7f3d
000003d0: 2fde cabd b8c6 4abe f874 20bd 1b2d c0bd
000003e0: f17f 1e3e 719b 043e

conv1.bias f4 [10]
-0.13298908 -0.1312088 0.019620989 0.114283055 -0.03048978 -0.029604174 -0.24551675 -0.03920257
-0.046808794 -0.1943534
00000000: 4a2e 08be 9a5b 06be 32bc a03c 3c0d ea3d
00000010: b4c5 f9bc 7484 f2bc be68 7bbe e092 20bd
00000020: 94ba 3fbd 9404 47be

conv2.weight f4 [20, 10, 5, 5]
-0.023375027 -0.036964767 -0.011818895 -0.06755789 -0.014999013 0.055168062 -0.045949396 -0.066582985
-0.026885573 -0.0168 0.10047473 0.07821335 0.076168515 0.027034964 0.08709618 0.102147125
0.0060726353 -0.08688012 0.0016788067 0.015797185 -0.08539001 -0.018863976 -0.0021876423 -0.039822675
-0.0648897 0.013011889 -0.0407919 -0.0079280045 -0.039557405 -0.051323604 -0.06737439 -0.087442935
0.0021502469 -0.034761876 -0.007865683 -0.07011346 0.06623439 0.10462855 0.013219905 -0.0021013161
-0.10670106 0.06690355 -0.081495255 0.01670691 0.007042723 0.01834706 -0.09096785 -0.10414007
-0.068413876 -0.015631646 -0.085760206 0.008397133 0.01524484 -0.022956517 0.0033868626 0.012445878
0.008618198 -0.061329123 -0.041528285 -0.08916703 0.012011551 -0.07099761 -0.05750549 0.03537737
-0.09606048 -0.008247384 0.016328927 -0.010973126 0.06432648 0.041344177 -0.09724493 -0.033088487
-0.032413095 -0.025566168 0.013218549 -0.059215754 0.014607248 -0.095377564 -0.077842884 -0.1068754
0.0015988201 -0.009719268 -0.09010625 -0.02373923 -0.0131511865 -0.025653556 -0.008658209 -0.035986084
-0.06274984 -0.056012988 0.005610875 -0.003971086 -0.06409769 -0.100600824 0.04442667 -0.07602029
-0.065934435 -0.0845177 -0.060742572 -0.09583397 -0.1030159 0.013064093 -0.103088714 -0.065976225
-0.038076133 0.014308293 -0.06124363 -0.08429668 -0.0062902 0.014646002 -0.07539116 -0.039892074
-0.07376596 -0.09017707 0.017268434 -0.040036682 -0.037954204 -0.03230396 -0.054052476 -0.010861383
0.0009709811 0.101190545 5.624257e-05 -0.014664342 -0.042926338 -0.03069001 0.00055304356 -0.09958629
-0.08594397 -0.09619297 -0.05696571 -0.08752344 -0.06675765 -0.05631835 -0.042354714 -0.003857541
-0.103608206 -0.024995785 -0.080217585 -0.025226431 -0.05778365 -0.024948986 -0.10169671 -0.069775
-0.101698175 0.033681378 0.07110471 0.033069186 -0.009453185 -0.043315906 -0.047776498 -0.098730326
-0.05143648 0.02354871 0.0077375956 -0.0993669 -0.09188745 -0.03343936 -0.056213167 -0.0035731485
-0.003699393 -0.07370202 0.0044024615 -0.018575944 -0.05627325 0.054708168 0.049231425 0.03935531
0.0484178 0.027223727 -0.008508647 -0.0014354847 -0.09788939 0.08539383 0.06794904 -0.038177945
-0.026497085 0.03845205 0.050439507 -0.051583257 -0.07047644 0.004521384 -0.0605376 -0.010549589
-0.030297048 -0.08353612 -0.06368034 -0.036748763 0.020416506 0.09130407 0.023687735 0.036840945
-0.10518856 0.08165953 0.037392832 0.07103013 0.0256293 0.025736284 -0.005760839 -0.02143925
-0.10557075 -0.009044335 -0.09638619 -0.007572407 -0.0072349245 0.105235085 0.0028607948 -0.09344421
-0.059390914 -0.011919472 -0.053977378 -0.08709594 0.0030995607 -0.01843394 -0.02730906 0.014143129
0.05817167 0.058214694 0.042522624 0.034429535 -0.00072527677 0.040222496 0.06515737 0.038974933
0.072888926 -0.022708643 -0.05112362 -0.0010485947 0.0017908616 0.034271453 -0.0066208337 0.008509662
-0.002847693 0.014946286 0.011841155 -0.071024984 -0.080334544 0.09284671 -0.08108445 -0.06751055
-0.05634908 -0.10503869 -0.015424485 -0.054060858 -0.043636765 0.043002464 0.027015839 -0.038163416
-0.019037552 -0.101371154 0.08998771 0.024479557 -0.061133992 -0.046109203 0.0033732336 -0.0027829
00000000: fc7c bfbc 5e68 17bd 0aa4 41bc cb5b 8abd
00000010: 6cbe 75bc e8f7 613d 6f35 3cbd a95c 88bd
00000020: 223f dcbc 27a0 89bc b2c5 cd3d 522e a03d
00000030: 3dfe 9b3d 6e78 dd3c 7b5f b23d 8332 d13d
00000040: f5fc c63b 34ee b1bd 680b dc3a 1969 813c
00000050: f5e0 aebd a088 9abc 8c5e 0fbb 1a1d 23bd
00000060: e4e4 84bd d12f 553c 6815 27bd 76e4 01bc
00000070: f206 22bd b338 52bd 96fb 89bd 4815 b3bd
00000080: 28eb 0c3b 7862 0ebd 11df 00bc a597 8fbd
00000090: e5a5 873d 7e47 d63d 4d98 583c 3cb6 09bb
000000a0: 1686 dabd ba04 893d fce6 a6bd eedc 883c
000000b0: a4c6 e63b 934c 963c 5a4d babd 6447 d5bd
000000c0: 931c 8cbd f00d 80bc 0ca3 afbd 2194 093c
000000d0: 7ec5 793c 4e0f bcbc 20f6 5d3b cce9 4b3c
000000e0: 5833 0d3c 3f34 7bbd 9019 2abd 349d b6bd
000000f0: 19cc 443c 3267 91bd e08a 6bbd dce7 103d
00000100: 5bbb c4bd 0920 07bc 3ec4 853c a0c8 33bc
00000110: 9abd 833d 8358 293d 5a28 c7bd cb87 07bd
00000120: 98c3 04bd 2470 d1bc 9d92 583c 388c 72bd
00000130: 3d53 6f3c 5055 c3bd 176c 9fbd 7de1 dabd
00000140: 808f d13a 913d 1fbc a089 b8bd c678 c2bc
00000150: 1378 57bc 6827 d2bc 29db 0dbc 2566 13bd
00000160: fd82 80bd e06d 65bd 6edb b73b e21f 82bb
00000170: a645 83bd ce07 cebd bdf8 353d 87b0 9bbd
00000180: a208 87bd 9e17 adbd 34cd 78bd 9a44 c4bd
00000190: 00fa d2bd c70a 563c 2d20 d3bd 8b1e 87bd
000001a0: b8f5 1bbd 556d 6a3c 9ada 7abd bda3 acbd
000001b0: 061e cebb c9f5 6f3c ae66 9abd df65 23bd
000001c0: 9c12 97bd c1ae b8bd 8876 8d3c 81fd 23bd
000001d0: de75 1bbd 2851 04bd 2166 5dbd f1f3 31bc
000001e0: 7089 7e3a fd3c cf3d 00e6 6b38 b542 70bc
000001f0: 87d3 2fbd 9e69 fbbc 20fa 103a e6f3 cbbd
00000200: 6403 b0bd d200 c5bd e054 69bd 7d3f b3bd
00000210: 3cb8 88bd 12ae 66bd 237c 2dbd ccce 7cbb
00000220: 8a30 d4bd f6c3 ccbc 1e49 a4bd a9a7 cebc
00000230: 8cae 6cbd d161 ccbc 5d46 d0bd 32e6 8ebd
00000240: 2247 d0bd 7cf5 093d 599f 913d 8e73 073d
00000250: 88e1 1abc 056c 31bd 4ab1 43bd 2033 cabd
00000260: 0faf 52bd 39e9 c03c a88b fd3b e080 cbbd
00000270: 7d2f bcbd b6f7 08bd c73f 66bd 7c2b 6abb
00000280: 8471 72bb 16f1 96bd 8642 903b 942c 98bc
00000290: c87e 66bd ac15 603d e4a6 493d 0933 213d
000002a0: be51 463d 4b04 df3c da67 0bbc e026 bcba
000002b0: 3c7a c8bd f6e2 ae3d de28 8b3d 7a60 1cbd
000002c0: 6a10 d9bc e67f 1d3d a899 4e3d f748 53bd
000002d0: f455 90bd 1e28 943b 46f6 77bd 2fd8 2cbc
000002e0: 8431 f8bc fc14 abbd d76a 82bd df85 16bd
000002f0: 8440 a73c a1fd ba3d c80c c23c 88e6 163d
00000300: 1a6d d7bd 1d3d a73d 3a29 193d 3f78 913d
00000310: 8af4 d13c e6d4 d23c 6cc5 bcbb 5ea1 afbc
00000320: 7a35 d8bd b12e 14bc 1f66 c5bd f421 f8bb
00000330: f212 edbb 7e85 d73d 2c7c 3b3b ae5f bfbd
00000340: e343 73bd e449 43bc 6217 5dbd 5b5f b2bd
00000350: 0022 4b3b c602 97bc 40b7 dfbc 95b8 673c
00000360: 6b45 6e3d 8872 6e3d 342c 2e3d fc05 0d3d
00000370: 8020 3eba 58c0 243d 3a71 853d 2ea4 1f3d
00000380: ca46 953d 7a07 babc 0067 51bd 0071 89ba
00000390: 58bb ea3a 3960 0c3d 94f3 d8bb 1c6c 0b3c
000003a0: 5ca0 3abb 44e1 743c 6701 423c 8c75 91bd
000003b0: 7086 a4bd 6a26 be3d 9b0f a6bd f942 8abd
000003c0: 4bce 66bd 861e d7bd fbb6 7cbc eb6e 5dbd
000003d0: 77bc 32bd 5a23 303d 5250 dd3c 3e51 1cbd
000003e0: a4f4 9bbc ae9b cfbd 7a4b b83d 5a89 c83c
000003f0: a367 7abd 01dd 3cbd 7811 5d3b 5061 36bb

conv2.bias f4 [20]
0.009626581 -0.10414545 0.041331522 -0.031344548 -0.009405467 -0.038450345 0.05891566 0.04404219
-0.10593504 -0.04901588 -0.02061796 -0.008891691 -0.019328028 -0.040914956 0.012829757 0.0029829666
0.019227643 0.0424377 -0.012682728 -0.061383583
00000000: cfb8 1d3c 364a d5bd 3e4b 293d 2463 00bd
00000010: 6319 1abc 1c7e 1dbd 8c51 713d 9565 343d
00000020: 78f4 d8bd e0c4 48bd ffe6 a8bc 75ae 11bc
00000030: d055 9ebc 7196 27bd e733 523c e07d 433b
00000040: 4a83 9d3c 27d3 2d3d 37cb 4fbc 5a6d 7bbd

fc1.weight f4 [50, 320]
-0.03643555 -0.012315123 -0.04585706 -0.03013605 -0.0553616 -0.087052666 0.010453776 -0.073469736
-0.08522555 -0.049600348 -0.07583525 -0.0071055293 -0.08570139 -0.04201486 0.050550498 -0.00556715
0.0061252136 0.010574433 -0.08577092 -0.016010776 -0.073200606 -0.09950966 -0.028331682 -0.08337578
0.08252887 0.011837601 -0.003832194 -0.071296655 -0.0067156926 0.010647201 -0.039718226 -0.033332583
0.059838444 -0.02365532 -0.031218752 0.023992434 -0.0001839539 0.037154905 -0.02359311 0.049759325
0.10166467 0.05980242 -0.040798925 0.10551722 0.05660277 -0.0017562984 0.027665414 -0.05398909
-0.09000447 -0.014454637 0.006838575 0.040794924 -0.02249708 -0.098329626 -0.023111038 -0.00845339
-0.017307524 -0.010663075 -0.027215531 0.030159263 -0.018389173 -0.08733694 -0.083336405 -0.066534415
-0.07452306 0.04890812 -0.09525072 -0.03175644 0.008151807 -0.09531302 -0.081517056 -0.017300583
0.014875739 -0.00019817636 -0.046113346 -0.0210848 0.0068033626 0.009408695 -0.09725007 -0.10444604
-0.039346498 -0.054759726 -0.009367342 -0.066522665 0.00032332353 -0.028259262 0.0032854797 0.010092409
-0.014342107 0.013245915 0.07634317 -0.051482495 -0.035051517 0.011512887 -0.018610857 -0.0155292135
-0.02472021 -0.018790584 0.035721082 -0.019558359 -0.03603169 0.05404975 0.060223937 -0.02648611
0.07262246 0.0014792755 -0.0630125 0.002879601 -0.02971211 -0.0030262824 -0.042997748 0.017525682
-0.011235769 -0.037714254 0.017403811 0.0055642463 -0.051536463 0.0071034115 -0.055506755 0.018692384
-0.04854296 -0.0439978 -0.09324261 0.00465901 -0.047735363 -0.0037688967 0.04322625 -0.024766583
0.022967897 0.042545058 0.03209397 -0.027744845 0.10713933 0.053780194 0.04939692 0.09998692
0.047943473 0.013633904 -0.015144633 0.056212515 -0.041056853 0.008240458 -0.106017016 -0.054768264
0.038419064 -0.069123045 -0.013136909 0.016472243 -0.06378172 -0.09807378 -0.0028245435 -0.008092226
-0.053590193 0.07344172 -0.09316746 -0.08319233 0.025613923 0.062909804 -0.042180885 -0.07081823
0.042054493 -0.01857598 0.03424211 0.031195078 0.0035673706 0.03231772 0.046082225 -0.014076467
0.08265857 -0.060873114 -0.02218529 -0.008671552 0.01880597 -0.04257598 -0.0106183775 -0.008712458
-0.03139577 0.040899996 -0.012487471 -0.104382075 0.048582073 -0.06742147 -0.025379887 -0.025610156
-0.054822676 0.007388842 0.03739222 -0.030784957 0.034443505 0.031985383 -0.03683968 -0.03182593
0.02105239 0.027909566 0.012612049 -0.026094694 -0.025335899 0.042549755 0.03552573 0.022933329
0.06554962 0.02207686 -0.03847339 0.013788581 0.003984972 -0.00490978 -0.0004966501 -0.02296599
-0.079593055 -0.07245732 -0.032131158 -0.02227765 -0.025829647 -0.032514967 -0.009314909 -0.019025322
-0.016636176 -0.031143934 0.08361616 0.0034874948 0.079491295 -0.03208576 0.014448315 0.00593601
0.0036637005 -0.06372638 -0.009062413 -0.08342354 0.0062445113 -0.0012176121 0.013467157 -0.049913242
0.008633912 0.00716756 0.046477 -0.071615845 -0.053107895 0.045733087 0.0007031644 -0.058960974
0.021215636 0.09944579 0.07079351 0.04762648 0.08883606 0.024587981 0.06187402 0.0021437202
0.06032883 0.047085 0.037967592 0.027388446 0.07801745 -0.022940706 0.071978375 -0.049036913
00000000: 713d 15bd 5fc5 49bc 9dd4 3bbd e1df f6bc
00000010: d8c2 62bd ab48 b2bd 5146 2b3c 4d77 96bd
00000020: bc8a aebd bc29 4bbd 834f 9bbd 80d5 e8bb
00000030: 3684 afbd c617 2cbd 0a0e 4f3d a46c b6bb
00000040: 04b6 c83b 6340 2d3c aaa8 afbd 0829 83bc
00000050: 33ea 95bd b8cb cbbd d817 e8bc ecc0 aabd
00000060: e504 a93d 7ff2 413c 8c25 7bbb fb03 92bd
00000070: 500f dcbb 9971 2e3c 94af 22bd bf87 08bd
00000080: 2819 753d cdc8 c1bc 78be ffbc c88b c43c
00000090: c0e3 40b9 be2f 183d 5646 c1bc 6fd0 4b3d
000000a0: 9135 d03d 62f3 743d c61c 27bd 6a19 d83d
000000b0: 4ed8 673d 9833 e6ba 94a2 e23c aa23 5dbd
000000c0: 4354 b8bd 24d3 6cbc 2016 e03b 9418 273d
000000d0: cc4b b8bc 0b61 c9bd 5c53 bdbc 1680 0abc
000000e0: 82c8 8dbc 2eb4 2ebc 1bf3 debc 8f10 f73c
000000f0: e4a4 96bc b6dd b2bd 47ac aabd 3243 88bd
00000100: 8c9f 98bd e153 483d cf12 c3bd 0a13 02bd
00000110: 288f 053c 7933 c3bd 6af2 a6bd f4b9 8dbc
00000120: 5fb9 733c 90cd 4fb9 59e1 3cbd 08ba acbc
00000130: beee de3b ed26 1a3c 0b2b c7bd cee7 d5bd
00000140: cb29 21bd bc4b 60bd 7b79 19bc 093d 88bd
00000150: c083 a939 f87f e7bc 3451 573b a25a 253c
00000160: 28fb 6abc 6505 593c cf59 9c3d 4fdf 52bd
00000170: 2e92 0fbd 8ca0 3c3c cc75 98bc 3e6e 7ebc
00000180: 0a82 cabc b6ee 99bc 4550 123d da38 a0bc
00000190: f795 13bd 4563 5d3d 60ad 763d 66f9 d8bc
000001a0: 16bb 943d 40e4 c13a b30c 81bd b0b7 3c3b
000001b0: d066 f3bc 9854 46bb 681e 30bd 0592 8f3c
000001c0: 3b16 38bc 437a 1abd 7092 8e3c 4854 b63b
000001d0: e617 53bd bcc3 e83b 0d5b 63bd c520 993c
000001e0: fcd4 46bd 0a37 34bd fbf5 bebd 9caa 983b
000001f0: 2886 43bd 98ff 76bb 020e 313d 4ae3 cabc
00000200: 2c27 bc3c ba43 2e3d f774 033d 2849 e3bc
00000210: dd6b db3d 9f48 5c3d 6d54 4a3d f1c5 cc3d
00000220: 6060 443d bd60 5f3c 3221 78bc 183f 663d
00000230: 3b2b 28bd fc02 073c 731f d9bd b054 60bd
00000240: 4f5d 1d3d 6290 8dbd 313c 57bc ccf0 863c
00000250: fe9f 82bd e8da c8bd fa1b 39bb 4295 04bc
00000260: 6481 5bbd 9d68 963d 95ce bebd be60 aabd
00000270: 4ad4 d13c dbd6 803d ddc5 2cbd 2609 91bd
00000280: 5541 2c3d a72c 98bc 7441 0c3d d28c ff3c
00000290: 8cca 693b 965f 043d b7c0 3c3d fba0 66bc
000002a0: e548 a93d 1656 79bd edbd b5bc 2013 0ebc
000002b0: fa0e 9a3c 2764 2ebd b4f8 2dbc b3be 0ebc
000002c0: da98 00bd c186 273d 4098 4cbc 45c6 d5bd
000002d0: fffd 463d 4514 8abd 7be9 cfbc 64cc d1bc
000002e0: be8d 60bd 191e f23b 9628 193d bc30 fcbc
000002f0: a214 0d3d 1b03 033d 34e5 16bd e85b 02bd
00000300: 1076 ac3c 9aa2 e43c c4a2 4e3c 8ac4 d5bc
00000310: 3b8d cfbc a748 2e3d 6e83 113d adde bb3c
00000320: e13e 863d 88da b43c 4696 1dbd 80e9 613c
00000330: 5e94 823b 38e2 a0bb a031 02ba 2c23 bcbc
00000340: af01 a3bd 8164 94bd f69b 03bd 9e7f b6bc
00000350: b298 d3bc 6a2e 05bd 8f9d 18bc feda 9bbc
00000360: 9748 88bc 9021 ffbc f33e ab3d 748e 643b
00000370: 55cc a23d 5c6c 03bd a0b8 6c3c dc82 c23b
00000380: b21a 703b fa82 82bd 847a 14bc f6d9 aabd
00000390: c29e cc3b 4898 9fba 5aa5 5c3c d471 4cbd
000003a0: 4075 0d3c dadd ea3b ab5e 3e3d 54ab 92bd
000003b0: aa87 59bd 9e52 3b3d 9054 383a 1081 71bd
000003c0: 6acc ad3c 3caa cb3d 30fc 903d fc13 433d
000003d0: aeef b53d bc6c c93c 9d6f 7d3d a87d 0c3b
000003e0: 5d1b 773d 33dc 403d e883 1b3d bc5d e03c
000003f0: 9dc7 9f3d 26ee bbbc 6669 933d eeda 48bd

fc1.bias f4 [50]
0.023148628 -0.003506077 -0.023630757 0.035479903 -0.021962177 0.045054916 -0.045852575 -0.012877176
0.038629673 -0.04658231 -0.07244104 -0.0015212167 0.032521375 0.06779899 0.08994137 -0.08559255
0.013304179 0.010021666 -0.0155179575 -0.04325816 -0.015632914 0.0043581836 -0.045452066 0.05955379
-0.0007475 -0.09324595 -0.04186347 0.050924264 -0.093602054 -0.049406275 -0.046395514 -0.04065253
0.024014788 -0.03215171 -0.02904353 -0.043941364 -0.09558522 -0.08583939 0.10600452 -0.038372014
0.00818749 0.020445224 -0.07191828 -0.012993243 0.07351267 -0.022098063 0.03561338 0.00070218183
-0.09611305 -0.022710726
00000000: 31a2 bd3c 36c6 65bb 4a95 c1bc 6053 113d
00000010: 06ea b3bc 818b 383d e9cf 3bbd cafa 52bc
00000020: 263a 1e3d 18cd 3ebd f85b 94bd 9063 c7ba
00000030: 2235 053d 32da 8a3d 2e33 b83d 264b afbd
00000040: c5f9 593c ea31 243c 083f 7ebc 782f 31bd
00000050: 9910 80bc 18cf 8e3b f22b 3abd adee 733d
00000060: e0f3 43ba bcf7 bebd 0879 2bbd f695 503d
00000070: 6fb2 bfbd 3c5e 4abd 3909 3ebd 4483 26bd
00000080: a9ba c43c 83b1 03bd b2ec edbc dcfb 33bd
00000090: 2fc2 c3bd 90cc afbd e618 d93d f92b 1dbd
000000a0: d224 063c be7c a73c e449 93bd 9ce1 54bc
000000b0: d08d 963d ff06 b5bc 56df 113d a012 383a
000000c0: ebd6 c4bd d80b babc

fc2.weight f4 [10, 50]
0.05592413 -0.15880252 0.07394969 -0.05728849 -0.14770333 -0.025192464 0.05108305 0.016403625
0.06747842 0.006824469 -0.062874794 -0.08453023 0.014075421 -0.0100193145 0.08406964 -0.027324075
-0.06362972 0.010071096 -0.11673397 0.0883258 0.06294365 -0.01697988 0.017285302 0.054424357
0.14228827 -0.01988266 0.011679767 -0.109362476 -0.16872619 0.08406821 0.120088674 0.10260688
0.015294484 0.053109843 -0.0036378205 0.0011674399 0.06637593 0.09303344 -0.111945115 -0.0666603
-0.06516873 0.036048245 -0.021505866 -0.06494571 -0.075818844 -0.035623208 0.12312052 -0.10756343
-0.028311301 0.11873844 -0.09258361 -0.095063694 0.08549686 0.07987652 -0.13984531 0.087117165
-0.10427313 -0.061373707 -0.01949462 -0.14741987 -0.058421936 0.06611839 0.013326603 -0.12692904
-0.14153025 0.042881735 -0.037944578 -0.0044892477 0.06809894 -0.17307116 0.08328621 0.029838683
-0.06944951 -0.07910862 -0.07771715 -0.09085846 -0.0047863694 0.0016635777 0.07942066 -0.038889173
-0.07716195 -0.09329693 -0.13898446 -0.0438016 -0.12593225 0.009520381 0.098267645 0.010469435
0.10520745 0.016471647 -0.19599909 -0.057578508 0.082068555 -0.04127406 0.18863526 0.006923247
0.13757962 0.14286621 -0.06728026 -0.13400774 0.034031343 0.061539043 0.094927296 -0.15899166
0.045880556 -0.14898852 -0.04490266 -0.13852032 -0.07250331 0.0024489928 -0.077389665 -0.095656544
-0.078140855 -0.081339456 0.11562479 0.042690255 0.014761718 0.087602206 -0.04972183 0.01233596
0.08660185 -0.017112743 0.046437323 -0.13173592 -0.07559195 -0.17231569 -0.034404725 -0.058706783
0.0281238 -0.025931817 -0.10295791 0.08299263 0.081519574 -0.09375443 -0.021167498 -0.13206851
-0.11551716 0.0015857462 0.13196042 -0.024031613 -0.08407965 0.0019446267 -0.15236296 0.07926331
0.063338235 -0.026760768 0.0060975337 -0.037936028 -0.012358947 0.07989692 -0.085520856 -0.044587903
0.062079117 0.030090986 -0.08589661 0.037316155 -0.13556355 -0.0879839 0.0958714 0.13449007
0.061592568 0.028629813 0.14282687 -0.020372186 -0.07159126 -0.0142256925 -0.07957173 0.077814646
-0.06223112 -0.104682066 -0.030417733 0.062084228 -0.09774599 -0.0065418184 -0.033867653 0.035600793
-0.058681697 0.029262267 0.08300221 -0.07770921 -0.038502507 0.019439097 0.06211541 -0.059155982
-0.026763342 -0.04974184 -0.05693223 -0.03801907 0.14107656 0.042231247 0.026644487 0.09583117
-0.09310502 0.0414975 -0.032740273 -0.035576005 0.17471476 -0.041493636 0.05043892 0.0367139
0.18330392 0.047036782 -0.04835769 -0.05436134 0.006043487 0.13592236 -0.029183568 0.13304853
0.15100135 -0.049421947 -0.046390615 0.041151315 -0.12511939 0.015567226 -0.0719073 0.10035008
-0.039182693 -0.0871879 -0.15254988 -0.12804927 0.17607667 -0.05329609 -0.09615977 0.15927733
0.04045187 -0.16075492 0.05202518 -0.18841119 -0.084050454 -0.020330608 -0.06531295 -0.034699515
0.02496897 0.12401879 -0.0059420094 0.025399987 -0.015239951 0.02056668 -0.07901365 0.11764542
-0.001754636 0.07125584 -0.06642839 -0.007935405 -0.029970348 -0.0038079536 -0.081744365 0.055211022
0.04237516 -0.028704092 -0.03448097 -0.13240384 0.0835912 -0.13606495 -0.03712024 0.043395188
00000000: b310 653d 219d 22be ef72 973d 56a7 6abd
00000010: 8b3f 17be 6d60 cebc 763c 513d e560 863c
00000020: 2032 8a3d cc9f df3b 80c4 80bd 2f1e adbd
00000030: 989c 663c 0d28 24bc b42c ac3d bdd6 dfbc
00000040: 4c50 82bd 3d01 253c 3812 efbd 28e4 b43d
00000050: 9ae8 803d 6419 8bbc e899 8d3c 13ec 5e3d
00000060: 04b4 113e f6e0 a2bc 7e5c 3f3c 6ff9 dfbd
00000070: 8fc6 2cbe f42b ac3d 0df1 f53d 8e23 d23d
00000080: b795 7a3c b589 593d 8068 6ebb c804 993a
00000090: 1bf0 873d 5188 be3d 7b43 e5bd 3285 88bd
000000a0: 2f77 85bd 53a7 133d 122d b0bc 4202 85bd
000000b0: e946 9bbd a4e9 11bd 9c26 fc3d 374a dcbd
000000c0: 1aed e7bc 242d f33d 7a9c bdbd c1b0 c2bd
000000d0: fa18 af3d 4d96 a33d 9c33 0fbe 7c6a b23d
000000e0: 278d d5bd ff62 7bbd 2eb3 9fbc 3cf5 16be
000000f0: d74b 6fbd 1469 873d d357 5a3c b0f9 01be
00000100: 4eed 10be c2a4 2f3d c66b 1bbd 8a1a 93bb
00000110: 7577 8b3d 9139 31be f691 aa3d 4170 f43c
00000120: 8b3b 8ebd b303 a2bd 2b2a 9fbd 0014 babd
00000130: fad6 9cbb 680c da3a 4da7 a23d 414a 1fbd
00000140: 1607 9ebd 7612 bfbd f151 0ebe 4e69 33bd
00000150: 62f4 00be 5ffb 1b3c 8c40 c93d fe87 2b3c
00000160: 0177 d73d 8cef 863c fcb3 48be 71d7 6bbd
00000170: 8f13 a83d fd0e 29bd 9a29 413e 68dc e23b
00000180: ace1 0c3e 854b 123e 3cca 89bd 5339 09be
00000190: 7364 0b3d 5d10 7c3d 3e69 c23d b6ce 22be
000001a0: 40ed 3b3d 7290 18be daeb 37bd 45d8 0dbe
000001b0: 9e7c 94bd 487f 203b 797e 9ebd 94e7 c3bd
000001c0: 5008 a0bd 4d95 a6bd b1cc ec3d fadb 2e3d
000001d0: 22db 713c c968 b33d 1ea9 4bbd c41c 4a3c
000001e0: 505c b13d 0630 8cbc 1035 3e3d c8e5 06be
000001f0: f4cf 9abd 8673 30be f8eb 0cbd 8676 70bd
00000200: e263 e63c f66e d4bc 99db d2bd 0af8 a93d
00000210: bcf3 a63d 5302 c0bd 7667 adbc f83c 07be
00000220: 4394 ecbd d0d8 cf3a a220 073e f2dd c4bc
00000230: f431 acbd d8e2 fe3a 0905 1cbe cd54 a23d
00000240: 7ab7 813d 6639 dbbc d2cd c73b cf62 1bbd
00000250: 2e7d 4abc ffa0 a33d 8f25 afbd cea1 36bd
00000260: ac46 7e3d 5f81 f63c 90ea afbd d3d8 183d
00000270: 2cd1 0abe e730 b4bd 3958 c43d c4b7 093e
00000280: 7d48 7c3d 1289 ea3c 3541 123e 92e3 a6bc
00000290: 709e 92bd e112 69bc 81f6 a2bd 495d 9f3d
000002a0: 0fe6 7ebd 8d63 d6bd 9c2e f9bc 084c 7e3d
000002b0: 0d2f c8bd c05c d6bb cfb8 0abd 23d2 113d
000002c0: 385c 70bd 6cb7 ef3c 10fd a93d 0226 9fbd
000002d0: ceb4 1dbd be3e 9f3c ba6c 7e3d 8b4d 72bd
000002e0: cc3e dbbc 1abe 4bbd c531 69bd e2b9 1bbd
000002f0: 6076 103e acfa 2c3d 8a45 da3c 2243 c43d
00000300: d8ad bebd 48f9 293d aa1a 06bd 25b8 11bd
00000310: 6de8 323e 3bf5 29bd 0a99 4e3d 5061 163d
00000320: 06b4 3b3e a4a9 403d b712 46bd ffa9 5ebd
00000330: 7208 c63b 3b2f 0b3e 6112 efbc e03d 083e
00000340: 19a0 1a3e ab6e 4abd 1604 3ebd 488e 283d
00000350: 4c1f 00be ae0d 7f3c 2244 93bd 5884 cd3d
00000360: 087e 20bd 928f b2bd 0936 1cbe 591f 03be
00000370: 714d 343e 004d 5abd 6aef c4bd 9919 233e
00000380: dcb0 253d f09c 24be 5b18 553d ddee 40be
00000390: a522 acbd 608c a6bc ccc2 85bd 1421 0ebd
000003a0: ba8b cc3c 90fd fd3d 30b5 c2bb a213 d03c
000003b0: fdb0 79bc 747b a83c e9d1 a1bd 15f0 f03d
000003c0: d0fb e5ba 95ee 913d 9c0b 88bd 8003 02bc
000003d0: 6084 f5bc dc8e 79bb 9769 a7bd f424 623d
000003e0: 9391 2d3d d824 ebbc eb3b 0dbd df94 07be
000003f0: dd31 ab3d 9c54 0bbe 650b 18bd 27bf 313d

fc2.bias f4 [10]
-0.1375942 0.025602227 -0.14660437 -0.088394195 0.08824061 -0.050368574 0.08669621 -0.11957196
0.116151296 -0.07331304
00000000: 7ee5 0cbe c3bb d13c 751f 16be 0408 b5bd
00000010: 7eb7 b43d 474f 4ebd c88d b13d 25e2 f4bd
00000020: bbe0 ed3d 2625 96bd

exp_avg f4 [10, 1, 5, 5]
3.317633e-06 -0.00028552988 3.037852e-05 0.0005384911 0.00054058665 0.0005632954 0.00015246449 0.0004672491
0.00074920285 0.00014389728 0.00096941617 0.0007665315 0.0010728856 0.0011524044 0.00036688108 0.0008728161
0.0010896833 0.0015748861 0.0012493171 0.00041426125 0.00030714844 0.00050584465 0.0008891458 0.0007934563
0.00042488126 0.0017499635 0.0021950365 0.0023876305 0.001382164 0.00038029204 0.0017109663 0.0027794878
0.0028406964 0.0013468737 0.0004324239 0.0016772407 0.0027781953 0.0029756434 0.0014067991 0.0007347647
0.0015647063 0.0028058337 0.0031325317 0.0017084668 0.00093931146 0.0014772916 0.0026129354 0.00266744
0.0013360177 0.0007877881 0.0011618674 0.00027492802 5.3870383e-05 0.00021168718 0.0018714492 0.0005137838
1.2733975e-05 -6.2414597e-06 0.000540567 0.0030516568 0.0001757413 -6.958131e-05 -1.5583006e-05 0.0013009843
0.0033025828 7.721586e-05 2.9810515e-05 0.0003978717 0.0021264688 0.0033332463 0.0005420137 0.000763863
0.0014417483 0.0024957312 0.003468842 0.0023175497 0.0022965288 0.0012165545 0.00063616707 0.0015361471
0.0029292512 0.0016670751 0.00031406255 -6.646752e-05 0.0011783266 0.0021702994 0.001224789 0.00013078855
0.00012754308 0.00095964613 0.0015264985 0.00030694093 5.3008378e-05 0.00014809608 0.00074084906 0.0012208764
0.00017561685 0.00011302311 0.0002366686 0.0008307663 0.0020110132 0.002220178 0.003258368 0.0033052946
0.0025306565 0.0010801486 0.0020332877 0.0036353813 0.003736636 0.0036209368 0.0007444795 0.002174672
0.003973916 0.0044502015 0.0037589187 0.0015226123 0.003460879 0.0048864367 0.004251681 0.0034008566
0.0027006709 0.0038582033 0.004321195 0.0033870824 0.0023698616 0.0016568862 0.0031222596 0.0029651658
0.0018116302 0.0009766917 0.001859613 0.0033732583 0.0028529475 0.0020632504 0.0010228121 0.0020838995
0.0035541656 0.002752013 0.0012527918 0.0011051279 0.0024417206 0.0034948096 0.0028500604 0.0016461236
0.0013033159 0.0025919804 0.0036501563 0.002764057 0.0019969544 0.0014216398 4.769031e-05 4.0903246e-06
-1.048753e-05 2.688413e-05 9.788073e-05 4.850237e-06 -1.2041263e-06 7.642321e-07 9.998843e-05 4.1670133e-05
1.3244305e-05 9.875855e-06 3.088552e-05 0.00010635171 -2.6730297e-05 0.00011924679 0.0001451116 0.00027262288
0.00028766395 0.00015680985 9.41429e-05 0.00015815916 0.00031299604 0.00031884722 0.00027382598 0.000101849335
4.9615574e-05 8.6504224e-05 0.00011232151 0.00015437305 1.9252464e-05 -1.2640092e-05 1.7644015e-05 1.48328545e-05
0.00036183628 0.00011416151 -2.1379476e-05 1.995415e-05 5.1295236e-05 0.00095091324 0.00013059526 -8.330698e-05
-3.086729e-05 0.00024097384 0.0013608615 -0.00033124082 -0.00057903415 -0.0003834071 0.00053304294 0.0012770845
0.0013386861 0.0010325377 0.0019106432 0.0016703238 0.00080416177 0.0015939216 0.0018487946 0.0021666694
0.0013867493 0.00033747495 0.0023204982 0.0028899522 0.0026142953 0.000921746 0.00044415338 0.0025491212
0.002529062 0.0015251182 0.00077993574 0.00089813303 0.0023115384 0.0013847722 0.00032275435 0.00035852275
0.000801309 0.00027888603 0.00023379439 0.00018401911 0.00036220113 0.00047029226 6.8907735e-05 8.305216e-05
0.00010038334 0.00025994313 0.00030380813 0.00010015224 -5.9849088e-05 6.799124e-05 0.00016736699 0.00014621713
0.00041796826 3.7018566e-05 4.671773e-05 9.8915014e-05 0.00022995511 0.0003304484 0.00012603258 9.9928926e-05
-6.354723e-05 1.740703e-05
00000000: 80a4 5e36 2cb3 95b9 60d5 fe37 8729 0d3a
00000010: 28b6 0d3a 1daa 133a e0de 1f39 1df9 f439
00000020: 2766 443a 22e3 1639 6b20 7e3a 0ff1 483a
00000030: 11a0 8c3a 460c 973a f259 c039 b2cd 643a
00000040: b4d3 8e3a 696c ce3a 20c0 a33a 3431 d939
00000050: c408 a139 a99a 043a 9115 693a f3ff 4f3a
00000060: 99c2 de39 085f e53a 9ada 0f3b cb79 1c3b
00000070: ba29 b53a ef61 c739 8142 e03a 1128 363b
00000080: fa2a 3a3b 9589 b03a f4b6 e239 dcd6 db3a
00000090: 6212 363b 0303 433b 5864 b83a 399d 403a
000000a0: d516 cd3a 14e2 373b 294b 4d3b a2ee df3a
000000b0: 203c 763a aea1 c13a c83d 2b3b 38d0 2e3b
000000c0: 511d af3a 9183 4e3a cd49 983a 3724 9039
000000d0: e2f2 6138 58f8 5d39 6a4b f53a 72af 063a
000000e0: 02a4 5537 bb6d d1b6 d6b4 0d3a 4efe 473b
000000f0: 3247 3839 2eec 91b8 40b8 82b7 ca85 aa3a
00000100: 2570 583b f3ee a138 9811 fa37 7099 d039
00000110: 3a5c 0b3b 9872 5a3b ec15 0e3a fa3d 483a
00000120: 0cf9 bc3a 6c8f 233b 8355 633b 08e2 173b
00000130: 5c81 163b cc74 9f3a 73c4 263a 8b58 c93a
00000140: aef8 3f3b c281 da3a c3a8 a439 7a64 8bb8
00000150: 1472 9a3a 953b 0e3b 1989 a03a 4924 0939
00000160: 16bd 0539 c390 7b3a ca14 c83a eaec a039
00000170: 5055 5e38 3d4a 1b39 8a35 423a d005 a03a
00000180: ca25 3839 d206 ed38 3e2a 7839 c8c7 593a
00000190: 34cb 033b 6880 113b 588a 553b a49d 583b
000001a0: 5fd9 253b c693 8d3a e840 053b 943f 6e3b
000001b0: 59e2 743b 3d4d 6d3b 2c29 433a f184 0e3b
000001c0: a037 823b ffd2 913b 3158 763b 6492 c73a
000001d0: eacf 623b 671e a03b af51 8b3b e8e0 5e3b
000001e0: bdfd 303b e9d9 7c3b d098 8d3b d0f9 5d3b
000001f0: ae4f 1b3b e02b d93a d39e 4c3b 3a53 423b
00000200: 3974 ed3a 5604 803a 42be f33a e211 5d3b
00000210: 84f8 3a3b 9937 073b e10f 863a 0892 083b
00000220: 01ed 683b 1e5b 343b b834 a43a f0d9 903a
00000230: 4605 203b 2d09 653b 14c8 3a3b bec2 d73a
00000240: 06d4 aa3a 37de 293b 7637 6f3b 2e25 353b
00000250: 56df 023b 5156 ba3a 1507 4838 9f3f 8936
00000260: 99f3 2fb7 3b85 e137 5145 cd38 38bf a236
00000270: 779d a1b5 a125 4d35 e1b0 d138 f7c6 2e38
00000280: db33 5e37 79b0 2537 138b 0138 2409 df38
00000290: e03a e0b7 2214 fa38 1929 1839 d3ee 8e39
000002a0: 9ad1 9639 536d 2439 966e c538 87d7 2539
000002b0: 9e19 a439 f32a a739 4d90 8f39 f297 d538
000002c0: 511a 5038 9a69 b538 278e eb38 33df 2139
000002d0: 5a80 a137 c810 54b7 3c02 9437 a0da 7837
000002e0: d8b4 bd39 fe69 ef38 1358 b3b7 3663 a737
000002f0: d725 5738 b546 793a 66f0 0839 18b5 aeb8
00000300: 8077 01b8 ecad 7c39 ef5e b23a 64aa adb9
00000310: 53ca 17ba 0804 c9b9 e8bb 0b3a d863 a73a
00000320: da76 af3a 3756 873a 8c6e fa3a c4ee da3a
00000330: 62ce 523a 22eb d03a 4153 f23a aefe 0d3b
00000340: 96c3 b53a 1fef b039 8013 183b 5a65 3d3b
00000350: 9954 2b3b 54a1 713a 42dd e839 280f 273b
00000360: 9fbe 253b 7ae6 c73a 9a74 4c3a b070 6b3a
00000370: 2e7d 173b 3f81 b53a 5b37 a939 1cf8 bb39
00000380: f00e 523a 7337 9239 b426 7539 41f5 4039
00000390: d0e5 bd39 8f91 f639 8f82 9038 4a2c ae38
000003a0: e584 d238 fa48 8839 7048 9f39 d308 d238
000003b0: 7806 7bb8 8596 8e38 3c7f 2f39 dd51 1939
000003c0: c022 db39 6244 1b38 c8f2 4338 9870 cf38
000003d0: 1b20 7139 0940 ad39 9d27 0439 ef90 d138
000003e0: a944 85b8 5005 9237

exp_avg_sq f4 [10, 1, 5, 5]
3.0957057e-08 1.9128086e-08 1.0963018e-08 3.4895756e-08 1.1029644e-07 3.8301803e-08 4.0068984e-09 2.0076097e-08
7.809416e-08 5.604639e-08 7.711269e-08 4.7021462e-08 9.391807e-08 1.482091e-07 7.010757e-08 1.215844e-07
1.2357205e-07 1.889663e-07 1.3040228e-07 8.327994e-08 7.23997e-08 7.793252e-08 9.677467e-08 9.060838e-08
8.419082e-08 1.872298e-07 3.0928436e-07 4.2544085e-07 1.5959796e-07 2.380804e-08 2.3506622e-07 5.284547e-07
5.86925e-07 1.5703233e-07 2.0659574e-08 2.6403174e-07 5.537265e-07 6.642611e-07 1.730485e-07 4.993072e-08
1.8999563e-07 5.1806086e-07 6.4944413e-07 2.7388484e-07 9.138624e-08 2.0697856e-07 5.2041287e-07 4.837897e-07
1.3080925e-07 4.953697e-08 7.973189e-08 9.464075e-09 9.950235e-10 3.001846e-09 1.8132494e-07 2.1809342e-08
5.7387545e-10 1.0106975e-11 2.8604637e-08 5.036959e-07 5.5118394e-09 1.399261e-09 1.6411144e-09 1.0540283e-07
6.0341057e-07 4.5649355e-09 2.8535985e-09 1.6026332e-08 2.2301396e-07 5.987749e-07 1.5613873e-08 2.4844024e-08
9.6588664e-08 3.2570702e-07 6.893266e-07 2.5962862e-07 2.6348206e-07 8.747013e-08 4.318118e-08 1.6676594e-07
4.5263727e-07 1.5417919e-07 4.0795816e-09 6.6503064e-10 8.5298055e-08 2.63795e-07 7.7124774e-08 1.70239e-09
1.1304224e-09 8.12311e-08 1.3404728e-07 5.7913563e-09 4.5086535e-10 2.7802292e-09 3.245232e-08 9.374555e-08
2.019288e-09 1.1322945e-09 3.4500738e-09 4.5103068e-08 2.586122e-07 2.7862743e-07 5.429085e-07 5.8132474e-07
3.7802408e-07 1.459023e-07 2.459462e-07 6.472461e-07 7.296158e-07 7.943639e-07 1.01429634e-07 3.207549e-07
8.669434e-07 1.1662514e-06 8.962521e-07 1.7686662e-07 6.6499797e-07 1.4086577e-06 1.1446904e-06 7.4449855e-07
3.9569488e-07 8.2290205e-07 1.1220374e-06 8.207081e-07 4.076157e-07 2.279897e-07 7.134043e-07 6.7810305e-07
3.6621097e-07 1.9122044e-07 2.1194487e-07 7.039104e-07 5.092289e-07 4.0306446e-07 1.9934514e-07 2.7032615e-07
7.408455e-07 4.711445e-07 1.7157942e-07 1.2828731e-07 3.9964203e-07 6.5835263e-07 4.2668148e-07 1.777231e-07
1.2918946e-07 4.6501702e-07 7.55078e-07 4.274836e-07 2.5631743e-07 1.3994094e-07 3.4595632e-10 2.544934e-12
1.6730443e-11 1.0422229e-10 1.3798122e-09 3.5783832e-12 2.2054903e-13 8.6496186e-14 1.4591957e-09 6.362421e-10
2.6682056e-11 1.4343289e-11 1.7588535e-10 2.1248212e-09 5.0188513e-11 2.231887e-09 3.0165261e-09 9.788699e-09
1.0789991e-08 2.5006277e-09 1.5338868e-09 3.5170635e-09 1.3360958e-08 1.2661987e-08 8.540854e-09 7.2152573e-10
1.1621123e-10 9.431556e-10 1.7655324e-09 1.3479051e-09 3.0812508e-10 7.938722e-11 4.5703832e-10 4.277048e-10
1.2314548e-08 3.8552495e-09 1.5493432e-10 9.723007e-11 2.1526112e-09 5.882704e-08 5.813654e-09 1.7632307e-09
1.4459819e-09 3.2751384e-09 1.04265126e-07 1.8921572e-08 2.7760075e-08 2.2066626e-08 2.579465e-08 8.589441e-08
1.5243124e-07 1.1200019e-07 2.5301634e-07 1.918172e-07 9.091404e-08 1.8611308e-07 2.2075625e-07 2.6511884e-07
1.07180824e-07 1.1394427e-08 4.164978e-07 4.6852344e-07 3.5422988e-07 5.353938e-08 2.1012488e-08 5.8322325e-07
4.451058e-07 1.4987852e-07 4.1308894e-08 5.4207376e-08 4.4204674e-07 2.0580906e-07 7.582976e-08 3.018642e-08
5.1173245e-08 1.3623227e-08 1.18421015e-08 2.077615e-09 8.361128e-09 3.268133e-08 1.4074849e-08 1.5302232e-09
5.763938e-10 1.2545762e-08 2.1740947e-08 9.67968e-09 9.994782e-10 3.5084737e-09 2.3490792e-08 1.6648354e-08
1.3328992e-08 1.9760973e-09 7.158268e-09 2.4701663e-08 1.470316e-08 9.2522585e-09 3.1864447e-09 1.010248e-08
2.8616576e-08 2.4551394e-08
00000000: a5f5 0433 1b4f a432 dd57 3c32 4ae0 1533
00000010: 1cdc ec33 4781 2433 0dad 8931 ce73 ac32
00000020: b8b4 a733 a8b7 7033 2699 a533 a5f4 4933
00000030: 01b0 c933 6823 1f34 0b8e 9633 de8c 0234
00000040: 3aaf 0434 a9e6 4a34 b504 0c34 a2d7 b233
00000050: 287a 9b33 db5b a733 70d2 cf33 7c94 c233
00000060: 65cc b433 5609 4934 b80b a634 2568 e434
00000070: f45d 2b34 6f82 cc32 8366 7c34 21db 0d35
00000080: 2e8d 1d35 b89c 2834 e276 b132 3fc0 8d34
00000090: cca3 1435 ad4f 3235 36cf 3934 6873 5633
000000a0: 9a01 4c34 df10 0b35 7655 2e35 720a 9334
000000b0: 1e40 c433 d53d 5e34 80b2 0b35 c6dd 0135
000000c0: 9374 0c34 79c2 5433 1239 ab33 7197 2232
000000d0: 47c1 8830 0949 4e31 38b2 4234 4057 bb32
000000e0: e5be 1d30 c5cd 312d 43b6 f532 b835 0735
000000f0: a762 bd31 1f50 c030 948d e130 d259 e233
00000100: 0ffa 2135 99d9 9c31 0919 4431 47aa 8932
00000110: 9c75 6f34 7fbb 2035 451f 8632 9668 d532
00000120: 2e6c cf33 d5dc ae34 2a0a 3935 1663 8b34
00000130: b374 8d34 36d7 bb33 3676 3933 4610 3334
00000140: fe01 f334 748c 2534 612c 8c31 5fcd 3630
00000150: 1a2d b733 b59f 8d34 cb9f a533 86f9 e930
00000160: 345d 9b30 4571 ae33 a3ee 0f34 4ffd c631
00000170: a8dd f72f 4f0e 3f31 b461 0b33 2951 c933
00000180: b1c3 0a31 129f 9b30 5716 6d31 59b7 4133
00000190: 64d7 8a34 4396 9534 63bc 1135 550c 1c35
000001a0: 3cf3 ca34 52a9 1c34 970a 8434 6abe 2d35
000001b0: d1da 4335 463c 5535 88d1 d933 3834 ac34
000001c0: e6b7 6835 1888 9c35 fa95 7035 bae8 3d34
000001d0: 5082 3235 1c11 bd35 43a3 9935 8dd9 4735
000001e0: e46f d434 66e5 5c35 e998 9635 a24e 5c35
000001f0: 46d6 da34 55cd 7434 c580 3f35 e306 3635
00000200: a79b c434 4652 4d34 f692 6334 5bf4 3c35
00000210: f2b1 0835 c264 d834 930b 5634 5821 9134
00000220: 84de 4635 9bf1 fc34 643b 3834 59bf 0934
00000230: 628e d634 a6b9 3035 a812 e534 27d4 3e34
00000240: 54b7 0a34 74a7 f934 91b0 4a35 e680 e534
00000250: 009c 8934 ac42 1634 0631 be2f 7515 332c
00000260: 9c29 932d ef2f e52e d3a3 bd30 6cce 7b2c
00000270: ee50 782a a8c5 c229 e28c c830 8fe3 2e30
00000280: a6b2 ea2d 6e54 7c2d 5363 412f 4004 1231
00000290: 3ebb 5c2e c55f 1931 4a4b 4f31 272b 2832
000002a0: e25e 3932 82d7 2b31 d8d0 d230 d6b0 7131
000002b0: 1d8a 6532 0288 5932 13bb 1232 dc54 4630
000002c0: 1b8d ff2e 56a0 8130 26a7 f230 3241 b930
000002d0: c064 a92f 0893 ae2e 6d42 fb2f 1922 eb2f
000002e0: f48f 5332 2277 8431 225a 2a2f aacf d52e
000002f0: 23ed 1331 04a9 7c33 71c1 c731 2a56 f230
00000300: f7bb c630 d810 6131 5ce8 df33 fa88 a232
00000310: 0d75 ee32 068d bd32 0993 dd32 f474 b833
00000320: fbab 2334 c184 f033 4dd6 8734 4ff6 4d34
00000330: 863c c333 60d6 4734 0409 6d34 a855 8e34
00000340: 482b e633 38c1 4332 069b df34 5f89 fb34
00000350: fc2c be34 2cf3 6533 f37e b432 cc8e 1c35
00000360: e0f6 ee34 4bee 2034 9c6b 3133 a4d1 6833
00000370: 7152 ed34 5dfc 5c34 dad7 a233 52a6 0133
00000380: 94c9 5b33 960b 6a32 1d72 4b32 cac5 0e31
00000390: a1a4 0f32 815d 0c33 d7cd 7132 f14f d230
000003a0: 1c70 1e30 d888 5732 d9c0 ba32 af4b 2632
000003b0: 035e 8930 b919 7131 ccc8 c932 1e02 8f32
000003c0: 87fd 6432 dfcb 0731 cbf4 f531 882f d432
000003d0: 2e99 7c32 ddf3 1e32 87f8 5a31 2d8f 2d32
000003e0: 84d0 f532 16e5 d232

exp_avg f4 [10]
0.0008096857 0.003635574 0.005702004 0.009598417 0.008868242 0.005261318 0.00031513578 0.0018202984
0.003209588 9.652325e-05
00000000: 1641 543a cf42 6e3b e0d7 ba3b ae42 1d3c
00000010: 1a4c 113c 2267 ac3b cf38 a539 1497 ee3a
00000020: f357 523b 866c ca38

exp_avg_sq f4 [10]
1.9862934e-07 9.1317355e-07 2.0315397e-06 5.7073316e-06 4.76505e-06 1.9668107e-06 1.307862e-08 2.0275726e-07
9.645782e-07 2.6765827e-08
00000000: d146 5534 cf20 7535 9655 0836 9b81 bf36
00000010: 78e3 9f36 8dfd 0336 61b0 6032 7eb5 5934
00000020: a876 8135 adea e532

exp_avg f4 [20, 10, 5, 5]
1.5791858e-05 2.8533697e-05 5.9935046e-05 6.052711e-05 -4.706056e-05 -7.084137e-06 1.7082353e-05 2.9947681e-05
9.155453e-06 1.36456665e-05 -1.8701225e-05 -2.7759702e-06 -8.403155e-06 -2.897344e-05 -8.605672e-05 -6.0448358e-05
-8.268291e-06 1.5322154e-05 -9.089559e-05 -6.2077816e-05 3.4116198e-05 2.9457735e-06 4.108966e-05 1.7339376e-05
1.3253257e-05 0.00018980324 0.00023530485 0.00016873516 0.00012948488 0.00023120204 0.00013641766 0.00012385055
-1.0587742e-06 0.00016937911 0.000101407546 2.062582e-05 -5.1871197e-05 -1.746963e-05 0.00029204914 0.00019659515
2.5759915e-05 -0.00010505486 6.150465e-05 0.00022326047 0.000106157364 -2.0418147e-05 4.63431e-06 6.2521656e-05
0.00013821434 0.000110742214 0.00010741911 0.00013263439 0.00034466985 9.0092886e-05 5.6820252e-05 0.00012659637
0.00017799195 0.00035673764 0.00018186253 0.00020238064 0.000105404586 0.0001651196 0.00021348521 -2.4308949e-05
3.7749356e-05 8.756389e-06 0.00016221624 0.00017918249 -0.00016573745 -2.345243e-05 6.721352e-05 0.0001980029
0.00030995964 4.2598243e-05 -4.426387e-05 0.00010183522 4.6548088e-05 0.000116117255 6.153178e-05 0.00025321185
5.483764e-05 0.00011049431 9.403972e-05 0.000119126526 0.00022602915 0.00014233196 0.00020152506 9.3310846e-05
6.77175e-05 4.5291745e-05 0.00014567132 0.00016272496 4.396807e-05 1.9621606e-05 -6.566701e-07 0.00027500725
0.0002531885 0.00019944941 0.00026302141 0.000104747334 6.26421e-05 0.00024080154 0.00029523417 0.0004056699
0.00021136981 0.00030513093 0.00034798656 0.0002893976 0.00014491305 0.00016667067 0.00021511286 8.301561e-05
0.00021671377 0.0004477121 0.00027623324 7.660932e-05 3.7492446e-05 6.936965e-05 4.411389e-05 6.758691e-05
-9.122145e-05 -0.00013755335 -0.00014146694 6.6628745e-05 7.2938565e-05 0.00019405101 0.00022074145 0.0002313
0.00031254644 0.00030984642 0.00022520295 0.00023742164 0.00021540948 0.00022305135 0.00022929025 0.00018868306
0.0001045979 0.0001713566 0.0002464807 0.000278573 0.00015394496 0.00011279681 0.00018282334 0.00032678046
0.00023156246 -2.9229723e-05 -6.867203e-05 -4.066206e-05 0.00030124848 8.31528e-05 9.668969e-06 1.8863002e-05
3.0782953e-06 -1.0000428e-05 -9.0186695e-05 2.80568e-05 5.0034516e-05 4.987386e-05 5.2151434e-05 5.83996e-05
-8.324304e-06 2.722756e-05 4.073075e-06 -7.81025e-06 1.1501863e-05 -3.2055797e-07 -2.4074774e-05 -4.0446295e-05
-3.5960915e-05 -1.825858e-05 -1.1320354e-05 -3.1199954e-05 1.26082705e-05 -1.703824e-05 -3.2665168e-05 5.6189467e-05
9.055892e-05 -1.5307753e-05 -4.8448204e-05 3.191563e-05 2.359286e-05 2.6097014e-05 1.642735e-05 -1.3162639e-05
3.3195105e-05 9.441413e-08 4.405651e-05 6.242854e-06 -1.9713996e-05 -7.455126e-05 -5.668768e-05 -5.894783e-05
6.727614e-06 -7.8800185e-05 -8.764479e-05 -6.1902196e-05 -6.691267e-05 -3.2950615e-05 -3.3786528e-05 2.5088486e-05
3.7051283e-05 0.00012507076 0.00012061201 0.00023978189 0.00016153515 -3.958481e-05 0.00019086125 0.0001182245
9.71917e-05 0.00018508766 0.00015084623 6.9440866e-05 -2.4129331e-05 0.00010901006 0.0001497135 8.099415e-05
-8.810081e-05 -5.514374e-05 -2.5321951e-05 -7.6856755e-05 -0.00016854177 -5.2517356e-05 -8.0415775e-05 -6.524344e-05
-8.625129e-05 0.00011261611 6.6211e-05 9.197985e-05 -1.2885337e-05 -0.000104802006 1.6519738e-05 -4.506631e-05
4.1678475e-05 6.966443e-05 -1.9709749e-05 3.1248743e-05 2.0238023e-05 -7.999006e-06 4.6887635e-05 7.679345e-05
3.16117e-05 5.8234555e-06 7.697788e-05 8.672052e-05 9.525776e-05 -7.155829e-05 -9.834771e-06 7.436416e-05
0.00010439712 6.697833e-05 -3.459687e-05 -1.4817587e-05 7.6118076e-06 7.256359e-05 1.1288036e-05 5.594177e-05
00000000: c278 8437 a65b ef37 c462 7b38 7dde 7d38
00000010: e462 45b8 46b4 edb6 134c 8f37 2838 fb37
00000020: 5f9a 1937 b1ef 6437 93e0 9cb7 ce4a 3ab6
00000030: 47fb 0cb7 fd0b f3b7 5a79 b4b8 ee89 7db8
00000040: 0ab8 0ab7 1388 8037 339f beb8 c62f 82b8
00000050: fd17 0f38 01b0 4536 b057 2c38 0774 9137
00000060: 4e5a 5e37 eb05 4739 2abc 7639 80ee 3039
00000070: 55c6 0739 d36e 7239 560b 0f39 e1dd 0139
00000080: 341b 8eb5 5c9b 3139 c3aa d438 9c05 ad37
00000090: 4690 59b8 bf8b 92b7 2c1e 9939 1c25 4e39
000000a0: ff16 d837 e650 dcb8 0ffc 8038 071b 6a39
000000b0: cda0 de38 a347 abb7 6b80 9b36 0f1e 8338
000000c0: a1ed 1039 463e e838 3246 e138 c613 0b39
000000d0: ceb4 b439 40f0 bc38 4852 6e38 f4be 0439
000000e0: 5aa3 3a39 8408 bb39 5ab2 3e39 2436 5439
000000f0: a80c dd38 f523 2d39 00db 5f39 12eb cbb7
00000100: 1055 1e38 68e8 1237 9718 2a39 efe2 3b39
00000110: cfc9 2db9 b6bb c4b7 fcf4 8c38 009f 4f39
00000120: 1482 a239 84ab 3238 f8a7 39b8 5e90 d538
00000130: a13c 4338 fa83 f338 9f0a 8138 85c1 8439
00000140: 7801 6638 2eb9 e738 3137 c538 91d3 f938
00000150: 3d02 6d39 f23e 1539 7950 5339 e1af c338
00000160: 8e03 8e38 a4f7 3d38 59bf 1839 26a1 2a39
00000170: 5b6a 3838 1499 a437 0746 30b5 d92e 9039
00000180: 63be 8439 4b23 5139 23e6 8939 ccab db38
00000190: b95e 8338 ac7f 7c39 a9c9 9a39 18b0 d439
000001a0: 27a3 5d39 fbf9 9f39 f771 b639 4aba 9739
000001b0: cdf3 1739 51c4 2e39 eb8f 6139 ab18 ae38
000001c0: a93d 6339 e7ba ea39 66d3 9039 51a9 a038
000001d0: 3541 1d38 8c7a 9138 ee06 3938 72bd 8d38
000001e0: 254e bfb8 323c 10b9 be56 14b9 09bb 8b38
000001f0: 98f6 9838 2c7a 4b39 d576 6739 1f89 7239
00000200: 46dd a339 e272 a239 7524 6c39 63f4 7839
00000210: 8bdf 6139 e4e2 6939 a26d 7039 39d9 4539
00000220: 925b db38 30ae 3339 143a 8139 6f0d 9239
00000230: 496c 2139 548d ec38 44b4 3f39 bb53 ab39
00000240: 93cf 7239 5a32 f5b7 0404 90b8 8e8c 2ab8
00000250: e3f0 9d39 5262 ae38 e837 2237 fd3b 9e37
00000260: b694 4e36 83c7 27b7 9d22 bdb8 855b eb37
00000270: 27dc 5138 a62f 5138 2dbd 5a38 18f2 7438
00000280: 9da8 0bb7 bd66 e437 73ab 8836 c508 03b7
00000290: 20f8 4037 2719 acb4 2ff4 c9b7 e1a4 29b8
000002a0: bdd4 16b8 012a 99b7 8dec 3db7 b2dc 02b8
000002b0: 1c88 5337 57ed 8eb7 f501 09b8 fbac 6b38
000002c0: 73ea bd38 2669 80b7 dd34 4bb8 26dd 0538
000002d0: 48e9 c537 e9ea da37 77cd 8937 1bd5 5cb7
000002e0: f93a 0b38 b8c0 ca33 51c9 3838 b579 d136
000002f0: 7c5f a5b7 6758 9cb8 efc3 6db8 c03e 77b8
00000300: c4bd e136 8741 a5b8 f0cd b7b8 7dd1 81b8
00000310: 7753 8cb8 7434 0ab8 02b6 0db8 1d75 d237
00000320: 8367 1b38 6d25 0339 14f1 fc38 f66d 7b39
00000330: c361 2939 de07 26b8 ed21 4839 4cef f738
00000340: 66d3 cb38 1714 4239 7a2c 1e39 c8a0 9138
00000350: 5869 cab7 559c e438 69fc 1c39 67db a938
00000360: c3c2 b8b8 244a 67b8 7a6a d4b7 282e a1b8
00000370: 96ba 30b9 1546 5cb8 e4a4 a8b8 4ed3 88b8
00000380: cfe1 b4b8 502c ec38 c3da 8a38 4ee5 c038
00000390: 1a2e 58b7 26c9 dbb8 de93 8a37 9505 3db8
000003a0: eccf 2e38 ce18 9238 5d56 a5b7 1511 0338
000003b0: d3c4 a937 7833 06b7 37a9 4438 2b0c a138
000003c0: ce96 0438 1a67 c336 2f6f a138 badd b538
000003d0: 1fc5 c738 9011 96b8 0500 25b7 f4f3 9b38
000003e0: c7ef da38 b876 8c38 1b1c 11b8 0d99 78b7
000003f0: ee68 ff36 482d 9838 bf61 3d37 05a3 6a38
