lightning_logs/version_2/checkpoints/epoch=0-step=37.ckpt (torch, 273474 bytes, 24 tensors)

conv1.weight f4 [10, 1, 5, 5]
000000 91 9a b7 bd fa b1 6b bb d0 47 33 be 9e a8 01 be
       -0.08965028 -0.0035964237 -0.17507863 -0.12661979
000010 62 45 7e be e1 40 ac be f2 90 ce bd bf 2f c5 bc
       -0.24831155 -0.3364325 -0.1008624 -0.024070619
000020 51 b6 20 3e 67 78 31 3c 7c 3f 36 be 71 49 38 be
       0.15694548 0.010831929 -0.17797655 -0.17996766
000030 8d fb cd bd 57 f6 e6 bd fd a9 49 3d 43 c6 83 be
       -0.10057745 -0.11277454 0.04923438 -0.257372
000040 29 f9 23 be ae d3 7e be 01 11 88 be fa 36 40 3d
       -0.16013016 -0.24885437 -0.26575473 0.04692743
000050 18 d6 f6 bc ab 6f 9c bd 2e b0 ea bc c1 ae 09 be
       -0.030131385 -0.076384865 -0.028648462 -0.1344557
000060 c9 81 1e bc 07 fb 38 be 96 39 0e be 79 87 df bd
       -0.009674498 -0.1806451 -0.13889155 -0.10914511
000070 6e bd 0e be 55 d4 81 3c 97 6f 8c bc 4c 33 ad 3d
       -0.13939449 0.015848318 -0.017143054 0.0845705
000080 8c 51 8a be 03 b2 c3 bd d8 fc 8f be 71 b8 60 3d
       -0.2701534 -0.095554374 -0.28122592 0.054863397
000090 61 94 1d be 86 f8 c8 bd 23 b3 8e be b5 1f 82 bc
       -0.15388633 -0.09813027 -0.27871045 -0.01588426
0000a0 a6 97 3d bd cf 9c 57 3d 14 05 4a be a7 c7 67 be
       -0.0462872 0.05263978 -0.197285 -0.22634755
0000b0 89 71 1b bd 3d 32 27 bd 6e 75 92 bd bf 7f 88 be
       -0.037950072 -0.040819395 -0.07151304 -0.26659963
0000c0 98 f5 19 3c 23 ea 8f be 0d a0 0a be b5 eb 1f be
       0.009396933 -0.2810832 -0.13537617 -0.15617259
0000d0 29 d7 3b be c9 c5 31 3d 9e c5 92 be cf 26 b8 3d
       -0.18343796 0.043401513 -0.28666395 0.08991777
0000e0 bc be 71 bd d2 c8 36 be e0 ee 46 bd b4 81 e5 bc
       -0.05901979 -0.17850044 -0.048567653 -0.028015949
0000f0 10 35 af bd 1d 15 30 bc be d6 be bd 9b dd 93 be
       -0.08555043 -0.010747221 -0.093183026 -0.2888001
000100 f7 c8 92 bc 3f d5 83 bc 21 dd af 3d cf 11 68 be
       -0.017918093 -0.016092895 0.08587099 -0.22663043
000110 6e 20 90 bd 26 c5 81 be 55 8b 83 be 72 25 88 be
       -0.070374355 -0.25345725 -0.2569224 -0.26591069
000120 18 15 f0 3c f6 c2 51 be bc cb c5 bd dc 94 45 be
       0.029306933 -0.20484528 -0.09658 -0.19295067
000130 74 ba 1f bd 8e f7 e3 bb 0f 53 2d be 7f b6 8b be
       -0.038996175 -0.006957001 -0.16926216 -0.2728767
000140 a7 9b ef bd 74 44 ae 3d ec 13 ab 3c 09 4b fa bd
       -0.1169961 0.0850915 0.020883523 -0.12221343
000150 e1 47 cf bc c0 63 ef bd 79 76 ad bd 5e b7 cc bc
       -0.02530283 -0.11688948 -0.084698625 -0.02498978
000160 3a d8 0c bb 3d f6 87 be ad 8b 69 bd 64 bf a9 bd
       -0.0021491186 -0.26555052 -0.05701797 -0.08288458
000170 06 d7 79 3d 06 3c 9b be d8 d5 e1 bc 4c 5d b4 bd
       0.060996078 -0.30319232 -0.027567789 -0.088068575
000180 d2 08 a2 3c 54 ca 0a be 04 89 3d be c6 c6 07 bd
       0.019779596 -0.13553745 -0.18509299 -0.03314855
000190 a6 f9 a8 be b0 d4 a7 bc 2e fe 6f be fd d4 c4 3c
       -0.33002967 -0.02048716 -0.23436806 0.024027342
0001a0 0a 60 98 bd ac fd 08 3d ff 52 f8 bd 07 3d a4 be
       -0.07440193 0.033445045 -0.12125205 -0.3207781
0001b0 45 c7 84 be d3 6c e8 3d ac 0f ac bc 89 35 63 be
       -0.2593328 0.113488816 -0.021003567 -0.22188391
0001c0 e9 6e 61 be a0 bb 35 3d 86 56 36 be 8d 2c 76 be
       -0.22014965 0.044368386 -0.17806444 -0.24040432
0001d0 2c cc 2c be 7e 65 8c be 26 34 17 be a8 7a f9 bd
       -0.1687476 -0.27421182 -0.14765987 -0.12181598
0001e0 5a 56 10 be 05 df ae bd ec b0 de 3c 6a 69 3a 3d
       -0.1409544 -0.08538631 0.027183972 0.045510687
0001f0 b0 5a 2d be 17 f3 20 be c2 bd cb bc e1 b3 59 be
       -0.16929126 -0.15717731 -0.024870757 -0.21260025
000200 5d ae 34 be 6f d0 87 bd cd 9e 1a bd 66 72 14 be
       -0.1764464 -0.066315524 -0.0377491 -0.14496765
000210 f5 d8 97 bd 2c ad 95 be 9f fb 15 bd fd c0 10 3d
       -0.07414428 -0.29233682 -0.036616918 0.035340298
000220 65 5e 60 be be 01 25 3d cb a9 bb bd a0 69 4a bc
       -0.21911009 0.040284865 -0.09163245 -0.0123542845
000230 2a 58 5d bd 22 01 9f 3c f1 c0 16 bc 20 53 bf bd
       -0.054039158 0.01940972 -0.009201274 -0.09342027
000240 c5 49 62 bd 1d c8 87 be 60 1a ad 3d 8c f0 7e bc
       -0.055246133 -0.26519862 0.08452296 -0.0155602805
000250 66 7b f3 bd 98 f9 96 bc f4 6e bd bd 5b d3 82 bd
       -0.11888771 -0.018429562 -0.09249678 -0.06387969
000260 26 86 ac be 6c 73 a7 be 90 87 ad be c3 cb 8e 3d
       -0.33696097 -0.32705247 -0.33892488 0.06972458
000270 da 57 79 bd 73 dc c7 3c 6c c6 3b 3d 03 22 ca bd
       -0.060874797 0.02439711 0.045843527 -0.098697685
000280 e8 d2 18 be ba eb 91 3d 88 00 14 bd 36 04 1b be
       -0.14924204 0.071250394 -0.03613332 -0.15138325
000290 11 38 9a 3c 1d b8 73 bd 43 82 98 bd 2b 41 80 be
       0.018825563 -0.059501756 -0.074467205 -0.2504972
0002a0 24 2a d5 bd 08 ca 8d be 2e 03 8c 3b 14 de e3 bd
       -0.10408428 -0.276932 0.00427284 -0.111263424
0002b0 89 85 61 be f9 b0 50 be b8 62 6e be cb 35 08 3c
       -0.22023596 -0.2038001 -0.23279846 0.0083136065
0002c0 d0 4c 19 bc 3f 30 63 be cd 1d 0f be bd e1 68 be
       -0.009356692 -0.22186373 -0.13976212 -0.22742362
0002d0 79 4b 09 be 61 a6 88 be 8f f5 04 3d 8d c9 3d be
       -0.13407697 -0.26689437 0.032460745 -0.18533917
0002e0 b9 f0 f6 3c d8 dd 80 3d ce 1a 47 be 9c 9c 2f be
       0.030144082 0.06292313 -0.19443819 -0.17149585
0002f0 37 a3 15 be e0 20 5b bd 25 62 4d bd 05 41 24 be
       -0.14613043 -0.05349815 -0.050142426 -0.16040428
000300 5e 00 8e be 80 06 c6 bc 44 c4 54 3c 21 1a cc 3d
       -0.27734655 -0.024173021 0.0129862465 0.09965921
000310 52 bb 72 be 0b 3c 9d bd fa 8a 17 be 68 2f 46 bc
       -0.2370427 -0.07677468 -0.14799109 -0.0120962635
000320 ce 68 1c be 7f 71 5f 3d 10 28 84 bd 9a 2d 94 be
       -0.15274355 0.054551598 -0.06452954 -0.2894104
000330 ba 01 7d be bb a6 a1 bd cc 6c 91 be ec 74 d8 bc
       -0.2470769 -0.078931294 -0.28403318 -0.02642294
000340 fe 64 73 be 54 bd b2 be 79 3c 6b bc 28 ed bd bd
       -0.23768994 -0.3491007 -0.0143576795 -0.092737496
000350 be c3 72 be b5 90 77 3c 1d 92 51 be 14 40 5c 3d
       -0.23707482 0.015110184 -0.20465894 0.053772047
000360 56 b6 d2 bc f7 01 24 3c 56 2e 94 be 07 1d f6 3b
       -0.02572171 0.010010234 -0.28941602 0.0075107845
000370 76 b8 9e bd 56 8a 00 be 7f 72 89 be db 5e 57 3c
       -0.07750027 -0.12552771 -0.26845166 0.013145174
000380 3a da e1 bd 06 f7 fa bd 68 3d f6 bd 82 0f 11 bd
       -0.110279515 -0.12254147 -0.12023431 -0.03541518
000390 52 98 18 be ff df 60 bd ab ff 52 be c2 11 a0 be
       -0.14901856 -0.05490112 -0.20605342 -0.31263548
0003a0 5b b7 e6 bd 8f 13 9d bc 87 4d 7a be 82 8b 91 be
       -0.11265441 -0.019174365 -0.24443637 -0.2842675
0003b0 c0 0f 1a bc a6 52 94 3b d0 2e 13 3d 05 4b 08 3c
       -0.009403169 0.004526454 0.035933316 0.008318667
0003c0 8f 55 8b be b7 2a c3 3c 2c 7b 28 be 8e e8 d0 bc
       -0.27213714 0.023824079 -0.16453236 -0.025501516
0003d0 ac 2f 07 be c9 63 a6 be f5 0e 4e be 15 cc e8 3c
       -0.13201779 -0.32498005 -0.20122893 0.028417626
0003e0 4a 78 cd 3a 92 bd 29 be
       0.0015676108 -0.16576222

conv1.bias f4 [10]
000000 00 08 b8 be 98 29 aa bd ba 39 6b bd a1 31 6a bd
       -0.35943604 -0.08308715 -0.0574281 -0.057176236
000010 46 9a 25 be 17 54 a3 bd e1 94 ee bc b5 34 85 3d
       -0.16172132 -0.07975023 -0.029123725 0.06504194
000020 55 3f f4 bc c6 fa 28 be
       -0.029815355 -0.16501912

conv2.weight f4 [20, 10, 5, 5]
000000 1b c9 e6 bd d5 23 ba bd 65 4e 04 be 34 84 f1 3d
       -0.112688266 -0.09088866 -0.1292053 0.11792794
000010 09 8f ac bd 4c f2 2e be c3 8f 9d bd ad a4 e4 bd
       -0.08425719 -0.17084616 -0.07693436 -0.11164222
000020 5d b5 35 be 21 37 d1 bd a6 8f 14 be e4 da 15 be
       -0.17744966 -0.10215593 -0.14507923 -0.14634281
000030 ea f3 1f be 82 f4 c5 bd d0 5e 30 be 0a b0 a5 3d
       -0.1562039 -0.09665777 -0.17223668 0.080902174
000040 3d 50 8a 3d 7d 14 a7 3d 00 fc 18 be a7 28 ed bd
       0.067535855 0.08158205 -0.1493988 -0.115800194
000050 ba e1 b3 3d f2 c2 03 3e 0b 4b 02 3e a5 3f f6 bd
       0.08783288 0.12867334 0.12723939 -0.12023858
000060 26 de c4 3d a1 e9 f6 3d dd be 2c be f5 65 23 be
       0.09612684 0.1205628 -0.16869684 -0.15956862
000070 8f c2 2f be 84 a8 2e be 1f 3b 2d be a6 d0 12 be
       -0.17164062 -0.17056471 -0.16917084 -0.14337406
000080 57 b6 90 bd 50 8f 34 be 8a 24 bd bd 5a 9d 82 bd
       -0.070660286 -0.17632794 -0.09235485 -0.06377669
000090 ca a3 19 be a7 69 69 bd ed 2d 7f bd 9a cc 9b bd
       -0.15003887 -0.056985524 -0.062299658 -0.07607384
0000a0 af 21 f2 bd 59 ad 16 be 76 0a a4 3d 69 46 37 3e
       -0.11822831 -0.14714564 0.08009808 0.17897953
0000b0 67 8c d0 bd b0 b2 d0 bd 3c 80 08 be e2 3b 86 3d
       -0.101830296 -0.10190332 -0.13330168 0.065543905
0000c0 7f a9 03 3e 35 b3 97 bd 97 0e 38 3e d5 93 0d be
       0.12857626 -0.07407228 0.17974316 -0.13825925
0000d0 24 90 e3 bd ee a6 d4 bd d7 18 35 be ff 8f 0d 3e
       -0.11111477 -0.10383402 -0.17685257 0.13824461
0000e0 8c 87 1f be 83 a3 9d 3d 9d 62 f5 bd fd a5 b7 bd
       -0.15579051 0.07697203 -0.119816996 -0.089672066
0000f0 ca 07 e2 bd 3d 95 a2 bd f8 b5 27 be d4 58 a1 bd
       -0.11036642 -0.07938621 -0.1637801 -0.07878271
000100 4e 0e 85 bd bf 6c b5 bd b8 31 12 be 6b db bb bd
       -0.06496869 -0.08858632 -0.14276779 -0.0917271
000110 27 d3 37 be 1b ca 7d bd 9d 1f e6 bd 36 86 23 be
       -0.17951642 -0.06196032 -0.112364985 -0.15969166
000120 df 9e e3 3d e8 bc c7 3d 55 0b 93 bd de af 0a be
       0.11114287 0.09752828 -0.07179896 -0.1354365
000130 90 b5 38 be 12 7a 0b be 8a ae eb bd 05 76 33 be
       -0.1803801 -0.13620785 -0.115079 -0.1752549
000140 5f ce 69 bd 03 84 20 be a3 3b 0d be 1e 8b 6a bd
       -0.057081576 -0.15675358 -0.13792281 -0.05726158
000150 d1 5c a6 bd 3a 1e 2d be 28 da b5 bd bb 6b bf bd
       -0.08123172 -0.16906062 -0.08879501 -0.0934672
000160 1b e1 fc bd eb d1 b7 bd 37 02 14 3e dc fc 07 be
       -0.12347623 -0.089755856 0.1445397 -0.13280052
000170 96 15 03 be d8 c9 26 be 5a 07 b0 bd 25 54 0e 3e
       -0.12801203 -0.16287935 -0.08595152 0.13899286
000180 37 a0 10 3e b2 45 89 3d f6 8a 10 3e 28 60 36 be
       0.14123617 0.067027465 0.1411551 -0.17810118
000190 11 87 de bd 09 cc 17 be 89 34 18 be 5c f7 b3 bd
       -0.108656056 -0.14823927 -0.1486379 -0.087874144
0001a0 34 73 f6 3d 77 7f a8 bd 37 6a 60 3d c2 f8 ed bd
       0.12033692 -0.08227437 0.054788794 -0.116197124
0001b0 8e 5d c7 bd 78 f1 b0 3d 9f ec 1e be ee 47 ee 3d
       -0.09734641 0.086398065 -0.15519951 0.11634813
0001c0 95 eb 14 3e af fc 34 3e 92 96 9a 3d 91 f9 a8 bd
       0.14542992 0.17674516 0.0754825 -0.08250726
0001d0 4f 99 9b 3d c7 62 6e bd 05 4a 75 bd 8d 41 60 3d
       0.07597601 -0.05819967 -0.059885044 0.054750014
0001e0 c6 7d fb bd 3d 06 17 be 0f e8 03 be 61 05 31 be
       -0.12279849 -0.14748473 -0.12881492 -0.17287208
0001f0 32 14 b8 bd 2d ee 0c be 9b 16 db bd 74 66 05 be
       -0.08988227 -0.13762732 -0.10697671 -0.13027364
000200 3a 30 fb bd 1f 10 13 be 11 ba d2 bd 70 26 08 be
       -0.12265058 -0.14361618 -0.102893956 -0.13295913
000210 bf 5f a1 bd 4f 2b 22 be 3a 67 c8 bd 71 4d cb bd
       -0.0787959 -0.15836833 -0.09785314 -0.0992688
000220 e9 0a 73 bd dd 58 eb bd b4 7b 80 bd 9d 99 b9 bd
       -0.059336577 -0.11491559 -0.062735945 -0.090625025
000230 44 31 bd bd 14 a9 01 3e c3 a9 68 bd 7b 84 d2 bd
       -0.09237912 0.12662154 -0.056802522 -0.10279175
000240 6e 62 27 be 4a ca c1 3d f3 8c 2e 3e 76 6c 6e 3d
       -0.16346142 0.09462412 0.17045955 0.058208905
000250 fe 9a cb 3d 34 ad 2f 3e a9 b7 f5 3d 59 02 03 be
       0.09941672 0.17155915 0.11997921 -0.12793864
000260 8d 57 74 bd 70 5f 9d bd 84 b0 b4 bd 1d a6 8b 3d
       -0.059653807 -0.07684219 -0.0882273 0.06818793
000270 11 a2 00 3e 2c 79 cf bd 37 a1 86 bd 87 fe 04 be
       0.12561823 -0.101305336 -0.06573718 -0.1298772
000280 4b 23 01 be 6a 8d e6 bd 1f 01 18 be d4 7a b6 bd
       -0.1261112 -0.11257441 -0.14844178 -0.08910146
000290 c0 3c f7 bd c1 82 ba bd db f5 01 be c7 9b ac bd
       -0.12072134 -0.091069706 -0.12691443 -0.0842815
0002a0 01 c7 a2 bd 84 8a 10 be 39 6c dd 3d 2a e1 19 3e
       -0.07948113 -0.1411534 0.108116575 0.150273
0002b0 ac a0 88 3d db 11 f3 bd 61 ff a7 bd e0 58 f2 bd
       0.06671271 -0.1186864 -0.082030065 -0.11833358
0002c0 d2 b9 d5 bd f5 92 b2 bd 19 4b 36 be 53 e5 c6 bd
       -0.10435833 -0.08719436 -0.17802085 -0.09711709
0002d0 36 94 1b be 85 c2 dd bd 24 1f 03 be f7 db aa bd
       -0.15193257 -0.10828117 -0.12804848 -0.08342736
0002e0 fb 31 a5 bd d0 6e 8f bd df a7 29 be dd 74 13 be
       -0.08066174 -0.07003558 -0.16567944 -0.14400049
0002f0 ed ed 9c bd 9a 8f 36 be f3 4e 9c 3d 4f 31 31 3e
       -0.07662568 -0.17828217 0.07632246 0.17303966
000300 a2 c7 7e bd 74 9c fe bd c8 da 2e be f3 04 23 3e
       -0.062202103 -0.12432185 -0.17075646 0.15919857
000310 2b 69 f7 bd 48 4b 6c bd d0 91 e8 3d 67 36 18 be
       -0.12080606 -0.05768898 0.113559365 -0.14864503
000320 af b4 e1 3d 8d aa 06 be e9 99 6e bd 04 a2 34 3e
       0.11020791 -0.13150997 -0.05825225 0.17639929
000330 a1 26 b3 bd f1 66 da bd 5b 56 04 be 2e ee ab bd
       -0.08747602 -0.10664166 -0.12923567 -0.083950385
000340 89 41 eb bd c0 42 8a bd 42 b2 0a 3e be 9e 18 be
       -0.11487109 -0.06751013 0.13544562 -0.14904305
000350 23 aa 1c be fa 0f a8 bd ab 85 fb bd 0c a2 a7 3d
       -0.15299277 -0.08206172 -0.122813545 0.08185205
000360 58 dc 07 be 1c a5 71 3d 4b b4 e0 3d 9f 7a f1 bd
       -0.13267648 0.05899535 0.10971888 -0.11790966
000370 5a 08 92 3d 5d 1d 29 be 90 da 87 3d 8a f7 0a 3e
       0.07130499 -0.16515107 0.06633484 0.13570991
000380 b2 bd 6f bd 83 0c f9 bd dc 8a f6 bd 33 57 22 be
       -0.058530517 -0.121605895 -0.12038204 -0.15853576
000390 91 a9 07 be 6d ce eb 3d 01 0c fb bd 7f 47 f4 bd
       -0.13248278 0.11513982 -0.12258149 -0.11927699
0003a0 81 a8 ac bd 18 45 90 bd 7a dd 0f be 52 35 38 be
       -0.08430577 -0.070444286 -0.1404933 -0.1798909
0003b0 cd e7 8b bd 32 3d a9 bd d8 c4 02 be 5d 71 ba bd
       -0.06831322 -0.08263625 -0.12770402 -0.091036536
0003c0 5b 8f af bd ad f1 d3 3d 27 f6 12 3e f9 3b 23 be
       -0.08572265 0.1034883 0.14351712 -0.15940847
0003d0 36 52 b8 bd 20 45 c5 3d de 7d ac 3d cc 93 33 3e
       -0.090000555 0.09632325 0.08422445 0.17536849
0003e0 76 db d9 bd 3d 31 0c be 3b ac 1b be ea c4 cc bd
       -0.10637562 -0.13690658 -0.1520242 -0.09998496
0003f0 9d 1f 1c be cb 61 d9 bd b1 fe 11 be 7a e2 30 be
       -0.15246435 -0.10614356 -0.14257313 -0.17273894

conv2.bias f4 [20]
000000 66 7d f0 bd cc de 17 be 7f 27 f2 bd c5 76 e2 bd
       -0.11742668 -0.14831084 -0.118239395 -0.1105781
000010 9b cf 85 bd 00 45 03 be 56 37 73 bd 40 ba bf bd
       -0.06533738 -0.1281929 -0.059378944 -0.09361696
000020 c6 ee c9 bd f0 ca 03 be 94 fc d5 bd 9d 0a 87 bd
       -0.098599955 -0.12870383 -0.10448566 -0.06593821
000030 b3 95 21 be 10 f7 ac bd fb 88 c1 bd 09 98 ed bc
       -0.15779762 -0.08445561 -0.09449955 -0.02900316
000040 f8 b4 b4 bd 11 80 83 bd 03 8e 10 be 17 bc 90 bd
       -0.088235795 -0.06420911 -0.14116673 -0.07067125

fc1.weight f4 [50, 320]
000000 ff d5 0c be 6a b2 7e 3d 48 53 d9 3d ae e1 0d 3e
       -0.13753508 0.062181868 0.10611588 0.13855621
000010 4c 72 18 3e 97 d8 bb 3d 02 c0 05 3e 91 bf 25 3e
       0.14887351 0.091721706 0.13061526 0.16186358
000020 ee fe b6 3d de 64 bd 3d c7 9a e6 3d a7 39 1b be
       0.08935343 0.092477545 0.1125999 -0.15158711
000030 d9 43 88 3d 31 67 e1 3d 95 1d 98 3d 9c 4f 00 be
       0.06653566 0.1100601 0.07427517 -0.12530369
000040 8a b2 2c be f6 08 d1 bd e6 47 c4 bd af fd 27 be
       -0.16864982 -0.10206787 -0.09584026 -0.16405366
000050 df e9 02 be 83 b6 26 be 55 8c 1d be 8d 3f bd 3d
       -0.12784527 -0.1628056 -0.15385564 0.09240637
000060 f7 b7 2b be ca 09 7d bd c5 30 a0 bd dc 5d ef bd
       -0.16769396 -0.061776914 -0.07821802 -0.11687824
000070 b5 bd 12 be ab 03 81 bd 5a 6c bd bd bf 5c ab bd
       -0.1433018 -0.06299528 -0.09249182 -0.08367299
000080 72 2e 81 3d 3f fe d1 bd 68 47 21 3e 02 83 50 be
       0.06307687 -0.10253572 0.15749896 -0.20362476
000090 71 d0 fd 3d b0 fb 08 be ef 5f fd 3d 22 d2 ba bc
       0.12393273 -0.13377261 0.123718135 -0.022805277
0000a0 01 f2 bf 3d f7 33 2f be 30 29 40 be 97 54 19 be
       0.093723305 -0.17109667 -0.18765712 -0.14973675
0000b0 22 09 e6 bd 52 7d fa 3d df 7a db bd 0e d8 46 be
       -0.11232211 0.12230934 -0.10716795 -0.19418356
0000c0 89 4e 0d 3e 11 59 04 3d 3c 2d c2 3d f7 d4 15 3e
       0.1379949 0.032311503 0.09481284 0.14632021
0000d0 4f c8 a4 3d 3f 32 42 3e 7d b0 0b 3e c5 98 12 3e
       0.08046018 0.1896448 0.13641544 0.1431609
0000e0 f8 bf 06 3e 8e c3 c6 3d 93 e0 1d 3e b8 f7 4b 3d
       0.13159168 0.09705268 0.154177 0.04979679
0000f0 ef c6 c8 3d af 65 13 3e 8e 66 a9 3d 20 c1 8f 3d
       0.098035686 0.14394258 0.08271514 0.070192575
000100 29 a9 dc 3d d7 40 16 3e bb c5 f1 3d c2 4b fd 3d
       0.10774452 0.14673172 0.11805292 0.12367965
000110 0f 06 7f 3d 97 4e df 3d 94 f2 c2 3d 3d 61 d1 3d
       0.062261637 0.10903662 0.09518924 0.10223625
000120 5b 46 fb 3d 4b 34 c8 3d ab 50 f6 3d f2 a3 ab 3d
       0.122692786 0.09775599 0.12027105 0.083808795
000130 73 73 09 3e 45 ab aa 3d 19 73 1e 3e 53 4d 0b 3e
       0.13422947 0.08333448 0.15473594 0.13603716
000140 7e 67 f5 bd d9 01 d1 3d d3 f4 89 bd a0 8b 92 bd
       -0.1198263 0.102054305 -0.0673615 -0.071555376
000150 16 fd 52 be e6 1b 24 be c1 85 41 3e 88 20 dc bd
       -0.20604357 -0.16026267 0.1889868 -0.10748392
000160 fc ea 6f bd 11 94 bb bd 3e e7 c2 bd 02 fe a6 bd
       -0.058573708 -0.09159101 -0.09516762 -0.08153917
000170 36 63 14 be 42 94 80 bd 47 bc e4 3d a1 4e d2 3d
       -0.14490971 -0.06278278 0.111687236 0.102689035
000180 6f f3 c0 bd f9 f0 0d 3e 99 3e bc bd d1 ed 8d bd
       -0.09421431 0.13861455 -0.09191627 -0.069301255
000190 2c 48 b1 3d b8 d0 2e 3e 93 e5 e9 bd ee 98 17 3e
       0.08656344 0.17071807 -0.11420741 0.14804432
0001a0 db 35 a5 bd 53 92 de bd 51 00 0f 3e e6 2c aa bd
       -0.08066913 -0.10867753 0.13964964 -0.08309345
0001b0 ab 54 00 3e b1 51 2a 3e 66 3e 05 be 71 2e d3 3d
       0.12532298 0.16632725 -0.13012084 0.10311592
0001c0 04 58 4a bd 44 77 ee 3d 5f 81 8b 3d 2d 7f 2f bc
       -0.049400344 0.11643842 0.06811785 -0.010711473
0001d0 1a 66 37 be e7 0a be 3c 5b 96 6f bd c8 82 12 3d
       -0.17910042 0.023198558 -0.058493 0.035769254
0001e0 e8 a9 9f 3c 97 aa 0b 3d cb 8c 1f bd b8 3c 9e 3b
       0.019490197 0.034098234 -0.03895263 0.0048290156
0001f0 aa e2 ac 3c 59 41 34 bd 92 e3 77 bd a4 40 86 bd
       0.021104176 -0.044007633 -0.060519762 -0.06555298
000200 dc 83 4a be a3 44 80 bd 2d e9 17 be 5a 24 b5 bd
       -0.19776863 -0.062630914 -0.14835043 -0.08844824
000210 9f f4 47 be bb b2 24 be d8 60 34 be c1 cc 14 3e
       -0.1952691 -0.16083805 -0.17615068 0.14531232
000220 1e d1 b5 bd cf 6a 3d be 3c d2 3d be f2 16 22 3c
       -0.088777766 -0.18497775 -0.1853723 0.009893166
000230 5a 42 3d be 1b 4d ad bd 72 e3 38 be 85 83 84 bd
       -0.18482342 -0.08461972 -0.18055514 -0.06470398
000240 48 90 ad bd 9b f0 c3 bd e4 1c 18 be a8 5e 26 be
       -0.08474785 -0.09567376 -0.14854771 -0.16247046
000250 a5 8f 13 be 86 8e f1 bd b6 64 1c be dc 00 13 be
       -0.14410265 -0.11794762 -0.15272793 -0.14355797
000260 ee 02 be bd 0e c0 2f be 05 7a fc bd ae 60 bf bd
       -0.092779025 -0.17163107 -0.12327961 -0.09344612
000270 c9 ad a3 bd 2d ee 2e be 7e fc d0 bd 89 2c b6 bd
       -0.07992131 -0.17083044 -0.10204409 -0.08895213
000280 e7 3a 01 3d f9 5e d1 3d 40 29 88 3d 1c 16 8e 3d
       0.031550314 0.10223193 0.06648493 0.06937811
000290 56 8b a5 3d 18 c0 26 3e ee dd 2f 3d ad b3 ed 3d
       0.08083217 0.16284215 0.042936258 0.11606536
0002a0 58 1f 43 3d 51 bc 0e 3e e2 a9 b2 3d 14 6d 7a 3d
       0.047637314 0.13939025 0.08723809 0.06113918
0002b0 4b 96 62 3d 9a 19 c8 3d bb eb 1d 3e 68 03 35 3d
       0.05531911 0.09770508 0.15421955 0.0441927
0002c0 bf 8b a1 3d e0 9f 08 3e ca 56 f5 3d db 53 13 3d
       0.078879826 0.13342237 0.11979444 0.035968643
0002d0 a1 58 c3 3c b6 c6 da 3d 0d df b5 3d 21 ac f1 3d
       0.023845972 0.10682432 0.08880434 0.11800409
0002e0 cf 9d 02 3d 13 9b e7 3d 4c 52 24 3d 19 82 0a 3e
       0.03188878 0.11308875 0.040117547 0.13526191
0002f0 87 6b 10 3e f2 79 ba 3c d6 60 05 3e 85 50 86 3d
       0.14103518 0.022763226 0.13025221 0.06558327
000300 6e ca ee bd d3 bd 17 be aa 24 24 be c9 f1 bd bd
       -0.11659704 -0.14818506 -0.16029611 -0.092746325
000310 cc b9 e6 bd fd 51 d9 bd 18 d3 02 3e c3 06 23 be
       -0.11265907 -0.10611341 0.12775838 -0.15920548
000320 b4 43 f7 bd 67 e3 c5 3d 54 ae 23 be 1b 46 24 be
       -0.1207346 0.09662514 -0.1598447 -0.16042368
000330 bf 24 12 be fa ce 21 be 9b ad 2d be d0 30 99 bd
       -0.1427183 -0.15801612 -0.16960756 -0.07480013
000340 73 ed a9 3d c2 9f e2 3d 21 13 24 3d 25 64 80 3d
       0.08297243 0.11065628 0.040057305 0.06269101
000350 35 8c e4 3c 83 ee a2 3c 24 66 13 3c 3e 0d 95 3d
       0.027898887 0.019889122 0.00899652 0.07277916
000360 bc 45 bf 3b 30 8a 86 3c b2 2c 14 3d cf c2 a5 3d
       0.0058371704 0.016423315 0.036175437 0.080937974
000370 b4 e0 b4 3d 64 75 31 3c b9 d1 7f b9 3c 43 95 3d
       0.08831921 0.010831211 -0.00024396823 0.072882146
000380 94 0b 0e be 2c e0 a1 bd 38 18 2c be a5 57 f4 bd
       -0.13871604 -0.079040855 -0.16806114 -0.11930779
000390 2f 80 c3 bd 42 0d ac bd 23 1f d8 bd e4 e2 05 3c
       -0.095459335 -0.08400966 -0.10552814 0.008171771
0003a0 0f ad 00 be 95 0e a9 bd 9b 7f 88 bd e6 6f 18 bd
       -0.12566017 -0.082547344 -0.06664964 -0.03721609
0003b0 7f e1 b8 bd 51 71 93 bd a3 05 0e 3b e7 63 f5 bd
       -0.09027385 -0.07199348 0.002167084 -0.119819455
0003c0 0a d4 96 3d 2c a5 99 3d 40 95 f8 bd 0a 10 e7 bd
       0.07364662 0.07502207 -0.12137842 -0.11282356
0003d0 38 21 4a 3d de db 0a 3e 00 98 28 3d 94 23 c6 3d
       0.049348086 0.13560435 0.041160583 0.09674755
0003e0 d6 38 30 3d 79 5d 9b bc be 28 15 3e 58 53 1b 3e
       0.043022953 -0.01896547 0.14566323 0.15168512
0003f0 07 c4 e0 3d a2 cf 37 3d 09 70 b0 3d 54 5a e6 3d
       0.10974889 0.04487575 0.08615119 0.112476975

fc1.bias f4 [50]
000000 db 97 bc bd b9 4a 9f bd e7 53 11 3e 7a a0 eb bd
       -0.09208652 -0.07777924 0.14192162 -0.11505218
000010 19 30 8c bd 8b 93 b3 3d 28 08 10 be 6c b4 14 be
       -0.068451114 0.08768376 -0.14065611 -0.1452195
000020 b8 18 32 be 2e f1 2a be 31 35 ab bd c9 3c 0d be
       -0.17392242 -0.16693565 -0.08359755 -0.13792719
000030 88 5e 92 bd 1c 97 ad 3d 69 bc d4 bd ef df f2 bd
       -0.07146937 0.084760875 -0.10387499 -0.11859118
000040 38 1a c6 bd 86 81 ba bd c0 16 24 be 7b 9d 0c be
       -0.096729696 -0.09106736 -0.16024303 -0.13731949
000050 ed 19 b3 bd 7a 03 bf bd 5e b9 4b be 72 c1 08 be
       -0.08745179 -0.09326835 -0.1989493 -0.13355044
000060 45 28 aa bd c7 99 dd bd 3f 79 c9 bd fc 4e 80 bd
       -0.08308462 -0.10820346 -0.09837579 -0.06265065
000070 df bb 1d be 4c 85 89 bd 94 85 31 3d ba f3 81 bd
       -0.15403698 -0.067148775 0.04334028 -0.06345315
000080 2d 46 5b 3d 1a 91 80 3d ac 5c de bd 3e df ba bd
       0.05353372 0.06277676 -0.108575195 -0.09124611
000090 2f e4 1b be b1 2f 67 bc e5 01 09 be ee 45 5c bd
       -0.15223764 -0.014110492 -0.13379629 -0.053777628
0000a0 be 19 24 bc 6b 12 32 3e 3c e0 4a be 1b 68 0f be
       -0.010015903 0.17389838 -0.19812101 -0.14004557
0000b0 b3 10 9e bd 6a 49 c5 bd 4a 71 08 be 11 51 b2 bd
       -0.07718029 -0.09633143 -0.13324466 -0.087068684
0000c0 36 ad ae bd b8 17 fe 3c
       -0.08529131 0.03101717

fc2.weight f4 [10, 50]
000000 86 08 aa bd 6c 30 d1 3d 69 9f 44 3d c3 0a f5 bc
       -0.08302407 0.10214314 0.048003588 -0.029912358
000010 72 bf 3d be 21 09 4e 3d 01 a5 fc 3d d0 8b 6d bd
       -0.18530062 0.050301675 0.123361595 -0.057994664
000020 d5 ab a8 3d 4e da 13 3e 09 c3 12 be 8c b8 20 3c
       0.08235899 0.14438745 -0.14332213 0.009809624
000030 99 11 a2 bd 02 cf 16 3c 7b bd 69 bd be cc 8b be
       -0.07913513 0.009204628 -0.05706547 -0.27304643
000040 c6 0a 9a bc 83 9d 8c bd a3 42 c1 bc c0 f6 40 3e
       -0.018803965 -0.068659805 -0.023591345 0.18844128
000050 e1 c6 27 be 7b 1d 71 bd 9e 61 c2 bd 39 85 17 3d
       -0.1638446 -0.058866005 -0.09491275 0.036992285
000060 d1 9c cb bd 4c d0 10 3e 7f f7 ec bd 3d 5e ef 3d
       -0.0994202 0.14141959 -0.11570644 0.116878964
000070 0d dd 25 be 22 b3 4f 3e c5 d8 84 be 54 f8 69 bd
       -0.16197605 0.20283177 -0.25946632 -0.05712159
000080 c6 5a 3b bd 0c 19 d3 3c d2 00 b3 bc eb 66 df 3c
       -0.045740865 0.02576878 -0.021850977 0.027270755
000090 94 cf 37 bc cd fa b4 3d 09 2a 57 3e 0c 6d a4 3b
       -0.011218924 0.08836899 0.21012129 0.005017882
0000a0 27 0c d1 3d cf 14 b4 bb a3 fa 7e 3e 59 f8 7f be
       0.10207396 -0.0054956446 0.24900298 -0.24997081
0000b0 ce a5 20 3e 1e 5f 65 3d 4e bf a4 3c 68 cd 0c bd
       0.1568825 0.055998914 0.020110752 -0.03437558
0000c0 f9 94 c0 3d 3e e9 d2 3d c0 0b db bd 50 60 86 bd
       0.09403414 0.10298394 -0.106956005 -0.06561339
0000d0 86 ed d0 3c b2 83 d2 3d fb eb 2a 3c 25 31 11 3d
       0.025503885 0.10279025 0.010432239 0.03544726
0000e0 75 7b 60 be 56 3e 53 3e 28 9a 09 bd c9 be c6 bc
       -0.21922095 0.20629248 -0.03359428 -0.024260895
0000f0 fe 6e 06 be 67 91 78 3d e5 c7 29 bd b6 25 c6 3d
       -0.13128278 0.06068554 -0.0414504 0.096751615
000100 d7 40 f7 bd 0f 1b 1c 3e 02 07 47 be 5b d6 c3 3d
       -0.12072914 0.15244697 -0.19436267 0.095623694
000110 e4 8c 70 bb 73 6d 4b 3d b8 fd f1 3d 97 b7 e3 bb
       -0.003670507 0.049664926 0.11815971 -0.006949376
000120 c1 2e b0 bd 40 03 ce 3d 43 c4 70 3d 24 3f 35 3e
       -0.086026676 0.10059214 0.05878092 0.17699867
000130 c5 b1 95 3d d2 53 6b bd a3 ab 56 be d9 4c 05 be
       0.073092975 -0.057452984 -0.20963912 -0.13017596
000140 b7 ce a3 bc 2c 41 ef bd fa b6 ef bb 80 d0 07 3d
       -0.01999603 -0.116823524 -0.0073155137 0.033157825
000150 70 95 ac 3d 5b 68 e3 3b 7b a4 84 3d da 33 3e bd
       0.084269404 0.0069399304 0.06476685 -0.04643617
000160 ec d6 f7 bd b6 c0 1a 3e e0 5c d3 3d 69 21 53 bd
       -0.1210154 0.15112576 0.10320449 -0.051545534
000170 3c 54 5f be 0e bf b7 bd d2 77 05 bd 5f 11 d4 3d
       -0.21809477 -0.08971988 -0.032584973 0.10354876
000180 0c 84 0f 3e b5 43 87 3c 31 7e ad bd 96 ce f2 3b
       0.14015216 0.016511777 -0.08471335 0.007409881
000190 c8 26 54 bd 51 7b 40 3e 39 cf 11 bc ff 8d 5e 3e
       -0.051794797 0.18797041 -0.008899503 0.21733855
0001a0 16 ca bc 3d b4 ca 65 be 38 8a 82 be 06 08 6d bb
       0.09218232 -0.22440606 -0.25496078 -0.0036168112
0001b0 d6 06 2b be e1 9c 3e 3e ae 05 05 bc 87 9d 89 3d
       -0.16701826 0.18614532 -0.00811903 0.06719499
0001c0 ef 0b 92 3c 77 67 56 3e d3 bf 89 ba 6e 7c 47 3e
       0.017827956 0.20937906 -0.0010509439 0.1948106
0001d0 48 77 d5 3c 2f 72 cd bd 4c c4 b1 bd 23 c8 d7 3d
       0.026057854 -0.100315444 -0.08680019 0.1053622
0001e0 00 d7 22 bc 58 7e 55 3e 5a f3 97 bc 13 b9 e3 3d
       -0.009938955 0.20848978 -0.018548656 0.111192845
0001f0 7f 26 b8 bd 9c 4e 66 3e 90 33 91 bd 5f 85 33 3e
       -0.089917175 0.22490925 -0.07089913 0.17531346
000200 54 4d 5c 3e 6b c9 24 be 0a a5 ab be 30 5d 9e 3d
       0.21513873 -0.1609246 -0.33524352 0.07732618
000210 66 8a 32 3e a5 aa 13 3e e7 5e 93 3d df 5c b7 3d
       0.17435607 0.14420564 0.071958356 0.08953261
000220 58 f9 15 be 25 ec 10 3e fe b6 9e b9 7b 0e 10 3c
       -0.14645898 0.14152582 -0.00030272448 0.008792515
000230 4d 3d 9a 3d a1 38 ed 3d d6 5d 45 3c c5 62 3a bd
       0.075312234 0.11583067 0.012046298 -0.04550435
000240 80 70 4a 3e 77 53 8d bd fb 9e 1d 3e 67 83 91 bd
       0.19769478 -0.06900685 0.15392677 -0.07105141
000250 52 e8 6a bc 96 c1 44 3e 57 aa 88 bd f1 45 c6 3d
       -0.014337616 0.19214472 -0.06673115 0.09681309
000260 55 fb e0 3d 58 41 c6 3c a0 14 3a 3c 79 ce 1a be
       0.10985438 0.02420108 0.011357456 -0.15117826
000270 18 b8 06 be e9 56 84 bd 28 02 b0 bd 48 2b 16 be
       -0.13156164 -0.06461889 -0.08594161 -0.14664948
000280 85 b3 15 3e ed 0b 40 be 70 ba 46 bb 50 de bd 3d
       0.14619263 -0.1875455 -0.0030323528 0.09270918
000290 d3 e5 47 3d 19 5e b5 3b aa 3e 01 3d e0 15 05 3e
       0.04880316 0.005534899 0.0315539 0.12996626
0002a0 4e 1f f4 bd db 83 29 be f1 9a 34 3e 34 d1 68 3e
       -0.119200334 -0.16554205 0.1763723 0.22736055
0002b0 0d f8 74 bd 58 02 2b bd 05 6e 58 be 7a 56 5d 3e
       -0.059806872 -0.041750282 -0.21135719 0.2161502
0002c0 ed 77 5d 3e a0 cb 85 be e4 0f a1 3c f5 fd b1 bd
       0.2162778 -0.26131916 0.019660898 -0.086910166
0002d0 38 ab 28 3e 43 ab bb 3d 0a c5 df 3d 13 86 8a 3d
       0.16471565 0.09163525 0.10926254 0.06763854
0002e0 ba 7c c4 3c 77 b6 8c 3d 20 e3 86 bd 74 1d 20 3d
       0.023985256 0.0687074 -0.065862894 0.03909059
0002f0 b7 c0 13 be e0 a9 6b 3e 80 4b a4 bc 98 d6 6b 3d
       -0.14428984 0.23014021 -0.020055532 0.0575777
000300 68 d0 cd 3c b6 5d 37 bd df a5 b6 3d ae 96 ec bb
       0.02512379 -0.044767104 0.08918356 -0.007220111
000310 62 04 9f 3d 41 db 2f 3e fd 5f 32 bd 74 c5 20 be
       0.07764508 0.17173482 -0.043548573 -0.15700322
000320 f7 40 d1 bd d6 0c ca 3c 2f 8d 4d bd 0a df 34 3e
       -0.10217469 0.024664324 -0.05018347 0.17663208
000330 bc 2b 7f 3c 2c fb f7 3d 3d 7e cc bd 91 66 34 be
       0.015574392 0.12108454 -0.099850155 -0.17617251
000340 e8 e2 fd bd 1f f9 0e 3e c2 0f de 3c d1 28 87 3d
       -0.123967946 0.1396222 0.027107123 0.06599582
000350 79 ce 0c bd 19 03 38 bd a9 e4 c5 bc db 10 f5 bd
       -0.034376595 -0.04492483 -0.024156885 -0.119661056
000360 e7 22 df 3d 97 a7 29 3e a8 a3 12 bc b4 2c 2e be
       0.10895329 0.16567837 -0.0089501515 -0.1700924
000370 71 8d 7c bb 31 ca ba 3c d6 0b 6e bd 19 6c e0 3c
       -0.0038536454 0.02280149 -0.058116756 0.027395295
000380 c4 fa df 3d 76 9b 73 bb dc f7 b0 3c 13 f2 57 3e
       0.109365016 -0.003717152 0.021602564 0.21088438
000390 ea bf 62 3e 7c c3 a2 be 32 ef 41 3e f7 e4 9c 3c
       0.22143522 -0.31789768 0.18938902 0.019152148
0003a0 a9 6b 34 3e 37 f1 89 3d 40 2d 47 be 29 39 10 bc
       0.17619194 0.06735461 -0.19450855 -0.008802691
0003b0 2b 6d ce bd 4a 23 41 3e 41 07 47 3e 2a 44 d3 3d
       -0.10079416 0.18861118 0.19436361 0.10315736
0003c0 9f 68 37 bd 38 d2 20 3e 7e b5 c1 bb c7 ea db bd
       -0.04477751 0.15705192 -0.005911528 -0.107381396
0003d0 15 a6 67 3e a4 94 35 3c b9 c3 6a 3e 89 46 92 bd
       0.22621949 0.011082802 0.22926225 -0.0714236
0003e0 5b 0e 27 3e 8a 01 01 3d d6 dd cf 3b d1 93 b9 3d
       0.1631407 0.03149561 0.0063435836 0.09061397
0003f0 56 23 10 be 79 e1 14 3e 16 29 08 be 9b 4a 48 be
       -0.1407598 0.14539136 -0.13296923 -0.1955971

fc2.bias f4 [10]
000000 22 ad fb 3d b3 60 68 3e 2b ea 2a 3d 20 48 e6 3b
       0.12288882 0.22693138 0.041727226 0.007027641
000010 1a 08 2b 3d 68 21 51 bc b1 a2 88 3d 0d 2a 31 3e
       0.041755773 -0.012764312 0.06671656 0.17301197
000020 58 bb 3a bd 62 29 27 3d
       -0.04558882 0.04081095

exp_avg f4 [10, 1, 5, 5]
000000 ca 47 53 37 6f b1 d9 36 7d d3 2a 36 d3 f3 ef 35
       1.2593295e-05 6.48776e-06 2.5455076e-06 1.787785e-06
000010 43 18 8b 36 81 6d 1f 37 10 de 0b 37 d8 5a c3 36
       4.1453472e-06 9.502634e-06 8.336749e-06 5.8220285e-06
000020 d5 c7 0b b6 0a 92 3c 36 9b 88 3a 37 c9 e0 67 37
       -2.0828932e-06 2.809919e-06 1.111827e-05 1.382101e-05
000030 be 15 35 37 a1 c9 dd 35 57 e0 92 b4 78 5e b9 37
       1.0793503e-05 1.6524465e-06 -2.7357848e-07 2.2097709e-05
000040 24 22 b7 37 95 d1 2a 37 c0 e5 30 37 62 9b 0b 36
       2.1831198e-05 1.0181587e-05 1.054391e-05 2.0803059e-06
000050 4a 21 18 38 37 a9 27 38 d1 2c 04 38 4e 17 a4 37
       3.6270627e-05 3.9973496e-05 3.151299e-05 1.9561176e-05
000060 8c f6 ac 37 23 59 27 3a d5 08 53 3a 17 b3 53 3a
       2.0618805e-05 0.0006383827 0.00080503273 0.00080756977
000070 cc 86 30 3a 5a cd 1b 3a 1a cf 77 3a 71 62 87 3a
       0.00067339535 0.00059433805 0.0009453163 0.001032902
000080 f3 66 53 3a b5 64 11 3a d9 1d d4 39 da cf 91 3a
       0.0008064352 0.00055463176 0.0004045803 0.0011124567
000090 af c6 86 3a 11 be 43 3a 59 c4 ed 39 f4 7a f4 39
       0.0010282601 0.0007466982 0.00045350453 0.00046630914
0000a0 f1 bb 8a 3a 22 40 77 3a de 28 1a 3a 3e 6b e2 39
       0.0010584575 0.0009431859 0.00058807235 0.0004318598
0000b0 f0 e4 00 3a 58 23 61 3a c4 00 39 3a 5b 81 00 3a
       0.0004916927 0.00085883355 0.0007057304 0.0004902088
0000c0 7a a5 f9 39 da 21 de 39 34 3d 4c 3a 43 30 69 3a
       0.0004761627 0.0004236836 0.00077911024 0.0008895436
0000d0 4e 53 58 3a c3 7b 3c 3a 86 f1 fe 39 20 d2 8a 3a
       0.00082521595 0.0007190073 0.00048626604 0.0010591187
0000e0 be a0 8c 3a ef 65 62 3a 51 84 30 3a 2b 89 0e 3a
       0.0010729057 0.0008636405 0.0006733584 0.000543731
0000f0 06 d2 8f 3a c2 63 89 3a 29 f6 45 3a 90 26 01 3a
       0.0010972626 0.0010482001 0.00075516343 0.0004926706
000100 86 26 f3 39 f5 9b 7b 3a a0 66 59 3a 0a ee 08 3a
       0.00046377274 0.00095981295 0.00082931854 0.0005223459
000110 12 5b ce 39 a4 d9 b0 39 30 11 23 3a ec 8d 05 3a
       0.00039359235 0.0003373149 0.00062205177 0.00050946954
000120 00 24 e3 39 e5 a0 ad 39 1e 44 c3 39 7f 49 56 3a
       0.00043323636 0.00033117007 0.0003724405 0.0008174404
000130 f4 07 9f 3a 51 63 b8 3a bf 4a a1 3a eb 58 77 3a
       0.0012133108 0.0014067685 0.0012305601 0.0009435552
000140 f4 97 91 3a fa 64 cb 3a c4 ef d2 3a be c4 af 3a
       0.0011107908 0.0015517764 0.0016093184 0.0013410074
000150 bd 8d 86 3a 8f fd af 3a a4 40 d5 3a 92 27 d2 3a
       0.001026563 0.0013427007 0.0016269875 0.0016033521
000160 09 7b a3 3a 4b cb 69 3a ed af be 3a 21 17 ce 3a
       0.001247258 0.00089185376 0.001454828 0.0015723446
000170 d3 f6 b7 3a 7a ba 75 3a fa 3d 69 3a 6e 76 b7 3a
       0.0014035351 0.00093737955 0.000889748 0.0013997087
000180 95 3e b3 3a e0 4d 8b 3a 9f 3d 5b 3a 9d dc 74 3a
       0.0013675267 0.0010628067 0.0008363369 0.0009340735
000190 82 26 8b 38 68 e2 98 38 21 65 c0 38 8a 97 31 39
       6.635209e-05 7.290096e-05 9.17411e-05 0.00016936488
0001a0 62 75 84 39 29 24 87 38 d1 a9 09 38 5b d3 d5 37
       0.0002526446 6.444037e-05 3.28215e-05 2.5489999e-05
0001b0 5c ce 17 39 6f 7e 98 39 68 1f 0d 38 d2 3d 08 37
       0.00014477357 0.000290859 3.364627e-05 8.120625e-06
0001c0 58 eb 4a 38 6b 48 66 39 6d ad a1 39 a1 2e 73 37
       4.8379734e-05 0.00021961487 0.00030837525 1.4494785e-05
0001d0 a0 f0 f7 37 cc 5f 0b 39 d6 f9 94 39 1e d2 aa 39
       2.9556744e-05 0.0001329176 0.00028414902 0.00032581476
0001e0 dd 3c d2 38 55 18 3b 39 2f a8 aa 39 55 4e cb 39
       0.00010024917 0.00017842774 0.00032550233 0.0003877754
0001f0 b5 b7 ae 39 1d cd 3e 3a c1 e3 56 3a aa 72 3c 3a
       0.0003332474 0.0007278489 0.000819739 0.0007188717
000200 40 8e 46 3a 83 64 6d 3a 4a fc 76 3a 5e 9f 70 3a
       0.00075742975 0.000905581 0.0009421749 0.0009179021
000210 8c c7 6c 3a 6d 00 7a 3a 34 88 91 3a 3a 8f 88 3a
       0.00090324203 0.00095368066 0.0011103214 0.0010418661
000220 d9 46 8a 3a 1c c5 a6 3a 07 cf aa 3a 25 8d a6 3a
       0.0010549679 0.0012723538 0.001303167 0.0012706859
000230 63 1b 88 3a 74 ef a6 3a 78 8b bd 3a 93 6b bb 3a
       0.0010384138 0.0012736158 0.0014461121 0.0014299027
000240 7a af a5 3a 37 76 7d 3a a2 57 ab 3a 05 33 b5 3a
       0.0012640797 0.00096687995 0.0013072381 0.0013824409
000250 c4 73 a7 3a 67 72 8f 3a 9b 2b 95 3a ed ed 97 3a
       0.001277559 0.0010944129 0.0011380793 0.0011591293
000260 1c 6a 6b 3a 6e e7 2a 3a e8 45 0f 3a db 60 af 3a
       0.000898035 0.0006519471 0.0005465434 0.0013380306
000270 d6 a1 b2 3a b3 b1 9f 3a 5a 72 78 3a e4 7e 49 3a
       0.0013628553 0.0012183696 0.0009477489 0.00076864497
000280 5a a4 b3 3a 61 8c c0 3a c2 37 a2 3a e4 ce 71 3a
       0.0013705597 0.0014690274 0.0012376236 0.00092242495
000290 0e b3 4d 3a 8a 54 ab 3a 67 6d 9e 3a 6b bf 60 3a
       0.00078468106 0.0013071459 0.0012087048 0.00085734454
0002a0 b2 76 28 3a bb 78 01 3a 5b 6d 96 3a f5 ad 66 3a
       0.00064263784 0.000493895 0.0011476682 0.00087997253
0002b0 65 24 0f 3a bd 47 c5 39 3f 7d b5 39 a8 1c 94 3a
       0.00054604403 0.00037628217 0.00034616326 0.0011300044
0002c0 23 51 8c 3a 7d 7a 50 3a 4d 41 2f 3a e8 10 2b 3a
       0.0010705333 0.00079528225 0.0006685451 0.00065256516
0002d0 e7 dd 8a 3a aa ad 69 3a 37 52 59 3a ca 00 4c 3a
       0.0010594697 0.00089141226 0.0008290144 0.00077821
0002e0 fb 03 7e 3a 90 1b 8f 3a 03 69 5c 3a 88 24 46 3a
       0.0009689924 0.0010918248 0.0008407982 0.0007558544
0002f0 9a 4d 6b 3a 67 c5 99 3a 34 0b 83 3a 4f 1d 51 3a
       0.0008976102 0.0011731804 0.0009997846 0.00079770846
000300 a0 43 48 3a 4b fa 91 3a 4d 72 ac 3a ad 87 83 3a
       0.00076394714 0.0011137215 0.0013156623 0.0010034941
000310 d0 4e 5e 3a ac d9 7a 3a 98 a7 94 3a 08 9b a0 3a
       0.0008480372 0.0009569179 0.0011341451 0.0012253234
000320 5b fc 71 3a 46 d6 98 3a d0 e6 8d 3a 18 68 2f 3a
       0.00092310243 0.0011660538 0.0010826234 0.00066912314
000330 7d dd de 39 0c ee 8a 3a 4c 1c 92 3a 0d 50 75 3a
       0.0004250816 0.0010599508 0.0011147349 0.0009357937
000340 f8 b9 0e 3a 27 75 da 39 f7 19 9e 3a 64 ed 9a 3a
       0.00054445816 0.00041667485 0.0012062181 0.0011820015
000350 1c 78 66 3a 2e 9a 36 3a e4 44 3b 3a bd 08 a3 3a
       0.00087917014 0.00069657236 0.00071437494 0.0012438517
000360 ef b5 98 3a c8 a2 6f 3a 22 a2 50 3a 42 9b 7f 3a
       0.00116509 0.0009141383 0.000795873 0.0009750613
000370 2f 34 8c 3a 64 a6 71 3a b8 21 4e 3a 18 f5 72 3a
       0.0010696704 0.00092182145 0.0007863301 0.0009268089
000380 33 7c 85 3a 3f b3 9d 39 17 70 b5 39 7e c1 09 3a
       0.0010184109 0.00030078922 0.00034606524 0.0005254968
000390 ba d6 31 3a 4a d8 4a 3a d5 ce 88 39 ce 25 c5 39
       0.0006784011 0.0007737918 0.00026094043 0.00037602935
0003a0 15 51 35 3a 03 ec 76 3a 0e 11 70 3a 68 6a b0 39
       0.0006916684 0.0009419324 0.0009157815 0.00033648615
0003b0 19 31 1e 3a 90 de 81 3a fe 35 9f 3a ae 5e 93 3a
       0.0006034538 0.0009908248 0.0012146828 0.0011243427
0003c0 0a c8 d7 39 01 ba 43 3a c9 6f 8d 3a 51 b7 a0 3a
       0.00041157036 0.00074663764 0.0010790761 0.0012261664
0003d0 f9 74 83 3a db e6 f1 39 34 2b 48 3a 5a 4b 8a 3a
       0.0010029367 0.00046139103 0.00076358323 0.0010551021
0003e0 29 f5 88 3a 5f 7a 43 3a
       0.001044904 0.00074568944

exp_avg_sq f4 [10, 1, 5, 5]
000000 b5 04 86 32 a6 f8 e0 31 4f 3e 24 31 10 32 33 30
       1.5601794e-08 6.547526e-09 2.390056e-09 6.5190964e-10
000010 30 7a 6e 31 96 5a 00 32 ee 61 dc 31 3a 8a 89 31
       3.4703014e-09 7.4711775e-09 6.413976e-09 4.0029393e-09
000020 2c 36 9f 2f eb 9d 60 31 03 f4 65 32 6c 19 98 32
       2.8960423e-10 3.2686056e-09 1.3385036e-08 1.770669e-08
000030 5c 09 2f 32 0d 37 71 30 23 e9 a4 31 11 7b 38 33
       1.0188469e-08 8.775352e-10 4.7995328e-09 4.2952767e-08
000040 0f 50 34 33 76 dd 88 32 77 5e f1 32 e7 2e 17 33
       4.198233e-08 1.5933193e-08 2.809905e-08 3.5200085e-08
000050 1d db ad 33 40 ae cf 33 16 a7 85 33 07 c3 9e 33
       8.095797e-08 9.6708845e-08 6.223688e-08 7.3929236e-08
000060 5a c8 9f 33 d4 a3 54 38 f1 9c 9a 38 a6 5b 94 38
       7.440458e-08 5.0697316e-05 7.372525e-05 7.074261e-05
000070 73 1d 48 38 a8 64 14 38 fa 30 ea 38 07 1b 02 39
       4.7711143e-05 3.5379693e-05 0.00011167112 0.00012407835
000080 52 5c 96 38 4c 74 15 38 67 2a a5 37 cd 0c 23 39
       7.1697534e-05 3.563268e-05 1.9689278e-05 0.0001554966
000090 8f 20 06 39 89 18 8f 38 47 07 dc 37 ce 70 e5 37
       0.00012791365 6.8233414e-05 2.6229432e-05 2.7351456e-05
0000a0 37 07 14 39 b2 bf ea 38 6e 50 3d 38 bb 84 d0 37
       0.00014117068 0.000111936955 4.5136017e-05 2.485734e-05
0000b0 78 7d 02 38 e6 f8 c6 38 2d 1c 84 38 72 7a 01 38
       3.1111267e-05 9.487737e-05 6.299499e-05 3.0870033e-05
0000c0 35 37 00 38 8a c4 ca 37 d0 77 9b 38 f9 55 ba 38
       3.0568994e-05 2.4171797e-05 7.413293e-05 8.885185e-05
0000d0 81 b4 a5 38 92 ec 86 38 81 0c 05 38 a3 32 0c 39
       7.9014346e-05 6.4336826e-05 3.1721316e-05 0.00013370304
0000e0 af e7 09 39 8e e3 b7 38 9a 0d 6f 38 c2 35 23 38
       0.00013151647 8.768505e-05 5.6994708e-05 3.8912294e-05
0000f0 b5 18 18 39 8e 92 0c 39 95 34 93 38 4a 12 04 38
       0.00014505054 0.00013406036 7.0193004e-05 3.1488285e-05
000100 90 18 f2 37 80 fb ef 38 1d 6e bf 38 cd 7c 1d 38
       2.8860086e-05 0.000114432536 9.1281e-05 3.7547947e-05
000110 4d 32 b3 37 59 96 82 37 d4 1e 59 38 3f 30 18 38
       2.1361886e-05 1.5567219e-05 5.1765543e-05 3.6284557e-05
000120 58 cc df 37 67 68 82 37 7f 97 9e 37 73 24 9e 38
       2.6678827e-05 1.5545824e-05 1.8905614e-05 7.540816e-05
000130 64 72 27 39 56 e8 5c 39 ba 61 27 39 b8 23 c9 38
       0.00015968975 0.00021067387 0.00015962767 9.59108e-05
000140 a5 98 11 39 37 8c 8a 39 89 47 94 39 9d 49 51 39
       0.00013885142 0.0002642588 0.00028282058 0.00019959216
000150 23 3f f7 38 d9 5b 57 39 ff 60 9c 39 29 78 98 39
       0.00011789638 0.00020538214 0.00029826906 0.00029081226
000160 99 23 3b 39 03 4c be 38 89 8f 7e 39 de 6d 94 39
       0.00017846971 9.074064e-05 0.00024276799 0.00028310617
000170 c5 32 73 39 20 ab dc 38 b0 42 bd 38 8a 60 6f 39
       0.00023193199 0.00010522292 9.024644e-05 0.0002282878
000180 67 fb 6e 39 66 11 15 39 5d 39 b4 38 9b 6a cb 38
       0.00022791103 0.00014216229 8.5937536e-05 9.699651e-05
000190 71 62 27 35 54 a8 4e 35 71 b9 9c 35 c4 7c 9c 36
       6.23556e-07 7.698593e-07 1.1676876e-06 4.663687e-06
0001a0 12 ad 36 37 83 44 21 35 64 32 35 34 d8 6f b0 33
       1.0888341e-05 6.007687e-07 1.687527e-07 8.215983e-08
0001b0 86 c6 64 36 fb 64 80 37 ec 25 47 34 a7 e9 2f 32
       3.4090203e-06 1.5305812e-05 1.8547115e-07 1.0239467e-08
0001c0 c3 81 bb 34 27 e1 02 37 00 0a 87 37 b2 ca 2e 33
       3.4925878e-07 7.801026e-06 1.609791e-05 4.0696882e-08
0001d0 f9 be 1b 34 b9 71 3e 36 62 1d 5f 37 1d 3c 92 37
       1.4504975e-07 2.8378402e-06 1.3298677e-05 1.7432549e-05
0001e0 c9 40 d7 35 7a 24 b4 36 75 f2 95 37 56 e0 d2 37
       1.6037603e-06 5.3686645e-06 1.7875087e-05 2.5138415e-05
0001f0 6a 2b 93 37 e3 37 5e 38 ac 3c 8d 38 44 d4 6c 38
       1.7543982e-05 5.2980973e-05 6.734705e-05 5.6464472e-05
000200 2e 18 78 38 81 de a2 38 77 95 b9 38 71 4e ba 38
       5.9150327e-05 7.7662065e-05 8.8493274e-05 8.883782e-05
000210 80 0f b7 38 43 3f bd 38 70 52 f5 38 23 26 e9 38
       8.729007e-05 9.024006e-05 0.000116978656 0.00011117409
000220 6f c6 ef 38 ba 5c 28 39 ca 03 28 39 66 ca 20 39
       0.00011433369 0.00016056272 0.0001602314 0.00015334188
000230 84 f4 e1 38 ab 80 29 39 42 94 53 39 fa 07 49 39
       0.00010774381 0.00016165029 0.00020177758 0.00019171825
000240 19 97 1f 39 db 3d c2 38 13 c5 2f 39 ac af 41 39
       0.0001521971 9.262162e-05 0.00016762716 0.00018471357
000250 60 a1 1f 39 cc 90 f1 38 b6 89 1d 39 de 9e 19 39
       0.00015223539 0.00011518746 0.00015023988 0.000146504
000260 1f 31 b4 38 a8 17 42 38 bf ba 06 38 37 b5 57 39
       8.5922184e-05 4.6275236e-05 3.212201e-05 0.00020571506
000270 ce 6c 59 39 e1 92 28 39 4e 4d c9 38 75 98 7e 38
       0.00020735266 0.00016076445 9.598826e-05 6.0700306e-05
000280 d2 2a 61 39 31 6f 80 39 a5 43 32 39 2b 77 c0 38
       0.00021473624 0.00024496907 0.00017000602 9.17747e-05
000290 8b f6 89 38 59 2b 4e 39 e9 e9 32 39 d6 79 b4 38
       6.578591e-05 0.00019661839 0.00017062541 8.6057626e-05
0002a0 7d e4 4c 38 15 27 f0 37 cc 28 24 39 eb 2d c9 38
       4.8850186e-05 2.8628428e-05 0.00015655457 9.59298e-05
0002b0 27 da 21 38 fc f6 96 37 9f 82 6f 37 b7 86 39 39
       3.858856e-05 1.7996404e-05 1.4275923e-05 0.0001769316
0002c0 90 5b 27 39 c8 3d be 38 48 95 87 38 71 36 80 38
       0.00015960471 9.071414e-05 6.4651074e-05 6.113656e-05
0002d0 d7 a2 25 39 58 f7 f0 38 50 be cd 38 57 ca b8 38
       0.00015796289 0.00011490163 9.81061e-05 8.8114924e-05
0002e0 1f 73 0b 39 08 96 3a 39 36 84 de 38 91 17 af 38
       0.00013298959 0.00017794233 0.00010610411 8.34904e-05
0002f0 7f 7a f4 38 aa d2 4c 39 a6 66 22 39 e9 1b ce 38
       0.00011657643 0.00019533435 0.00015487763 9.828044e-05
000300 5e cf b4 38 4c 6e 37 39 fd ae 78 39 af 60 23 39
       8.621694e-05 0.00017493329 0.00023716311 0.00015580909
000310 4a 00 e4 38 22 a6 0b 39 f9 2d 3d 39 c0 3f 58 39
       0.00010871941 0.00013317962 0.00018041571 0.00020623114
000320 88 3a 89 38 a1 97 d3 38 fa 7e b1 38 ff cb 09 38
       6.543571e-05 0.00010089507 8.463669e-05 3.285333e-05
000330 f5 b7 78 37 c6 06 b6 38 ac 4d c6 38 ed bc 91 38
       1.4824783e-05 8.679698e-05 9.455843e-05 6.949329e-05
000340 e0 15 d2 37 84 1f 64 37 24 1e fb 38 ee 0c ee 38
       2.5044137e-05 1.3597197e-05 0.00011974227 0.00011351133
000350 af 2e 8c 38 5c fe 2e 38 1c e0 23 38 39 37 08 39
       6.684416e-05 4.1721723e-05 3.9070947e-05 0.00012990543
000360 d4 a6 ef 38 18 b3 9b 38 17 4d 64 38 30 88 97 38
       0.00011427482 7.424335e-05 5.443123e-05 7.225608e-05
000370 bd 1b c5 38 cb 18 9a 38 ef 91 64 38 88 cf 8e 38
       9.398859e-05 7.34791e-05 5.4495347e-05 6.809743e-05
000380 98 b6 9e 38 51 c1 47 37 73 80 89 37 8d f3 18 38
       7.568038e-05 1.1906334e-05 1.6391486e-05 3.646645e-05
000390 b4 fd 76 38 12 39 91 38 db 36 21 37 fe ff a5 37
       5.888725e-05 6.924769e-05 9.60912e-06 1.9788738e-05
0003a0 69 dd 7f 38 36 a4 db 38 a9 f9 c3 38 e8 9e 84 37
       6.1002942e-05 0.000104733204 9.3448274e-05 1.5809623e-05
0003b0 45 eb 4d 38 d2 af fa 38 19 43 2f 39 7e fd 0d 39
       4.909492e-05 0.00011953678 0.00016714296 0.00013541241
0003c0 fe 93 b3 37 11 22 93 38 19 c8 0e 39 fd 5e 2c 39
       2.1407377e-05 7.0158516e-05 0.00013616717 0.00016438584
0003d0 fc a8 e0 38 2f 9d d4 37 a4 5f 8d 38 5b 47 01 39
       0.00010712628 2.5345564e-05 6.7412184e-05 0.0001232898
0003e0 db 46 f5 38 05 61 80 38
       0.00011695708 6.121587e-05

exp_avg f4 [10]
000000 78 41 2a 38 10 cd 0a 3b d8 d3 0a 3b 70 38 4f 3b
       4.059213e-05 0.0021179356 0.0021183398 0.0031619333
000010 51 cf 0d 3a d9 e5 2e 3b 89 5a 3a 3b 76 be 4b 3b
       0.00054096157 0.0026687293 0.002843531 0.0031088865
000020 fd 82 28 3b 89 da d2 3a
       0.002571284 0.0016086857

exp_avg_sq f4 [10]
000000 64 2b e2 33 a0 f1 f2 39 a9 29 18 3a dd 65 91 3a
       1.0531838e-07 0.00046337862 0.00058045477 0.001109298
000010 92 32 4e 38 ed 45 27 3a 72 41 66 3a 19 f5 ab 3a
       4.9161325e-05 0.0006380964 0.0008783556 0.001311931
000020 e8 9e 03 3a 90 45 98 39
       0.00050209323 0.00029043527
