lightning_logs/version_11/checkpoints/epoch=2-step=12.ckpt (torch, 273474 bytes, 24 tensors)

conv1.weight f4 [10, 1, 5, 5]
00000000: 3c24 80be ffdf 68be 6374 8e3d 66ff dbbd
00000010: 56bb 7ebd c4c2 d93d 074f a2bd 5ac5 0a3d
00000020: 1cbe 2abe ea09 883d 05cb a7bd 3eec 36be
00000030: 751a 09be 0c47 b43d e660 273d 4290 8fbe
00000040: 6027 4cbe cd92 2e3d d02d 0bbe 7965 8fbe
00000050: 84b8 f5bd 86f4 9fbd d906 34be 7463 9cbd
00000060: 34cd ad3c 863b 76be 7837 99bd 31fb 8fbe
00000070: 6334 44bd 39be 34bd 0110 5dbe cdfc bfbd
00000080: 8152 88be 49c4 1fbe d226 013d 5eeb 12be
00000090: 27d3 353d 9956 8c3d 450b e0bd 5d70 15bd
000000a0: f582 d4bc b15c 8ebc 607d 2fbe 2b89 5dbd
000000b0: 5543 39be 11d3 06be 1ef9 10bd 55f6 07be
000000c0: 6ed5 113d 46aa 0c3c 67f6 e93c 7345 c3bc
000000d0: 114c 9fbc e80f 4ebe 7bd9 323d d1d8 81be
000000e0: f469 48be bd14 51be 7669 acbd 8d17 30bc
000000f0: 1284 94be 4fd5 2f3d afdf c6bd f3b2 413d
00000100: 3dc6 0dbd 552d 81be e1a2 89bd 5957 02bd
00000110: 32c7 8bbe 0ab7 d0bc b3ee 93be f0aa 85bd
00000120: 0f27 4dbe cc85 80be 6a7d 38be ef5c 24be
00000130: dae9 fbbc d460 12bd f97d 1abc 7c80 863d
00000140: e71f 5bbe 4ebb 82be e7ed 76be 9b4e 8b3c
00000150: 5575 73be a436 8dbc 257f 18be 68ee 04be
00000160: 7316 81bd ebea 083e 968e a6bd 216b 9fbc
00000170: e4e9 c8ba d2d5 eebd b44c 16bd cebb 54be
00000180: c59e 71bd cfb4 323e 0cd5 73bd b00b f83a
00000190: 39cd 6bbe 18d4 b0bc 952d 70be 525c 3abe
000001a0: 34ac 713c c4e9 5cbb e671 8dbe b8b4 81be
000001b0: 88ad 333d ca6d 96bb 3f2b 84bd 4858 ea3c
000001c0: 9c51 873d d6ca 8fbd 5f6c fcbc fdab a1bd
000001d0: 6809 a1be 067f 8abe 5274 08be 9ff1 98be
000001e0: be83 0fbe 2d27 93be d659 a8be 10d7 fa3c
000001f0: 955d 25be 10d4 92bd fa33 c0bd fa8b 13be
00000200: d851 81be ed5f b8bc 370c 03be ad03 6fbd
00000210: 8b82 66bd 380a ebbd 07d5 74bd 0001 5fbe
00000220: 41ab ccbb ffa5 0bbd 3f04 3cbe d61c 63be
00000230: 9cf7 b0bc f263 243d 2efc 113e 4775 d5bd
00000240: 3c71 f0bc e97a a1bd 5ed2 2bbe b49d 4abe
00000250: a8b3 103d 47c4 a33c 9acc 7cbd b2d3 943b
00000260: cdeb 163c eae9 303b aebd 62be 9cab 79be
00000270: daf7 023c ab66 9b3c c827 5f3b c2c3 21be
00000280: ec5c 883a 2673 90be 62f0 77bc 7d10 9cbd
00000290: 45e1 953d ec9b 26bd e1d3 6dbe 3f65 b13c
000002a0: 5230 acbd 1a29 40be f5ce d9bd dfc0 98bd
000002b0: 637b 20be c0dd 24be c45a bcbc ddf7 77bd
000002c0: af45 4fbe a78a 21be ef96 36be 4351 99bd
000002d0: 3b96 76be d854 93be 0e60 0bbd bdc9 30bd
000002e0: 44a2 08bd c5e4 81bd 491a 58be fbf8 33be
000002f0: 82dd 62bc ca4a 73be 88b7 bd3a 305a 81be
00000300: fe20 ffbc 8bad 32be b054 bdbb 233a b6bd
00000310: a455 a5be 1429 93be 67e3 443d 9938 c53c
00000320: fd63 febd ea78 b5bc be9c 8cbb 72fd 06bd
00000330: 2caa 85bd 67db 0cbc 76bc 88be 2cdc febc
00000340: f7fc f1bd 9b66 81be 98ce babd 3f38 98be
00000350: 2619 30be c2a1 84bd 0af1 973d ecca 923c
00000360: 9436 0ebd ceb2 89bd d5e5 90be 1ab0 853c
00000370: a9b3 8bbd 070f 8ebc 16a6 2dbd 4002 23be
00000380: aa91 8cbe 502b b3bc 0f40 8abe ce25 b7bd
00000390: cc00 b23c d03a 843c edda 143d 3bd0 6ebe
000003a0: 8652 9bbe c5ce dc3c 455a 01be 2ff4 e0bd
000003b0: 4236 79bd 659c 89bd 7f8d 87be 3aa2 803c
000003c0: 44a1 4fbe 38dc b0bc f2a0 45bd 90e2 17be
000003d0: e22c b6bc 1edb a9bd 288c 2bbe 0f83 9ebe
000003e0: 0260 773d f517 94be
-0.25027645 -0.22741698 0.06955793 -0.10742073 -0.062190376 0.10632852 -0.079252295 0.033879615
-0.16674083 0.06642516 -0.0819302 -0.17863557 -0.13388999 0.088026136 0.040863894 -0.28039747
-0.19936895 0.04262047 -0.13591695 -0.28007105 -0.11998084 -0.07810311 -0.17580737 -0.07636157
0.021216013 -0.24046144 -0.07481283 -0.2812133 -0.047901522 -0.044126723 -0.21588136 -0.0937439
-0.26625445 -0.1560222 0.031531163 -0.14347598 0.044390824 0.06852455 -0.109396495 -0.03648411
-0.025941351 -0.017378183 -0.1713767 -0.05408589 -0.18092091 -0.13166453 -0.035393827 -0.13277562
0.035603933 0.008585518 0.028559877 -0.023836827 -0.019445451 -0.20123255 0.043664437 -0.2536073
-0.19571668 -0.20418067 -0.084185526 -0.010747802 -0.29007012 0.042928036 -0.09710633 0.0472898
-0.034612883 -0.25229898 -0.0672052 -0.031821582 -0.2730041 -0.025477905 -0.2889305 -0.06526744
-0.20034431 -0.2510208 -0.18016592 -0.16051076 -0.030751158 -0.035736874 -0.009429448 0.06567475
-0.21398889 -0.25533527 -0.2411419 0.017005255 -0.23775227 -0.017237969 -0.14892252 -0.1298157
-0.0630311 0.13370864 -0.08132665 -0.019460263 -0.0015328494 -0.11661877 -0.036694244 -0.20774767
-0.058989305 0.17451786 -0.05952935 0.0018924382 -0.23027505 -0.02158551 -0.23454888 -0.1819928
0.014750529 -0.003370867 -0.2762596 -0.2533319 0.043866664 -0.0045907246 -0.06453561 0.028606549
0.06607363 -0.0702111 -0.030813394 -0.07894132 -0.3145249 -0.27050036 -0.13325623 -0.29871842
-0.140151 -0.28740826 -0.3288104 0.030620128 -0.1614898 -0.07169354 -0.09384914 -0.14408866
-0.25257754 -0.022506678 -0.12797628 -0.058353115 -0.05627684 -0.114765584 -0.05977347 -0.21777725
-0.006246001 -0.034093853 -0.18360995 -0.22178969 -0.021602444 0.040134378 0.14256355 -0.104227595
-0.02935087 -0.078847714 -0.16779467 -0.19786721 0.035327584 0.019991053 -0.06171856 0.0045418376
0.009211493 0.0026994892 -0.2214267 -0.2438187 0.007993663 0.018969854 0.003405081 -0.15797332
0.001040367 -0.2821285 -0.015132995 -0.076203324 0.073183574 -0.040676042 -0.23225357 0.021654723
-0.08407654 -0.18765679 -0.10635177 -0.07458662 -0.15672068 -0.16100216 -0.0229925 -0.060539115
-0.20241426 -0.15775548 -0.17831014 -0.074862026 -0.24080746 -0.28775668 -0.03402715 -0.043161143
-0.033357874 -0.063424625 -0.21103777 -0.17575447 -0.013846757 -0.23758999 0.0014474252 -0.2526412
-0.031143662 -0.17449014 -0.005777918 -0.088978074 -0.322919 -0.28742278 0.04806843 0.02407484
-0.12421415 -0.022152383 -0.004291146 -0.032956548 -0.06526598 -0.0085972315 -0.26706284 -0.031110846
-0.11815827 -0.25273594 -0.09121436 -0.29730412 -0.17197093 -0.06476165 0.074190214 0.017919026
-0.03472002 -0.067235574 -0.28300348 0.016319323 -0.06821377 -0.01734115 -0.04239472 -0.15918827
-0.27454883 -0.021871239 -0.27001998 -0.089427575 0.021728896 0.016141325 0.036341596 -0.23321621
-0.30336398 0.026954064 -0.12632091 -0.10984074 -0.06084276 -0.06719283 -0.2647514 0.015702356
-0.20276362 -0.021589383 -0.048249193 -0.1483252 -0.022238199 -0.082937464 -0.16752684 -0.30959365
0.060394295 -0.28924528

conv1.bias f4 [10]
00000000: edbd b73d 9def a43d 2f49 5c3c 5127 1ebe
00000010: de03 35bd d689 20be b259 91bd e30f fcbc
00000020: ff21 a53d 4027 44be
0.08971772 0.08053515 0.013445183 -0.15444686 -0.04419314 -0.1567758 -0.07097186 -0.030769294
0.08063125 -0.19155598

conv2.weight f4 [20, 10, 5, 5]
00000000: 72e4 0fbe 372c 5bbd 1079 06be e86c 99bd
00000010: 3c0c dabd 1790 e1bd cd06 47bd 7fff 11be
00000020: 5f50 73bd a1f0 6bbd 94d5 af3d 3189 02be
00000030: fd1d 1bbe 28ac e0bd 388c f4bd 3fd0 38bd
00000040: 4a51 8dbd 4f4a f2bd 4bdc dabd f7fd dcbd
00000050: 0393 183e c4b4 e6bd d4fe b6bd 646b 07be
00000060: 2b5e 0ebe ff5a ebbd 1c0b 42bd dd69 d4bd
00000070: 8117 edbd afad 0dbe 69a8 8b3d 540e b0bd
00000080: e628 0fbe ef0c a7bd 6081 d7bd a3ef 393d
00000090: 8261 d7bd 53a5 9ebd 6acf 0ebd daad dbbd
000000a0: bfbf 0dbe 977c e2bd af96 ccbd ba05 f1bd
000000b0: 9777 043e f79d 4abd 7451 2dbd c11a 08be
000000c0: 2ac8 49bd d858 b9bd 1d5b 32bd 1345 c3bd
000000d0: 6781 e5bc f922 edbd 4f54 afbd 50fa acbd
000000e0: 9877 4fbd 51a4 81bd 2b12 f6bd 7af6 03be
000000f0: 5e8e 0cbe 1690 24bd 61b5 8fbd e29b 24bd
00000100: b808 aabd a1e9 953d af79 d9bd 801d 71bd
00000110: 33c7 f4bd 5556 57bd ed21 4c3d c3d9 f6bd
00000120: c210 5abd db63 97bd 1f41 babd b27c 8b3d
00000130: b19f 153e 8b52 08be 8769 bfbd b006 c8bd
00000140: 9c5f e4bd 4bb6 7c3d ee10 e0bd 50eb a5bd
00000150: 4eae 8d3d 7fd6 c5bd c7b9 e6bd ddee 98bd
00000160: 14f1 ffbd b80f 753d 1c7f 853d 8b55 b9bd
00000170: 1adb 15be 1467 0cbe 9e98 01be 3eee cd3d
00000180: da12 c8bd 195f 00be 1438 a1bd 7dfa 0ebe
00000190: 89bb 02be be29 19bd 6259 3ebd 319e c9bd
000001a0: 40d2 18be 1c77 19be a9e2 cebd 8c52 07bd
000001b0: 745e 79bd 302c 4bbd 1ff2 bcbd 7474 bdbd
000001c0: 31ae 81bd b4e6 98bd da0e 8fbd fe98 1bbd
000001d0: fa6b bb3d fa70 03be 7e83 0dbe cc85 b9bd
000001e0: 24a3 e7bd 5bf4 23bd e9f0 ecbd 644f e63d
000001f0: 25e4 53bd 8438 19bd d841 7ebd 69c4 18be
00000200: c730 63bd 907d cfbd f304 2cbd 2b63 0cbe
00000210: c49a d43d cb8d 173e 2fa2 febd 772a 8ebd
00000220: d289 b23d 221f 963d 6830 e23d 5a67 503d
00000230: 94ef 613d e4cc 043e ad8a 513d 92f7 533d
00000240: bc4d d93d 9d12 e9bc 9349 7d3d 7b3b a23d
00000250: 3f84 f83d 5828 c83d e960 56bd fc7e 7dbd
00000260: c361 f1bd ed8c ddbd 3fe8 0cbe 6376 65bd
00000270: aaf4 87bd 3a18 a7bd 7a3a f9bd 32a7 a7bd
00000280: 2a1f c0bd f617 153e ec62 e1bd de9a 83bd
00000290: 6097 b9bd d5f4 0c3e 6a6b 923d 450f bcbd
000002a0: 350e 3ebd afe9 f5bd 7ac7 043e 67c8 b63d
000002b0: 8063 e7bd f7c7 79bd 4cfa c33d ad2d 09bd
000002c0: 8a44 ecbd 5ef8 07be 80bb acbd 9ace e9bc
000002d0: e87f 01be 0f9d b9bd d607 7fbd 205a 183d
000002e0: f06c 5d3d 3fe6 8cbd 42d9 e4bd 0201 91bd
000002f0: 42f5 fabc 7b38 e7bd 1920 0ebd 31fe 2bbd
00000300: ec16 9dbd 5423 8fbd a2dc 75bd 2fbd ffbd
00000310: 62f2 0ebd 1121 c1bd 4732 d7bd d10d c8bd
00000320: 7eef a5bd 1cb1 d8bd 679a 1cbe e1fd f4bd
00000330: 5c53 8bbd 88d2 c0bd b7a9 a1bd bf21 1abe
00000340: 0c14 babd f17a f7bd b239 acbd dbfd 003e
00000350: d626 0fbe 9667 e0bc 985b 09be 8b88 0cbe
00000360: 8e28 873d ed44 10be 06fe 19be a70b bdbd
00000370: ba96 6cbd fbed 62bd 1c85 a5bd 9153 a8bd
00000380: 04ef eebc bacc 233d e0d0 30bd a635 1bbe
00000390: 6e16 debd b97e f4bd 5a05 41bd 21e1 fbbd
000003a0: 290e cebd 95dc f6bd 407f 72bd d622 ae3d
000003b0: 4620 cdbd a2ff bcbd 0ea4 d3bd b617 a93d
000003c0: efde 823d 2e5b 9fbd 510b 1abe 8601 06be
000003d0: b077 eb3d 5b20 0c3e 7c10 0abe bc89 0cbd
000003e0: afd7 f6bd 7598 12be 3b86 9fbb a761 a0bd
000003f0: 2dfc c8bd d1db f8bd 1ada bebd 264a 6cbd
-0.14051989 -0.053508963 -0.13132119 -0.07491475 -0.10646865 -0.11013811 -0.04859047 -0.1425762
-0.05940282 -0.05760253 0.08585659 -0.12747647 -0.15148158 -0.10970336 -0.11940807 -0.045120474
-0.0690027 -0.118305795 -0.10686549 -0.107906274 0.1489983 -0.11264947 -0.08935323 -0.1322456
-0.1390311 -0.114919655 -0.047373876 -0.10371754 -0.11576749 -0.13835786 0.06819231 -0.08596483
-0.13980445 -0.08156764 -0.10522723 0.04539455 -0.10516645 -0.07746377 -0.034865774 -0.10726519
-0.13842677 -0.1105892 -0.09989678 -0.117686704 0.12936245 -0.049467053 -0.042314008 -0.13291456
-0.049263157 -0.09050149 -0.043543924 -0.09534659 -0.028015805 -0.11578936 -0.085610025 -0.08446181
-0.050651163 -0.06330169 -0.12015184 -0.12886992 -0.13726184 -0.040176474 -0.07017017 -0.040187724
-0.08302444 0.07319952 -0.106189124 -0.058866024 -0.11952057 -0.052572567 0.04983704 -0.120532535
-0.053238638 -0.07392093 -0.09094452 0.06810893 0.14611699 -0.13312738 -0.093462996 -0.097669005
-0.111510485 0.061697286 -0.10940729 -0.08101523 0.069180116 -0.096600525 -0.11265903 -0.074674346
-0.12497154 0.059829444 0.06518385 -0.09049519 -0.14634362 -0.13711196 -0.12655875 0.10055207
-0.09769221 -0.12536277 -0.07872024 -0.13962741 -0.12766851 -0.037393324 -0.04647196 -0.09844626
-0.14923954 -0.14986843 -0.10101826 -0.033037707 -0.060881093 -0.049602687 -0.092258684 -0.09250727
-0.063320525 -0.07465878 -0.069852546 -0.0379877 0.09151454 -0.12836066 -0.13819692 -0.09058723
-0.113104135 -0.040027957 -0.115693875 0.11245611 -0.051731247 -0.037407413 -0.062074512 -0.14918675
-0.05546644 -0.10131371 -0.041996907 -0.13709705 0.10381082 0.14800183 -0.12433278 -0.06941693
0.087176934 0.07330157 0.11044389 0.050879814 0.05516012 0.12968785 0.051157642 0.051749773
0.1061053 -0.028451258 0.061837744 0.07921501 0.12134599 0.0977332 -0.052338514 -0.06188868
-0.11786225 -0.10817895 -0.1376047 -0.056021105 -0.06638463 -0.08158918 -0.12169357 -0.08186187
-0.09380944 0.14559922 -0.11005196 -0.06426023 -0.090620756 0.13765271 0.07149394 -0.091826
-0.046400268 -0.12007462 0.1296672 0.089249425 -0.11298275 -0.060981717 0.09569225 -0.033490825
-0.1153651 -0.13278338 -0.084342 -0.028540898 -0.12646449 -0.0906316 -0.062263332 0.037195325
0.05405897 -0.068798535 -0.11174251 -0.0708027 -0.030634526 -0.1129007 -0.03469858 -0.041990463
-0.076703876 -0.0698916 -0.060024865 -0.12487256 -0.034899123 -0.09430135 -0.105076365 -0.0976826
-0.0810232 -0.10580656 -0.15293275 -0.11962486 -0.06803009 -0.09415156 -0.07893699 -0.15051936
-0.09085855 -0.12083996 -0.08409442 0.12596838 -0.13979658 -0.027393144 -0.13413846 -0.13723962
0.06599532 -0.14088793 -0.15038309 -0.09230738 -0.05776093 -0.055402737 -0.08082029 -0.08219064
-0.029166706 0.039990164 -0.04316795 -0.15157184 -0.10844122 -0.11938233 -0.047124244 -0.12298799
-0.100612946 -0.120537914 -0.059203386 0.08502738 -0.10015921 -0.092284456 -0.10334025 0.082564756
0.063901775 -0.07781063 -0.1504338 -0.13086519 0.11497438 0.13684218 -0.13482851 -0.03431104
-0.12052857 -0.1431597 -0.0048682964 -0.07831126 -0.09813724 -0.12151302 -0.09318943 -0.0576879

conv2.bias f4 [20]
00000000: 5f2c cdbd 1901 15bd 855a e4bd f7d1 d0bd
00000010: 4186 4ebd 50ff 47bd 4f73 eebd 51c3 bebd
00000020: 0f21 5dbd ec5e 34bd 576a fabd 062b a9bd
00000030: 2205 a6bc d43a 05be 65d4 0ebe b6be 85bc
00000040: 44db 3abd 53ab 62bd 5adf 7bbd 6e8f 38bd
-0.10018229 -0.036378 -0.11150078 -0.101962976 -0.050421003 -0.04882747 -0.11643087 -0.093145974
-0.053986605 -0.044035837 -0.12227314 -0.08260159 -0.02026612 -0.13010722 -0.1394821 -0.01632629
-0.045619264 -0.05533917 -0.0614923 -0.04505866

fc1.weight f4 [50, 320]
00000000: fe78 cabc 7216 92bd b131 e5bd 55cb 10be
00000010: eed5 13bd db80 9c3d 6cf3 97bd 515f 143d
00000020: b89e 0dbc da94 e93d eba1 8d3d 9f1f 7bbd
00000030: f63b 94bc 4709 9cbd 28fd 8bbd edc8 e7bd
00000040: 2781 84bd 04a9 09be 0772 57bd 5f4c 80bd
00000050: 65e3 35bd 6d87 15be 7922 6bbd a29d b6bd
00000060: 7baf 12be 78aa 8cbd bd7d e8bd d3f1 aebd
00000070: 7c01 10be 201d f9bd fc65 9bbd da9c 14be
00000080: c18f 40bd 489a b03c 6cdf 053d 0282 103d
00000090: b071 afbc 264b 43bd 5f2a 50bd 2b23 f7bc
000000a0: 92eb 203d c4c8 633d 20ca e73b ceb8 423d
000000b0: 8c5c 2b3d e8ae 4b3c 4407 103d 06e1 08bd
000000c0: 985a 2a3d a8f3 8cbb 8ec0 203d 6279 713d
000000d0: 4272 1c3d 8af8 8dbd c883 d13d 9897 843d
000000e0: 8ca3 10bc acc4 a3bd 295b 04be 76f2 44bd
000000f0: 58ba ac3d e578 9c3d 0ac2 55bd d1dc a3bd
00000100: 606c 7dbd 9afd 12be 5793 7cbd 260f babd
00000110: 3a1c 7cbd e8a3 0dbe bc2f 9ebd ed57 42bd
00000120: d01c 2f3d d5f5 8bbd 8d04 9dbd a90a 07be
00000130: 6219 debd 8ce9 05be b1e3 87bd c419 14be
00000140: f363 a1bd 6a51 ddbd 0ceb 22bd ae35 05be
00000150: d844 07be 0b91 a7bd ff61 14be 808e 5ebd
00000160: a818 b83d bf0f 42bd 8b58 9dbd d644 c2bd
00000170: 0b0d 0b3e e260 c1bd 37f4 6abd a5bf d1bd
00000180: a1e2 de3d 8692 213d 734e 123e 4bfa c23d
00000190: b461 aa3d d004 9e3b 09e7 f9bd 6aae dbbd
000001a0: e503 de3d 2eb2 003e 159e b43d 7752 d83d
000001b0: 8a3d ba3d ea85 183d 34e5 29bc 4f59 1ebd
000001c0: 924b c33d 73c6 4a3d 50a2 ee3d 6904 e03d
000001d0: 6a96 b5bd 1e02 7e3d 13b8 103d f2bb 8b3d
000001e0: 001e af3d e278 a73d 413f 333d 2d14 193d
000001f0: f4fa b1bd ee65 0d3e 4c03 f93d 761f bb3d
00000200: 3a0a 8dbd c04d 89bd 6f5f 13be 186f 96bd
00000210: 0c3c 03be 90c3 5cbd d725 e13d 3f89 6bbd
00000220: 5016 c9bd d465 70bd 2f0d 95bd f692 14bd
00000230: 1f1c e3bd c98c 00be cd04 e7bd 98f5 00be
00000240: 0668 f93d a6a3 23bd b6b6 db3d 5092 66bd
00000250: 30da 4fbd 346f cf3c ee00 f13d cb29 263d
00000260: 89e9 a53d 784f 9fbb a06d 003e e753 a8bd
00000270: c41d e2bd 9a33 fdbd bbc9 30bd 9102 d1bd
00000280: 87f9 febd a649 82bd da42 053e 03fd 50bd
00000290: 2fb6 07be 68d2 0d3e 6ded 4f3d 88c9 00be
000002a0: c936 8ebd c069 edbd e168 13be 58f5 c13d
000002b0: 0a81 d6bd 8c5d 0fbe 103d 22bd e460 20bd
000002c0: a141 973d c2f3 0e3e 99ca 84bd 6ae8 f13d
000002d0: afb9 8a3d c06c 1d3d c70a cf3d 223f 77bd
000002e0: bd6c f6bd 4fd7 4d3d afab 5d3d 0704 573d
000002f0: e046 063e b7a4 f03d 36f9 5e3d 9ad6 053e
00000300: 20e5 473d 5e44 fabd 11be 0ebe 8655 afbd
00000310: cc8b e2bd 60f2 13be 6927 d53d 0988 80bd
00000320: 925d efbd 1828 a5bd fb06 edbd 6f0c f1bd
00000330: 0352 93bd 00e5 d6bd 8207 89bd 3417 b6bd
00000340: acc2 92bd a852 ebbd de1a 94bd 0030 aebd
00000350: cde1 a6bd 58dc 2cbd 014c 803d 19b9 4ebd
00000360: 1856 03be 767b f0bd cdad 5ebd 4399 e9bd
00000370: 4154 04be e6e9 4ebd 55a6 16bd f537 1ebd
00000380: cd51 f1bd a405 1abd d035 c9bd 4adc b6bd
00000390: fcf7 b6bd bfe8 bbbd c69d d1bd 0722 8bbd
000003a0: 9c17 0bbe a56a 81bd 0b1a a3bd 5382 edbd
000003b0: 0f92 e0bd 5d3f 11be adcd fcbd 2535 753d
000003c0: 21d4 e93d 582d 413d dec7 243d 41bd 0b3e
000003d0: 110f 713d b5d5 b33c 1b54 dc3d b06d 833d
000003e0: 8ee5 f13d b6ec a73c 8ac8 fb3c cbe4 903d
000003f0: d5df cc3d d800 893d 2d7f 043e 982c 0a3e
-0.024715897 -0.07133187 -0.111911185 -0.14140065 -0.03609269 0.07641765 -0.07419476 0.036223713
-0.0086437985 0.11405344 0.06915649 -0.061309453 -0.018094998 -0.07618957 -0.06835395 -0.113176204
-0.06469946 -0.1344338 -0.05259898 -0.06264567 -0.044406313 -0.14602442 -0.057405923 -0.08916785
-0.14324753 -0.06868452 -0.11352108 -0.08542218 -0.14063066 -0.12163758 -0.07587811 -0.14512959
-0.047012094 0.021557942 0.032683775 0.035280235 -0.021416515 -0.04767909 -0.05082166 -0.030168137
0.039287157 0.055611387 0.0070736557 0.047539525 0.041836306 0.012431838 0.03516318 -0.033417724
0.041590303 -0.004301507 0.039246134 0.05895365 0.038194902 -0.06932171 0.102302134 0.06474227
-0.008828055 -0.079964966 -0.129254 -0.04808279 0.0843398 0.07640246 -0.052187003 -0.08001102
-0.061870933 -0.14354554 -0.06166395 -0.090849206 -0.061550356 -0.13832057 -0.07723948 -0.047447134
0.042752087 -0.06833998 -0.076668836 -0.1318766 -0.10844685 -0.13077372 -0.066352256 -0.14462954
-0.07880392 -0.10806544 -0.03977494 -0.13008758 -0.13209856 -0.081819616 -0.14490508 -0.054335117
0.08989078 -0.047378298 -0.07682904 -0.09485786 0.13579194 -0.09442307 -0.057361808 -0.102416314
0.1088307 0.039446376 0.14287739 0.09520396 0.08319417 0.004822351 -0.122022696 -0.10726626
0.108405866 0.1256797 0.08819214 0.10562604 0.09093769 0.037237085 -0.010369588 -0.03865939
0.09535898 0.049505662 0.116520524 0.10938341 -0.0886658 0.062013738 0.035331797 0.06822957
0.08550644 0.081773534 0.043761496 0.037372757 -0.08690444 0.13808414 0.12158832 0.0913686
-0.06886716 -0.06704283 -0.14391874 -0.07345408 -0.12815875 -0.05389744 0.109935455 -0.057503935
-0.09818709 -0.05869086 -0.07277905 -0.036272965 -0.11089348 -0.12553705 -0.112802126 -0.12593687
0.12178044 -0.03995099 0.10728209 -0.05629188 -0.05074519 0.02532158 0.117677554 0.0405672
0.08101184 -0.0048617683 0.12541819 -0.08219128 -0.110408336 -0.12363358 -0.043161135 -0.10205568
-0.12449937 -0.063617036 0.13013783 -0.05102254 -0.13253091 0.13849795 0.050763536 -0.12576878
-0.06944043 -0.11592436 -0.14395477 0.09470624 -0.10473831 -0.14000529 -0.039609015 -0.039154902
0.073855646 0.13960174 -0.06483955 0.118119076 0.067736976 0.03843379 0.101094775 -0.060362943
-0.12032459 0.050254162 0.05411881 0.052494075 0.13112974 0.11750167 0.054436885 0.13070145
0.048802495 -0.12220071 -0.13939692 -0.08561234 -0.110618204 -0.14447927 0.104079075 -0.06275947
-0.11687769 -0.08064288 -0.11573597 -0.1176995 -0.07193377 -0.10492897 -0.06690885 -0.088911444
-0.07166037 -0.11490375 -0.07231687 -0.08505249 -0.08148537 -0.042202324 0.062644966 -0.05046949
-0.12825811 -0.11742298 -0.054364968 -0.114061855 -0.12922765 -0.05051603 -0.03677972 -0.038627584
-0.117831804 -0.037603036 -0.09824717 -0.089287356 -0.08934018 -0.09175252 -0.10235171 -0.067935996
-0.13583225 -0.06319169 -0.07963952 -0.11597123 -0.109653585 -0.14184327 -0.12343917 0.059865136
0.114174135 0.047162384 0.04022967 0.13646413 0.05885226 0.02195249 0.10758229 0.064174056
0.11811362 0.020498615 0.030735273 0.07074889 0.1000363 0.06689614 0.12939139 0.13493574

fc1.bias f4 [50]
00000000: b7f2 86bc 7fbe 303d b004 99bd 7fe3 83bd
00000010: a426 1fbd 063e ae3d 791b 9a3d ab1e c3bc
00000020: 943c d2bc cee6 f73c 7708 47bc 7cc2 66bd
00000030: ab6c debc 84f9 c63d 946d 08bd 5b18 c23d
00000040: 604f 90bd 25a9 44bd e3e0 12bd bddf e7bd
00000050: a8b9 a3bd 28d9 b4bd 0d1d b3bd 26f6 0fbd
00000060: beb9 aabc 6edf 65bd 4e09 0dbd d84e 22bd
00000070: 9990 9c3d 62a2 18bd aafc f8bd 71c3 93bd
00000080: 78e3 033e a0cb 91bc 2c51 03be c52c 2bbd
00000090: 45b1 a7bc 3ad5 843c f214 31bd 7f73 36bd
000000a0: fefd 713c d2ff 87bd 8a88 47be 4b6a 3dbd
000000b0: 6c2e eabd 2745 e2bd 960d 2fbe 474d 61bd
000000c0: df11 d23d 93e2 893d
-0.016473157 0.04315042 -0.07471597 -0.06439876 -0.03885521 0.08507924 0.07524771 -0.023818335
-0.025663652 0.030261423 -0.012148014 -0.05633782 -0.027151426 0.0971556 -0.033307627 0.09477302
-0.070463896 -0.04801287 -0.035859 -0.113219716 -0.079943955 -0.08830482 -0.08745775 -0.035146855
-0.020840522 -0.056121282 -0.0344327 -0.039625973 0.07644767 -0.037264235 -0.12157567 -0.07215012
0.12879741 -0.017797291 -0.12823933 -0.041790742 -0.02047027 0.016214956 -0.043232866 -0.04454374
0.014770029 -0.06640591 -0.1948568 -0.046243947 -0.114346355 -0.11048346 -0.17095026 -0.055005338
0.10257315 0.06732669

fc2.weight f4 [10, 50]
00000000: d183 2bbd 70f1 1fbe 8857 133e 5c33 51be
00000010: 4895 93bc 8e2e 61be ca31 2f3c e51a b5bd
00000020: fbc6 d83d 969b 1e3d 5a4a 743e 7ce5 9dbd
00000030: fd4f 013c 12dc e83c dc0d 04bd 04d1 47bd
00000040: a7e9 303d 6908 97bc b110 a1bd 7e26 febd
00000050: 9e7e ecbc cfb7 36bd 555b b13d 7e14 9bbd
00000060: 0f56 26bd dabd 7e3c d8a1 d93d d2db 16bd
00000070: b026 55bd c04d 85bd 6999 153e 4f14 48be
00000080: 00eb 593d a0ff 6c3a c47a e73d 9577 123d
00000090: 8c41 86bd 7cf9 15bd 3d26 7e3c cd3a d93d
000000a0: 9f09 82bd 20dc e3bb feb4 063e ded7 dd3c
000000b0: 146c b93b 8dc5 39be 321e 00be ef8b 92bd
000000c0: 6a83 32be 408a 153e dd61 91bd 4b88 cebd
000000d0: 241e 6abc 1023 15be 2baf 36bd 2f0d ccbc
000000e0: 8c1e 6b3d b58f 673d f5e4 143e c227 2c3e
000000f0: a06f 28be 3918 e63c de58 943d 830a 8bbc
00000100: 2026 79bc b5d2 453d f774 98bd 81bb 933d
00000110: a3b2 e4bd 9ef0 f33a d26f 133c 6320 ea3d
00000120: 2c5c b8bb 637d b33b c655 793d f7f6 84bd
00000130: 267b f6bd f115 41be 20b8 823e 1388 52bd
00000140: d8db 393d ceda 193d 7534 493e 6ee0 883d
00000150: b6e0 a7bc 9cc9 0dbc 4cd8 52bc be2a 3e3d
00000160: 2834 143d 2610 8dbd cc65 973d 4580 a63d
00000170: a265 9abd 246a 45bd 6c4e 1dbe 188c c63d
00000180: 15db 8dbd 4838 c03c 3a79 41bc bd68 55bd
00000190: b3f4 4b3e 5ff7 a73d 567a 91bc fe31 193d
000001a0: 6017 2abd 54f6 d13c 8a22 783e 6085 50bb
000001b0: 61df ff3d 9e36 8ebd d116 f53d e114 b3bd
000001c0: 9283 153e e0cd f2bb 5890 c63d 893a 8d3c
000001d0: 3aa1 9ebd c221 ab3d 0e4a 0a3e c274 38be
000001e0: bfc0 eb3d 0ce0 e7bd fa6e d83d d49e 623e
000001f0: 01b5 c0bc f5b0 45bd ef09 d93d 3463 d73d
00000200: 1d8a 59bd 0fb6 29bd 6500 a4bd 4708 bbbd
00000210: 6ec1 78bb ff22 0fbe 4ed7 fd3d 0c3c f43c
00000220: 6529 013c ba18 463e b124 22be 5ef1 a0bd
00000230: 27e1 e03d be11 bdbd 67a9 4dbe e2fa b63d
00000240: 05d4 2ebe 62c0 223d 74e2 003d fd0a 0d3e
00000250: 4ae4 0abe 651c 703e f544 abbd 7c6f 243e
00000260: d0ac f1bd 3205 bf3d e53c f93d b762 ad3d
00000270: 79a8 603d 3550 9bbd abd4 de3d 5de0 083e
00000280: 5e62 3f3e 82d6 eb3d 5878 183e 236a a23d
00000290: 2c72 8ebd 19ee 003d 93ee 93bd 8400 df3b
000002a0: 7ea3 463e 0f4d 18be d893 1d3c 2e69 37be
000002b0: 4f8d 3ebd f2e8 c6bd 6b71 213e 8380 3cbe
000002c0: d121 883e 3352 e4bc 15d0 53bd 12e6 c03d
000002d0: 41b0 4a3d 225c b43d b4cf fc3c 7eb2 093d
000002e0: 0ea0 653e 7135 24be 4545 123e 2396 e0bd
000002f0: b5eb 32bd a9a0 f23c 12c2 623d bfa9 b53d
00000300: 2779 70be 38b3 293c cc1a 28be a4fc 9ebc
00000310: 21bb 073e ba50 0f3c f88e a0bd 744a 643d
00000320: 39a9 babd 9494 03be ac1f 95bd c662 38bd
00000330: 98c8 ca3d 8528 9d3d d1f6 b13d a995 893d
00000340: 73df e7bd fcd6 973d 4b2e 01be 46c2 c1bc
00000350: 86ea 783d f269 673e 409c ae3d a771 f5bd
00000360: c21a 06be 22b3 31bc 69e7 303d 70aa b8bc
00000370: 17d7 b7bc 3dbf 65bc 3500 8abd 49a2 c5bc
00000380: 2282 1cbd a701 563e 13fe e2bc c318 3f3d
00000390: d64d ebba acc8 2e3d 6e04 963c 6c61 33be
000003a0: be36 903d 493c d53c ad57 11be 09e4 963d
000003b0: b4c3 9e3d e60c eabd 0c71 bdbc 6a46 7c3d
000003c0: 3cba 513e 5826 d73d 0c50 1dbe 18fa 353c
000003d0: 28ab 4cbc c85e a53c ca12 b3bc 995d 10be
000003e0: 2096 933b 4393 6d3d 899b 3ebd 0e2b 4dbd
000003f0: 3082 103a cfc7 8b3d 4a6e e3bc 6f9f 10be
-0.041873757 -0.15619445 0.1438886 -0.20429748 -0.018015519 -0.21990415 0.010693023 -0.0884302
0.105848275 0.038722597 0.23856488 -0.07709786 0.007892606 0.02842525 -0.03223978 -0.048783317
0.04319158 -0.018436627 -0.07864512 -0.124096856 -0.02886897 -0.044608887 0.08659998 -0.07572268
-0.040609416 0.015548194 0.10626572 -0.03683073 -0.05203885 -0.0650897 0.14609303 -0.19538997
0.05320263 0.00090407766 0.113027126 0.035758574 -0.06555471 -0.03661488 0.015512046 0.106069185
-0.06349491 -0.006953731 0.1315498 0.027080473 0.005658636 -0.18141766 -0.12511519 -0.071555965
-0.17432943 0.1460352 -0.07098744 -0.100845896 -0.014289413 -0.14564157 -0.044600647 -0.02490863
0.05740218 0.056533534 0.14540465 0.16812041 -0.16448832 0.028087722 0.072435126 -0.016972786
-0.015206844 0.04829665 -0.07444184 0.07213498 -0.11166885 0.0018611138 0.008998828 0.114319585
-0.005626222 0.0054775937 0.060872816 -0.06492417 -0.120352075 -0.18856026 0.255311 -0.0513993
0.045375675 0.037562184 0.19648917 0.066834316 -0.020492893 -0.008654024 -0.012868952 0.04642748
0.036182553 -0.06887846 0.07392463 0.08129934 -0.07538916 -0.048196927 -0.15361947 0.096946895
-0.06926552 0.023464337 -0.011808688 -0.05210184 0.19917564 0.08201479 -0.01775853 0.037401192
-0.0415262 0.025630154 0.24231926 -0.003181778 0.12493778 -0.06944011 0.119672425 -0.08744217
0.14600971 -0.007409796 0.096955 0.017239826 -0.07745595 0.08356048 0.13504812 -0.1801329
0.11511373 -0.113220304 0.10568042 0.221309 -0.02352381 -0.048264463 0.10597598 0.10516968
-0.05311023 -0.04143339 -0.08007888 -0.09132438 -0.003795709 -0.13978194 0.12394582 0.029813789
0.007883404 0.1934537 -0.15834309 -0.07858537 0.109804444 -0.092319 -0.20084153 0.08934571
-0.17073067 0.03973425 0.031465963 0.13773723 -0.13563648 0.23448332 -0.08362762 0.16058153
-0.118005395 0.09327163 0.12169818 0.08466094 0.054848168 -0.07583658 0.10880407 0.13366838
0.18689868 0.115155235 0.14889657 0.079304 -0.0695537 0.031477068 -0.07223239 0.0068054814
0.19398305 -0.14873146 0.009617768 -0.17911217 -0.04652148 -0.097123995 0.15765922 -0.18408398
0.265883 -0.027871227 -0.051712114 0.094188824 0.049484495 0.088066354 0.03086076 0.03361749
0.22424337 -0.16036011 0.14284237 -0.10966136 -0.04368182 0.029617624 0.05536086 0.08870267
-0.23483716 0.0103576705 -0.16416472 -0.019407578 0.13254978 0.008747274 -0.07839769 0.055735067
-0.09114308 -0.12849647 -0.072814316 -0.045016073 0.099015415 0.07673744 0.086896546 0.067179985
-0.113219164 0.07414052 -0.12615316 -0.023652207 0.060770534 0.22599009 0.08525896 -0.11984568
-0.13096145 -0.010845931 0.04318944 -0.022542208 -0.02244143 -0.014022646 -0.06738321 -0.024125235
-0.03821004 0.20899068 -0.027709043 0.046654474 -0.0017952274 0.042671844 0.01831266 -0.17517632
0.07041691 0.026029723 -0.14193602 0.07367713 0.07752171 -0.114282414 -0.023125194 0.06159059
0.20481199 0.1050536 -0.15362567 0.01110699 -0.012491979 0.020186797 -0.021859545 -0.14098205
0.0045039803 0.058001768 -0.04653505 -0.05008989 0.00055125635 0.0682522 -0.02776255 -0.14123319

fc2.bias f4 [10]
00000000: f732 94bd 3873 adbb 63dc c23c c41e 953d
00000010: d579 e63d ec8c 093b e540 1f3d 168c 83bd
00000020: 18f4 5d3d ed3e d7bd
-0.07236283 -0.005293276 0.02378673 0.07281259 0.11253706 0.0020988537 0.038880248 -0.06423204
0.054187864 -0.10510049

exp_avg f4 [10, 1, 5, 5]
00000000: 3c99 803b b0ea 8f3b a4a9 d13b bd6c f43b
00000010: 0f77 003c c803 a43b 189a aa3b 0534 e53b
00000020: 93e4 063c 16b6 123c 1363 8a3b 2536 9d3b
00000030: dc56 d83b ba4b 053c 4864 013c 0ff3 393b
00000040: 62d0 813b ff77 c13b 178b d03b 99a4 b53b
00000050: c16c 493b 9998 833b c4be a23b 9eaf b53b
00000060: f356 b63b e700 203b 79fc 1d3b 3530 3d3b
00000070: d94f ba3b c674 fc3b 831b 2c3b 67d2 543b
00000080: 1164 843b 77b4 d73b eabd 0f3c e737 833b
00000090: 34fd b73b dfec df3b 3ae1 053c 5bea 143c
000000a0: 496b bc3b 7e3b e13b f606 ed3b e876 083c
000000b0: cd3a 063c 9ded ba3b 5fbc d63b 2b36 dd3b
000000c0: b122 083c add3 0a3c cc0f 4d3b 181f 353b
000000d0: 85dc 533b 1012 8c3b e4b3 c13b f22e cb3a
000000e0: 3fc7 023b 0ad5 4b3b 78e8 a93b 6849 d33b
000000f0: 5130 8c3a b848 1b3b 1f3a 6e3b b15c ad3b
00000100: 538e be3b a98e a43a bbaf 313b 69bf 683b
00000110: 7888 6d3b e341 923b c9d4 c83a ca8a 343b
00000120: acde 3d3b cd2a 293b e06a 623b 7f11 7938
00000130: 9cf1 3f39 0391 e539 a404 753a 2f36 9d3a
00000140: a51c 7638 4a62 9438 b3a9 5f39 2104 513a
00000150: f7d1 733a d931 d237 b39c d437 6262 4239
00000160: 872e 443a 439d 6f3a 0d67 4bb6 5b21 beb7
00000170: afc0 2139 d34c 2a3a 5425 893a 1797 ce37
00000180: 4b05 52b8 3bf2 8439 55e9 333a 4a5b 8c3a
00000190: e0c9 cd3a bb0a 9f3a 7e69 643a f2a3 fa3a
000001a0: 3d1e 513b bdf7 013b 6130 b23a 323f b33a
000001b0: 3aab 313b 897a 703b 088c 0c3b 6f30 e63a
000001c0: 6a84 f93a 3fe0 323b 81b9 433b 71bc d73a
000001d0: d2e9 663a bb55 883a b9e4 043b 6802 063b
000001e0: eea1 983a 4109 f439 0c89 763a ecb0 ff3a
000001f0: b296 013b a662 023a e5c5 ec39 008b 5d39
00000200: 9e3b b236 2599 0bb6 101d e039 8bd8 0b3a
00000210: fecd ab39 af0c fc36 7926 eb36 5ba1 c039
00000220: 4195 213a dec0 fd39 bac7 0039 5c0f 0739
00000230: 7413 b439 edc2 2c3a 4027 543a 089e 2c3a
00000240: e9cb 263a b92c bd39 47d1 f539 9859 203a
00000250: 56d0 873a ba62 893a f006 a33b 3409 eb3b
00000260: 4617 053c ae5d f73b 24ee 9d3b 6805 a63b
00000270: 541d e33b 6bb8 043c 2101 f83b 180d ad3b
00000280: f5fd 9d3b d57b 9d3b e10e cd3b 02f8 d23b
00000290: e778 ab3b 314c 813b 845a 763b ce9e 9d3b
000002a0: de2b 953b 4d9c 723b 316b 653b 403e 6d3b
000002b0: 637a 773b 31be 643b c5d3 703b 1532 413a
000002c0: 1377 ae39 5f8e 483a 69bc d43a 5f50 3a3b
000002d0: 9812 e139 c17f 2839 868a 293a 1d9a f93a
000002e0: 889c 3c3b 44b0 5e3a a040 d139 557c 413a
000002f0: 7c28 0d3b ffa4 423b fb72 963a 53af 0f3a
00000300: 76e6 7d3a 802f 2a3b 3292 893b 176d 993a
00000310: f4c6 213a f23f aa3a 80e1 6b3b ca81 a03b
00000320: 2cd3 3e3b 7dc7 653b 31e8 813b a12e 733b
00000330: 8b93 493b 1db2 4b3b 03c6 303b 02aa 4e3b
00000340: 5fe4 453b ee5c 2f3b b95c 543b dad9 393b
00000350: b45f 473b 1e9a 523b 8f8e 6d3b af8c 7a3b
00000360: df26 813b f335 6a3b c73d 3b3b 25b0 4c3b
00000370: 4328 813b 935d 8f3b c3ab 6e3b c574 233b
00000380: e756 f93a 0b83 463a fe75 2f3a 2c30 893a
00000390: 2397 173b 5c17 2c3b 75eb 283a 400b c839
000003a0: 49d1 0e3a a9b6 f93a 951e 243b 374e 4039
000003b0: 9b52 5939 e020 0f3a 44ac bb3a 4872 113b
000003c0: 2617 9039 aa6b c939 9f2f 2a3a 8a59 bc3a
000003d0: 734e 033b 9280 af39 8531 f439 58a0 5e3a
000003e0: 9f01 e73a 022a e03a
0.003924517 0.0043919906 0.0063983966 0.0074592517 0.007840886 0.0050053336 0.0052063577 0.0069947266
0.008233207 0.0089545455 0.0042232363 0.0047977143 0.0066021513 0.00813573 0.007897444 0.0028373634
0.0039616087 0.005904197 0.006364237 0.005543303 0.0030734988 0.004015994 0.0049665887 0.005544617
0.0055645644 0.00244146 0.0024106784 0.0028867845 0.005685788 0.00770435 0.0026261515 0.0032474042
0.004040249 0.0065827924 0.008773306 0.004004467 0.005614901 0.006833657 0.008171374 0.009089078
0.005750094 0.006873547 0.007233496 0.008329131 0.00819273 0.0057045952 0.0065532173 0.006750842
0.008309052 0.008473319 0.0031289933 0.0027636942 0.0032327485 0.004274614 0.005911337 0.0015501662
0.0019955186 0.0031102323 0.005185183 0.0064479597 0.0010695552 0.0023694467 0.003635056 0.0052905907
0.005815306 0.0012554723 0.00271128 0.003551448 0.0036244672 0.0044634207 0.0015322204 0.0027548545
0.0028971834 0.0025812865 0.0034548566 5.938252e-05 0.00018305186 0.00043786326 0.00093467 0.0011994297
5.8677648e-05 7.075498e-05 0.00021330155 0.00079733325 0.00093010016 2.5057163e-05 2.5345338e-05 0.00018537932
0.000748374 0.000914056 -3.030934e-06 -2.2665297e-05 0.00015425937 0.0006496433 0.0010463395 2.462747e-05
-5.007283e-05 0.00025357478 0.0006863077 0.0010708359 0.0015700422 0.0012133935 0.00087132293 0.0019122346
0.0031908893 0.0019831501 0.001359474 0.001367545 0.0027110116 0.003669413 0.002144577 0.0017562042
0.0019036655 0.0027294306 0.0029865208 0.0016459358 0.00088086457 0.0010401526 0.002027793 0.0020448212
0.0011644938 0.000465462 0.0009404577 0.0019507683 0.001977366 0.0004973806 0.0004516087 0.00021127984
5.3117537e-06 -2.0801756e-06 0.00042746263 0.00053346966 0.00032769138 7.511662e-06 7.0080246e-06 0.00036741313
0.0006163903 0.00048399618 0.00012281435 0.00012880325 0.0003434677 0.00065903255 0.0008093007 0.0006584828
0.00063627824 0.0003608221 0.00046885965 0.0006116866 0.0010361772 0.0010481693 0.0049751922 0.007172728
0.008123225 0.0075490093 0.0048196483 0.0050665624 0.0069309864 0.008100609 0.007568494 0.005281102
0.004821534 0.0048060217 0.006257877 0.0064382562 0.0052329185 0.0039458503 0.0037590573 0.0048101908
0.0045523485 0.0037019432 0.0035006518 0.0036200434 0.0037762157 0.0034903402 0.0036747318 0.00073698285
0.00033276583 0.00076506095 0.0016230467 0.0028429253 0.00042929198 0.0001606932 0.000646748 0.0019043122
0.0028779823 0.00084948936 0.00039911736 0.00073808926 0.0021539023 0.0029700396 0.0011478359 0.00054811424
0.00096855254 0.0025968254 0.004198336 0.0011705485 0.0006171309 0.0012989028 0.0035992563 0.0048982846
0.0029117567 0.0035061531 0.003964447 0.003710665 0.0030758108 0.0031081506 0.0026973493 0.0031534438
0.0030195934 0.0026758271 0.00324039 0.002835861 0.0030422034 0.0032135318 0.0036248302 0.0038230827
0.0039414014 0.0035737723 0.0028570758 0.003123292 0.003941567 0.0043751686 0.0036418296 0.0024941426
0.0019023091 0.00075726275 0.00066933024 0.0010466627 0.0023130856 0.002625904 0.0006443777 0.00038155355
0.0005448056 0.0019051629 0.0025042642 0.00018339684 0.00020725506 0.0005459916 0.0014318307 0.002219336
0.00027483067 0.00038417923 0.00064920814 0.0014369946 0.0020035773 0.00033474393 0.00046576202 0.0008492521
0.0017624384 0.0017102363

exp_avg_sq f4 [10, 1, 5, 5]
00000000: e6da ed36 0753 0c37 190f 7b37 f938 9e37
00000010: 38e5 a337 b32a 2f37 9e3b 3a37 8994 9b37
00000020: 7d9f ca37 a8c3 d337 1ffc 0737 1ff7 2437
00000030: 8431 9637 b6f3 d037 0b0a b337 1562 9936
00000040: 03f9 fd36 55a3 7b37 189c 8c37 c879 5937
00000050: a8ed 9636 4902 0137 a050 3537 e11f 4f37
00000060: 0120 4537 f37c 5636 b634 6436 bf7a 8a36
00000070: c3d3 5c37 5199 a537 7aea 8336 3737 c436
00000080: 9100 0637 5f29 8d37 cf93 c137 0afd db36
00000090: 746c 5537 92d6 9837 e45c bf37 fffe c737
000000a0: da85 3d37 9615 9037 8ff2 ab37 9e1c cc37
000000b0: 4e60 aa37 17c0 3a37 2c9a 8437 e2f6 8f37
000000c0: 8f8d b037 0596 a037 c49e 7336 8071 5036
000000d0: 9b04 9236 7d48 d936 0a8e 4937 1343 8935
000000e0: e225 0f36 1855 a036 ea05 3037 f47b 7937
000000f0: bbcd 2035 fa8b 3936 abd6 ce36 e0a5 3637
00000100: 1731 4b37 05b9 4635 dd6a 5d36 0e1d be36
00000110: ecbf bf36 deb6 0337 119c 9535 9870 6136
00000120: d845 8436 fbee 6636 7665 ab36 5ff6 5831
00000130: b635 a232 e537 ea33 f4f5 0335 326a 8735
00000140: e975 5631 0d38 9731 a23c 9233 770e 2535
00000150: f232 8535 2b7a 0d30 538f 3330 7192 e033
00000160: 1775 5535 4372 ab35 01f4 082d 43bc b42f
00000170: 033e 6d34 6a3b 6d35 0647 ba35 bfb5 c130
00000180: 53db b032 bce2 de34 b8f0 8435 de93 bb35
00000190: b177 8435 e020 3935 1296 d334 8686 9c35
000001a0: 8949 4a36 2ed2 b035 88bf 3d35 e0ee 4435
000001b0: 23f9 1436 faa1 8236 c41c bc35 fa2e 8235
000001c0: 2a24 9e35 348f 1636 f809 3436 0b36 6935
000001d0: 42b8 8d34 75a9 ed34 05e4 ad35 e0b2 ac35
000001e0: ba8f e534 abab b033 f038 b134 e4c0 9935
000001f0: dc78 9435 5ca2 a133 7ef9 7733 20e2 2132
00000200: d07e c22e dfac 6f30 88f5 5633 cf4b b233
00000210: 515d dd32 151b cc2e 306d ae2e 7613 1e33
00000220: 574e e833 0363 a333 0d8c a531 78bd 3e31
00000230: 3877 4933 3e63 1434 057d 4f34 0361 1834
00000240: ffa8 0634 029b 1733 a984 9a33 990c 1034
00000250: 4050 9e34 6f0f ae34 27a0 e936 2db5 6e37
00000260: a9d3 9837 c4be 8537 dc78 ec36 2c88 0c37
00000270: e139 7d37 a306 a937 672a 9137 981f 0c37
00000280: 5b3f 1b37 9817 2037 eb40 7837 21af 6537
00000290: 2ade 1437 0a71 0137 c91e fc36 dd51 2b37
000002a0: d4c7 0537 ac91 ac36 4c35 e336 25ca ec36
000002b0: 70da e236 2627 a836 d61c 9536 2fbd 9834
000002c0: 43fc 8433 1094 b634 8812 b135 6263 6636
000002d0: 30b8 d733 060e 9232 8cdb 8f34 ab8b f035
000002e0: 9232 6536 1c15 9534 abf4 9b33 5dd8 a134
000002f0: b4dc 0d36 2361 6936 c597 fb34 d032 1134
00000300: afd0 1335 6565 4236 d6ee c936 e966 0235
00000310: d5d0 3634 61be 7c35 c3cd 9236 dcb9 f636
00000320: 6a84 8e36 cd30 c036 0807 e936 b730 d336
00000330: 4b00 8c36 41f5 9736 7285 6a36 cf5c a836
00000340: 2bd0 a536 5ac2 7f36 3323 9d36 e954 7136
00000350: cb85 9636 917f a936 558d c736 b9b8 d736
00000360: 2ae7 e336 fc9c c536 2e4f 8836 002f 9436
00000370: 6e5f da36 8526 f636 447b b336 3311 4b36
00000380: 74f1 0036 1f5e a034 1c70 1734 f853 9434
00000390: 492d a335 23d8 e035 6f80 5b34 9297 5533
000003a0: 7fb6 f833 3799 8d35 f4d8 db35 eef8 4f33
000003b0: 966a c032 c4b6 4634 d080 4b35 d1b1 c535
000003c0: 6879 8233 60bd c733 4dca 7634 583a 5035
000003d0: 873b b835 ec48 ad33 1a53 1734 d2fc b134
000003e0: 0f09 9035 4391 8335
7.0886335e-06 8.363982e-06 1.4964281e-05 1.8861598e-05 1.9537852e-05 1.04407545e-05 1.1100345e-05 1.8546607e-05
2.4154544e-05 2.524427e-05 8.105329e-06 9.832699e-06 1.7904451e-05 2.4909019e-05 2.134314e-05 4.5711736e-06
7.5689763e-06 1.49987945e-05 1.6761987e-05 1.2962562e-05 4.498015e-06 7.689531e-06 1.0807213e-05 1.2345584e-05
1.17495665e-05 3.1961215e-06 3.400533e-06 4.12701e-06 1.31623265e-05 1.9740926e-05 3.931401e-06 5.847683e-06
7.987154e-06 1.6827775e-05 2.3076222e-05 6.556166e-06 1.2721041e-05 1.821973e-05 2.281223e-05 2.384139e-05
1.1296443e-05 1.717619e-05 2.0497739e-05 2.4332021e-05 2.0310425e-05 1.1131188e-05 1.5807418e-05 1.7161892e-05
2.1046753e-05 1.9143345e-05 3.6302235e-06 3.106048e-06 4.351675e-06 6.4755427e-06 1.2013605e-05 1.0226817e-06
2.1330711e-06 4.778278e-06 1.04917945e-05 1.4870417e-05 5.990402e-07 2.7648625e-06 6.164269e-06 1.0886666e-05
1.21111725e-05 7.4029987e-07 3.2993769e-06 5.6658237e-06 5.714586e-06 7.850786e-06 1.1146786e-06 3.359315e-06
3.9420374e-06 3.4411776e-06 5.1080087e-06 3.1572183e-09 1.8883707e-08 1.0906641e-07 4.915921e-07 1.0089191e-06
3.1208123e-09 4.4010506e-09 6.809684e-08 6.148834e-07 9.924099e-07 5.146911e-10 6.5323497e-10 1.04574504e-07
7.951907e-07 1.2773747e-06 7.784885e-12 3.2875577e-10 2.2094905e-07 8.837584e-07 1.387875e-06 1.4094254e-09
2.0588834e-08 4.1515693e-07 9.904825e-07 1.3975621e-06 9.869601e-07 6.896571e-07 3.9411003e-07 1.1662057e-06
3.0143149e-06 1.3174192e-06 7.06867e-07 7.33633e-07 2.2198735e-06 3.8931585e-06 1.4015463e-06 9.699427e-07
1.1782442e-06 2.2435097e-06 2.6827893e-06 8.6877907e-07 2.6397362e-07 4.4267986e-07 1.2955867e-06 1.2867058e-06
4.275915e-07 8.226865e-08 3.3010247e-07 1.1455527e-06 1.1062034e-06 7.52668e-08 5.773608e-08 9.422848e-09
8.844625e-11 8.719336e-10 5.0049067e-08 8.3025604e-08 2.5770222e-08 9.281657e-11 7.9319995e-11 3.680494e-08
1.0817592e-07 7.608289e-08 4.818054e-09 2.775634e-09 4.6907388e-08 1.3819678e-07 1.9323859e-07 1.4191396e-07
1.2541203e-07 3.5298406e-08 7.1953146e-08 1.3415628e-07 2.9488183e-07 3.2421255e-07 6.9625853e-06 1.4228089e-05
1.8218374e-05 1.5943668e-05 7.047418e-06 8.376355e-06 1.5093451e-05 2.014946e-05 1.7305092e-05 8.352006e-06
9.253471e-06 9.5422365e-06 1.4797067e-05 1.3690239e-05 8.873214e-06 7.715318e-06 7.513769e-06 1.02114545e-05
7.973944e-06 5.142958e-06 6.7713318e-06 7.056881e-06 6.7607543e-06 5.0113476e-06 4.443903e-06 2.8449855e-07
6.192615e-08 3.400787e-07 1.3192921e-06 3.433052e-06 1.0045221e-07 1.7003014e-08 2.6795567e-07 1.7922042e-06
3.4153095e-06 2.7768772e-07 7.262255e-08 3.0146012e-07 2.1139103e-06 3.4776247e-06 4.686282e-07 1.3522663e-07
5.506544e-07 2.8967272e-06 6.018071e-06 4.857853e-07 1.7026044e-07 9.4154353e-07 4.375093e-06 7.353008e-06
4.247345e-06 5.727727e-06 6.9447597e-06 6.293961e-06 4.1723592e-06 4.528702e-06 3.4946393e-06 5.0175945e-06
4.941617e-06 3.8111089e-06 4.6830623e-06 3.5961223e-06 4.485924e-06 5.051443e-06 5.9471154e-06 6.429004e-06
6.792038e-06 5.889333e-06 4.0623336e-06 4.4162152e-06 6.5080158e-06 7.3358556e-06 5.3489657e-06 3.0259368e-06
1.921403e-06 2.9870804e-07 1.4103756e-07 2.7628244e-07 1.2157626e-06 1.6752205e-06 2.0442688e-07 4.973078e-08
1.1581596e-07 1.054991e-06 1.6379913e-06 4.8422343e-08 2.2400211e-08 1.8506677e-07 7.581084e-07 1.4729395e-06
6.0756804e-08 9.301107e-08 2.2984132e-07 7.757094e-07 1.3726393e-06 8.069205e-08 1.4093203e-07 3.315277e-07
1.0731472e-06 9.802537e-07

exp_avg f4 [10]
00000000: c0b2 9f3c 3721 ba3c c610 7b3c 993b c63a
00000010: 192c 143c 11e5 b53a ed3b 823c 0e04 3f3c
00000020: 29f3 513c be4b 563b
0.019494414 0.022720916 0.015323823 0.0015123963 0.009043717 0.0013877471 0.015897715 0.011658682
0.012814322 0.0032698954

exp_avg_sq f4 [10]
00000000: 856d e638 e341 1639 8ff2 9a38 6c27 1036
00000010: 316e ba37 7930 1935 6e7e 8338 10ed 3038
00000020: dc59 5338 9217 3936
0.00010987654 0.0001432966 7.388472e-05 2.1480619e-06 2.222424e-05 5.706748e-07 6.270116e-05 4.218245e-05
5.039001e-05 2.7580868e-06

exp_avg f4 [20, 10, 5, 5]
00000000: 1763 2d38 a4fc c338 89fc 0439 ffb8 8138
00000010: c494 8b37 df2a b537 5152 e338 8f4f f338
00000020: ecca cd38 d69c 4638 6c61 f3b6 a325 b138
00000030: 51c1 bd38 ead8 7538 66c8 a237 29f7 8f35
00000040: 8944 6c38 05d1 9c38 644f 2138 e0bb 0d38
00000050: c8b4 f7b7 bca7 0337 4049 7238 eaa9 c636
00000060: 4034 ba37 81ff 3c36 9227 8038 f3c6 0639
00000070: d8d9 1a38 c480 2738 3fd5 53b8 29d2 3c37
00000080: 6eea 9038 0cfb 2438 6601 2e38 44c8 5eb7
00000090: 8c31 a538 fab2 aa38 607f 5b38 4021 cb36
000000a0: 3f9a 7637 94bc 8f38 313a 9938 57ca d137
000000b0: 4051 1db6 e4a4 4338 7b08 c438 dc30 b938
000000c0: bd9f 0238 b66b 0238 c48f 0438 7b6b c137
000000d0: e8ec a638 0b35 1138 5978 6d38 444f 2538
000000e0: 7658 fd38 1b11 1339 0705 e438 b229 5d38
000000f0: d30c 0538 380c ad38 2d1d af38 d781 d338
00000100: 5fd8 7238 deee 4db8 16f9 3538 56c8 a038
00000110: fa87 1838 96dd 2538 7950 a5b7 fe4e 1638
00000120: 2f71 3538 2668 f537 6015 d437 9038 68b6
00000130: 69a7 bcb5 d034 f835 05b3 a935 afc3 dc35
00000140: 9448 d235 7a53 3cb6 4223 1137 18a2 8435
00000150: 920d 9cb5 c087 5934 de47 f636 b7e5 8937
00000160: e349 0937 e2e1 97b4 8f0b 51b6 2934 0d37
00000170: d30c e436 8d15 3336 56b8 5036 ec17 23b5
00000180: 0880 3736 12eb 6c36 73f5 e735 857e 5834
00000190: b17e 3238 e25d ff38 90fa 8f38 289f d837
000001a0: 0de9 a137 bc42 1338 738c 8e38 25e8 7838
000001b0: 319d 9a38 4a7c 5638 b028 3938 44c8 3a38
000001c0: 85ea 5f38 a8f3 6837 bf7b a336 bc08 c737
000001d0: 52a7 68b6 2558 4338 5257 eb36 130f ad37
000001e0: 5d8d 4a36 6eda 1537 be58 1538 ef1a eab7
000001f0: fe2a bc37 a68a 0c34 ecb6 2636 1d26 e834
00000200: 08e0 8736 60f9 2e36 c39d 4f34 51c7 2135
00000210: 91d0 31b5 336c cbb4 3007 c735 6332 6136
00000220: f1c6 13b6 a354 19b6 dcb7 29b5 b16e 73b4
00000230: 1dff adb6 87f7 61b6 c73a 1cb5 0d97 7db5
00000240: 9f0e aab5 a5a3 fb35 2ffc 78b6 2308 6db6
00000250: 660c 65b4 2595 deb6 10d7 1e38 a8fa 1b37
00000260: 2228 e037 6736 8d38 d070 2338 fb24 5d38
00000270: 780c 9238 297e 8538 6825 ee38 b605 7e38
00000280: 7346 df34 9824 e6b6 53b5 5338 5660 b338
00000290: c88e cf38 7f63 66b8 cbae 06b8 8a28 1e38
000002a0: 92bd 2238 8c52 3538 8bcd 9ab8 2905 99b8
000002b0: 52ea 4b37 466e b737 12ea 4cb6 ef81 9e37
000002c0: ffe7 9138 681f 5938 4627 7037 3f2d cd37
000002d0: 7af2 e036 6c74 2838 eee4 0f38 db6b a9b6
000002e0: c17e 28b7 3650 0b38 e181 7c38 efbf 2238
000002f0: 1743 f236 c837 b737 7bec 0938 3c62 4b38
00000300: e559 4638 41e7 c036 1e83 e937 cde9 4b38
00000310: a3f5 2f38 1195 8338 2d21 f936 ca77 ea36
00000320: 020b 5e38 31f8 7736 0d91 d137 46a0 8938
00000330: be11 ed38 898b 0338 31f9 8837 86f4 fb37
00000340: 2745 6138 99f9 9638 651d 9a37 a220 18b4
00000350: 9875 9c37 4726 b838 bac2 7b38 93fa 2536
00000360: 1c3d 9eb5 5db4 eb36 300a 3638 8965 8b38
00000370: a271 ab37 95c5 cf37 a649 3338 277e 4738
00000380: 1bfc b138 4141 99b7 4b12 0c37 70ba 9138
00000390: 92ba df37 b8f2 a537 f3bd f537 fb88 3438
000003a0: 2d89 9d38 ccc3 d937 7605 8837 9926 e0b5
000003b0: df10 2338 bb69 5838 1541 3b38 f896 d6b6
000003c0: 46fb 55b7 bf6f 2637 17b7 1038 397c 3837
000003d0: a980 21b4 951a 02b7 bdca b337 d0e8 3a38
000003e0: ac38 b432 32a5 5c37 8bcd 653b 5c88 6e3b
000003f0: 9ec9 333b cccb 1d3b 4f77 323b 2afc 7f3b
4.13387e-05 9.3453826e-05 0.00012682578 6.1856575e-05 1.6639366e-05 2.1596845e-05 0.00010839536 0.00011601962
9.812959e-05 4.7352944e-05 -7.2533057e-06 8.447028e-05 9.04823e-05 5.861457e-05 1.9405223e-05 1.0726263e-06
5.6330613e-05 7.4775926e-05 3.845933e-05 3.3791992e-05 -2.9528877e-05 7.847262e-06 5.7765516e-05 5.9206404e-06
2.2197259e-05 2.8162906e-06 6.110886e-05 0.0001285335 3.6919344e-05 3.9935825e-05 -5.050492e-05 1.1254605e-05
6.910121e-05 3.9334453e-05 4.1486135e-05 -1.3278859e-05 7.877042e-05 8.139569e-05 5.2332296e-05 6.0537423e-06
1.4698656e-05 6.853897e-05 7.3064475e-05 2.5008963e-05 -2.3442117e-06 4.664519e-05 9.347588e-05 8.830588e-05
3.1143183e-05 3.109473e-05 3.1605145e-05 2.3057442e-05 7.959624e-05 3.4620094e-05 5.6617286e-05 3.9412887e-05
0.00012080457 0.00014025385 0.000108728236 5.2729338e-05 3.1721615e-05 8.251559e-05 8.350085e-05 0.000100854486
5.7898807e-05 -4.909827e-05 4.3385742e-05 7.66671e-05 3.6366262e-05 3.9545434e-05 -1.9707006e-05 3.5836354e-05
4.3259173e-05 2.9254774e-05 2.5282323e-05 -3.4603618e-06 -1.4055814e-06 1.849281e-06 1.2643583e-06 1.6448229e-06
1.5667342e-06 -2.8062773e-06 8.650883e-06 9.881942e-07 -1.1626855e-06 2.0259085e-07 7.3397377e-06 1.6438642e-05
8.183039e-06 -2.8290293e-07 -3.1150155e-06 8.416399e-06 6.7964224e-06 2.6685623e-06 3.1101713e-06 -6.075704e-07
2.734365e-06 3.530357e-06 1.7282276e-06 2.0162595e-07 4.2556498e-05 0.000121768346 6.865442e-05 2.582332e-05
1.9301218e-05 3.5109682e-05 6.797248e-05 5.934401e-05 7.3725714e-05 5.113733e-05 4.414533e-05 4.4532368e-05
5.3385756e-05 1.3885008e-05 4.8721845e-06 2.3726716e-05 -3.4668087e-06 4.6573714e-05 7.013711e-06 2.0630227e-05
3.018263e-06 8.931949e-06 3.5607016e-05 -2.7907516e-05 2.2431366e-05 1.3088956e-07 2.4842402e-06 4.3241099e-07
4.049394e-06 2.6073176e-06 1.933577e-07 6.026722e-07 -6.624114e-07 -3.7890422e-07 1.4828747e-06 3.3556942e-06
-2.2020506e-06 -2.2848042e-06 -6.3224957e-07 -2.2671408e-07 -5.185501e-06 -3.3671693e-06 -5.820006e-07 -9.446965e-07
-1.2670242e-06 1.8748584e-06 -3.710167e-06 -3.5320488e-06 -2.1331797e-07 -6.6334783e-06 3.7870428e-05 9.29708e-06
2.672157e-05 6.733537e-05 3.8967293e-05 5.2724947e-05 6.964145e-05 6.3654334e-05 0.00011355692 6.0563638e-05
4.1588245e-07 -6.858794e-06 5.047519e-05 8.553329e-05 9.897124e-05 -5.4928936e-05 -3.211088e-05 3.770789e-05
3.880036e-05 4.323064e-05 -7.3815776e-05 -7.29657e-05 1.21543e-05 2.186665e-05 -3.0534616e-06 1.8895573e-05
6.9573514e-05 5.176608e-05 1.4314259e-05 2.4458974e-05 6.703948e-06 4.0162748e-05 3.4307064e-05 -5.0491485e-06
-1.00430925e-05 3.3214885e-05 6.020244e-05 3.8802562e-05 7.2199723e-06 2.1841275e-05 3.2883585e-05 4.849046e-05
4.72906e-05 5.7489674e-06 2.783682e-05 4.8616716e-05 4.195202e-05 6.2743326e-05 7.4246404e-06 6.9876887e-06
5.2939176e-05 3.6950335e-06 2.4982286e-05 6.562522e-05 0.000113043454 3.1362786e-05 1.6328502e-05 3.0035397e-05
5.3708583e-05 7.1990486e-05 1.8371918e-05 -1.4167975e-07 1.8651408e-05 8.7809334e-05 6.0024417e-05 2.473277e-06
-1.1789703e-06 7.024543e-06 4.340167e-05 6.646949e-05 2.0437703e-05 2.476833e-05 4.2745516e-05 4.7562786e-05
8.486976e-05 -1.8269408e-05 8.348909e-06 6.9488655e-05 2.667055e-05 1.9782558e-05 2.9294728e-05 4.3042917e-05
7.5118944e-05 2.595959e-05 1.6215006e-05 -1.6700534e-06 3.887794e-05 5.1596882e-05 4.4644887e-05 -6.395272e-06
-1.27542935e-05 9.920389e-06 3.450279e-05 1.09961775e-05 -1.50411e-07 -7.754793e-06 2.143287e-05 4.456268e-05
2.098053e-08 1.3151484e-05 0.003506514 0.0036397194 0.0027433406 0.0024077771 0.0027231758 0.0039060214
