lightning_logs/version_16/checkpoints/epoch=2-step=138.ckpt (torch, 273474 bytes, 24 tensors)

conv1.weight f4 [10, 1, 5, 5]
00000000: f673 89be fb27 32be 2ffd 4ebb 40bb 303d
00000010: da18 94be af9d 68be c487 1c3d 4b67 673c
00000020: 91cd 823b ada9 e7bd e3ed a7bc e76c 3ebe
00000030: cc8e 41be a0d0 b83c 4f53 4e3d 782b 97be
00000040: f188 553d df44 17be ba01 cb3d cfe9 c23d
00000050: e3fd 7bbc 280a 2bbe 29fd 5bbe 1350 803c
00000060: 448b 993b e52d 943b 4b5d 833d 32f2 b8bd
00000070: 4552 87be 4d38 21be d67f a7be b60d 82be
00000080: 6dbf f0bd 47df fe3c 6563 3a3c 31cd 25bc
00000090: 07b9 bbbc 328f c33d 9e3b 793c fcfa 43bd
000000a0: ff6a 7cbc f52e 8a3d 5ae6 78be 1e7a bf3d
000000b0: 4852 61be 784e 9b3c 51b3 823d b47d 92be
000000c0: c4db 90be 5787 fc3c c975 1fbe 458e 36be
000000d0: d882 9b3d d886 68be 2122 61be ae25 01bd
000000e0: a59a 76be eda4 da3d 7bdf 7cbe 50a1 83be
000000f0: a5ac 63be 360c be3d cc88 8b3b 3633 323d
00000100: 32dc 0ebe f7b7 fe3c 274b 51bc 8b3a 08be
00000110: 811a 66be a4d2 72be 1553 31bd b6f4 31be
00000120: 5bc7 13bd 8762 efbd 8a9b 433d 4ac0 8cbd
00000130: bbe9 2abe 8f60 9ebc 5849 bdbd 6486 75be
00000140: 5d3b d0bd 66a9 1ebd 891c 40be f03d 81be
00000150: 7729 a73d 5be6 273d a40b 80bc c9dc 0bbd
00000160: 3c3f 4abd cf25 8b3d c644 45be 9e12 8ebd
00000170: 7679 bc3c 7985 1abe 7228 2d3c f0f1 0abe
00000180: 5446 67be 9ac9 afbd f27a 40be 7136 79be
00000190: 8287 01bc 1194 48be 7870 8ebd 0f0c adbe
000001a0: b622 61be 7200 94be aa9f 013d 30ce 733d
000001b0: d025 d0bd 2d55 4a3d 3f20 75be 95be db3c
000001c0: 4941 89be e0c7 c0bd 2c4c d33d c127 89be
000001d0: 44c0 c7bb 7af6 82be 9e01 69be 41a1 83be
000001e0: c74c 8e3c 35f3 873d 25b6 ce3c e101 7c3d
000001f0: d7fc 04bd 6f7f d7bd 10b9 aebd 1971 dcbb
00000200: 5ff0 14be 6653 b13d 0dff 05be 5786 a1be
00000210: 2c54 67be 8c2e 3bbe 31e4 303d 331c 97bd
00000220: c98d 28be 0480 a53d bd4e bf3d 11dc 86be
00000230: d5bb 37be 05bd e2bd f50f adbc 4b4d eabc
00000240: 9c00 a2bd 5b1a a1be 0ef1 65be c27f d6bd
00000250: fe1b 68be 30a5 1abe 7370 0ebe ab98 b6bd
00000260: a0f6 84be 697f 31bd 589b 1ebe 6ce1 56bd
00000270: 2e14 423a 5fbb d2bc c162 923c 588a ba3b
00000280: b148 32bd 5f97 c4bb 93f7 8fbd 9a5b 6cbe
00000290: df55 aabe b98d d0bc 8ccc cf3c ef49 42be
000002a0: 0978 22be 309d c93d fac5 e0bc 0eed 22be
000002b0: b206 38be ad42 50be c929 98bd 6868 e2bc
000002c0: 86c9 80be 2fd2 4dbe 03e8 873d be1d 2b3d
000002d0: d187 b0bd 0ae9 49bc 7752 73be a055 2cbd
000002e0: 4a27 8f3d 4a3a 98be ad5b fc3c ba7c ba3d
000002f0: 4bdd 5c3d d537 91bd e6ea c8bd e4d1 8cbd
00000300: 9374 92be 0527 5fbe c761 febd cd4b afbd
00000310: 2c26 83bc 3c4e 90be b371 823b c541 d0bd
00000320: ed3c 2ebe 37c0 3cbe dd8f bcbd 91f2 efbd
00000330: 44f2 32be b417 c33d 0fe2 47be d199 12bd
00000340: 4e7e 03be 4d36 8cbd 0bd6 6abe 132e 30be
00000350: c380 3cbd 8e44 edbd 4c3f 84be 83ce 24bc
00000360: 09d4 3e3c 1752 4abe 426d 34be b3d3 42be
00000370: fa41 a2bc 22af 73be c075 99bd a139 80be
00000380: b15e 5cbd ae2a 22bd 2bf6 a5be 5330 8ebe
00000390: ef6a 843c 2056 6fbe 0ceb 53be 2784 b0bd
000003a0: 8716 00be 0083 97bd 2ee8 4fbe f6fc 623d
000003b0: d60f 913d b0ef 93be 02ba 5cbd cec3 b53d
000003c0: 1e5a 4d3d 4272 02be 1e08 a63d c9e6 0dbe
000003d0: ec5f 7ebe 4c0f a7be c31b f6bd 13e6 8abe
000003e0: 0996 a0bd 02e6 df3a
-0.26846284 -0.17398064 -0.0031584015 0.043147326 -0.2892521 -0.22716402 0.038215414 0.014123748
0.0039917906 -0.1131166 -0.020499175 -0.1859623 -0.18902129 0.022560418 0.050372418 -0.29525352
0.05213255 -0.14772366 0.09912439 0.09517252 -0.0153803555 -0.16703093 -0.21483292 0.015663182
0.004685791 0.0045220726 0.064142786 -0.0903057 -0.26429954 -0.15744133 -0.3271472 -0.25401086
-0.117552616 0.031112326 0.011376237 -0.010119722 -0.022915376 0.09548797 0.015211968 -0.04784678
-0.015406369 0.067472376 -0.24306622 0.09349464 -0.22004044 0.018958315 0.06381858 -0.2861153
-0.28292668 0.030826254 -0.15572275 -0.17827709 0.07593316 -0.22707689 -0.21985675 -0.031530075
-0.2408243 0.10675988 -0.24694626 -0.2570901 -0.22233827 0.09279673 0.004258251 0.04350587
-0.13951185 0.03109358 -0.012774265 -0.13303582 -0.22471048 -0.23713166 -0.043292124 -0.17378506
-0.036078792 -0.116887145 0.047755755 -0.06872614 -0.16690724 -0.019333152 -0.09242505 -0.23977047
-0.10167573 -0.03873577 -0.18760885 -0.25242567 0.08162206 0.04099117 -0.01563055 -0.034146104
-0.04937671 0.06794321 -0.19264516 -0.06937145 0.023007136 -0.15089978 0.010568725 -0.13568854
-0.22585422 -0.08583374 -0.187969 -0.24337174 -0.007905843 -0.19587733 -0.069550455 -0.33798262
-0.21985897 -0.2890659 0.03164641 0.059522808 -0.10163462 0.049397636 -0.23938082 0.026824275
-0.2680762 -0.09413123 0.10317263 -0.26788142 -0.006095918 -0.25578672 -0.22754523 -0.25708964
0.017370595 0.06638185 0.025233338 0.06152523 -0.03246769 -0.10522353 -0.085313916 -0.0067273495
-0.1454482 0.08658485 -0.13085575 -0.31547806 -0.22590703 -0.18279475 0.04318637 -0.073784254
-0.16460337 0.08081058 0.0934119 -0.26339772 -0.17942746 -0.11071209 -0.021125773 -0.02860131
-0.079102725 -0.3146542 -0.22455236 -0.104735866 -0.22666928 -0.15102077 -0.13910083 -0.08915838
-0.2596941 -0.0433344 -0.15488946 -0.052461073 0.00074035197 -0.025724111 0.017869355 0.0056927614
-0.043526355 -0.00599949 -0.07029643 -0.23081818 -0.3326864 -0.025458204 0.02536609 -0.18973516
-0.15866102 0.09844434 -0.027438153 -0.15910742 -0.17971304 -0.20337935 -0.07429845 -0.027637675
-0.2515375 -0.2009971 0.066360496 0.04177641 -0.08619655 -0.012323627 -0.23761927 -0.042073846
0.06989916 -0.2973197 0.030805433 0.09105821 0.05392198 -0.07090727 -0.09810428 -0.06875971
-0.28604564 -0.21792229 -0.12420993 -0.0855938 -0.016009413 -0.28184688 0.003980839 -0.101687945
-0.17015429 -0.18432699 -0.09207127 -0.11716188 -0.1747523 0.095260054 -0.19519828 -0.035791222
-0.1284115 -0.068462946 -0.22933213 -0.17205076 -0.046021234 -0.115853414 -0.25829542 -0.010059002
0.011647233 -0.19757877 -0.17619804 -0.1902607 -0.01980685 -0.23797277 -0.07493162 -0.25043967
-0.053801242 -0.039591484 -0.32414374 -0.27771243 0.016164271 -0.23372698 -0.20695132 -0.08618956
-0.12508593 -0.07398033 -0.20303413 0.055417024 0.070830986 -0.28893805 -0.05388833 0.088752374
0.05013477 -0.12738898 0.08107017 -0.13857569 -0.24841279 -0.32628858 -0.12017014 -0.27128658
-0.07841117 0.0017082097

conv1.bias f4 [10]
00000000: 7e9e 58be 5c00 993d 168e 56be 636c 4dbe
00000010: 8b37 9cbe 51ef 523d cf1d 27be e0af e3bd
00000020: c4c1 2fbe fe2d 99bd
-0.2115421 0.07470772 -0.20952639 -0.20060878 -0.30511126 0.05149776 -0.16319965 -0.1111753
-0.1716376 -0.074794754

conv2.weight f4 [20, 10, 5, 5]
00000000: edc2 85bd 5a5a a03c 73ec afbd b4da 593b
00000010: 4ab4 143c dab3 1bbd bd52 af3c ba87 aabd
00000020: d6cd 1bbe 818e a0bd 3427 8dbd bbdf 0abe
00000030: d7f0 52be db0e 97bd 3e4a dcbd 83d1 27be
00000040: ae1b e2bd 4f6a eebc 1a43 edbd c71f aebd
00000050: 3557 4bbe df25 3bbe b65f 2abc 011a adbb
00000060: b18d 1dbe 3d67 34be 9c8e 3dbc ddf8 193b
00000070: 2852 bfbb b666 e1bb bc31 b2bd dc3e 61bc
00000080: 556f e6bd b8fd d2bd 0782 3abe b5e8 cdbc
00000090: fc7f fcbd 1286 24be cec3 06be 59df 85bd
000000a0: 20d9 0b3c 66a2 70bd 988b 2bbe 12ef 1abd
000000b0: c0d0 68bd 71d7 0fbd 972b 3bbd a9af b8bd
000000c0: 7dd4 c7bc 6448 c13a 0f02 21bd 383f 97bd
000000d0: 3d24 b1bd 84e2 d8bd 4429 9fbd 2755 f03c
000000e0: 083c 65bd 5b67 1ebe 85e2 b1bd 245c f8bd
000000f0: 6d6e 8abd 3366 f2bd ee3a 0dbe a3bc 1cbe
00000100: b53a 14be 20d3 b7bd 2d05 36bd 87a5 0fbe
00000110: 6100 3abe 0c25 d1bb 60fa 1fbd 02b5 2ebe
00000120: 9985 0dbe def8 a7bd b79b cf3d afab c8bd
00000130: 1333 9dbd f845 6cbc 3e62 193d ad73 b13c
00000140: 0054 bebd 8f92 95bb 02ec 083d 08be d6bd
00000150: 0a0e cdbd d6ea 71bd ad8d 61bd 4740 1cbe
00000160: e0c2 48be d5ef f6bd 4fa6 09bd 8670 e3bd
00000170: cc55 febd ea22 9dbd e70e 20be d7a0 e4bb
00000180: f1d2 0abe b4a6 e4bd c3f6 fabc 5977 b6bd
00000190: 2e01 87bd 2539 dabd 2c18 b4bc ddd5 57be
000001a0: c9be 3cbe 81ad 5b3d 57fe c2bd 73ac 463d
000001b0: cb0d 55be 4bc5 2abe f99c 03be b692 09be
000001c0: 8526 11be 9149 9bbd 3a15 adbd a575 9bbd
000001d0: ceb9 fcbd 9fcc 2cbe 2bf5 0d3e 4b76 98bd
000001e0: a342 22be 42b0 3dbe a8e3 0dbe c926 283e
000001f0: 220b 82bd bbc6 13bb 2a62 efbc 193f acbd
00000200: 46cc 5bbd 3712 62bd 4a96 a1bd ab9c 0cbc
00000210: 4a69 9ebd 4fed eabd 43bf f7bc 6d3a 7fbd
00000220: 3287 df38 09b4 e1bd 1223 36be f4ef 113d
00000230: cbf6 92bd e255 83bd 65fe c9bd f2de 56bd
00000240: 7e53 9cbd fc52 7abd 2d7c 4ebd 5e07 bbbd
00000250: 04a9 8abd 8ec8 cbbd bfc4 bdbd bfbb 90bd
00000260: 862d a2bb 7d0d 05bd 1c24 c9bb 6c68 a1bd
00000270: f4cf c0bd 0631 2bbd 45c2 b33d d915 96bd
00000280: c11e d23d 85b1 d13c 20c5 97bd 0bfd 4fbe
00000290: 7a4e 22be 0d88 0a3d 201a 23bc 945b 1cbe
000002a0: ee90 e4bd a5b8 5cbc 5dcf e5bd 74a2 fdbd
000002b0: fc99 1cbe ef21 83bd b72b 81bd a1ea 95bd
000002c0: e3b6 d3bd 2a2e 97bd 474c a6bb 5c64 44bd
000002d0: f554 d3bd 826e 83bd 49e7 803c d1d6 c7bc
000002e0: 1b0d 3fbd 2bfc b1bd 719b c2bd fdc7 96bd
000002f0: fa69 1cbe 5a79 eabd 69ce bbbd c452 38be
00000300: 6e0f 40be c2e8 44bd 0346 3ebc 2239 08be
00000310: a312 d6ba 48d2 1cbd e23d cebd e95c c7bd
00000320: ef01 a63d 65c6 3a3d 3024 4bbd d1c1 babd
00000330: b11c 70bd 55e3 303d 27e8 40bc 07d2 41be
00000340: 5925 3abe b7e3 10be 4a79 533e f159 74bc
00000350: d52d febd 7d7d 12be a5c2 52be d03c 22be
00000360: 7115 adbd 24d9 18be 5bd0 40be 12a9 5cba
00000370: 3599 56be d652 4e3d 1a41 b5bd 780f 2cbe
00000380: a96b 9fbd 8118 c3bd ff31 1ebe 7a17 9cbd
00000390: 328d 77bb dec0 d03d ddab 35be c28c 8e3d
000003a0: 0645 35bd 373b 18bd 7fdc 0abe baf5 503c
000003b0: 2311 0cbd db93 b2bc 2d1d 38be 7252 f2bd
000003c0: 4ca0 4ebd 74af bfbd b6b3 80bd 2bff aebc
000003d0: 4dd1 e9bd 7e39 e7bc ba73 8cbd 756d 1dbe
000003e0: e464 4fbd 66d1 10bd 3c03 0abd 7e78 00be
000003f0: 2a24 46bd 3a50 17bd 8618 0dbe 347f c1bd
-0.0653132 0.019574333 -0.08590021 0.003324193 0.009076187 -0.038013317 0.021401757 -0.08326669
-0.15215239 -0.078396805 -0.06892243 -0.13561909 -0.20599686 -0.0737588 -0.10756348 -0.16388516
-0.11040436 -0.029103426 -0.11585064 -0.08502155 -0.19857486 -0.18276165 -0.010398796 -0.005282641
-0.15386082 -0.17617507 -0.011569645 0.0023494281 -0.005838651 -0.006878699 -0.08700892 -0.013747897
-0.11251704 -0.10302299 -0.18213664 -0.025135377 -0.123290986 -0.16066769 -0.13160631 -0.06536741
0.008535653 -0.058748625 -0.1675247 -0.03782565 -0.056839705 -0.03511757 -0.045695867 -0.090178795
-0.024393314 0.0014746306 -0.039308604 -0.07385105 -0.0864949 -0.105900794 -0.07771543 0.029337479
-0.055965453 -0.15469114 -0.08685783 -0.121269494 -0.06759343 -0.11835899 -0.13792011 -0.15306334
-0.1447552 -0.08975816 -0.04443853 -0.14027987 -0.18164207 -0.00638259 -0.039057136 -0.17061237
-0.13820495 -0.082017645 0.10137122 -0.09798371 -0.07675757 -0.014420979 0.037447207 0.021661604
-0.092933655 -0.0045645903 0.0334282 -0.10485464 -0.10012443 -0.059061848 -0.055066753 -0.15258895
-0.19605589 -0.12057463 -0.03360587 -0.111054465 -0.12418708 -0.07672675 -0.15630685 -0.0069771814
-0.1355703 -0.111646086 -0.030635243 -0.089094825 -0.06592022 -0.10655431 -0.021984182 -0.21077676
-0.18432154 0.053632263 -0.09521168 0.048504304 -0.20806043 -0.16676824 -0.12852849 -0.13434872
-0.1417485 -0.07582391 -0.08451314 -0.07590798 -0.12340127 -0.16874932 0.13863055 -0.074444376
-0.15845732 -0.18524268 -0.13856375 0.16421045 -0.0634978 -0.0022548873 -0.029221613 -0.084104724
-0.053661607 -0.055193152 -0.078899935 -0.008582274 -0.07734926 -0.11471044 -0.030242568 -0.06231158
0.00010658651 -0.11020667 -0.17786816 0.035629228 -0.07175978 -0.06412865 -0.09862975 -0.05245871
-0.07633112 -0.061114296 -0.050411392 -0.091322646 -0.067705184 -0.09950362 -0.09266042 -0.0706706
-0.0049492745 -0.032483567 -0.006138338 -0.07881245 -0.09414664 -0.0417948 0.08777288 -0.07328386
0.10259772 0.025597343 -0.074106455 -0.20311372 -0.15850249 0.033821154 -0.009954959 -0.1526931
-0.11160456 -0.013471757 -0.11221192 -0.12384501 -0.15293115 -0.06402957 -0.06307166 -0.073201425
-0.10337617 -0.07381852 -0.005075011 -0.047947273 -0.10318939 -0.06417562 0.015735285 -0.024394425
-0.046643358 -0.08690675 -0.09502304 -0.073623635 -0.15274802 -0.11448927 -0.09170229 -0.18000323
-0.18755886 -0.048073538 -0.011613372 -0.13303044 -0.0016332458 -0.038286477 -0.10070397 -0.09734518
0.081058376 0.04559936 -0.049595058 -0.09118999 -0.058621112 0.04318555 -0.011774099 -0.18927775
-0.1817831 -0.14149366 0.20651737 -0.014914022 -0.124110855 -0.14305682 -0.20582063 -0.1584351
-0.08451355 -0.14926583 -0.18829481 -0.00084175274 -0.20956881 0.050371967 -0.08850308 -0.16802776
-0.077842064 -0.09526158 -0.1544876 -0.07621665 -0.0037773368 0.101930365 -0.17741342 0.06960441
-0.04425528 -0.037165847 -0.13560675 0.012753898 -0.03419603 -0.021799019 -0.1797988 -0.118321314
-0.05044584 -0.09359637 -0.06284277 -0.021361908 -0.11416874 -0.028225657 -0.068580106 -0.15373786
-0.050633326 -0.035355948 -0.03369449 -0.12545964 -0.048374332 -0.036941744 -0.13778886 -0.0944809

conv2.bias f4 [20]
00000000: 9a18 afbd 1c83 3dbe 59fc 3dbe 2c1e 91bd
00000010: c3be 3bbe bc21 21be 082b 9dbd 57f5 2abe
00000020: 311e 5abd 16b4 29be 8ec3 05bd 83cd 50bd
00000030: 85c8 2ebe 0e2d 50be 0cfc 2bbe 8179 25bd
00000040: 5ff8 0ebd 0d42 cdbd 240c 84bd 5dea d9bc
-0.08549614 -0.18507046 -0.18553294 -0.07085833 -0.18334489 -0.15735525 -0.07674223 -0.16695152
-0.05325145 -0.16572604 -0.0326572 -0.05097724 -0.1706868 -0.20329687 -0.16795367 -0.04039908
-0.034904834 -0.10022364 -0.06447628 -0.026601011

fc1.weight f4 [50, 320]
00000000: 763b 5ebe 15f4 a7bd c7d8 0cbe b958 183e
00000010: 43a3 443e 070f 373e ab09 183e 7505 263e
00000020: 4883 e03d 2839 02be b840 aebd 4b17 063c
00000030: 0e0d 93bd 0133 c8bd 39a8 6f3c 514b e2bc
00000040: 4d87 a23d 54ba fc3d 5b54 c33d be4a 403d
00000050: d448 853d 7507 103d dc73 9f3d 66cc ae3d
00000060: 4fe5 2b3d 0800 f73d 6165 a83d 3e74 163d
00000070: a764 843d 10be 033e c3bd 3b3d eaf5 503d
00000080: 4676 0d3e d8a0 2b3e 1913 463e 04ce 3f3e
00000090: 987c 833d 3f7f 263e 9f42 323e 14f2 463e
000000a0: a685 053e 9673 1d3e 78a0 923d 9f2e f93d
000000b0: fbf0 d93d 9df0 2c3e 82a6 ea3d 7819 0b3b
000000c0: 20cb 403e 0b87 173e e060 163e 8f79 1b3e
000000d0: 40fa b33d 25cb 1e3e 004e 423e 55a7 f53d
000000e0: 5c9e d43d c9ba c53d d9c4 093e 4819 003e
000000f0: 94c2 443d 3919 0a3e bcb4 263e 5929 cd3d
00000100: 1e00 433d 69fc 0c3e b455 ef3c c804 6c3c
00000110: 7944 ffbc 5c21 b8bc a295 97bc c8c9 023d
00000120: 0091 b0b9 5706 48bd 24e2 5fbd 2026 013d
00000130: 9de1 16bd 5c67 063d d223 63bd a007 9c3c
00000140: 920e 7e3d 22c1 5bbe 8aff 843d fd69 02be
00000150: 09f4 1a3e 04af db3d 77ff 213e af96 2a3e
00000160: 5b0e ba3d e6e7 893d 9f9f 0bbe f45c c5bd
00000170: a021 493d 2c3b b73d 8ca8 9e3d 2cda 87bd
00000180: 2863 0e3e efa3 c7bd f91a dabd c44e 42be
00000190: 7ea4 0f3e 5126 323e fdc6 2f3e 5ef8 703d
000001a0: 243a 2b3e 2d7a 9d3d 451f 143e 69d4 063e
000001b0: 6789 ff3d 6430 2bbe aed0 183e 3818 343e
000001c0: 002b ff3c 88b4 d23c 6dfc 2c3e 1301 26be
000001d0: 6808 64bc 0388 2ebd c6c0 36bd 68be fbbd
000001e0: 94d2 88bc 581f 2bbc 7059 94bc a247 86bd
000001f0: 8113 d3bc 16b6 083d fc5c 5ebc ec28 b4bd
00000200: 58bf f73d ba02 403d d025 3c3e 9fb0 c63d
00000210: 797c 2ebe d48c b3bc 860f e03d af3e 7cbb
00000220: da1a 5b3d 7019 9d3d 3355 ea3d e2b7 e33d
00000230: 95df 813b 33f9 a73d a079 193e f170 053e
00000240: b7a9 783d 5e31 be3d ed15 543d 33df 613d
00000250: aaf8 673d 9adf f4bc 97d7 993d f74f 293d
00000260: c807 8d3c 394f 343d 8f1c d13d 7841 8d3d
00000270: 4789 573d 936a eb3c 91b3 053e 40bd 373d
00000280: d7f7 eb3d 8188 263e acaf 053e 2be5 0f3e
00000290: 4c2c 063e 5267 c63d 0a51 073e 5bec 303e
000002a0: b6d5 273e 67a8 183e 7e45 753d 96a4 203e
000002b0: 86ff fc3d 9223 653d 853f 023e 65ff 253e
000002c0: e2f0 1d3e 3d3c 083e c7cb 253e 91b9 073e
000002d0: c948 023e 29b6 51bd 0a28 e7bd 2041 da3d
000002e0: 5df4 043e 4f5c fe3d 84a1 e33c 3fe9 e23d
000002f0: e8b5 573e 741b 333e 1f72 343e 576c 153e
00000300: bbf7 213e d5d3 263e 74fc 03be 045f c33d
00000310: c65a 2b3e 5ebe b63d 328c 0a3e 6e57 213e
00000320: d6fd 9a3d be87 e03d 9bc4 263e 6fea c83d
00000330: 1b61 fcbd ecba f8bd 9eea 1f3e 1a91 b23d
00000340: 50fc 733c bf26 ffbc c2bd 503d 5a1c 533d
00000350: 99b5 c8bd 2cc3 623d 6cb1 13bc 208d fcbc
00000360: 0ac8 9d3d 40fe 2aba 3014 9ebc 9048 d8bb
00000370: 2846 3abd 81e5 51bd e0ef 2e3b e498 1e3d
00000380: 72b7 ed3d 07cd 73bd 928f d93d dc3f 473e
00000390: 6b8f d63d b086 1d3e 8707 0b3e e22f 123d
000003a0: 7bb1 d6bb 40c7 10be 1dd3 37be 987c ee3d
000003b0: 6940 063d 5821 463e 9bee 0bbd 1bf0 453e
000003c0: 29d0 b9bd 664c d63d 12dd 5c3d 272c 923d
000003d0: 47c1 693e da3e c23d 7ff9 b43d 5465 d73d
000003e0: a08f cb3d 8ec1 6d3e 4e96 c53c e84d 6a3d
000003f0: 0cc2 87bd 134c cf3d a92e 083d a7ce d53d
-0.2170237 -0.08200852 -0.13754569 0.14877595 0.19202904 0.17876826 0.14847438 0.16213019
0.1096254 -0.12717116 -0.08508438 0.008184264 -0.07180224 -0.09775353 0.01462751 -0.027623804
0.07935963 0.12340227 0.09537574 0.04694628 0.065080315 0.03516336 0.0778577 0.0853508
0.041966733 0.12060553 0.082224615 0.03673195 0.064645104 0.12865472 0.045835268 0.051015772
0.13814649 0.16760576 0.19343223 0.18730932 0.06420249 0.16259478 0.17408226 0.19428283
0.13039264 0.15376124 0.07159513 0.121670954 0.106416665 0.16888662 0.1145754 0.0021224897
0.18827486 0.14797609 0.14685392 0.1518309 0.08787966 0.15507181 0.18975067 0.11994807
0.10381767 0.09654767 0.13453998 0.12509644 0.048037127 0.13486184 0.16279882 0.10017652
0.047607534 0.13768162 0.029215671 0.014405437 -0.03116058 -0.022476844 -0.018503968 0.031930715
-0.0003367737 -0.04883417 -0.054659024 0.0315305 -0.036836255 0.032813415 -0.055454083 0.019046605
0.062025614 -0.21460393 0.06494053 -0.12735744 0.15132155 0.10726741 0.15820108 0.16659044
0.09084769 0.06733684 -0.1363511 -0.0963687 0.049104333 0.08946833 0.077469915 -0.0663341
0.13905013 -0.09748065 -0.10649676 -0.18975359 0.14027593 0.17397429 0.17165752 0.05883061
0.16721398 0.07689319 0.14465053 0.13166966 0.12477379 -0.16717678 0.14923355 0.17587364
0.031148434 0.02572085 0.16893168 -0.16211347 -0.01391802 -0.04261018 -0.044617437 -0.122921765
-0.016701974 -0.010444485 -0.018109053 -0.065566316 -0.025766136 0.033376776 -0.013571974 -0.08796868
0.12097043 0.0468776 0.183738 0.097016566 -0.1703967 -0.021917738 0.10940461 -0.003848951
0.053492405 0.076708674 0.11442032 0.11119057 0.0039634206 0.08201828 0.14987803 0.13031365
0.060708728 0.0928676 0.051778723 0.0551445 0.05663363 -0.029891778 0.075118236 0.041336026
0.017215624 0.044020865 0.10210525 0.06897253 0.052621152 0.028737342 0.1305678 0.044858217
0.11521881 0.1626301 0.13055295 0.14052264 0.13102835 0.096876755 0.13214508 0.17277662
0.16390118 0.1490799 0.059880726 0.15687785 0.12353425 0.055942126 0.12719543 0.16210707
0.15423921 0.13304229 0.16191016 0.13254382 0.12723078 -0.051199112 -0.11286934 0.10656953
0.12983842 0.1241995 0.027786978 0.110796444 0.21065485 0.17490941 0.17621659 0.1459211
0.15817158 0.16291745 -0.12889272 0.09539607 0.16733846 0.089230284 0.13530043 0.15756008
0.075679466 0.10963391 0.16285937 0.0981034 -0.12323209 -0.121450275 0.15616843 0.08719082
0.014891699 -0.031146405 0.050962217 0.05154071 -0.09800262 0.05536191 -0.009014469 -0.030829012
0.0770417 -0.00065228716 -0.019296736 -0.006600447 -0.045477062 -0.051244263 0.002669327 0.038720027
0.11607255 -0.0595217 0.10623087 0.19457954 0.104765736 0.1538341 0.1357709 0.035690196
-0.006551919 -0.14138508 -0.17951627 0.11644858 0.03277627 0.19348657 -0.0341631 0.19329874
-0.090729065 0.104637906 0.053921767 0.07137328 0.22827636 0.09484644 0.0883665 0.10517374
0.09939504 0.23218367 0.024119522 0.057203203 -0.066288084 0.10121932 0.033247624 0.104398064

fc1.bias f4 [50]
00000000: bafe 80bd f803 06be 37c8 2cbe 77f0 d8bd
00000010: 3cf1 23be 8d97 b3bd 2c18 c6bd 6ce2 68bd
00000020: 8acd b3bd 8ed3 c5bc 68ec 3dbe de21 5ebe
00000030: f8e0 e2bd 99b3 5dbd ca77 75bd 1af3 25bd
00000040: c2fd 0abe d0f7 0abe 4d48 95bd 9a0f 8cbd
00000050: cb9d e9bd 0a68 28be 8541 5abd 3ac4 ebbd
00000060: acad 50bd 726e 1bbe 2b3e acbd 274e 27be
00000070: e523 a2bd fa35 10be d0b0 04bc b422 0dbe
00000080: dd35 d5bd 19fa 32be 0e54 43bd d454 cfbd
00000090: b433 05be d8af 17be b195 5bbd 5e59 e9bd
000000a0: b8a9 0ebe 2092 91bd e602 46bd 838f 1ebe
000000b0: 4f7b 09be 4426 28be a873 e6bd 65d3 e8bd
000000c0: daee 21be 3aef fabd
-0.06298585 -0.13087451 -0.16873251 -0.1059274 -0.16009992 -0.087691404 -0.09672579 -0.056856558
-0.08779438 -0.024148729 -0.18547213 -0.21692607 -0.11078066 -0.054126356 -0.059928693 -0.040515043
-0.13573363 -0.13571095 -0.07289181 -0.06838913 -0.1140705 -0.16445938 -0.05328514 -0.115120366
-0.050946876 -0.1517885 -0.08410295 -0.16338407 -0.079170026 -0.1408309 -0.008098796 -0.1378277
-0.10410664 -0.17478217 -0.047687583 -0.101236016 -0.13008004 -0.14813173 -0.053609554 -0.113939986
-0.1393193 -0.07107949 -0.048342608 -0.15484433 -0.13425945 -0.16420847 -0.112525284 -0.11368445
-0.15813771 -0.1225266

fc2.weight f4 [10, 50]
00000000: c02e b93d 37a0 d93b ebf9 6fbe fc54 1cbe
00000010: 45fb 813e a529 fcbd 928c 78be 3a30 2f3e
00000020: 53ec 0abd b19b 053d 48e3 933e a8f7 95bc
00000030: c652 6fbe 4eb8 1c3d 9177 813d 9db1 603d
00000040: ab72 34be a0db 773e dd8e 623d 644e b83d
00000050: d8b0 d63d a509 8b3d 8444 6cbe a3f0 81be
00000060: 00e2 053e 2abb 443e 3bbb d43d e653 f8bd
00000070: da6e 243e 246c e9bd 8a2e 233e c475 8e3d
00000080: aaef 923d 9ef4 ef3d 7e80 87bd 2d66 c53d
00000090: 4cea 21be 2367 b73d 8c59 223d 98ff 66bd
000000a0: 42e7 8bbe 7b84 4b3e 0000 35be 4d6c f73d
000000b0: e6be 9f3c 9cde e9bb b003 d63d 30c9 36bd
000000c0: d26f cbbd 9715 f33c a9c9 c23d 0eb0 16bc
000000d0: ab62 33bc b6c1 9abd 8c99 12bc a7cc 6c3e
000000e0: 5688 233c b42f 11be eb4a b33d aaa5 7cbc
000000f0: a2c9 913d 8d4e 7dbe 5b3d 8fbd 6517 8e3c
00000100: a6d3 2abd ea44 343d 0fd0 3ebe e7b0 31bd
00000110: 19de 6abd ae80 183d 9d6a 923d 40ca 0bbd
00000120: 99f0 3dbe 7859 c2bd 9892 fd3d 3ed5 a6bd
00000130: 010c 513d 1114 e6bd 741f 1bbd 50a6 a0bb
00000140: cb3e d3bd 5845 3cbd 1d41 e5bd 371b 973d
00000150: 82b8 28be c718 343e 71ca 60be 3e50 923d
00000160: 793a 67be 3119 2abe ca40 7ebe e289 cebd
00000170: f930 a23c fe7f a8be 04d6 daba 8b20 8abd
00000180: 8cc7 17be 0e72 0d3e 5030 6dbe ee55 93bc
00000190: 96b5 50bd a945 3cbd 590f 98ba 6db9 abbd
000001a0: aea6 4cbd 1d2a ccbd 22a0 06be 9f56 07be
000001b0: 05fa c9bd 8f46 69bc b041 6dbd 958b dfbd
000001c0: 7f40 2fbe 3399 f3bc 5b21 20be b50e 2cbe
000001d0: 7938 4e3e 3686 fb3d 0ab0 94bd 34d7 35bd
000001e0: bd14 38be 84af 1e3e 3dd1 2a3e 3b95 34bc
000001f0: bcab 2a3e 1c4a 3f3b cfe3 37be 2eb6 fabd
00000200: adbb 81bd d775 06bc 5cec 073e 362f 8dbd
00000210: aec8 20be 927f 413d 86ea 29be e701 efbb
00000220: 118e d1bd 2644 093d 96d0 d5bc ddd1 47be
00000230: 9048 fcbc 0d4b b93d 0cfd adbd 086b 1d3d
00000240: c5cc 093c 3059 553b 1149 59bd 03a9 2cbd
00000250: 5a8c ebbd 4d19 fabc 239c 28be 6959 c0bd
00000260: 5b54 61bd 25a5 49bd 754d 633d 717b 10be
00000270: e160 3f3e 11f1 07be 8656 a33d 40d4 3fbd
00000280: 95ee 0abe 9521 d9bd 124f d6bd 35c1 9a3d
00000290: 97d7 97be aac2 363d 5ce8 67bd 48ce 81bd
000002a0: 3cf9 173e f8d4 6dbd 4efa 83bd c561 f63d
000002b0: 1d80 5d3d 7f5f 273e b6b3 cabd f48b 5dbe
000002c0: 746b 7abe 0189 76be 7067 86bd 8a07 2abe
000002d0: 1e0c 98be 5342 95bd 3943 fbbc 62a1 cb3d
000002e0: 3743 55bd bea6 80be 72c7 403d a631 4fbe
000002f0: d8fc 97be f972 563d c77b 2ebe 16be dc3c
00000300: e2a5 b7bd 74a5 08bd d67b 04bd efa0 2abe
00000310: e132 b7bc c8fb c43c bce7 bf3d 71cc 0c3e
00000320: a770 4abe c6a6 9e3c 3361 62bd 5fdb 04bc
00000330: af84 223e 13bc 2a3d ae6e 683d 7142 c63d
00000340: 8f3c 2ebd 3aa5 c9bd 80d6 ecbd 12b9 86be
00000350: 7b7e 863e f77d d13d 10e2 8a3e b6ac 4b3e
00000360: 91f9 483e 6b25 8d3e 324c 5ebe b201 5b3e
00000370: 65ef b93d c6ed 0fbe 6746 543c 623f 1d3d
00000380: 2d9e 463e 4ae3 1f3a 487b 013e 5223 fabd
00000390: 3190 c3bd ad39 38be e58b a03b 7d49 813d
000003a0: 2995 b53d 343c 663e 485c 8e3d 3b91 26bd
000003b0: ecef ef3d 5c79 fdbc 26cc f13d 2157 6c3e
000003c0: e09d 38bd 0626 1d3e 883e c2bd 5f08 3f3e
000003d0: 0581 323e 7d94 133e 9d50 d43d 7497 753e
000003e0: d6e9 51be 57f8 3b3c 1020 623e edf7 253d
000003f0: 4081 bc3d 1cbc 53be 481c efbc 3645 213e
0.0904212 0.0066414136 -0.2343518 -0.15266794 0.25387016 -0.123126306 -0.24272373 0.1710824
-0.033916783 0.032619182 0.2888434 -0.018306568 -0.2337142 0.038261704 0.063216336 0.054856885
-0.17621867 0.24204874 0.055312026 0.08999327 0.10482949 0.06788949 -0.23073012 -0.25378904
0.13074493 0.19212022 0.10387274 -0.12125377 0.16057912 -0.11397579 0.15935722 0.06956056
0.071746185 0.11716579 -0.06616305 0.09638629 -0.15812033 0.08955219 0.03963618 -0.056396097
-0.27324873 0.19874756 -0.17675781 0.120812036 0.019500207 -0.007137133 0.10449922 -0.04462546
-0.099334374 0.02967338 0.0951112 -0.009197248 -0.010948817 -0.07556479 -0.008947741 0.23124944
0.0099812355 -0.14178354 0.08754524 -0.015420357 0.071185365 -0.24736996 -0.069941245 0.01734514
-0.04170575 0.044011034 -0.18634056 -0.043381598 -0.057340715 0.037232094 0.07149241 -0.034128428
-0.18548812 -0.09489721 0.12381476 -0.081461415 0.05103684 -0.11234296 -0.037871793 -0.0049026385
-0.10314711 -0.04596457 -0.1119406 0.07378238 -0.16476634 0.17587577 -0.21952225 0.07144211
-0.225809 -0.16611172 -0.24829403 -0.10084893 0.019798743 -0.3291015 -0.0016695862 -0.06744488
-0.14822215 0.1381304 -0.23162961 -0.01798531 -0.050954424 -0.04596487 -0.0011601254 -0.083849765
-0.049963646 -0.0996897 -0.13147023 -0.13216637 -0.098621406 -0.014238014 -0.057923973 -0.10915295
-0.17114447 -0.029736137 -0.15637724 -0.16802485 0.2013873 0.12281458 -0.07260139 -0.044394687
-0.17976661 0.15496641 0.1668138 -0.011021907 0.16667074 0.002918846 -0.17957996 -0.12241779
-0.063346244 -0.008206806 0.13273758 -0.068937704 -0.15701553 0.0472408 -0.1659337 -0.007293928
-0.10232175 0.033512257 -0.026100438 -0.1951365 -0.03079632 0.09047518 -0.084955305 0.03843215
0.008410637 0.003255438 -0.053048197 -0.04215337 -0.11501379 -0.030529642 -0.16465811 -0.09392054
-0.05501209 -0.04922976 0.05549379 -0.14109589 0.186893 -0.13275553 0.079754874 -0.046833277
-0.13567574 -0.106021084 -0.104643 0.075563826 -0.2965667 0.04461924 -0.05661808 -0.06338173
0.14841169 -0.05806443 -0.06444226 0.12030367 0.054077256 0.16345023 -0.098975584 -0.21635419
-0.24455053 -0.240757 -0.06562698 -0.16604438 -0.29696745 -0.07288041 -0.030671703 0.09942891
-0.052066054 -0.25127214 0.047065206 -0.20233783 -0.29685092 0.05235574 -0.17039405 0.026946109
-0.089671865 -0.033360913 -0.03234466 -0.16662954 -0.022363128 0.02404584 0.09370372 0.13749863
-0.19769536 0.019366633 -0.055268478 -0.008108943 0.15870927 0.041683268 0.056746177 0.096806414
-0.042538222 -0.098459676 -0.1156435 -0.26313072 0.26268372 0.10229104 0.27125597 0.19890103
0.19626452 0.2756761 -0.21708754 0.21387365 0.09078864 -0.14055547 0.012956238 0.038390525
0.19396277 0.00060992374 0.12644684 -0.12213768 -0.09548987 -0.17990752 0.004899489 0.06312845
0.08866341 0.22483903 0.06951195 -0.040665846 0.11715683 -0.030941658 0.11806516 0.23080112
-0.045072436 0.15346536 -0.09484583 0.18655537 0.1743203 0.14412113 0.10366938 0.23983556
-0.20499358 0.011472783 0.22082543 0.040519644 0.0920434 -0.20677227 -0.02918829 0.15749058

fc2.bias f4 [10]
00000000: f18c afbd 933f 013e e2df d6bd 5e5a 933a
00000010: 3293 f8bd 891c b0bd 1062 65bd cc7f 103d
00000020: b224 d2bc b1cf a33d
-0.08571804 0.12621908 -0.10491921 0.0011242141 -0.1213745 -0.08599193 -0.056001723 0.035278127
-0.025652263 0.07998598

exp_avg f4 [10, 1, 5, 5]
00000000: 6e28 7631 227d be31 47e6 1732 5d99 3732
00000010: c686 2532 9932 b931 f6f4 0d32 d186 4532
00000020: cb51 6132 f43a 5232 f18a fb31 5da5 2732
00000030: d2d1 5832 bbc6 8532 cee9 8732 d714 0432
00000040: e4d7 3232 6111 5b32 7f1c 8d32 a45b 8d32
00000050: dd4b 0732 8d7a 1f32 112d 3e32 779c 7d32
00000060: 3b11 6f32 1276 0732 642e 1f32 7a02 2f32
00000070: 88f0 2032 f829 1532 2675 1032 7249 2032
00000080: 931b 3832 e253 3f32 99ad 2d32 7919 2532
00000090: e52c 2932 035e 3132 d84f 3432 b983 2532
000000a0: 6384 3b32 88ed 3c32 5408 2732 7f39 2a32
000000b0: 277f 1332 9994 3332 5ae6 3032 655a 0c32
000000c0: ea48 fe31 dd64 f731 f5bd 4031 0cc6 8231
000000d0: 9474 9931 361f 7331 486c 2b31 5d80 8831
000000e0: e4f2 b331 0695 c431 9fe2 8c31 62da 4131
000000f0: acc2 b531 c0c2 f331 d5db f431 a967 b831
00000100: 49fb 6f31 874f d831 9a49 f131 ff8d db31
00000110: da60 9a31 2f09 5d31 c851 b531 5f91 b631
00000120: 0235 a931 2bc1 8531 4968 6831 1918 b631
00000130: 5a5f c331 1b61 b731 3496 8831 af0d 7d31
00000140: 56dc eb31 b051 fd31 4fcb d931 6d28 bc31
00000150: b961 db31 4a1c 0032 d91a 0932 ef68 0532
00000160: 051c 0132 584d 0532 bede d231 78dd f331
00000170: 6dde 0032 116e ed31 2dec e131 76c9 a331
00000180: e7cf ad31 f85c ba31 90f7 a731 f329 9e31
00000190: 041b d430 71f8 b830 9128 b530 cb88 6e30
000001a0: 3c4d 5b30 f47c 8330 c728 a630 2593 b930
000001b0: 7804 a330 07ca 8030 4688 5430 8aa9 b730
000001c0: 1b02 b630 a6ae a030 b656 8630 5832 b830
000001d0: 3d4c 0731 d972 f430 bdde 9530 1e9d 5830
000001e0: 89c5 0e31 791e 2d31 0ab6 1a31 7aae d130
000001f0: 43b2 7430 29e4 6e31 96d3 8431 59a0 ab31
00000200: a815 ee31 e6fb 0432 352b 8631 ff64 8e31
00000210: 254d d731 60b9 0932 2881 0e32 01b1 9931
00000220: 71f2 bf31 403d 1332 5fb6 2132 a322 0132
00000230: 70bd 9031 dbac c631 141f 0a32 c0b6 0c32
00000240: ccb4 dd31 1c49 5a31 88bb a231 e8ba ca31
00000250: c060 bf31 51f9 9d31 ac79 7831 ba76 a831
00000260: 3780 bd31 07cb be31 12ff a531 c90b cb31
00000270: a04f f931 9631 f931 8ac5 d931 878c b031
00000280: 10ac 0032 139b 0a32 79c1 e431 83fe 9b31
00000290: f97d 8831 e0bd fa31 bacf f131 0997 a031
000002a0: 2a9c 6d31 c266 a031 2786 cd31 c56b b031
000002b0: abdf 6f31 699f 7131 1d36 a331 2ed1 ac31
000002c0: 2724 af31 d20c e631 df07 2532 f48a 2f32
000002d0: 46f7 b831 7cfe e431 afb3 0c32 2cff 3132
000002e0: e9c6 2532 ae82 af31 5edc f531 96f4 1532
000002f0: a14d 2032 e7eb fa31 5bf1 b331 296c dc31
00000300: 9103 da31 96de d831 4e32 b331 5e20 b031
00000310: 0d74 c231 88c5 b531 2274 be31 6df6 a031
00000320: 63de 3230 4ae1 0b30 098d e52f ca0c a32f
00000330: 0ca2 b32f a397 9530 4f8b 4d30 2f60 1a30
00000340: b430 d72f 580c 992f aa9c b330 674a 7b30
00000350: 40d4 1230 627c 6a2f d90a 942e 93b9 a330
00000360: 7954 5430 6728 892f c764 5e2e 6ab0 962e
00000370: 34b1 9a30 a2a3 0830 5f33 882f 32e6 d72e
00000380: eaec 932f 7fdd 8931 c212 4a31 6db2 6f31
00000390: ef45 ad31 ca78 9631 d896 b631 420e b431
000003a0: ce63 b831 7fa3 d131 f760 ba31 53fe f831
000003b0: 3464 fe31 f97c e931 9d7f f731 1cde f331
000003c0: c489 ed31 dd42 e931 fb29 f031 bdea ea31
000003d0: 7b76 d231 bb5f 8c31 583e 9d31 f7f2 a131
000003e0: e92e c931 8754 c731
3.5820693e-09 5.5439537e-09 8.841716e-09 1.0686873e-08 9.634908e-09 5.389961e-09 8.262978e-09 1.1497563e-08
1.3115321e-08 1.2237013e-08 7.3208573e-09 9.758279e-09 1.2620562e-08 1.557361e-08 1.582239e-08 7.68815e-09
1.04100515e-08 1.2751429e-08 1.6427519e-08 1.6456234e-08 7.8752835e-09 9.282883e-09 1.10697025e-08 1.4762114e-08
1.3915549e-08 7.88488e-09 9.265566e-09 1.0186904e-08 9.367916e-09 8.682484e-09 8.40854e-09 9.329925e-09
1.0716479e-08 1.1136736e-08 1.0109397e-08 9.610056e-09 9.8473025e-09 1.0324132e-08 1.0495533e-08 9.634214e-09
1.0914934e-08 1.0997049e-08 9.722573e-09 9.9083755e-09 8.585437e-09 1.04529585e-08 1.0296924e-08 8.169626e-09
7.4006623e-09 7.200113e-09 2.8047655e-09 3.8060133e-09 4.4661395e-09 3.5378895e-09 2.4945326e-09 3.972714e-09
5.237199e-09 5.7212928e-09 4.1003e-09 2.8209333e-09 5.289925e-09 7.0943713e-09 7.1263266e-09 5.3668896e-09
3.4921916e-09 6.2954686e-09 7.0223907e-09 6.389882e-09 4.4930006e-09 3.2164953e-09 5.2770908e-09 5.313424e-09
4.9245736e-09 3.89277e-09 3.3819723e-09 5.2996367e-09 5.686087e-09 5.3370406e-09 3.975197e-09 3.6824124e-09
6.8644495e-09 7.372556e-09 6.3386447e-09 5.476116e-09 6.3848486e-09 7.457013e-09 7.980554e-09 7.765478e-09
7.515159e-09 7.759205e-09 6.1371273e-09 7.097409e-09 7.501154e-09 6.910121e-09 6.575212e-09 4.766828e-09
5.0585984e-09 5.423882e-09 4.8884843e-09 4.6031743e-09 1.5432708e-09 1.3458373e-09 1.3181013e-09 8.677829e-10
7.978149e-10 9.567018e-10 1.2089679e-09 1.3502343e-09 1.1861081e-09 9.370645e-10 7.7318807e-10 1.3363188e-09
1.3242841e-09 1.169117e-09 9.774428e-10 1.3402071e-09 1.9688422e-09 1.7785978e-09 1.0904483e-09 7.880362e-10
2.0776005e-09 2.5192135e-09 2.2513427e-09 1.5256341e-09 8.902001e-10 3.4763252e-09 3.86576e-09 4.9949844e-09
6.9291737e-09 7.740686e-09 3.9048254e-09 4.144226e-09 6.266094e-09 8.016599e-09 8.294855e-09 4.473009e-09
5.586394e-09 8.570453e-09 9.4129e-09 7.516664e-09 4.212488e-09 5.78221e-09 8.0397236e-09 8.190625e-09
6.4525008e-09 3.1764733e-09 4.7361404e-09 5.9002225e-09 5.569831e-09 4.5976454e-09 3.6157912e-09 4.902941e-09
5.5152003e-09 5.5528093e-09 4.83113e-09 5.9094174e-09 7.255906e-09 7.252491e-09 6.337989e-09 5.1382503e-09
7.489703e-09 8.067917e-09 6.6576686e-09 4.5400284e-09 3.9724424e-09 7.297544e-09 7.037639e-09 4.6737836e-09
3.4576808e-09 4.668295e-09 5.9815366e-09 5.134526e-09 3.4906218e-09 3.516073e-09 4.7500763e-09 5.02964e-09
5.0972804e-09 6.6953385e-09 9.606054e-09 1.0217935e-08 5.3832165e-09 6.664605e-09 8.189928e-09 1.0360775e-08
9.649491e-09 5.108027e-09 7.1554913e-09 8.728554e-09 9.3308765e-09 7.3027766e-09 5.2370246e-09 6.415139e-09
6.3450405e-09 6.3117325e-09 5.2153046e-09 5.125954e-09 5.6593366e-09 5.29025e-09 5.5429306e-09 4.6846282e-09
6.5072053e-10 5.088806e-10 4.175507e-10 2.9658614e-10 3.2675052e-10 1.0884275e-09 7.4776535e-10 5.616156e-10
3.9142878e-10 2.783931e-10 1.3068491e-09 9.1419e-10 5.3416116e-10 2.1326366e-10 6.732188e-11 1.1912554e-09
7.7245194e-10 2.4948862e-10 5.0566464e-11 6.852548e-11 1.1255339e-09 4.970905e-10 2.4774757e-10 9.817959e-11
2.6907482e-10 4.012406e-09 2.9405531e-09 3.48805e-09 5.042913e-09 4.3793067e-09 5.314046e-09 5.2403104e-09
5.3664513e-09 6.101288e-09 5.424336e-09 7.2466633e-09 7.4037647e-09 6.7954002e-09 7.203154e-09 7.0974817e-09
6.91327e-09 6.788794e-09 6.989692e-09 6.836983e-09 6.125274e-09 4.0854196e-09 4.576389e-09 4.7133386e-09
5.855203e-09 5.801272e-09

exp_avg_sq f4 [10, 1, 5, 5]
00000000: 9912 8a36 a4e6 1637 0538 9837 73b8 c337
00000010: 538e 9d37 db8c 0c37 0aaf 8e37 742d f637
00000020: f289 1638 428f fe37 c78f 5d37 2700 c237
00000030: 10b1 1838 d579 5a38 74fa 5638 674b 6937
00000040: 304a da37 31e8 2238 276c 7638 0b0a 6b38
00000050: 494b 8337 1c81 b137 32ba fc37 2a54 4038
00000060: bb5f 2f38 17a7 9137 c0bd b237 7f1d bb37
00000070: 4909 a137 0861 8c37 02fa 8537 2060 be37
00000080: ca52 0938 3392 1238 0f32 f237 6bb0 ec37
00000090: e4a2 2038 e0d9 2e38 29b6 2038 2b95 f237
000000a0: 2d6d 2138 798c 3938 0dd6 0438 65b5 e137
000000b0: 7b94 9737 bd41 1a38 3593 0e38 98c7 8837
000000c0: ecdc 4837 6deb 7837 a7cf 0636 ec30 7e36
000000d0: cd12 b836 3e61 7136 d323 d035 ea60 8836
000000e0: 0eca f236 1cb8 0f37 2726 8c36 14ac f335
000000f0: a0ee ef36 2eb1 5537 3e21 5137 d3b1 e036
00000100: ff4b 3436 75b9 3037 6bdf 5937 42a2 2837
00000110: 4fc8 a136 a8ae 2636 40a7 f936 de3f fe36
00000120: 58b2 d336 53df 8836 17e9 4736 cf2c b636
00000130: 2dee da36 c5b7 cd36 8c66 8036 f004 6636
00000140: a247 2637 251b 4137 b575 1a37 6a79 fd36
00000150: 0cae 2b37 f65a 5f37 43e9 7d37 6d5a 7137
00000160: df67 6837 8bf0 7537 b42e 2237 7c79 4b37
00000170: 4d03 6137 81b2 4237 f61a 2b37 af38 ce36
00000180: 03c3 d836 a749 e236 c9f2 ad36 7153 9036
00000190: 54b0 e134 404a f034 43d0 ee34 34ec 1c34
000001a0: 1a71 2334 e9ab 5d34 72a0 f534 bf56 0735
000001b0: 29c1 b234 6862 a134 b24e 4234 c178 2e35
000001c0: d85e 1835 7a30 f334 77e9 a734 b7ee ec34
000001d0: a069 9735 6c9b 8035 e91e f034 825e 7d34
000001e0: 30cf 9935 0d01 e135 93b7 b935 a580 2035
000001f0: 4a02 7734 6033 7436 41e5 9836 7d49 0237
00000200: f420 6b37 d4ea a437 5a38 8036 596c 9236
00000210: 36d3 2c37 79b9 9537 ed72 a937 6add 9236
00000220: 425a ec36 6f3d 9a37 7afb c237 2b50 7837
00000230: 78e0 8336 2e3a 0337 e668 8b37 06da 9237
00000240: d78d 3037 792c 1636 ad8b b336 6bd1 1c37
00000250: e8aa 0b37 0b53 b536 f8e6 8936 c613 de36
00000260: 1e22 ff36 b7a2 ff36 54ab b536 e3de 2937
00000270: 6529 7437 ff67 5d37 6e2d 1937 c87b c236
00000280: f253 8137 96c6 9137 6cd0 3c37 51ac a536
00000290: beb8 6936 a612 7637 1903 6137 e824 bc36
000002a0: 9325 5f36 358c b036 7391 3137 703b e536
000002b0: a55d 4836 8342 4836 5300 ac36 6aea d436
000002c0: 1703 e136 1c5e 3d37 700a b437 2166 cf37
000002d0: fb93 e336 aa3e 3237 13b8 8c37 dad8 d437
000002e0: 2796 d237 2a55 cf36 4476 5137 1505 a037
000002f0: 3eaf b537 1fc2 8a37 fad9 eb36 2369 2d37
00000300: 53c6 2337 a409 1d37 1cba 0a37 e2f7 e636
00000310: a69d 0937 bfea e036 6c44 f436 50b7 d436
00000320: 9515 eb33 4f85 9833 6b7e 4333 1f62 e232
00000330: f3fb 0833 7b7e 9334 9345 1534 a589 a233
00000340: 6be2 1c33 27cb c432 efc2 b034 0812 4734
00000350: ac80 9933 5ac6 5732 f470 b230 d3eb a934
00000360: 6f4e 1b34 502b 8932 887e 0030 2d7e 2a30
00000370: 007d 9a34 988e 9c33 bea1 9532 b29a 4131
00000380: 2ee2 5632 f321 5a36 e76e 0036 f894 2c36
00000390: 0e9f b036 b25d 8f36 c7a0 d936 cf71 e336
000003a0: 5bc6 e136 b440 0d37 01dc f036 8da6 4537
000003b0: 4f22 5b37 5dbd 3537 71a4 5537 1dfb 5637
000003c0: aedf 3437 7844 3637 0f8d 4037 83fc 4037
000003d0: f621 2937 6397 7f36 a06c 9836 d5f5 a636
000003e0: 7cd0 0637 eed7 1937
4.1148855e-06 8.994397e-06 1.8145898e-05 2.3331702e-05 1.8782133e-05 8.377446e-06 1.7009228e-05 2.9346651e-05
3.589126e-05 3.034587e-05 1.3206102e-05 2.3126673e-05 3.6404526e-05 5.2088715e-05 5.125483e-05 1.3905438e-05
2.6022171e-05 3.8840055e-05 5.8751695e-05 5.603772e-05 1.5651474e-05 2.1160165e-05 3.0127445e-05 4.585475e-05
4.1812407e-05 1.7363154e-05 2.1307613e-05 2.2305872e-05 1.919702e-05 1.6734484e-05 1.5971254e-05 2.2694527e-05
3.274045e-05 3.494527e-05 2.8871958e-05 2.8215543e-05 3.8298676e-05 4.1687745e-05 3.8316623e-05 2.891811e-05
3.848707e-05 4.4238262e-05 3.1670603e-05 2.6906559e-05 1.8069744e-05 3.6777685e-05 3.3992535e-05 1.6305406e-05
1.1972366e-05 1.4836766e-05 2.0088426e-06 3.7877426e-06 5.485816e-06 3.59684e-06 1.5507634e-06 4.064398e-06
7.2356843e-06 8.5663305e-06 4.1767667e-06 1.8154992e-06 7.1505347e-06 1.2737042e-05 1.2465111e-05 6.6964217e-06
2.6866326e-06 1.0533598e-05 1.29862265e-05 1.0051359e-05 4.821493e-06 2.483759e-06 7.4402487e-06 7.577225e-06
6.309052e-06 4.079114e-06 2.9788987e-06 5.429239e-06 6.5246336e-06 6.1308697e-06 3.8266353e-06 3.4275545e-06
9.911049e-06 1.15100165e-05 9.206521e-06 7.554122e-06 1.0232918e-05 1.3313014e-05 1.5134286e-05 1.4385773e-05
1.3852462e-05 1.4659144e-05 9.666826e-06 1.2128028e-05 1.3411814e-05 1.1604862e-05 1.0198672e-05 6.1458773e-06
6.460004e-06 6.743899e-06 5.1840657e-06 4.3012483e-06 4.2037811e-07 4.4757508e-07 4.4482485e-07 1.4614562e-07
1.5221704e-07 2.064477e-07 4.5751545e-07 5.041765e-07 3.3295626e-07 3.0060187e-07 1.8096287e-07 6.499577e-07
5.676243e-07 4.5297548e-07 3.1276042e-07 4.4132113e-07 1.1281118e-06 9.581977e-07 4.4725974e-07 2.3596843e-07
1.1459688e-06 1.6764112e-06 1.3837001e-06 5.979185e-07 2.30045e-07 3.6388737e-06 4.5566417e-06 7.765714e-06
1.4014764e-05 1.9659674e-05 3.8212575e-06 4.3637524e-06 1.0301175e-05 1.7848552e-05 2.0199886e-05 4.376915e-06
7.0438555e-06 1.8386838e-05 2.3243705e-05 1.48006175e-05 3.930236e-06 7.8217545e-06 1.6618938e-05 1.7506081e-05
1.0523442e-05 2.2377628e-06 5.350876e-06 9.3470835e-06 8.324838e-06 5.403888e-06 4.1098065e-06 6.6184175e-06
7.603564e-06 7.6185347e-06 5.4141656e-06 1.012508e-05 1.4553171e-05 1.319684e-05 9.130088e-06 5.7960606e-06
1.5417088e-05 1.737782e-05 1.12542e-05 4.9374435e-06 3.482724e-06 1.46670845e-05 1.3411766e-05 5.607133e-06
3.325146e-06 5.261531e-06 1.0583887e-05 6.8316513e-06 2.985683e-06 2.9841037e-06 5.126037e-06 6.3453817e-06
6.7058822e-06 1.1287189e-05 2.1462532e-05 2.472388e-05 6.7823544e-06 1.0624217e-05 1.6775017e-05 2.5373349e-05
2.5103871e-05 6.178995e-06 1.2484907e-05 1.9075853e-05 2.1658485e-05 1.6541277e-05 7.0289216e-06 1.0336083e-05
9.761733e-06 9.360174e-06 8.268773e-06 6.8833915e-06 8.202542e-06 6.7030483e-06 7.279732e-06 6.3394327e-06
1.0946966e-07 7.1023e-08 4.5516952e-08 2.6354483e-08 3.1894114e-08 2.747291e-07 1.3902017e-07 7.56875e-08
3.6527506e-08 2.2909786e-08 3.2924387e-07 1.8539879e-07 7.148023e-08 1.2559747e-08 1.2983308e-09 3.1650288e-07
1.4464034e-07 1.5968595e-08 4.674594e-10 6.2024946e-10 2.8775685e-07 7.290254e-08 1.7419435e-08 2.817313e-09
1.2507867e-08 3.2504292e-06 1.913804e-06 2.5716708e-06 5.263725e-06 4.2726397e-06 6.485821e-06 6.7783762e-06
6.728614e-06 8.41932e-06 7.178169e-06 1.1780893e-05 1.3061405e-05 1.083253e-05 1.2734076e-05 1.2813861e-05
1.07809155e-05 1.0863987e-05 1.1476935e-05 1.1502884e-05 1.0081092e-05 3.808608e-06 4.5425986e-06 4.975804e-06
8.035564e-06 9.169786e-06

exp_avg f4 [10]
00000000: 1dc7 cc32 cf5e de32 cd55 1732 3598 5932
00000010: e428 3e31 abf0 9c32 98d3 4d32 2ec5 8032
00000020: 13ad b130 8b7b 9c32
2.3839272e-08 2.5887315e-08 8.808866e-09 1.266567e-08 2.7671883e-09 1.8270233e-08 1.1980681e-08 1.4990828e-08
1.2927636e-09 1.8216971e-08

exp_avg_sq f4 [10]
00000000: 9627 f438 eebd 4839 568f ac37 1c3b 1738
00000010: 2211 fb35 d127 9f38 b6b5 1d38 0cd3 6a38
00000020: cb25 cf34 b56f 8538
0.000116422 0.0001914424 2.0570744e-05 3.6056255e-05 1.8705944e-06 7.589127e-05 3.760095e-05 5.59865e-05
3.8584253e-07 6.362741e-05

exp_avg f4 [20, 10, 5, 5]
00000000: 6482 702f 4a3b 0630 1734 1c30 4f74 e42f
00000010: 5547 2430 2f63 6b30 4f33 0630 bade 5d30
00000020: f067 9530 166f 1830 e0d5 a930 7eae 7b30
00000030: 9403 4530 7395 6d30 ba76 0d30 8983 b330
00000040: d9c4 8f30 dcb0 8c2f bbe4 3430 a59e fe2f
00000050: 1a15 8a30 4498 5a30 e369 c1ae d02a 542e
00000060: 25f7 c12f d35d 0f31 8b28 b92f 8453 fe30
00000070: fd54 5630 b300 7031 2c8d a730 e509 4231
00000080: 216b df30 731a b430 3456 d330 092b 8230
00000090: 29eb ab30 5407 cb30 5b84 9b30 a4f8 982f
000000a0: a1dd 3930 9cce 3730 174d 8e30 98d6 a130
000000b0: 8fa7 1931 8451 e4af 03d0 552f aec1 c130
000000c0: 82e6 e630 2a51 3231 bc15 852f 33a1 2e2f
000000d0: c820 a62f 6c81 b92f b024 1630 bd49 542e
000000e0: 2c72 d62f f426 ac2f c12a b52f db5b 1730
000000f0: f8d2 bc2e 00cb 0f30 d0a6 c52f 43e1 a02f
00000100: 7934 b52f 2856 9f2f 9fbd 2730 666d 832f
00000110: a803 802f fcce 852e 5adc df2e 1eb9 372f
00000120: 76f5 7e2f 09d3 fc2d bed1 38ae 7b77 3730
00000130: 4ca9 0230 07c0 3c2f 7aaa ef2e 42b3 a62e
00000140: c396 be2f 3607 822f e0f7 1d2f 86cf d72f
00000150: fa27 ca2f ef62 a12e a44f 0f30 20f3 1230
00000160: 8ad0 a32f 2812 ef2f e4e0 ac2f b799 fc2f
00000170: 7b3f e42f 1fd2 c42f c43a 0d30 23f9 be2f
00000180: 0218 1730 389a 1030 dbb2 a72f fc22 ad2f
00000190: f929 e82e 72b8 772f 2224 3a2f 7c7e 0e2f
000001a0: 7e75 ab2f 862e b5ae 8c0d 472f 9b5b 3e2d
000001b0: b150 092f 3895 272f 1d4d 0c2f 4b19 9a2f
000001c0: 86d1 a12f f8a4 822e ae29 1f2f 1cbc d02e
000001d0: bfa4 f82e d059 df2e 0f42 85af 8f8f 0c2e
000001e0: 46bc a92e 54cc a32e f2ab 712f 29e2 feae
000001f0: 411b 192d 3600 3230 76e5 0330 0ab6 2430
00000200: 41cb 4c30 edb6 022f 9248 9530 5121 7030
00000210: 6edb 982f b23b 0630 169f 032f 3ffe 1f30
00000220: 94fb 852f e075 d32f 38d4 1d30 77fb e32b
00000230: e432 1830 3baa 7b2f 9283 9a2f 6c77 ee2f
00000240: 5edd db2e f173 722f d3a7 0f2e c486 8b2f
00000250: fbed c72f 16c3 3030 5982 0330 7ede 2d30
00000260: 85d3 3f30 7081 c82f b5e2 842f b22a d32f
00000270: 2010 1430 2bb0 a02f 7bd0 b4ae d0bb a72f
00000280: 4a3a 74af 9f2c c82e 82ad 1630 b9b8 1e30
00000290: 707b 3630 c64f 2e2e 651f eb2f 0b13 3730
000002a0: 6ef4 0130 c5a8 512f e51b c32f a074 cd2f
000002b0: 6946 2630 6d2f 0b30 7486 972f ed3a 7030
000002c0: c606 8530 9da8 7030 08cf 4230 df4e 512f
000002d0: 2de6 1730 7752 d42f bf98 c02f 54c5 972f
000002e0: 6df7 832f 7eed 1430 79e0 a42f 1d67 8830
000002f0: a9ff 8430 5c79 eb2f 36ac 8230 532b 3730
00000300: 9a34 3930 c53e cb2f e24a 402f 7e90 5330
00000310: 827f 9a2f 020b b22f 0774 1630 93bf 1730
00000320: 417c c1ac f5be 10ad ee68 612e 613f 252e
00000330: 4e48 4f2e d94a 00aa f91a b32d f8bf ce2e
00000340: a3ec af2e 639e 452e 341b bcad 294d a32d
00000350: df18 302e a014 f02d b640 802c cd9d 152e
00000360: f489 3a2e 6b10 d82d 1ebf 8c2e 83b1 f4ab
00000370: 06f8 132e 5082 00ad 9ceb 5c2d 63c2 872e
00000380: 4cc2 4c2d 72f2 2530 5f7d fa2f 7219 752f
00000390: 3634 262f 3c2f 17af 01c3 8f2f 0e6b 83ae
000003a0: 0e41 ae2d 976e 192f 47e8 d62f 1c81 0d2f
000003b0: fa0c dc2d 9a53 cd2f c90e 902f d0f4 712f
000003c0: ad84 f22f 8d6a f62e ce85 862f 9580 ad2f
000003d0: 6d1c 7a2f f2af 462f f75f 0e2f 6699 c02f
000003e0: 4744 b72f c872 b7ac 5ecc 9831 f0af ae31
000003f0: 7eb1 a831 e0f8 6931 d952 d830 67fc 9a31
2.1874197e-10 4.883317e-10 5.6826494e-10 4.15556e-10 5.976422e-10 8.563345e-10 4.882183e-10 8.0715845e-10
1.0870718e-09 5.545514e-10 1.2357155e-09 9.1561236e-10 7.167327e-10 8.643248e-10 5.146422e-10 1.3061349e-09
1.0460567e-09 2.5591518e-10 6.5808664e-10 4.6315055e-10 1.0046819e-09 7.952432e-10 -8.795433e-11 4.8241244e-11
3.5282102e-10 2.0862572e-09 3.3680111e-10 1.8504669e-09 7.797352e-10 3.4924994e-09 1.2190973e-09 2.823634e-09
1.6255833e-09 1.3104241e-09 1.5376771e-09 9.470976e-10 1.2508724e-09 1.4772277e-09 1.1315352e-09 2.782531e-10
6.761756e-10 6.686862e-10 1.035377e-09 1.1775283e-09 2.2359676e-09 -4.153088e-10 1.9446138e-10 1.4097645e-09
1.6800217e-09 2.5948546e-09 2.4208002e-10 1.5882477e-10 3.0218517e-10 3.3743264e-10 5.462182e-10 4.8268712e-11
3.9007497e-10 3.1314296e-10 3.2954087e-10 5.5064014e-10 8.586726e-11 5.231158e-10 3.595262e-10 2.9263889e-10
3.2960992e-10 2.898315e-10 6.1023714e-10 2.3906493e-10 2.3285662e-10 6.0849076e-11 1.0180008e-10 1.670952e-10
2.318837e-10 2.8742802e-11 -4.2023045e-11 6.6744804e-10 4.753431e-10 1.7166722e-10 1.08987444e-10 7.5806486e-11
3.466792e-10 2.3651986e-10 1.436713e-10 3.9255726e-10 3.677199e-10 7.3390065e-11 5.2136273e-10 5.345999e-10
2.9797703e-10 4.3486748e-10 3.1446412e-10 4.5947754e-10 4.1518064e-10 3.5801492e-10 5.137901e-10 3.473782e-10
5.4967597e-10 5.2606053e-10 3.0504207e-10 3.1493375e-10 1.05575944e-10 2.2530047e-10 1.6929438e-10 1.2959761e-10
3.1188202e-10 -8.239191e-11 1.8103757e-10 1.082059e-11 1.2488745e-10 1.5241575e-10 1.2760322e-10 2.8030409e-10
2.9434605e-10 5.94102e-11 1.4475773e-10 9.49216e-11 1.1306999e-10 1.015682e-10 -2.4239497e-10 3.195982e-11
7.718674e-11 7.448678e-11 2.197991e-10 -1.1590757e-10 8.703095e-12 6.475632e-10 4.7983606e-10 5.9921546e-10
7.450361e-10 1.188842e-10 1.0861803e-09 8.7358837e-10 2.7804553e-10 4.883375e-10 1.1970899e-10 5.820517e-10
2.4371316e-10 3.8464432e-10 5.741785e-10 1.6199116e-12 5.53696e-10 2.2888795e-10 2.8105923e-10 4.3376802e-10
9.99829e-11 2.2050962e-10 3.2663493e-11 2.537971e-10 3.6366984e-10 6.430566e-10 4.784276e-10 6.3253214e-10
6.978598e-10 3.647176e-10 2.4171745e-10 3.8411013e-10 5.3865e-10 2.9229005e-10 -8.222486e-11 3.0510572e-10
-2.2212379e-10 9.102873e-11 5.481625e-10 5.774257e-10 6.638663e-10 3.9633873e-11 4.2768558e-10 6.6602074e-10
4.727728e-10 1.9068398e-10 3.5490114e-10 3.737215e-10 6.0490507e-10 5.06353e-10 2.7562275e-10 8.739523e-10
9.678949e-10 8.7551105e-10 7.0871e-10 1.903646e-10 5.526058e-10 3.862117e-10 3.503313e-10 2.760695e-10
2.4004568e-10 5.4179583e-10 2.9990924e-10 9.924609e-10 9.676927e-10 4.2832482e-10 9.50769e-10 6.663658e-10
6.737736e-10 3.6970085e-10 1.7488902e-10 7.696669e-10 2.8103037e-10 3.2385833e-10 5.4734567e-10 5.5205723e-10
-5.499185e-12 -8.227853e-12 5.1252273e-11 3.7572948e-11 4.713057e-11 -1.1394652e-13 2.0361922e-11 9.401896e-11
8.000114e-11 4.493329e-11 -2.1385206e-11 1.856522e-11 4.0039857e-11 2.7294e-11 3.645163e-12 3.4018833e-11
4.241403e-11 2.4563648e-11 6.400412e-11 -1.7386512e-12 3.364422e-11 -7.304893e-12 1.2557868e-11 6.173619e-11
1.16392e-11 6.0371186e-10 4.5563817e-10 2.229166e-10 1.5116161e-10 -1.3750151e-10 2.6150107e-10 -5.976207e-11
1.98104e-11 1.3954558e-10 3.9091416e-10 1.2869744e-10 2.5016867e-11 3.7348685e-10 2.6203953e-10 2.2005797e-10
4.4113815e-10 1.1205712e-10 2.4469532e-10 3.155988e-10 2.2747466e-10 1.8070503e-10 1.2948918e-10 3.5033593e-10
3.333602e-10 -5.213916e-12 4.447016e-09 5.0840683e-09 4.909622e-09 3.4047432e-09 1.5739615e-09 4.5106847e-09
