logs/lightning_logs/version_8/checkpoints/epoch=4-step=4690.ckpt (torch, 629439 bytes, 24 tensors)

conv1.weight f4 [10, 1, 3, 3]
000000 b9 20 15 3f 74 fe 8a 3b a6 1e e1 be 87 c6 7f be
       0.58253056 0.004241759 -0.43968695 -0.24978076
000010 dd c5 06 bf 18 c4 3b bf f8 2c 04 3e 29 6b 4c 3e
       -0.52645665 -0.7334609 0.12907779 0.19962753
000020 c7 e3 06 be 45 89 35 bf 17 6e 89 bd 22 da 46 be
       -0.13172828 -0.7091258 -0.06710451 -0.19419149
000030 39 e8 2e 3e aa a8 67 3d c9 2f c2 3d bf ea 6f 3d
       0.17080773 0.056557335 0.094817705 0.05857348
000040 dd 52 57 bd 1a 7f b5 be cd 09 cd bd 35 a8 b7 3e
       -0.05256926 -0.35448533 -0.10011635 0.3587052
000050 e5 a9 6d bf c1 85 5b bf fa a6 19 c0 46 f6 56 bf
       -0.92837363 -0.8575097 -2.4008164 -0.83969533
000060 5e d5 b2 bf 25 56 33 bf f8 02 62 bd 51 aa f8 be
       -1.3971364 -0.7005332 -0.055178612 -0.4856744
000070 50 a8 bb bf 89 7d c9 bf 37 da cf bf 06 92 12 3f
       -1.466074 -1.5741435 -1.6238469 0.57254064
000080 d0 2e e2 3e 79 8d f8 bf c2 46 b6 be 39 c5 de 3d
       0.4417634 -1.9418174 -0.3560086 0.10877461
000090 e2 62 97 bd 33 02 f8 3d 62 a2 32 be de aa ac be
       -0.07391907 0.121097945 -0.17444757 -0.3372411
0000a0 73 11 e2 bd 84 29 8e be d8 e5 68 be 82 13 04 3e
       -0.110384844 -0.2776605 -0.22743928 0.12898067
0000b0 67 b1 ef 3d 5e be 9e be 8a d4 ee 3c f1 dc c7 bd
       0.11703759 -0.31004614 0.02915408 -0.09758938
0000c0 5a 54 48 3e 26 f1 b4 be 3e 42 e8 be 33 6b a5 bc
       0.19563428 -0.35340232 -0.4536304 -0.020192718
0000d0 ad 78 c4 be f5 1b bf 3d 7c bb d3 bd 94 a5 3a 3e
       -0.38373318 0.09331504 -0.10338494 0.18227226
0000e0 12 9a 4f 3f 46 ae 8c 3e 67 46 02 bf a8 40 53 bd
       0.8109447 0.2747671 -0.50888675 -0.051575333
0000f0 f3 8d 85 bf 49 99 19 bf d6 c3 83 be ea 61 7f be
       -1.0433944 -0.5999952 -0.25735348 -0.24939695
000100 ba 87 06 bd 8e dc 5e be 0a bc 4e 3e 6c c8 89 be
       -0.032844283 -0.21763822 0.20188919 -0.26910722
000110 f0 f6 ac be cd 39 a7 be 29 cf 23 3e ac 9e 28 bd
       -0.33782148 -0.32661286 0.15996994 -0.041166946
000120 b1 b2 5b 3e 22 74 8e 3d 16 72 d3 be 07 29 80 be
       0.21454884 0.06955744 -0.41297978 -0.250313
000130 d4 d2 97 be 58 b4 49 3e e5 46 d9 be 78 0c 78 be
       -0.29653037 0.19697702 -0.424369 -0.24223506
000140 c9 d4 52 bf 24 00 a9 be 18 32 97 3d af 5a 73 be
       -0.82355934 -0.3300792 0.073826015 -0.23765062
000150 d7 44 cb 3d 0c 87 3a be 1b 81 b3 3d a7 af b8 be
       0.099252395 -0.18215579 0.08764859 -0.36071512
000160 e3 35 8a be 96 74 bb ba
       -0.26994237 -0.0014301713

conv1.bias f4 [10]
000000 04 ae ac bd bb 9b d3 be 9d 5e b8 be 64 21 4c 3e
       -0.08431628 -0.4132975 -0.36009684 0.19934613
000010 0a c4 e6 be c3 13 b9 be a9 c0 aa bd f2 94 83 be
       -0.4507144 -0.3614789 -0.08337528 -0.25699574
000020 5c 86 27 bf 8c e6 d9 be
       -0.6543939 -0.42558706

conv2.weight f4 [20, 10, 3, 3]
000000 f7 61 47 be 6a b0 e1 bd 65 3c 09 be 92 63 81 be
       -0.19470964 -0.110199764 -0.13401945 -0.2527128
000010 5d 80 4e be d4 89 83 be 42 1d 77 be fb fc 64 be
       -0.20166154 -0.25691092 -0.24132255 -0.2236213
000020 d1 1f e4 3c 64 b7 3f be 90 65 71 bc d2 33 cd bd
       0.027847202 -0.18722302 -0.014733687 -0.100196496
000030 e9 2c 1c 3e 9b e7 b1 3c 86 c4 41 be 04 e6 1e be
       0.15251507 0.021716883 -0.18922624 -0.15517431
000040 a9 f5 d3 bd 25 c7 59 be 9d 4f 2b be a5 da 4e be
       -0.1034959 -0.21267374 -0.16729589 -0.20200594
000050 5c 93 f6 3d 40 46 49 be c1 6a 29 be 30 f9 39 3d
       0.12039825 -0.19655704 -0.1654463 0.04540366
000060 a5 5e 71 be c9 94 65 be 10 15 ac 3d dc 3d 21 bf
       -0.2357126 -0.22420038 0.08402455 -0.62985015
000070 5a a3 cd be 10 1d 31 be ad 08 7d be ad ad 9e be
       -0.4016369 -0.17296243 -0.24710341 -0.3099188
000080 43 85 d2 be b9 76 41 bc 8d 7d 4a be 20 3a a3 3d
       -0.41117296 -0.011808091 -0.19774456 0.07970071
000090 c6 8c 54 be 8c 49 66 be e2 33 b8 bd 7a e0 11 be
       -0.20756826 -0.22488993 -0.08994271 -0.14245787
0000a0 0f 8e 24 3e 39 88 53 be 2e 5e 2b bd 57 77 9e bd
       0.16069816 -0.20657434 -0.041837864 -0.07737606
0000b0 6a f4 0c be 65 46 11 3e ac 3e 86 bd 09 b1 50 3e
       -0.13765112 0.1418701 -0.065549225 0.20380034
0000c0 fd a7 c4 3d 83 e0 13 3d b0 48 bf bd a8 b5 39 bd
       0.09602354 0.036102783 -0.09340036 -0.045339257
0000d0 78 41 3d bc 2a 95 a1 bd 91 5e c5 bc 9c 35 4a be
       -0.0115512535 -0.07889779 -0.024092944 -0.19747013
0000e0 3e 97 86 be f7 35 fd bd c8 38 00 be 5e 52 35 be
       -0.26287264 -0.123638086 -0.1252166 -0.17707202
0000f0 55 2d 8a bd f1 ad 0d be 0f e0 08 3e 61 3e be bd
       -0.06746928 -0.13835885 0.13366722 -0.092892416
000100 dd e5 9a bd 40 20 0b be 24 56 2c be 85 6d b9 3d
       -0.07563374 -0.13586521 -0.16829735 0.09054092
000110 e4 84 c0 3c 16 e9 7c 3d b3 81 31 be 33 95 ff bd
       0.023500867 0.061745726 -0.17334633 -0.12479629
000120 01 0c 37 3e ca 64 bb 3d 7f 3d 75 3d a2 d8 1f be
       0.17875673 0.09150083 0.0598731 -0.15609983
000130 f3 46 a1 bd b2 3e 21 3e c3 c3 4d 3e 73 63 a3 3c
       -0.078748606 0.15746573 0.20094208 0.019944882
000140 2c 8d c8 3c b2 0a 5f 3d 88 94 9c 3c 52 c2 19 bd
       0.024481378 0.05445356 0.019113794 -0.037538834
000150 12 5a 61 3d c6 e4 62 3d 0a 72 21 3d d8 bc 97 bc
       0.05501754 0.055393957 0.039415397 -0.018522665
000160 c4 a8 e4 bc 40 c2 38 3c 5e 88 04 be ec d7 10 be
       -0.027912505 0.011276782 -0.12942645 -0.14144868
000170 da 63 31 bd 54 55 a6 bc 0c 49 f8 bd 51 73 09 be
       -0.043308116 -0.02030436 -0.121233076 -0.13422896
000180 2c e6 df bd 2d f2 ef bd 00 e0 ae bd e7 a4 a4 bd
       -0.10932574 -0.11716113 -0.08538818 -0.08039265
000190 ad cf 42 be a1 00 19 be cf 8f b2 bc 6d 5f 8e bd
       -0.19024535 -0.14941646 -0.021797089 -0.06951795
0001a0 09 74 ed bd db 62 32 be 39 56 33 be 01 cc 50 be
       -0.115943976 -0.17420523 -0.1751336 -0.20390321
0001b0 80 bc 0c bd 93 aa 96 bd d3 e6 1e bd 3a 57 47 3d
       -0.034359455 -0.07356753 -0.03879435 0.04866717
0001c0 00 d3 be bd 2e d2 81 bd d4 46 88 bc 63 d4 d0 3d
       -0.09317589 -0.06338917 -0.016635336 0.101967596
0001d0 c0 d3 79 3c 4d 70 0c be c5 3d 88 bd 4a 24 1a be
       0.015248239 -0.13714714 -0.066524066 -0.15052906
0001e0 1f ce 35 be 6f 6f 09 bd e5 5e 0f be 08 1b ad bc
       -0.1775441 -0.033553537 -0.14001043 -0.021131054
0001f0 ab c1 d6 bd f1 91 1e bd 04 01 fb bc 9c f1 6d bd
       -0.10486158 -0.0387134 -0.030640133 -0.058091745
000200 f6 57 3c be fb cd 5b be 8d a4 48 be d4 06 02 bd
       -0.1839293 -0.21465294 -0.19594021 -0.031744793
000210 ca 23 76 bd d0 1e b4 bc 69 5d 60 bd 5c 8c da 3c
       -0.060092725 -0.021987349 -0.054776583 0.026678257
000220 40 4c 87 ba 70 c4 25 be 5a f5 b8 bd dd eb c9 bd
       -0.0010322407 -0.16188216 -0.09031172 -0.098594405
000230 9e be 30 3d 81 fa 53 bd bc c8 ad bc 60 7a 78 bd
       0.043150537 -0.05175257 -0.021213882 -0.06066358
000240 3a e3 04 be ff ca 3c be ec 8e 37 be 9e e5 9a bd
       -0.12977305 -0.18436812 -0.17925614 -0.07563327
000250 51 e9 10 be 2b 42 3b bd 1d da 13 be c1 90 40 be
       -0.14151503 -0.0457174 -0.14438672 -0.18805219
000260 39 7f 04 be b9 70 22 be 9c 17 04 bd e9 99 36 be
       -0.12939157 -0.15863313 -0.03224908 -0.1783215
000270 52 90 71 3d 2e 79 3a be 26 02 59 3d 9a ec 43 3d
       0.058975525 -0.18210289 0.052980565 0.047833063
000280 fd 3a 9a 3d 33 e7 3d be a0 de 09 bd 33 84 0b be
       0.07530782 -0.18545227 -0.033659577 -0.13624649
000290 39 b6 8d bd 29 3e 05 bc 1c c5 fe bd 80 b1 55 ba
       -0.06919522 -0.008132496 -0.124399394 -0.0008151755
0002a0 98 ce c6 bc 43 41 b4 bd 27 13 72 bd 5d 4e d6 bd
       -0.024268433 -0.0880151 -0.059100296 -0.10464165
0002b0 63 04 86 3d 85 86 a1 3d 49 28 cc 3d 58 af cb bc
       0.065438055 0.07886986 0.09968621 -0.024863884
0002c0 e2 5f b1 bd cc 24 c2 3c 92 83 6e 3d 8c dd d6 bd
       -0.08660866 0.023699187 0.058230944 -0.104914755
0002d0 31 8d 12 be 1f a1 3b be f9 5d 04 be 8d 10 30 be
       -0.14311673 -0.18323182 -0.12926473 -0.17193814
0002e0 50 12 27 be 00 3a 1d be 94 8d 61 be 8b af 09 bd
       -0.1631558 -0.15354156 -0.22026664 -0.033614676
0002f0 5d ff 01 bd 14 a4 d3 3d 60 ad 44 bc 57 35 30 bd
       -0.031737674 0.1033403 -0.012004226 -0.04301962
000300 98 f3 c2 bd a4 14 d2 bd 42 77 20 3d 57 38 36 be
       -0.09519118 -0.10257843 0.039176233 -0.1779493
000310 b9 5f 40 be a2 68 03 be 11 ea 1e be c1 e3 1d be
       -0.18786515 -0.12832883 -0.15518977 -0.15418912
000320 7c 00 ef bd 6d df 11 be 6d 24 20 be cf a8 2e be
       -0.11670014 -0.14245386 -0.15638895 -0.17056583
000330 1f d1 52 be cd df 01 bd 2d f4 25 be bd bc bc bd
       -0.20587586 -0.031707574 -0.16206427 -0.092156865
000340 5b 6c 20 be c8 66 e4 bd df c7 b2 bc d3 7f 92 bd
       -0.15666334 -0.111524165 -0.021823822 -0.07153287
000350 24 85 58 be 8b 48 a0 bd b1 36 a4 bc 2f 2e bd bd
       -0.21144539 -0.078263365 -0.02004561 -0.092373244
000360 1e 45 41 3e e3 d4 d4 3d b0 50 84 bc d4 39 b3 3c
       0.18874022 0.103921674 -0.016151756 0.02187816
000370 fc 0a 96 bd 40 f3 b1 bc 8a 19 2c bd ca 48 87 bd
       -0.07326314 -0.021722436 -0.042016543 -0.0660568
000380 62 49 3f be 06 1c ad bd f6 85 93 bd 9b 0b d5 bd
       -0.18680337 -0.08452611 -0.072032854 -0.10402604
000390 7b 94 a6 bd 60 8b d5 bc f5 b0 91 3d 64 89 90 3c
       -0.08133789 -0.026067436 0.0711383 0.017643638
0003a0 8c a2 13 be c0 2e ad bd d0 8e 8a bd 54 44 4b be
       -0.14417475 -0.084561825 -0.067655206 -0.19850284
0003b0 86 44 08 be 45 68 8e bd 3c f0 2c be a6 c0 06 be
       -0.1330739 -0.069534816 -0.16888517 -0.13159427
0003c0 c8 60 04 be 2c 85 14 be f6 b5 31 be 2c 71 c0 bd
       -0.12927544 -0.14503926 -0.17354569 -0.09396586
0003d0 b2 81 ae bd 5f 30 67 bd d7 80 d0 3d 6e 8b 50 bd
       -0.08520831 -0.056442615 0.10180824 -0.05091422
0003e0 de f7 90 bd 05 e6 bf bd 5a 6d ba bd 07 56 7f bd
       -0.07078527 -0.093700446 -0.091028884 -0.0623379
0003f0 ff 94 4c 3e 16 6f 70 3d 1d 0b d6 bd c0 e4 03 3e
       0.19978712 0.05869969 -0.104513384 0.1288023

conv2.bias f4 [20]
000000 57 31 d4 be e8 a0 4d be 50 17 31 be 21 35 01 be
       -0.41443893 -0.20080912 -0.1729405 -0.12617923
000010 db 68 3d bd ad cc 9f bd 74 43 35 be c0 28 34 3e
       -0.046242576 -0.07802711 -0.17701513 0.1759367
000020 d5 6a 10 be 77 a1 ec bd 55 00 d1 be cf 22 25 be
       -0.14103253 -0.115542345 -0.40820566 -0.1612656
000030 52 4e 81 bd 9a 01 03 bf de e3 61 be 0f 6f 4f bd
       -0.063137665 -0.5117432 -0.2205958 -0.050643023
000040 c0 72 97 bd cf 5f 0c be 24 15 83 bd c8 a9 40 be
       -0.07394934 -0.13708423 -0.06400517 -0.18814766

fc1.weight f4 [50, 980]
000000 2a 3c ce 3d d8 0c c5 3d 42 c6 e9 3d 48 41 e5 3d
       0.10070069 0.096215904 0.11414768 0.11194092
000010 01 37 0f 3e 09 4a f2 3d 75 db f2 3d b2 b2 da 3d
       0.13985826 0.11830527 0.11858264 0.10678615
000020 a1 67 15 3e ba 9a dc 3c 1e 5b ea bc 5a 81 06 bc
       0.14590313 0.026929248 -0.028607901 -0.008209551
000030 2e 6d be 3d 86 e2 08 3e 43 ce bc 3d 0d 05 d7 3d
       0.09298168 0.13367662 0.09219029 0.1049901
000040 21 82 1b 3e 0e e3 f9 bc 50 12 c1 3c 9b 6d fb 3d
       0.15186359 -0.030503776 0.023568302 0.12276765
000050 1e 25 15 3e 07 c2 d4 3d ad 76 10 3e 8d d1 fd 3d
       0.1456494 0.1038857 0.14107771 0.12393484
000060 90 03 21 3b 8e 9b b2 3c ed 99 b7 3d 6b 48 c1 3d
       0.0024568774 0.02180269 0.08964906 0.09437641
000070 d6 8c 1a 3e 4a a2 ce 3d ef c5 c5 3d 10 b8 cc ba
       0.15092787 0.10089548 0.096568935 -0.001561882
000080 02 88 27 bc 7b fa ec 3d 57 25 ca 3d fe c4 06 3e
       -0.010225298 0.11571213 0.09870403 0.13161084
000090 62 a8 bd 3d 70 8e 29 3b ee b3 98 3c b0 28 01 3e
       0.09260632 0.0025872253 0.018640485 0.12613177
0000a0 f4 9d fe 3d af 8b ff 3d d9 ca e2 3d 06 81 e9 3d
       0.12432471 0.124778144 0.11073846 0.114015624
0000b0 19 62 da 3d 5c c1 c9 3d bf 55 d3 3d b4 50 1b 3e
       0.10663242 0.098513335 0.10319089 0.15167505
0000c0 13 07 eb 3d 68 55 37 3c f2 f7 b4 3c 98 89 23 bb
       0.11475959 0.011189796 0.022090886 -0.0024953838
0000d0 75 c7 8c bc 0e 4d b1 bc 76 cf 40 bc 1c cf 3a 3c
       -0.017184952 -0.021643188 -0.011768213 0.011401918
0000e0 19 61 dc bc 28 9b 7f bb 00 15 47 3c 00 7f d5 3c
       -0.026901769 -0.0039002392 0.012151003 0.026061535
0000f0 50 7f 1d 3c 68 02 cf 3b 76 25 b3 3c 84 d7 71 3c
       0.009612873 0.0063174255 0.021868449 0.014760856
000100 fc 0f 31 3c b2 44 22 bc 0e d8 d1 bc d8 18 e2 bb
       0.010807034 -0.009904074 -0.025615718 -0.0068999343
000110 04 d7 bd bb 20 bd 19 3b 88 3d 66 bb 70 97 53 3c
       -0.005793454 0.0023458675 -0.003513189 0.0129145235
000120 ea e6 ad 3c 12 2f 54 bc 2f 4d f8 bc 68 42 86 bc
       0.021228272 -0.012950676 -0.030310242 -0.016389087
000130 4a 6b 7a bc 3a 55 94 3c 28 cc a8 bc e0 e7 44 bb
       -0.015284369 0.018107045 -0.020605162 -0.0030045435
000140 18 d8 dd bb 0a d3 9e bc 10 3c 6d 3c fe 02 5a bc
       -0.006770145 -0.01938774 0.014479652 -0.013306377
000150 80 99 d8 ba 64 fc b7 bc a0 25 53 bb e8 b9 94 3b
       -0.0016525239 -0.022459216 -0.0032218471 0.0045387633
000160 e0 60 aa ba 1c 8e 43 bc e4 7b 1b 3c 72 9a 07 bc
       -0.0012998842 -0.011935737 0.009489987 -0.008276569
000170 c6 13 91 bc 64 f9 c0 bc c0 ba dd bb 03 35 f7 bc
       -0.017709624 -0.023556419 -0.006766647 -0.030176645
000180 ec 33 d9 3c fc 06 7a bc a2 e4 58 bc c0 84 41 3b
       0.026514016 -0.015260454 -0.013238104 0.0029528588
000190 a0 ac 07 3c 00 66 45 bb 66 85 b3 3c 6a 8c 98 bc
       0.008280903 -0.0030120611 0.021914195 -0.018621642
0001a0 a0 90 3b 3c 00 16 97 b8 4b df d4 bc 98 b2 4a bc
       0.0114480555 -7.204339e-05 -0.02598538 -0.012371682
0001b0 bc 30 05 3c 60 f8 c7 3b 94 47 be 3c 8e 10 af 3c
       0.008129295 0.0061026067 0.02322749 0.021370199
0001c0 74 ba 8e bc 52 7e 5f bc 84 f3 dd bb c6 79 bb bc
       -0.017422892 -0.013640957 -0.006773414 -0.022885215
0001d0 d0 4d 0d bc a6 23 d6 bc 0c 0f 47 3c 28 28 b9 3c
       -0.008624509 -0.026140045 0.012149584 0.022602156
0001e0 e0 c0 25 3b 9a 55 bb bc de 2c c6 bc 20 bf 4b bc
       0.0025291964 -0.022867966 -0.024191316 -0.0124357045
0001f0 28 39 18 3c 80 41 4c 3a c8 51 be 3b d2 a1 f6 3c
       0.009290971 0.00077917427 0.005808089 0.030106459
000200 ec 12 73 3c 60 12 e1 3b 08 c7 d3 bb 18 94 77 3c
       0.014836054 0.0068686455 -0.0064629354 0.015110992
000210 18 78 3f 3c ce 8a eb bc 38 94 9a bc c0 89 8c 3a
       0.011686347 -0.02875271 -0.018869504 0.0010722205
000220 7c 96 46 3c b0 9e 7e 3c 59 c6 9b bc 65 cf 01 bd
       0.012120839 0.015540764 -0.019015478 -0.031691927
000230 c0 1a da ba e8 51 6f bb ec de 17 3c f2 ed 0f bc
       -0.0016640052 -0.0036517326 0.009269457 -0.008784758
000240 32 10 c8 3c 60 af 0b 3b 04 18 bf 3c 33 bc d3 bd
       0.024421785 0.0021314248 0.023326881 -0.103386305
000250 62 03 9c bd a5 bb cc bd 71 be d2 bd 29 7e 08 be
       -0.07617833 -0.09996728 -0.1029023 -0.13329376
000260 b4 cd 4d be 01 71 82 bc d1 a0 1a be de 32 3b be
       -0.20098001 -0.015923025 -0.15100409 -0.18281123
000270 6b 62 99 bd 27 54 b5 bd 90 b0 cf bd 7f 03 8c bd
       -0.07489475 -0.088539414 -0.101410985 -0.06836604
000280 80 a4 79 bc 6a 66 b8 bd e8 c5 18 be 06 53 27 bd
       -0.015236974 -0.09003909 -0.14919245 -0.04085066
000290 04 de 33 bd f2 85 81 b9 95 5f 2d be 91 6b 0b bd
       -0.043912902 -0.00024704594 -0.16930993 -0.03403813
0002a0 49 14 bb bd a5 ae 3b be 11 95 1d be 57 a0 b7 bd
       -0.091347285 -0.1832834 -0.15388896 -0.08966129
0002b0 39 ad 69 3b 55 ba 2d be b3 ab 15 bd ec 58 b4 bd
       0.0035656227 -0.16965611 -0.0365407 -0.08806023
0002c0 d7 8d 1c bd 26 e4 06 be ec 24 1f be 01 3d fb bd
       -0.038221207 -0.13172969 -0.15541428 -0.12267495
0002d0 8f 8e 38 be 33 96 b2 bc cc ba ef bd ec d1 38 be
       -0.18023132 -0.021800136 -0.117055506 -0.18048829
0002e0 65 26 28 be a4 0b f3 bd b8 f1 83 bd 0e 97 38 be
       -0.16420896 -0.11867455 -0.064425886 -0.18026373
0002f0 0b 9e bf bd c1 5d b5 bd 5e 55 28 bd 90 2a 0d bd
       -0.09356316 -0.08855773 -0.041097037 -0.03446442
000300 45 9b 33 be 41 8b 0d be 51 49 36 be eb 88 af bd
       -0.175397 -0.13822652 -0.17801405 -0.08571037
000310 f4 6d c8 bd 20 96 cb bd 26 7b e3 bd 54 3c df bd
       -0.09786597 -0.099407434 -0.11107473 -0.109001786
000320 3b df e0 bd ec 31 ef bd 48 53 be bd 32 97 b9 bd
       -0.10980078 -0.11679444 -0.092932284 -0.09062041
000330 fd b0 de bd 7c 3f f9 bd 8f 53 bb bd 85 73 14 be
       -0.108736016 -0.12170312 -0.09146797 -0.14497192
000340 e9 e9 c5 bd 7a 51 d3 bd 6d f9 cb bd a3 02 fb bd
       -0.096637554 -0.10318275 -0.099596836 -0.12256362
000350 a6 65 13 be ae 50 c7 bd 76 4b 09 be 75 c5 e4 bd
       -0.14394245 -0.09732185 -0.13407692 -0.111704744
000360 88 e7 d0 bd 7f 8f 19 be 8f a4 f1 bd 8a 9c 06 be
       -0.10200411 -0.14996146 -0.11798965 -0.13145652
000370 db 8c c7 bd 94 d1 0f be 4a 43 ce bd 48 2f cd bd
       -0.09743663 -0.14044791 -0.10071428 -0.10018784
000380 db e3 d1 bd ff 2d b7 bd 98 13 ec bd c3 a3 18 be
       -0.10248538 -0.0894432 -0.11527175 -0.1490622
000390 42 48 c7 bd d1 fe ef bd 69 ae f4 bd bc 26 1a be
       -0.09730579 -0.11718524 -0.119473286 -0.15053838
0003a0 02 58 02 be 32 de 0a be 83 e8 b5 bd 18 67 c7 bd
       -0.12728885 -0.13561323 -0.08882239 -0.097364604
0003b0 23 2e c5 bd b3 2d c9 bd 9a 44 0f be 39 0a 09 be
       -0.096279405 -0.098231696 -0.13991013 -0.13382806
0003c0 ff ca 07 be bf 1a 08 be af 0e c3 bd 9e c0 df bd
       -0.1326103 -0.13291453 -0.09524285 -0.10925411
0003d0 55 8e c1 bd 10 89 04 be 0b 2a 20 be 17 b0 0c be
       -0.09450976 -0.1294291 -0.15641038 -0.13739048
0003e0 7c 00 c8 bd 97 26 ce bd 14 c2 f1 bd 18 c9 13 be
       -0.097657174 -0.10065954 -0.118045956 -0.1443218
0003f0 85 3f f4 bc 16 9c 8c bc ec 08 0c 3e 6e 2e 08 be
       -0.029815445 -0.017164271 0.13675278 -0.13298962

fc1.bias f4 [50]
000000 a9 36 28 bf f7 da 1a bf dd 5e 8f be 78 1c e9 bd
       -0.65708405 -0.60490364 -0.28002062 -0.11382383
000010 07 43 5a be 29 df 1e be 81 22 8c bd 7e 49 cf be
       -0.21314631 -0.15514816 -0.068425186 -0.40485758
000020 c7 54 ef bd 41 8f 5e bd 76 33 d0 3d be 64 f1 bd
       -0.11686092 -0.054335836 0.101660654 -0.11786793
000030 e0 73 68 bf cc e7 46 be 37 7c d3 bd 43 2e 25 c0
       -0.9080181 -0.19424361 -0.103264265 -2.5809486
000040 77 f5 5c be 2c a2 dc bd 4d 61 0a be f1 be 26 be
       -0.21578012 -0.10773119 -0.1351368 -0.16283776
000050 ed c4 f1 bd 37 ff 01 be 3c 26 f2 bd c5 59 f9 bd
       -0.11805139 -0.12695013 -0.11823699 -0.12175325
000060 9b 3f d4 bd bf bb 59 be ae fc d9 3c 4a b1 e0 bd
       -0.10363694 -0.21263026 0.026609745 -0.10971315
000070 34 78 9f be a1 ef 5f bd a7 c6 6f bf 33 ab c9 be
       -0.31146395 -0.054671887 -0.93662494 -0.39388427
000080 6a eb c4 bc 6d 5e 60 be 12 d0 e3 bd ae 65 2e c0
       -0.024038035 -0.2191102 -0.11123671 -2.724956
000090 4e 32 4d be bd 99 31 be d2 36 30 bf 36 73 1a bf
       -0.20038721 -0.17343803 -0.6883365 -0.6033205
0000a0 ed fa 2c bd d8 23 c9 bd 7e 7b a4 bd f2 87 d9 bd
       -0.04223149 -0.0982129 -0.08031367 -0.10621633
0000b0 10 d7 27 be 17 73 35 be 5c 51 6d be 6b c6 1a be
       -0.16390634 -0.17719685 -0.23175567 -0.15114753
0000c0 1c a8 d4 bd 96 56 a3 bf
       -0.10383627 -1.2760799

fc2.weight f4 [10, 50]
000000 b6 10 d8 3c 6b 8a a1 be 0e f2 fc be 5e 26 29 3f
       0.026375156 -0.31550917 -0.49403423 0.6607417
000010 bf d7 4c 3e 30 c4 dd 3d 31 37 1a bf 6d 7c 1e be
       0.20004176 0.108284354 -0.60240465 -0.15477152
000020 76 35 34 be 7b 48 c6 3d da 36 c5 be 51 96 8b bf
       -0.17598519 0.09681793 -0.3851841 -1.0905248
000030 bd 41 02 3f 67 16 f5 3d 8e 97 28 bf a6 a7 3c be
       0.5088156 0.119671635 -0.65856254 -0.18423328
000040 e1 7f 57 be ed 48 5f be 2b 56 be 3b ea 29 11 be
       -0.21044876 -0.21805163 0.005808612 -0.14176145
000050 cb 1f f6 3d 06 9b 06 3d de f0 3a 3e 74 42 61 3e
       0.12017783 0.032862686 0.18255946 0.21998006
000060 fe cb ca 3d 8e e8 b6 3d 81 85 4d be 8f 40 cc bd
       0.0990219 0.08931075 -0.20070459 -0.09973251
000070 3f 47 49 be a3 48 de bd 50 1c 88 be a9 bf 9c 3e
       -0.19656084 -0.10853698 -0.265841 0.30614975
000080 ff c9 95 3e 40 70 77 3b 43 f7 86 bf 10 af e7 be
       0.29255673 0.0037756115 -1.0544208 -0.4525075
000090 20 69 27 3d 58 82 92 bd b4 d4 f3 3e 24 5f 63 bf
       0.04087174 -0.07153767 0.47623217 -0.8881705
0000a0 19 46 48 be 81 06 18 bd b2 12 97 bf bd d6 9d 3b
       -0.1955799 -0.037115578 -1.180258 0.0048168586
0000b0 fb 5a b5 be 3e 9c 9c ba f3 79 1e 3e 1f 29 b0 3d
       -0.35420975 -0.0011948419 0.15476207 0.08601593
0000c0 bf 5e b4 3d 80 4c 29 bf ab 0b 63 be 6b c4 92 be
       0.08807134 -0.66132355 -0.2217242 -0.2866548
0000d0 bf bf 24 3e 02 b8 59 bf 2a 40 ba 3d 45 14 c5 bc
       0.1608877 -0.850464 0.090942696 -0.024057517
0000e0 a9 54 dc 3e f1 ed 27 bf 69 96 f1 bd 35 e1 1a be
       0.4303334 -0.65597445 -0.117962666 -0.15124972
0000f0 ca 21 bc 3e a9 d4 56 bf 09 c7 cb bf e8 bc 93 be
       0.3674453 -0.83918244 -1.5920116 -0.28855062
000100 8d 53 78 3f cd 40 34 bf b3 97 02 3f 6e 57 5d bc
       0.9700249 -0.7041138 0.51012725 -0.013509614
000110 5c 19 d9 3c af 1a 2b bd 04 ac 9b 3d 59 2a 38 3c
       0.02650135 -0.041773494 0.07601169 0.011240565
000120 b3 9d 88 bc 06 7b 68 bd e0 f2 82 3e da 0b 6b be
       -0.01667676 -0.05675795 0.25575924 -0.2295374
000130 74 0a 9c bd 38 59 d0 3d af 29 7c 3d b1 32 d9 3e
       -0.07619181 0.10173267 0.06156319 0.42421487
000140 69 76 01 bf 07 18 da bd 48 e2 94 3d fb e7 12 3e
       -0.50571305 -0.10649114 0.07269722 0.14346306
000150 39 68 18 3f 34 92 9c bf e0 a2 d1 3b 48 67 e6 be
       0.5953403 -1.2232118 0.00639759 -0.45000672
000160 09 8b a1 3e 76 b4 87 bf 15 59 09 3e 8d 50 09 bd
       0.31551388 -1.0601947 0.13412888 -0.033524085
000170 b6 32 57 bf 41 b3 48 be c5 42 fa be aa 88 88 3d
       -0.84061754 -0.1959963 -0.48879066 0.066666916
000180 53 16 64 bb 6a ba 8d 3d 99 f2 c3 3c 22 2c b9 bf
       -0.0034803345 0.06920321 0.02391939 -1.4466593
000190 37 3f 32 3e b9 ad 65 be 78 27 5a be a5 5a 44 be
       0.17406927 -0.22429551 -0.21304119 -0.19175203
0001a0 0d d0 cb bc 1e b3 f3 be 62 5b a9 3d 97 e0 a5 be
       -0.02487948 -0.47597593 0.08269383 -0.3239791
0001b0 45 d6 8b 3c ac 1f 45 be cf 9f 24 3f a5 a2 0d bf
       0.017069945 -0.19250363 0.6430635 -0.553263
0001c0 09 35 ba be c3 63 31 3d 42 4a 2c bf 49 24 7a 3d
       -0.36368588 0.04330803 -0.6730081 0.06106976
0001d0 85 71 da be b0 4b 8b bd 32 5a 0a bc cc 03 c2 bd
       -0.42664734 -0.068015456 -0.008444356 -0.094733804
0001e0 1c a8 17 bc c3 cb b7 bd 62 02 b2 bd 64 87 f5 bc
       -0.009256389 -0.08974411 -0.08691861 -0.029971786
0001f0 b8 9b a8 3d 9a 8f 0c be 3a db 10 3f e9 ae e6 bd
       0.08232826 -0.13726655 0.56584513 -0.1126383
000200 b7 bf 31 3d e1 ff 27 bf f4 c7 ff 3e 28 f4 c6 3e
       0.043395724 -0.65624815 0.4995724 0.3885815
000210 6a 16 f2 3c 30 08 48 3e d8 67 54 bd ea a0 af bd
       0.029551703 0.19534373 -0.051856846 -0.08575614
000220 f2 83 69 be 40 50 9e be 8c 2b 96 3d c0 04 bf bd
       -0.2280424 -0.309206 0.07332525 -0.09327078
000230 63 4a 1a bd b8 f5 c9 3d 84 a9 90 bf 30 11 0c bd
       -0.037668597 0.0986132 -1.1301732 -0.03419608
000240 5d 5c aa be 7d c8 1a 3e a0 21 05 bd 1e 79 8a 3d
       -0.33273593 0.15115543 -0.03250277 0.067613825
000250 fe b0 a6 bd 71 ff 81 bf f9 55 d0 3c 44 50 61 bf
       -0.08139227 -1.015608 0.02543162 -0.880131
000260 e7 a7 8c bd 79 0f ce be c2 a1 a4 3d 40 d8 b7 be
       -0.06867962 -0.4024618 0.08038665 -0.35907173
000270 a4 3e 0a 3f a7 46 35 bf 3b c8 c5 3d 46 a5 53 3e
       0.5400183 -0.7081093 0.096573316 0.20668516
000280 e3 68 a8 be 50 89 99 be 67 58 0d be 24 8b 3d bc
       -0.32892522 -0.29987574 -0.13803254 -0.011568818
000290 d9 20 b1 bf d0 8c 18 3e 42 30 14 bf dc c8 9c bb
       -1.3838149 0.14897466 -0.57886136 -0.0047846865
0002a0 d5 d0 39 3d 27 2c 0d be 22 65 02 be b2 ee 40 be
       0.045365173 -0.13786374 -0.12733892 -0.18841055
0002b0 48 02 93 3d c5 53 3c bc 1d 99 93 3d d9 a8 1b be
       0.071781695 -0.011494582 0.072069384 -0.15201129
0002c0 36 f6 e3 bd dd f3 22 3e 8c cf 48 3d a5 b7 43 bf
       -0.111309454 0.15913339 0.049026057 -0.76452094
0002d0 c5 25 f7 3e ae c2 1d be 43 57 5a 3d aa 7c c5 bd
       0.48271003 -0.15406296 0.053305876 -0.096429184
0002e0 a9 fc 8c be 22 ca ac 3e bf 4c b6 3c cc ad d8 be
       -0.27536514 0.33747965 0.022253392 -0.42320096
0002f0 6f 89 df be db 06 a9 3c 07 c0 2a bb 85 1f 50 3d
       -0.4365954 0.020633152 -0.0026054399 0.05081131
000300 6c 15 de bd e2 de f7 3d b5 29 ee 3e 55 9e 12 3d
       -0.1084393 0.121030584 0.46516195 0.03579553
000310 bf ff 6c 3d 95 d9 37 3d ce a1 da bc fb a1 44 be
       0.057861086 0.044885237 -0.026688483 -0.19202416
000320 87 06 7d bc f5 9d 0a 3f 38 89 1e bf 93 44 e6 bf
       -0.015443451 0.54147273 -0.6192813 -1.7989677
000330 5e 2e 30 bd 4e 35 de be 95 1c 61 bf 23 f5 34 3f
       -0.04301297 -0.43400043 -0.8793424 0.7068655
000340 29 c0 37 be 94 ec 9a be 33 c3 84 be ee a6 63 3e
       -0.17944397 -0.3025862 -0.25930175 0.22231647
000350 52 cb c4 bf 99 f9 6b be 2f 60 78 bf f0 bf d6 bf
       -1.5374548 -0.23044433 -0.97021765 -1.6777325
000360 0d e9 4d be e8 d8 50 bc 52 a6 e0 3c 12 a8 13 3e
       -0.20108433 -0.012747027 0.027423058 0.14419582
000370 7f f8 95 be 22 79 48 be 09 72 8d 3d d9 d9 cf bd
       -0.2929115 -0.19577459 0.06906516 -0.10148973
000380 e7 dc 88 3d 2c 51 a8 bb fd cf 2f bf d0 40 c2 3d
       0.06682759 -0.0051366296 -0.6867674 0.09485018
000390 a3 82 88 bd ac 97 24 3f 05 13 33 bf 5e e1 66 be
       -0.06665542 0.6429393 -0.69950897 -0.22546908
0003a0 0a 44 8f 3e 0d ea 93 bc 7b 91 90 be ed a8 85 bf
       0.27981597 -0.01805594 -0.28235993 -1.0442177
0003b0 a0 cd 12 3e 05 b1 bf be 53 75 d6 be 4c 12 d1 3e
       0.14336252 -0.37439743 -0.41886386 0.40834272
0003c0 a6 34 4a bc 41 49 9d 3d 07 63 98 3e 07 9b 44 be
       -0.012341654 0.07679988 0.29763052 -0.19199763
0003d0 5e 52 9f bd 5d ba 20 bd 82 7b 81 3e d9 2d 9b be
       -0.07779382 -0.03924023 0.2528954 -0.30308416
0003e0 3b 2c 25 3e 5a 6b 85 3e 90 d1 06 bd 42 fe ad be
       0.16130154 0.26058465 -0.032914698 -0.33983046
0003f0 c8 ba e0 be 04 a0 93 3e 8d 77 e1 bd 53 50 4e be
       -0.43892503 0.2883302 -0.110091306 -0.20147829

fc2.bias f4 [10]
000000 92 ce 5a bd a0 a6 ae 3d 97 76 41 bd 1e 54 38 3d
       -0.053419657 0.08527875 -0.047232237 0.045002095
000010 f4 4e a7 bd 5b bf 13 be 8e 60 47 bd de 16 80 3c
       -0.08169356 -0.14428465 -0.048676066 0.015635904
000020 21 85 b6 bc cc ac 95 bd
       -0.022280278 -0.07308349

exp_avg f4 [10, 1, 3, 3]
000000 d3 c6 69 3d b7 c4 a6 3c 3d 98 a4 3b ac 17 77 bc
       0.05707438 0.020357473 0.005023031 -0.015081327
000010 bb 62 04 bc b8 0f ae ba b8 8e c0 bc 7c 2c 92 bc
       -0.00808018 -0.0013279831 -0.023505554 -0.017843477
000020 44 6a 92 bc 04 00 00 00 04 00 00 80 04 00 00 00
       -0.017872937 6e-45 -6e-45 6e-45
000030 04 00 00 00 04 00 00 00 04 00 00 00 04 00 00 00
       6e-45 6e-45 6e-45 6e-45
000040 04 00 00 00 04 00 00 00 04 00 00 80 3c 2b b6 11
       6e-45 6e-45 -6e-45 2.8741182e-28
000050 04 00 00 00 04 00 00 00 04 00 00 80 04 00 00 80
       6e-45 6e-45 -6e-45 -6e-45
000060 04 00 00 00 04 00 00 00 04 00 00 80 1c 6b 27 3b
       6e-45 6e-45 -6e-45 0.002554602
000070 19 50 b8 3a 7c 6b 84 bb a0 93 bf b8 16 04 6e 3b
       0.0014061957 -0.0040411334 -9.135087e-05 0.0036318353
000080 b4 18 e6 bb dd 6a 86 ba 0b 24 ec bb 18 d8 0e bb
       -0.007021988 -0.0010255236 -0.007206445 -0.0021796282
000090 04 00 00 00 04 00 00 00 04 00 00 00 04 00 00 00
       6e-45 6e-45 6e-45 6e-45
0000a0 04 00 00 00 04 00 00 00 04 00 00 80 04 00 00 00
       6e-45 6e-45 -6e-45 6e-45
0000b0 04 00 00 00 04 00 00 00 04 00 00 00 04 00 00 00
       6e-45 6e-45 6e-45 6e-45
0000c0 04 00 00 80 04 00 00 00 04 00 00 00 04 00 00 80
       -6e-45 6e-45 6e-45 -6e-45
0000d0 04 00 00 00 04 00 00 00 bb 7e bc bc 8b 9d f4 bc
       6e-45 6e-45 -0.023009649 -0.029860279
0000e0 cf dd 1b bd 75 76 e7 3a f0 d7 99 3c bf 9e 11 3c
       -0.03805333 0.0017659204 0.018779725 0.008887946
0000f0 3b b3 14 3b a5 24 d7 3b 54 a9 35 bb 04 00 00 00
       0.0022689837 0.0065656477 -0.0027719336 6e-45
000100 04 00 00 00 04 00 00 00 04 00 00 00 04 00 00 00
       6e-45 6e-45 6e-45 6e-45
000110 04 00 00 00 04 00 00 00 04 00 00 00 04 00 00 00
       6e-45 6e-45 6e-45 6e-45
000120 04 00 00 00 04 00 00 80 04 00 00 00 04 00 00 80
       6e-45 -6e-45 6e-45 -6e-45
000130 04 00 00 80 04 00 00 80 04 00 00 00 04 00 00 00
       -6e-45 -6e-45 6e-45 6e-45
000140 04 00 00 00 04 00 00 00 04 00 00 00 04 00 00 00
       6e-45 6e-45 6e-45 6e-45
000150 04 00 00 00 04 00 00 00 04 00 00 00 04 00 00 00
       6e-45 6e-45 6e-45 6e-45
000160 04 00 00 00 04 00 00 00
       6e-45 6e-45

exp_avg_sq f4 [10, 1, 3, 3]
000000 7d 08 f9 3c d7 77 41 3c c6 72 43 3b ed 4e 5f 3c
       0.030399555 0.011808357 0.002982305 0.013629657
000010 c1 37 71 3b 33 45 93 3a bc cb 7b 3c 2f 73 57 3c
       0.0036806914 0.0011235833 0.015368398 0.0131500205
000020 87 73 1a 3c 9d 61 9e 37 77 4a 14 38 f4 ae 24 38
       0.009426958 1.8880522e-05 3.53553e-05 3.9263585e-05
000030 6a 47 1c 38 64 04 2c 38 ce 2f 25 38 5a 35 29 38
       3.7259808e-05 4.1012085e-05 3.9383587e-05 4.0342427e-05
000040 12 70 1b 38 8e 24 f5 37 6b 67 d9 39 2e b7 64 39
       3.7059253e-05 2.9223298e-05 0.00041466518 0.00021812014
000050 37 bd 0b 38 5a b8 99 37 1e ef 8f 34 ab 29 29 35
       3.3316403e-05 1.8324867e-05 2.6809806e-07 6.301804e-07
000060 d6 d5 6d 34 a4 f9 d4 33 93 32 1f 37 7d 22 37 38
       2.2150138e-07 9.917429e-08 9.488914e-06 4.366272e-05
000070 a6 b6 60 37 33 cf 86 39 79 eb c3 37 35 40 2b 3a
       1.3393967e-05 0.00025712847 2.3355462e-05 0.00065327
000080 ac fa 01 3c 10 57 60 38 79 49 8d 3b a6 4e eb 3c
       0.0079333 5.3486845e-05 0.004311737 0.028724026
000090 9a cc da 34 cc 90 14 35 34 f2 d8 34 be ab b0 34
       4.0754531e-07 5.5345004e-07 4.040936e-07 3.2907514e-07
0000a0 cc 0a 0b 35 11 52 d9 34 0c 73 c3 34 d3 a1 25 35
       5.1797247e-07 4.047911e-07 3.6405288e-07 6.1702775e-07
0000b0 5c 85 1b 35 25 cc 1b 2c 73 32 ac 2c a4 d4 a7 2c
       5.7936063e-07 2.2140148e-12 4.894135e-12 4.7700333e-12
0000c0 4b c4 c7 2a 70 52 4d 2a ce a1 27 2a e7 2c 53 29
       3.5485707e-13 1.8236259e-13 1.4888717e-13 4.6890358e-14
0000d0 90 53 0c 28 cb 11 d7 2c 02 6c 42 3d 40 ca 35 3d
       7.789681e-15 6.112643e-12 0.047466286 0.044382334
0000e0 b3 8e 3d 3d 96 90 8c 3c 2f ec e0 3b ef 86 74 3c
       0.046278667 0.017158788 0.006864093 0.014924749
0000f0 29 b4 8d 39 44 ec 63 39 4b 74 ca 3b 42 ca 6f 2f
       0.00027027845 0.00021736423 0.006178414 2.180878e-10
000100 fe 4f e7 2e 5e 10 92 2d 5d 5a 09 30 dc 2a 31 2f
       1.0518873e-10 1.6605547e-11 4.9968724e-10 1.6113283e-10
000110 62 2e 3d 2e 60 31 46 30 52 3b d0 30 20 a3 cf 30
       4.301482e-11 7.2102146e-10 1.5150852e-09 1.5107595e-09
000120 9a 09 2d 32 06 d7 04 30 cd 63 9f 2d 97 2c 71 31
       1.00721085e-08 4.8326887e-10 1.8120528e-11 3.5095462e-09
000130 6a 55 eb 30 76 4d 1b 31 7b b3 bd 34 d8 e1 8c 34
       1.7122777e-09 2.25995e-09 3.5334583e-07 2.6241355e-07
000140 fd 99 3c 33 d1 47 77 26 0c f6 72 27 65 24 bd 26
       4.3912213e-08 8.579267e-16 3.3717629e-15 1.3124374e-15
000150 5b a8 9a 27 5b a8 9a 27 0c f6 72 27 1f 04 80 24
       4.2926118e-15 4.2926118e-15 3.3717629e-15 5.551813e-17
000160 1f 04 80 24 5b a8 9a 27
       5.551813e-17 4.2926118e-15

exp_avg f4 [10]
000000 ba a9 ee 3c 04 00 00 00 3c 2b b6 11 1e 99 2c 3c
       0.029133666 6e-45 2.8741182e-28 0.010534553
000010 04 00 00 00 04 00 00 00 8b d1 99 bd 04 00 00 00
       6e-45 6e-45 -0.0751067 6e-45
000020 04 00 00 00 04 00 00 00
       6e-45 6e-45

exp_avg_sq f4 [10]
000000 a4 1c 2a 3d 98 ac 4f 38 3a 48 a2 3a ad d7 c8 3e
       0.04153122 4.9513386e-05 0.0012381144 0.39227048
000010 d7 e1 3a 35 c3 61 42 2d 88 d9 c9 3d 63 63 3e 31
       6.961904e-07 1.1049331e-11 0.09855944 2.7705134e-09
000020 f6 69 23 35 5b a8 9a 27
       6.0876425e-07 4.2926118e-15

exp_avg f4 [20, 10, 3, 3]
000000 04 00 00 00 04 00 00 00 04 00 00 00 04 00 00 00
       6e-45 6e-45 6e-45 6e-45
000010 04 00 00 00 04 00 00 00 04 00 00 00 04 00 00 00
       6e-45 6e-45 6e-45 6e-45
000020 04 00 00 80 04 00 00 00 04 00 00 00 04 00 00 00
       -6e-45 6e-45 6e-45 6e-45
000030 04 00 00 80 04 00 00 80 04 00 00 00 04 00 00 00
       -6e-45 -6e-45 6e-45 6e-45
000040 04 00 00 00 04 00 00 00 04 00 00 00 04 00 00 00
       6e-45 6e-45 6e-45 6e-45
000050 04 00 00 80 04 00 00 00 04 00 00 00 04 00 00 00
       -6e-45 6e-45 6e-45 6e-45
000060 04 00 00 00 04 00 00 00 04 00 00 80 04 00 00 00
       6e-45 6e-45 -6e-45 6e-45
000070 04 00 00 00 04 00 00 00 04 00 00 00 04 00 00 00
       6e-45 6e-45 6e-45 6e-45
000080 04 00 00 00 04 00 00 00 04 00 00 00 04 00 00 80
       6e-45 6e-45 6e-45 -6e-45
000090 04 00 00 00 04 00 00 00 04 00 00 00 04 00 00 00
       6e-45 6e-45 6e-45 6e-45
0000a0 04 00 00 80 04 00 00 00 04 00 00 00 00 00 00 00
       -6e-45 6e-45 6e-45 0.0
0000b0 04 00 00 00 04 00 00 80 04 00 00 00 04 00 00 80
       6e-45 -6e-45 6e-45 -6e-45
0000c0 00 00 00 00 04 00 00 80 04 00 00 00 00 00 00 00
       0.0 -6e-45 6e-45 0.0
0000d0 00 00 00 00 00 00 00 00 04 00 00 00 04 00 00 00
       0.0 0.0 6e-45 6e-45
0000e0 04 00 00 00 04 00 00 00 04 00 00 00 04 00 00 00
       6e-45 6e-45 6e-45 6e-45
0000f0 04 00 00 00 04 00 00 00 04 00 00 80 00 00 00 00
       6e-45 6e-45 -6e-45 0.0
000100 04 00 00 00 04 00 00 00 04 00 00 00 00 00 00 00
       6e-45 6e-45 6e-45 0.0
000110 00 00 00 00 04 00 00 80 04 00 00 00 04 00 00 00
       0.0 -6e-45 6e-45 6e-45
000120 04 00 00 80 04 00 00 80 04 00 00 80 04 00 00 00
       -6e-45 -6e-45 -6e-45 6e-45
000130 00 00 00 00 04 00 00 80 04 00 00 80 04 00 00 80
       0.0 -6e-45 -6e-45 -6e-45
000140 00 00 00 00 00 00 00 00 00 00 00 00 00 00 00 00
       0.0 0.0 0.0 0.0
000150 00 00 00 00 00 00 00 00 00 00 00 00 00 00 00 00
       0.0 0.0 0.0 0.0
000160 00 00 00 00 00 00 00 00 04 00 00 00 04 00 00 00
       0.0 0.0 6e-45 6e-45
000170 04 00 00 00 04 00 00 00 04 00 00 00 04 00 00 00
       6e-45 6e-45 6e-45 6e-45
000180 04 00 00 00 04 00 00 00 04 00 00 00 04 00 00 00
       6e-45 6e-45 6e-45 6e-45
000190 04 00 00 00 04 00 00 00 04 00 00 00 04 00 00 00
       6e-45 6e-45 6e-45 6e-45
0001a0 04 00 00 00 04 00 00 00 04 00 00 00 04 00 00 00
       6e-45 6e-45 6e-45 6e-45
0001b0 00 00 00 00 04 00 00 00 04 00 00 00 00 00 00 00
       0.0 6e-45 6e-45 0.0
0001c0 00 00 00 00 00 00 00 00 00 00 00 00 00 00 00 00
       0.0 0.0 0.0 0.0
0001d0 00 00 00 00 04 00 00 00 04 00 00 00 04 00 00 00
       0.0 6e-45 6e-45 6e-45
0001e0 04 00 00 00 04 00 00 00 04 00 00 00 00 00 00 00
       6e-45 6e-45 6e-45 0.0
0001f0 00 00 00 00 04 00 00 00 04 00 00 00 04 00 00 00
       0.0 6e-45 6e-45 6e-45
000200 04 00 00 00 04 00 00 00 04 00 00 00 04 00 00 00
       6e-45 6e-45 6e-45 6e-45
000210 04 00 00 00 04 00 00 00 04 00 00 00 00 00 00 00
       6e-45 6e-45 6e-45 0.0
000220 00 00 00 00 04 00 00 00 00 00 00 00 00 00 00 00
       0.0 6e-45 0.0 0.0
000230 00 00 00 00 00 00 00 00 00 00 00 00 00 00 00 00
       0.0 0.0 0.0 0.0
000240 04 00 00 00 04 00 00 00 04 00 00 00 04 00 00 00
       6e-45 6e-45 6e-45 6e-45
000250 04 00 00 00 04 00 00 00 04 00 00 00 04 00 00 00
       6e-45 6e-45 6e-45 6e-45
000260 04 00 00 00 04 00 00 00 00 00 00 00 04 00 00 00
       6e-45 6e-45 0.0 6e-45
000270 00 00 00 00 04 00 00 00 00 00 00 00 00 00 00 00
       0.0 6e-45 0.0 0.0
000280 00 00 00 00 04 00 00 00 04 00 00 00 04 00 00 00
       0.0 6e-45 6e-45 6e-45
000290 04 00 00 00 04 00 00 00 04 00 00 00 00 00 00 00
       6e-45 6e-45 6e-45 0.0
0002a0 00 00 00 00 00 00 00 00 04 00 00 00 00 00 00 00
       0.0 0.0 6e-45 0.0
0002b0 00 00 00 00 00 00 00 00 00 00 00 00 00 00 00 00
       0.0 0.0 0.0 0.0
0002c0 00 00 00 00 00 00 00 00 00 00 00 00 00 00 00 00
       0.0 0.0 0.0 0.0
0002d0 04 00 00 00 04 00 00 00 04 00 00 00 04 00 00 00
       6e-45 6e-45 6e-45 6e-45
0002e0 04 00 00 00 04 00 00 00 04 00 00 00 04 00 00 00
       6e-45 6e-45 6e-45 6e-45
0002f0 04 00 00 00 04 00 00 80 00 00 00 00 00 00 00 00
       6e-45 -6e-45 0.0 0.0
000300 00 00 00 00 00 00 00 00 00 00 00 00 04 00 00 00
       0.0 0.0 0.0 6e-45
000310 04 00 00 00 04 00 00 00 04 00 00 00 04 00 00 00
       6e-45 6e-45 6e-45 6e-45
000320 04 00 00 00 04 00 00 00 04 00 00 00 04 00 00 00
       6e-45 6e-45 6e-45 6e-45
000330 04 00 00 00 04 00 00 00 04 00 00 00 04 00 00 00
       6e-45 6e-45 6e-45 6e-45
000340 04 00 00 00 04 00 00 00 04 00 00 00 04 00 00 00
       6e-45 6e-45 6e-45 6e-45
000350 04 00 00 00 04 00 00 00 04 00 00 00 04 00 00 00
       6e-45 6e-45 6e-45 6e-45
000360 04 00 00 80 00 00 00 00 00 00 00 00 00 00 00 00
       -6e-45 0.0 0.0 0.0
000370 00 00 00 00 00 00 00 00 04 00 00 00 04 00 00 00
       0.0 0.0 6e-45 6e-45
000380 04 00 00 00 00 00 00 00 00 00 00 00 00 00 00 00
       6e-45 0.0 0.0 0.0
000390 00 00 00 00 00 00 00 00 00 00 00 00 00 00 00 00
       0.0 0.0 0.0 0.0
0003a0 04 00 00 00 00 00 00 00 04 00 00 00 04 00 00 00
       6e-45 0.0 6e-45 6e-45
0003b0 04 00 00 00 04 00 00 00 04 00 00 00 04 00 00 00
       6e-45 6e-45 6e-45 6e-45
0003c0 04 00 00 00 04 00 00 00 04 00 00 00 00 00 00 00
       6e-45 6e-45 6e-45 0.0
0003d0 00 00 00 00 00 00 00 00 00 00 00 00 00 00 00 00
       0.0 0.0 0.0 0.0
0003e0 00 00 00 00 04 00 00 00 04 00 00 00 04 00 00 00
       0.0 6e-45 6e-45 6e-45
0003f0 04 00 00 80 00 00 00 00 00 00 00 00 04 00 00 80
       -6e-45 0.0 0.0 -6e-45

exp_avg_sq f4 [20, 10, 3, 3]
000000 17 a9 6a 2d 57 51 30 2d 03 77 df 2c 4f 33 8e 2c
       1.33389055e-11 1.0022503e-11 6.351254e-12 4.041579e-12
000010 27 f8 de 2b df da 34 2b 71 c5 f4 2a 74 1a b2 2b
       1.5842925e-12 6.425259e-13 4.348011e-13 1.2655003e-12
000020 c3 1a ee 2b bf 29 7c 2c f2 66 bc 2b 03 9b a8 2c
       1.6918345e-12 3.5834528e-12 1.3386776e-12 4.792057e-12
000030 de f7 8b 28 58 e9 85 28 1d 13 03 28 a2 22 5f 2a
       1.5539595e-14 1.4867163e-14 7.276105e-15 1.9818394e-13
000040 3e 32 c5 27 fd 81 3f 27 57 35 0c 2b 8e ab 9a 27
       5.4732957e-15 2.6577042e-15 4.9812015e-13 4.2929586e-15
000050 e5 ce d1 2c d8 df 26 2d a1 63 1d 2d 3f da 27 2a
       5.963107e-12 9.485711e-12 8.946539e-12 1.4908299e-13
000060 5e e2 09 2c e7 f9 07 2c 77 54 b9 2c 5f 25 44 2c
       1.959453e-12 1.9323378e-12 5.2673937e-12 2.787402e-12
000070 38 6d 82 2c 8e d9 b4 2d 58 04 88 2d 15 e6 81 2d
       3.706948e-12 2.0560244e-11 1.5463339e-11 1.4767779e-11
000080 bf ae 36 2c 70 ff 16 2c ee 03 65 2c 99 3b 1b 2d
       2.596076e-12 2.1458078e-12 3.2545039e-12 8.823963e-12
000090 40 a2 8c 29 62 29 09 2b 2d 4f b0 2b f0 7d 69 25
       6.245395e-14 4.872961e-13 1.2527528e-12 2.0252198e-16
0000a0 c7 15 05 26 50 0c 79 29 13 42 15 2b 00 00 00 00
       4.617316e-16 5.5299786e-14 5.302713e-13 0.0
0000b0 fd 56 76 25 66 7e cd 26 b8 aa a5 27 a9 5f 55 24
       2.1366572e-16 1.4258993e-15 4.5981793e-15 4.626804e-17
0000c0 00 00 00 00 8d c2 14 26 fd 96 4d 27 00 00 00 00
       0.0 5.161148e-16 2.8531316e-15 0.0
0000d0 00 00 00 00 00 00 00 00 0c e0 b8 2c b5 4c 7e 2c
       0.0 0.0 5.2544687e-12 3.6138152e-12
0000e0 64 57 1e 2f 39 d9 d1 2d 4a 60 e5 2d 41 c8 0f 2a
       1.4401064e-10 2.3857015e-11 2.6077047e-11 1.2770428e-13
0000f0 0c f3 e3 2c 01 37 dc 2c 33 de 64 2d 00 00 00 00
       6.4787117e-12 6.2588827e-12 1.3009638e-11 0.0
000100 64 c3 03 27 e7 8d f8 28 65 65 1f 28 00 00 00 00
       1.8285823e-15 2.7595071e-14 8.8482595e-15 0.0
000110 00 00 00 00 7e 28 5c 29 5f d9 fe 27 6e a0 5f 26
       0.0 4.8884934e-14 7.0734836e-15 7.758609e-16
000120 d9 f3 19 27 30 16 16 24 18 d1 43 28 56 c0 14 28
       2.1365205e-15 3.254486e-17 1.08700145e-14 8.257357e-15
000130 00 00 00 00 80 08 f2 26 53 1a 3a 25 49 af f7 24
       0.0 1.6794427e-15 1.6141847e-16 1.0741612e-16
000140 00 00 00 00 00 00 00 00 00 00 00 00 00 00 00 00
       0.0 0.0 0.0 0.0
000150 00 00 00 00 00 00 00 00 00 00 00 00 00 00 00 00
       0.0 0.0 0.0 0.0
000160 00 00 00 00 00 00 00 00 b3 75 53 26 34 09 b1 24
       0.0 0.0 7.3364843e-16 7.6777105e-17
000170 fd 1f f2 25 af f4 b4 26 33 e7 4a 26 8b 47 c1 25
       4.2001984e-16 1.2556331e-15 7.039616e-16 3.3528642e-16
000180 bd d6 94 26 58 2b 98 26 a5 b9 11 26 71 2f 94 24
       1.0327768e-15 1.0558867e-15 5.0558576e-16 6.426514e-17
000190 d2 14 94 20 55 26 85 25 bd 6e 9b 25 bc 8c a3 25
       2.5085953e-19 2.3097797e-16 2.6963253e-16 2.8371358e-16
0001a0 62 ae 00 26 d7 75 d4 25 c6 c9 cc 25 38 40 1e 24
       4.4645254e-16 3.685599e-16 3.5525086e-16 3.4315184e-17
0001b0 00 00 00 00 71 42 df 23 e6 30 7c 22 00 00 00 00
       0.0 2.4205847e-17 3.4178255e-18 0.0
0001c0 00 00 00 00 00 00 00 00 00 00 00 00 00 00 00 00
       0.0 0.0 0.0 0.0
0001d0 00 00 00 00 e0 14 82 24 82 da d3 24 91 bf 36 25
       0.0 5.6413877e-17 9.187683e-17 1.5850889e-16
0001e0 17 22 03 24 84 61 76 25 72 6b 54 20 00 00 00 00
       2.8434972e-17 2.1370138e-16 1.7992649e-19 0.0
0001f0 00 00 00 00 90 b3 f6 23 5c d8 7e 25 52 db c8 20
       0.0 2.6747421e-17 2.2104294e-16 3.4026452e-19
000200 b7 08 50 25 f4 e0 bb 25 0e 05 21 25 82 c0 28 25
       1.8044077e-16 3.2591763e-16 1.3966237e-16 1.4636901e-16
000210 0b 39 00 26 aa 5e f5 25 7a 4e a5 24 00 00 00 00
       4.448623e-16 4.2564872e-16 7.169029e-17 0.0
000220 00 00 00 00 44 92 87 1f 00 00 00 00 00 00 00 00
       0.0 5.74167e-20 0.0 0.0
000230 00 00 00 00 00 00 00 00 00 00 00 00 00 00 00 00
       0.0 0.0 0.0 0.0
000240 5a 3e 9b 25 28 17 e7 24 3c 85 36 25 23 f4 ad 25
       2.6930465e-16 1.0021951e-16 1.5831125e-16 3.017615e-16
000250 3c 07 ec 24 b9 e9 43 26 96 22 9e 25 f3 40 10 26
       1.0236094e-16 6.797097e-16 2.7432067e-16 5.004806e-16
000260 db 23 46 26 12 a1 03 23 00 00 00 00 39 cc 3f 1f
       6.8743643e-16 7.135632e-18 0.0 4.0614752e-20
000270 00 00 00 00 8a e2 93 23 00 00 00 00 00 00 00 00
       0.0 1.6033715e-17 0.0 0.0
000280 00 00 00 00 35 f2 16 22 4a 11 1c 24 5d 1c da 1f
       0.0 2.0457014e-18 3.3841752e-17 9.2373514e-20
000290 0d d0 57 23 1a 79 d2 22 49 a4 28 24 00 00 00 00
       1.169923e-17 5.7048835e-18 3.6568348e-17 0.0
0002a0 00 00 00 00 00 00 00 00 f8 bf 4d 24 00 00 00 00
       0.0 0.0 4.4614893e-17 0.0
0002b0 00 00 00 00 00 00 00 00 00 00 00 00 00 00 00 00
       0.0 0.0 0.0 0.0
0002c0 00 00 00 00 00 00 00 00 00 00 00 00 00 00 00 00
       0.0 0.0 0.0 0.0
0002d0 94 ae fc 24 87 14 c1 28 12 19 ca 28 42 57 08 29
       1.09583326e-16 2.1436207e-14 2.2437378e-14 3.027375e-14
0002e0 a6 e7 6f 29 81 1e d4 29 a2 41 02 2b 14 17 24 2c
       5.3269584e-14 9.419983e-14 4.627636e-13 2.3318613e-12
0002f0 4f 7c 9e 2c 47 bf f6 26 00 00 00 00 00 00 00 00
       4.504431e-12 1.7121525e-15 0.0 0.0
000300 00 00 00 00 00 00 00 00 00 00 00 00 e7 d9 a9 29
       0.0 0.0 0.0 7.542908e-14
000310 27 05 83 2b ae cc 51 2c da c5 4c 2a 20 d4 48 2a
       9.30954e-13 2.9814306e-12 1.8187483e-13 1.7837164e-13
000320 20 d4 48 2a 85 4b f2 2a 85 4b f2 2a 85 4b f2 2a
       1.7837164e-13 4.3040238e-13 4.3040238e-13 4.3040238e-13
000330 84 70 91 2a f9 77 cc 2a ac 0a 01 27 fa f0 5d 2a
       2.5835248e-13 3.6320927e-13 1.7908132e-15 1.9712349e-13
000340 10 9c 82 2a 10 9c 82 2a 80 5c 18 2b f9 57 23 2b
       2.320093e-13 2.320093e-13 5.412962e-13 5.803132e-13
000350 83 0f 2f 2b 0c bb 93 2b 33 4c 59 2c 95 0e 65 2c
       6.2194016e-13 1.0496894e-12 3.0879854e-12 3.2550952e-12
000360 a0 aa c8 23 00 00 00 00 00 00 00 00 00 00 00 00
       2.1756306e-17 0.0 0.0 0.0
000370 00 00 00 00 00 00 00 00 2b 78 f9 29 35 05 d9 2a
       0.0 0.0 1.1078667e-13 3.8550557e-13
000380 5e 52 ba 2b 00 00 00 00 00 00 00 00 00 00 00 00
       1.3238956e-12 0.0 0.0 0.0
000390 00 00 00 00 00 00 00 00 00 00 00 00 00 00 00 00
       0.0 0.0 0.0 0.0
0003a0 d4 5e f5 1d 00 00 00 00 f2 00 c7 2a 4d 07 ec 2a
       6.494901e-21 0.0 3.5350157e-13 4.1927087e-13
0003b0 34 f5 ec 2a 2b 56 8a 2b 4d 21 91 2b e8 2f 90 2b
       4.2092165e-13 9.829406e-13 1.0312112e-12 1.0245112e-12
0003c0 ff 13 88 2b 56 08 a9 2b 27 ba 7e 2b 00 00 00 00
       9.668931e-13 1.2010486e-12 9.0497266e-13 0.0
0003d0 00 00 00 00 00 00 00 00 00 00 00 00 00 00 00 00
       0.0 0.0 0.0 0.0
0003e0 00 00 00 00 88 f5 10 25 4b 01 f7 29 44 51 ae 2a
       0.0 1.2573198e-16 1.0969228e-13 3.0964998e-13
0003f0 5b 39 07 26 00 00 00 00 00 00 00 00 54 61 79 25
       4.6915265e-16 0.0 0.0 2.1630283e-16

exp_avg f4 [20]
000000 04 00 00 00 04 00 00 00 04 00 00 00 04 00 00 00
       6e-45 6e-45 6e-45 6e-45
000010 04 00 00 00 04 00 00 00 04 00 00 00 64 22 78 bd
       6e-45 6e-45 6e-45 -0.060579672
000020 04 00 00 00 04 00 00 00 04 00 00 00 04 00 00 00
       6e-45 6e-45 6e-45 6e-45
000030 04 00 00 00 04 00 00 00 04 00 00 00 04 00 00 00
       6e-45 6e-45 6e-45 6e-45
000040 04 00 00 00 04 00 00 00 04 00 00 00 04 00 00 00
       6e-45 6e-45 6e-45 6e-45

exp_avg_sq f4 [20]
000000 51 f5 f2 2f 23 81 5a 26 39 cc 3f 2d b0 35 11 35
       4.419385e-10 7.5808956e-16 1.09024395e-11 5.4094835e-07
000010 78 20 3d 35 a8 f7 68 32 17 db ca 34 5f 1e 8f 3e
       7.0455235e-07 1.3560488e-08 3.778484e-07 0.2795286
000020 11 53 0c 35 fe 9f 38 30 14 50 d4 2a 9c d0 ad 33
       5.227494e-07 6.716617e-10 3.771433e-13 8.093886e-08
000030 c3 2f a7 33 51 56 d6 36 62 29 0a 2b 6d bd 81 35
       7.785231e-08 6.3877455e-06 4.908488e-13 9.666379e-07
000040 78 b2 2d 33 f0 51 06 32 6e 38 b1 33 07 67 54 36
       4.0442018e-08 7.818457e-09 8.252469e-08 3.1650432e-06

exp_avg f4 [50, 980]
000000 04 00 00 80 04 00 00 80 04 00 00 80 04 00 00 80
       -6e-45 -6e-45 -6e-45 -6e-45
000010 04 00 00 80 04 00 00 80 04 00 00 80 04 00 00 80
       -6e-45 -6e-45 -6e-45 -6e-45
000020 04 00 00 80 00 00 00 00 00 00 00 00 00 00 00 00
       -6e-45 0.0 0.0 0.0
000030 04 00 00 80 04 00 00 80 04 00 00 80 04 00 00 80
       -6e-45 -6e-45 -6e-45 -6e-45
000040 04 00 00 80 00 00 00 00 00 00 00 00 04 00 00 80
       -6e-45 0.0 0.0 -6e-45
000050 04 00 00 80 04 00 00 80 04 00 00 80 04 00 00 80
       -6e-45 -6e-45 -6e-45 -6e-45
000060 00 00 00 00 00 00 00 00 04 00 00 80 04 00 00 80
       0.0 0.0 -6e-45 -6e-45
000070 04 00 00 80 04 00 00 80 04 00 00 80 00 00 00 00
       -6e-45 -6e-45 -6e-45 0.0
000080 00 00 00 00 04 00 00 80 04 00 00 80 04 00 00 80
       0.0 -6e-45 -6e-45 -6e-45
000090 04 00 00 80 00 00 00 00 00 00 00 00 04 00 00 80
       -6e-45 0.0 0.0 -6e-45
0000a0 04 00 00 80 04 00 00 80 04 00 00 80 04 00 00 80
       -6e-45 -6e-45 -6e-45 -6e-45
0000b0 04 00 00 80 04 00 00 80 04 00 00 80 04 00 00 80
       -6e-45 -6e-45 -6e-45 -6e-45
0000c0 04 00 00 80 00 00 00 00 00 00 00 00 00 00 00 00
       -6e-45 0.0 0.0 0.0
0000d0 00 00 00 00 00 00 00 00 00 00 00 00 00 00 00 00
       0.0 0.0 0.0 0.0
0000e0 00 00 00 00 00 00 00 00 00 00 00 00 00 00 00 00
       0.0 0.0 0.0 0.0
0000f0 00 00 00 00 00 00 00 00 00 00 00 00 00 00 00 00
       0.0 0.0 0.0 0.0
000100 00 00 00 00 00 00 00 00 00 00 00 00 00 00 00 00
       0.0 0.0 0.0 0.0
000110 00 00 00 00 00 00 00 00 00 00 00 00 00 00 00 00
       0.0 0.0 0.0 0.0
000120 00 00 00 00 00 00 00 00 00 00 00 00 00 00 00 00
       0.0 0.0 0.0 0.0
000130 00 00 00 00 00 00 00 00 00 00 00 00 00 00 00 00
       0.0 0.0 0.0 0.0
000140 00 00 00 00 00 00 00 00 00 00 00 00 00 00 00 00
       0.0 0.0 0.0 0.0
000150 00 00 00 00 00 00 00 00 00 00 00 00 00 00 00 00
       0.0 0.0 0.0 0.0
000160 00 00 00 00 00 00 00 00 00 00 00 00 00 00 00 00
       0.0 0.0 0.0 0.0
000170 00 00 00 00 00 00 00 00 00 00 00 00 00 00 00 00
       0.0 0.0 0.0 0.0
000180 00 00 00 00 00 00 00 00 00 00 00 00 00 00 00 00
       0.0 0.0 0.0 0.0
000190 00 00 00 00 00 00 00 00 00 00 00 00 00 00 00 00
       0.0 0.0 0.0 0.0
0001a0 00 00 00 00 00 00 00 00 00 00 00 00 00 00 00 00
       0.0 0.0 0.0 0.0
0001b0 00 00 00 00 00 00 00 00 00 00 00 00 00 00 00 00
       0.0 0.0 0.0 0.0
0001c0 00 00 00 00 00 00 00 00 00 00 00 00 00 00 00 00
       0.0 0.0 0.0 0.0
0001d0 00 00 00 00 00 00 00 00 00 00 00 00 00 00 00 00
       0.0 0.0 0.0 0.0
0001e0 00 00 00 00 00 00 00 00 00 00 00 00 00 00 00 00
       0.0 0.0 0.0 0.0
0001f0 00 00 00 00 00 00 00 00 00 00 00 00 00 00 00 00
       0.0 0.0 0.0 0.0
000200 00 00 00 00 00 00 00 00 00 00 00 00 00 00 00 00
       0.0 0.0 0.0 0.0
000210 00 00 00 00 00 00 00 00 00 00 00 00 00 00 00 00
       0.0 0.0 0.0 0.0
000220 00 00 00 00 00 00 00 00 00 00 00 00 00 00 00 00
       0.0 0.0 0.0 0.0
000230 00 00 00 00 00 00 00 00 00 00 00 00 00 00 00 00
       0.0 0.0 0.0 0.0
000240 00 00 00 00 00 00 00 00 00 00 00 00 04 00 00 00
       0.0 0.0 0.0 6e-45
000250 04 00 00 00 04 00 00 00 04 00 00 00 04 00 00 00
       6e-45 6e-45 6e-45 6e-45
000260 04 00 00 00 04 00 00 00 04 00 00 00 04 00 00 00
       6e-45 6e-45 6e-45 6e-45
000270 04 00 00 00 04 00 00 00 04 00 00 00 04 00 00 00
       6e-45 6e-45 6e-45 6e-45
000280 04 00 00 00 04 00 00 00 04 00 00 00 04 00 00 80
       6e-45 6e-45 6e-45 -6e-45
000290 04 00 00 00 04 00 00 00 04 00 00 00 04 00 00 00
       6e-45 6e-45 6e-45 6e-45
0002a0 04 00 00 00 04 00 00 00 04 00 00 00 04 00 00 00
       6e-45 6e-45 6e-45 6e-45
0002b0 04 00 00 00 04 00 00 00 04 00 00 00 04 00 00 00
       6e-45 6e-45 6e-45 6e-45
0002c0 04 00 00 00 04 00 00 00 04 00 00 00 04 00 00 00
       6e-45 6e-45 6e-45 6e-45
0002d0 04 00 00 00 04 00 00 00 04 00 00 00 04 00 00 00
       6e-45 6e-45 6e-45 6e-45
0002e0 04 00 00 00 04 00 00 00 04 00 00 00 04 00 00 00
       6e-45 6e-45 6e-45 6e-45
0002f0 04 00 00 00 04 00 00 00 04 00 00 00 04 00 00 00
       6e-45 6e-45 6e-45 6e-45
000300 04 00 00 00 04 00 00 00 04 00 00 00 04 00 00 00
       6e-45 6e-45 6e-45 6e-45
000310 04 00 00 00 04 00 00 00 04 00 00 00 04 00 00 00
       6e-45 6e-45 6e-45 6e-45
000320 04 00 00 00 04 00 00 00 04 00 00 00 04 00 00 00
       6e-45 6e-45 6e-45 6e-45
000330 04 00 00 00 04 00 00 00 04 00 00 00 04 00 00 00
       6e-45 6e-45 6e-45 6e-45
000340 04 00 00 00 04 00 00 00 04 00 00 00 04 00 00 00
       6e-45 6e-45 6e-45 6e-45
000350 04 00 00 00 04 00 00 00 04 00 00 00 04 00 00 00
       6e-45 6e-45 6e-45 6e-45
000360 04 00 00 00 04 00 00 00 04 00 00 00 04 00 00 00
       6e-45 6e-45 6e-45 6e-45
000370 04 00 00 00 04 00 00 00 04 00 00 00 04 00 00 00
       6e-45 6e-45 6e-45 6e-45
000380 04 00 00 00 04 00 00 00 04 00 00 00 04 00 00 00
       6e-45 6e-45 6e-45 6e-45
000390 04 00 00 00 04 00 00 00 04 00 00 00 04 00 00 00
       6e-45 6e-45 6e-45 6e-45
0003a0 04 00 00 00 04 00 00 00 04 00 00 00 04 00 00 00
       6e-45 6e-45 6e-45 6e-45
0003b0 04 00 00 00 04 00 00 00 04 00 00 00 04 00 00 00
       6e-45 6e-45 6e-45 6e-45
0003c0 04 00 00 00 04 00 00 00 04 00 00 00 04 00 00 00
       6e-45 6e-45 6e-45 6e-45
0003d0 04 00 00 00 04 00 00 00 04 00 00 00 04 00 00 00
       6e-45 6e-45 6e-45 6e-45
0003e0 04 00 00 00 04 00 00 00 04 00 00 00 04 00 00 00
       6e-45 6e-45 6e-45 6e-45
0003f0 00 00 00 00 00 00 00 00 04 00 00 80 04 00 00 00
       0.0 0.0 -6e-45 6e-45
