lightning_logs/version_27/checkpoints/epoch=2-step=138.ckpt (torch, 273474 bytes, 24 tensors)

conv1.weight f4 [10, 1, 5, 5]
0.15256558 -0.28646305 -0.21846317 -0.31122476 -0.20107302 -0.015135769 -0.521064 -0.11800753
-0.2067304 -0.22925231 -0.06983464 -0.24191818 -0.24975565 -0.2122858 -0.016034419 -0.04375531
-0.064111546 -0.2442826 0.11644793 -0.21839523 -0.033116754 -0.14800584 -0.18146372 -0.24998595
-0.018990837 0.049535893 -0.096010834 -0.19477284 -0.08769946 -0.19778284 -0.026390504 0.061013836
-0.020290172 -0.23753308 -0.038848452 -0.07810053 -0.022954542 -0.26011646 -0.36343506 -0.24048166
-0.2676307 0.037171576 -0.09054113 -0.06741207 -0.09099247 -0.10785712 0.033499695 -0.28755504
-0.12798138 -0.21908547 0.058090422 0.1520595 0.3462615 0.1801129 0.27295518 -0.23221658
-0.30619952 -0.13106652 0.22793889 -0.06120648 -0.07734655 -0.45326796 -0.35077482 -0.30904886
-0.5158222 -0.06611036 0.10551594 0.060402095 -0.37283093 -0.45145556 -0.060357958 -0.14910339
-0.16944486 -0.16978055 0.09232848 -0.4739349 0.024703994 0.2214514 -0.10802525 -0.23061267
-0.3382401 0.0049195727 -0.03993625 -0.3470206 -0.002972106 -0.43301725 -0.3438076 -0.7888784
-0.21633789 -0.05773419 -0.60870016 -0.37273204 0.08824909 -0.35129276 -0.35784385 -0.4467377
-0.04573466 -0.06865223 0.14729676 -0.06944379 0.18584618 -0.30326524 -0.26519713 -0.17796786
0.013487956 -0.16360064 -0.23409049 -0.10140865 0.0106325215 -0.02443926 -0.3384119 -0.4058724
0.06339334 -0.056446757 0.032359015 -0.31359273 0.17725353 0.08648023 0.26781788 0.2266851
-0.25443092 0.25318414 0.069792114 0.0414773 0.025969429 -0.28139046 -0.069186285 -0.16990869
-0.009699934 -0.29744473 0.035253257 -0.23215626 -0.112808384 -0.037998203 0.017010693 0.04473224
0.08478826 -0.23789942 -0.03142581 -0.16750173 -0.1049478 -0.23322073 0.09265218 -0.23447537
0.02125981 -0.0111246705 -0.022480201 -0.20332848 0.08730254 -0.048786256 -0.14268894 -0.34891668
-0.09395016 -0.1966952 -0.25785685 0.0036416738 -0.121206395 -0.268478 -0.24284275 -0.17951149
-0.052003644 -0.20398293 -0.25200468 -0.20756294 -0.3047659 -0.08568448 0.010616258 -0.32605758
-0.09820208 -0.04237706 -0.11546902 -0.21190871 -0.034678712 -0.03765302 -0.0678836 -0.16962203
-0.18024595 -0.10991714 -0.17872164 -0.21184343 0.034846365 0.07983602 -0.15489602 -0.19855271
-0.1602048 -0.10448628 -0.042399377 -0.087381594 -0.32108673 -0.21357106 0.081946574 -0.0031242922
-0.10060652 -0.25786108 -0.20209076 -0.24805081 -0.13634121 -0.017095933 0.034859743 0.010501455
-0.4979572 -0.6051791 -0.31382656 0.329283 0.14711663 -0.077799544 0.0065162405 -0.14271277
-0.10364587 0.20505962 -0.22884347 -0.32453507 -0.7717539 -0.16321972 0.20422763 -0.24078739
-0.27498505 -0.38708422 -0.32160762 0.12018497 0.031270526 0.20060258 -0.16349335 -0.18134688
-0.14735536 -0.012861176 -0.09498475 -0.08370279 0.16270638 -0.15842892 0.021320252 -0.3963097
-0.17950347 -0.36848903 -0.2180504 0.13179146 -0.14376429 0.011556589 -0.21624322 -0.17345311
0.08845111 -0.023554292 -0.012545083 -0.100700706 0.20042837 0.025586093 0.26178464 0.19627179
0.27328312 -0.06323596
00000000: 273a 1c3e 49ab 92be cfb4 5fbe da58 9fbe
00000010: 16e6 4dbe 04fc 77bc 7364 05bf efad f1bd
00000020: 22b1 53be 1ec1 6abe 7705 8fbd 66b9 77be
00000030: f2bf 7fbe 7361 59be 9d5a 83bc c538 33bd
00000040: ea4c 83bd 3825 7abe 417c ee3d 00a3 5fbe
00000050: 6fa5 07bd d88e 17be a0d1 39be 51fc 7fbe
00000060: ac92 9bbc 26e6 4a3d 54a1 c4bd 8872 47be
00000070: c69b b3bd 9687 4abe e630 d8bc a5e9 793d
00000080: 9337 a6bc df3b 73be 8e1f 1fbd 2cf3 9fbd
00000090: 2a0b bcbc fc2d 85be 2914 babe d340 76be
000000a0: e406 89be 3941 183d a16d b9bd 570f 8abd
000000b0: 435a babd 32e4 dcbd fa36 093d 6a3a 93be
000000c0: 8d0d 03be f157 60be 39f0 6d3d 7cb5 1b3e
000000d0: 3049 b13e 846f 383e c8c0 8b3e 2fca 6dbe
000000e0: 2fc6 9cbe 4d36 06be d068 693e a5b3 7abd
000000f0: de67 9ebd bd12 e8be c298 b3be a73b 9ebe
00000100: ec0c 04bf de64 87bd be18 d83d 3068 773d
00000110: b2e3 bebe 2f25 e7be e839 77bd 8fae 18be
00000120: f482 2dbe f4da 2dbe b716 bd3d 98a7 f2be
00000130: 0860 ca3c 28c4 623e 583c ddbd ba25 6cbe
00000140: ce2d adbe 5e34 a13b 3194 23bd afac b1be
00000150: aac7 42bb 70b4 ddbe 8d07 b0be eff3 49bf
00000160: ae87 5dbe b07a 6cbd c6d3 1bbf bcd6 bebe
00000170: f0bb b43d a5dc b3be 4f37 b7be ceba e4be
00000180: 4454 3bbd 8a99 8cbd f6d4 163e 8c38 8ebd
00000190: 764e 3e3e 9545 9bbe ebc7 87be 353d 36be
000001a0: 96fc 5c3c ed86 27be 6bb5 6fbe 57af cfbd
000001b0: 0734 2e3c d834 c8bc 5344 adbe 82ce cfbe
000001c0: 5ed4 813d b734 67bd e38a 043d 3a8f a0be
000001d0: f381 353e 8c1c b13d 6d1f 893e 2420 683e
000001e0: c544 82be 5aa1 813e 2bef 8e3d 1ae4 293d
000001f0: d7bd d43c 6912 90be 8ab1 8dbd 8bfc 2dbe
00000200: 79ec 1ebc ad4a 98be b865 103d 5fba 6dbe
00000210: 1508 e7bd 01a4 1bbd 025a 8b3c 2739 373d
00000220: 78a5 ad3d e89b 73be 5ab8 00bd 9385 2bbe
00000230: dfee d6bd 6ad1 6ebe 6dc0 bd3d 501a 70be
00000240: 0e29 ae3c 4044 36bc 6628 b8bc 5735 50be
00000250: adcb b23d 19d4 47bd 0d1d 12be 35a5 b2be
00000260: f168 c0bd 776a 49be d005 84be 26a9 6e3b
00000270: 0f3b f8bd f375 89be c5ab 78be dcd1 37be
00000280: c601 55bd e7e0 50be c206 81be 618b 54be
00000290: 470a 9cbe 587b afbd d0ef 2d3c 05f1 a6be
000002a0: 2c1e c9bd 9193 2dbd 067b ecbd 99fe 58be
000002b0: 440b 0ebd 0e3a 1abd 8f06 8bbd 66b1 2dbe
000002c0: 6592 38be 3d1c e1bd ce02 37be 7ced 58be
000002d0: 10bb 0e3d 1181 a33d 109d 1ebe 6751 4bbe
000002e0: ba0c 24be e7fc d5bd f8aa 2dbd 1ff5 b2bd
000002f0: 7b65 a4be 5fb2 5abe 9bd3 a73d edc0 4cbb
00000300: cb0a cebd 5e06 84be e1f0 4ebe 0801 7ebe
00000310: 089d 0bbe c50c 8cbc 17c9 0e3d 4b0e 2c3c
00000320: 3ff4 febe 04ed 1abf e0ad a0be c897 a83e
00000330: bea5 163e 5e55 9fbd 3086 d53b 4c23 12be
00000340: 4944 d4bd 26fb 513e f155 6abe 7629 a6be
00000350: aa91 45bf 1223 27be 0c21 513e f890 76be
00000360: d7ca 8cbe e72f c6be c1a9 a4be 8a23 f63d
00000370: 8615 003d c36a 4d3e cd6a 27be ffb2 39be
00000380: 53e4 16be afb7 52bc 5d87 c2bd 5e6c abbd
00000390: 809c 263e 313b 22be cfa7 ae3c 1be9 cabe
000003a0: c2cf 37be 98aa bcbe 9b48 5fbe 57f4 063e
000003b0: f236 13be d957 3d3c dd6e 5dbe b19d 31be
000003c0: db25 b53d eef4 c0bc e489 4dbc 2c3c cebd
000003d0: 183d 4d3e ed99 d13c a308 863e 79fb 483e
000003e0: c4eb 8b3e db81 81bd

conv1.bias f4 [10]
-0.010110021 -0.21863274 -0.052910957 0.21161747 -0.095332846 -0.114105105 -0.19710387 -0.25512245
-0.2754469 -0.084580734
00000000: 80a4 25bc 43e1 5fbe 29b9 58bd 40b2 583e
00000010: de3d c3bd f0af e9bd 99d5 49be 699f 82be
00000020: 6007 8dbe aa38 adbd

conv2.weight f4 [20, 10, 5, 5]
-0.09056593 -0.072785325 -0.060295586 -0.14158764 -0.19910237 -0.10588556 -0.08516781 -0.18305524
-0.13446294 -0.15802003 -0.12563904 -0.15123676 -0.14595684 -0.14018498 -0.18020964 -0.06821426
-0.06708594 -0.13002788 -0.1273101 -0.14591832 -0.17719392 -0.18164293 -0.09659765 -0.15482685
-0.16076246 -0.12502697 -0.14116529 -0.14056751 -0.118072875 -0.13351817 -0.141882 -0.1503821
-0.17157383 -0.067075185 -0.14541541 -0.10334596 0.098143265 -0.11495995 -0.061142903 -0.09096435
-0.17488767 0.14520115 -0.060069624 -0.1034679 -0.07768955 -0.057713486 -0.12979728 -0.10697933
-0.1640626 -0.13312845 -0.07499495 -0.08768404 -0.16012682 -0.17081954 -0.16414249 -0.18251745
-0.16889718 -0.13574341 -0.07742212 -0.112369955 -0.16820958 -0.17083915 -0.08863716 -0.1671483
-0.12789242 -0.089767195 -0.14937875 -0.1270032 -0.12561005 -0.13506834 0.088004634 0.063551456
-0.17122865 -0.15396695 -0.05901917 -0.21264839 -0.21708553 -0.1047687 -0.1026472 -0.18670397
-0.07202939 -0.084885925 -0.18281104 -0.11449059 -0.08179408 -0.12595224 -0.15737247 -0.0598039
-0.14375842 -0.1561139 -0.17712529 -0.11726661 -0.0920734 -0.10608829 -0.107596114 -0.16806227
-0.16505004 -0.1189583 -0.06243042 -0.083614744 -0.036823727 -0.1290582 -0.057156716 -0.26123703
0.011453666 0.025276555 0.042894263 -0.17453806 0.04228694 -0.04460659 -0.20359099 -0.065981664
0.00088811666 0.05754137 -0.053888466 -0.14418526 -0.08287911 -0.13457559 -0.012946378 -0.14719601
0.043595545 -0.08981996 -0.10057971 -0.15330587 -0.051339548 -0.11326266 -0.101366535 -0.14930366
-0.13780184 -0.077392206 -0.11505718 -0.11725002 -0.13566683 -0.17737469 -0.17957057 -0.1503257
-0.15223007 0.13979265 -0.13851279 -0.1448451 -0.059804477 -0.09807637 -0.07501824 -0.15072294
-0.14593698 -0.09686011 -0.16224612 -0.16145052 -0.123160765 -0.14323568 -0.16750401 -0.08258809
-0.0692463 -0.109837875 -0.13111226 0.06144548 -0.1431365 0.1361798 -0.09027136 -0.12809758
-0.14510322 0.15532899 0.06972608 -0.08013204 -0.14463997 -0.11913759 -0.13260327 -0.11243777
-0.13921902 -0.07411497 0.11845518 -0.070736215 -0.059296753 -0.15091474 -0.1662402 0.17078026
-0.07052999 -0.16838947 -0.0048890896 -0.18245418 -0.17185843 -0.107582934 -0.10324309 -0.10668476
-0.1373059 -0.061742324 0.12912612 0.08275146 -0.12367889 0.13521485 0.14222538 -0.16477726
0.14366437 -0.15240774 -0.16883455 0.08554207 -0.059104517 -0.06602948 -0.06346838 -0.08297002
-0.07232877 -0.12857205 -0.15490426 -0.08850414 -0.15287675 -0.16278286 -0.14030026 -0.106833674
-0.08754518 -0.14467114 -0.15732892 -0.11157638 -0.15738018 -0.16127874 -0.08714016 -0.13073108
-0.062315676 -0.058583084 -0.10119005 -0.09834077 -0.105543055 -0.11911529 -0.12470302 -0.11923593
-0.09648718 -0.062046356 -0.13724357 -0.14758706 -0.13616462 -0.15137032 -0.1100981 -0.07364136
-0.0713926 -0.091811284 -0.16738196 -0.15476753 -0.013895769 -0.011657681 0.0052018017 -0.17877921
0.019684844 -0.048248265 -0.040018283 -0.17342667 -0.06574302 -0.18074192 -0.07314285 -0.12295161
-0.12761308 -0.08125196 -0.14447391 -0.0885096 -0.0742157 -0.16907384 -0.11587849 -0.110415004
00000000: a17a b9bd 7910 95bd 81f8 76bd 5afc 10be
00000010: 7ee1 4bbe 87da d8bd 766c aebd d572 3bbe
00000020: a7b0 09be 01d0 21be 85a7 00be cfdd 1abe
00000030: b675 15be a78c 0fbe e088 38be ebb3 8bbd
00000040: 5a64 89bd 0726 05be 945d 02be 9d6b 15be
00000050: 5372 35be 9b00 3abe fdd4 c5bd ee8a 1ebe
00000060: ea9e 24be 1207 00be a28d 10be eef0 0fbe
00000070: 31d0 f1bd fdb8 08be 8449 11be c4fd 19be
00000080: 0db1 2fbe b75e 89bd c7e7 14be 0ca7 d3bd
00000090: 56ff c83d 1f70 ebbd fb70 7abd 844b babd
000000a0: c115 33be 9caf 143e 910b 76bd fae6 d3bd
000000b0: b31b 9fbd fa64 6cbd 94e9 04be fb17 dbbd
000000c0: 0700 28be d352 08be f496 99bd b193 b3bd
000000d0: 49f8 23be 51eb 2ebe f814 28be dbe5 3abe
000000e0: 62f3 2cbe 5200 0bbe 7d8f 9ebd 3822 e6bd
000000f0: 223f 2cbe 75f0 2ebe 6687 b5bd ed28 2bbe
00000100: 3bf6 02be ddd7 b7bd bef6 18be 200d 02be
00000110: ec9f 00be 5b4f 0abe c63b b43d 4427 823d
00000120: 9056 2fbe 83a9 1dbe 16be 71bd 80c0 59be
00000130: ab4b 5ebe f990 d6bd b238 d2bd 532f 3fbe
00000140: 2584 93bd acd8 adbd d132 3bbe 0b7a eabd
00000150: a883 a7bd a0f9 00be 4026 21be eff4 74bd
00000160: 6835 13be 52dc 1fbe 5560 35be 7a29 f0bd
00000170: fb90 bcbd d144 d9bd 5a5b dcbd 8418 2cbe
00000180: e102 29be 69a0 f3bd 0ab7 7fbd 353e abbd
00000190: 7ad4 16bd d527 04be 291d 6abd dcc0 85be
000001a0: 28a8 3b3c c710 cf3c e5b1 2f3d 1bba 32be
000001b0: 1235 2d3d 66b5 36bd 287a 50be 6521 87bd
000001c0: 80d0 683a 80b0 6b3d 27ba 5cbd 4da5 13be
000001d0: 86bc a9bd 2fce 09be 0c1d 54bc 8dba 16be
000001e0: 3e91 323d 87f3 b7bd bcfc cdbd 37fc 1cbe
000001f0: 6b49 52bd 41f6 e7bd 4299 cfbd 0fe3 18be
00000200: ed1b 0dbe ce7f 9ebd 19a3 ebbd c720 f0bd
00000210: 3fec 0abe b6a1 35be 59e1 37be fbee 19be
00000220: 33e2 1bbe ce25 0f3e 4cd6 0dbe 4652 14be
00000230: 8af5 74bd 44dc c8bd 2aa3 99bd 1d57 1abe
00000240: 8170 15be 985e c6bd d923 26be 4953 25be
00000250: b63b fcbd 60ac 12be 2c86 2bbe f223 a9bd
00000260: 01d1 8dbd aef2 e0bd 4b42 06be 41ae 7b3d
00000270: 6092 12be b872 0b3e 31e0 b8bd 032c 03be
00000280: f095 14be 900e 1f3e 8ccc 8e3d 441c a4bd
00000290: 801c 14be 69fe f3bd 27c9 07be c645 e6bd
000002a0: 6e8f 0ebe 97c9 97bd a198 f23d 26de 90bd
000002b0: 27e1 72bd 6589 1abe df3a 2abe 05e1 2e3e
000002c0: 0772 90bd 4a6e 2cbe a834 a0bb 45d5 3abe
000002d0: a8fb 2fbe 7154 dcbd 1d71 d3bd 8a7d dabd
000002e0: eb99 0cbe 85e5 7cbd a339 043e 9979 a93d
000002f0: 5c4b fdbd c375 0a3e 88a3 113e 5fbb 28be
00000300: c11c 133e c610 1cbe f7e2 2cbe ae30 af3d
00000310: 9417 72bd 773a 87bd b6fb 81bd 30ec a9bd
00000320: 1b21 94bd 64a8 03be 399f 1ebe a941 b5bd
00000330: b98b 1cbe 8db0 26be dfaa 0fbe 9dcb dabd
00000340: e34a b3bd ac24 14be d51a 21be 2882 e4bd
00000350: 4528 21be 4126 25be 8a76 b2bd 5ede 05be
00000360: b93e 7fbd d1f4 6fbd bb3c cfbd e366 c9bd
00000370: f526 d8bd b8f2 f3bd 4c64 ffbd f831 f4bd
00000380: 129b c5bd 5224 7ebd 9489 0cbe 1021 17be
00000390: bd6e 0bbe d200 1bbe 1d7b e1bd 48d1 96bd
000003a0: 4936 92bd 8e07 bcbd 2d66 2bbe 617b 1ebe
000003b0: 14ab 63bc dcff 3ebc e073 aa3b e611 37be
000003c0: 1c42 a13c f99f 45bd 36ea 23bd c396 31be
000003d0: 47a4 86bd 6914 39be ebcb 95bd 0ece fbbd
000003e0: 01ad 02be 6d67 a6bd f8f0 13be 8544 b5bd
000003f0: 67fe 97bd b121 2dbe b451 edbd 4321 e2bd

conv2.bias f4 [20]
-0.19251762 -0.29333386 -0.09719911 -0.22906052 -0.10146974 -0.38480136 -0.060355026 0.014767498
-0.076428205 -0.014315036 -0.100498326 -0.1708843 -0.15504743 -0.030616645 0.040370874 -0.16639693
-0.2064554 -0.083336085 -0.15404761 -0.09844048
00000000: 5723 45be db2f 96be 5410 c7bd d78e 6abe
00000010: 5ecf cfbd af04 c5be d536 77bd 60f3 713c
00000020: 6486 9cbd 9d89 6abc 11d2 cdbd 4bfc 2ebe
00000030: c1c4 1ebe c2cf fabc ee5b 253d f563 2abe
00000040: 0b69 53be 1cac aabd a8be 1dbe 2a9b c9bd

fc1.weight f4 [50, 320]
0.04927767 0.010146171 0.11931061 0.13684364 0.031154953 0.038878337 -0.036772188 0.11005345
-0.0029094443 -0.12982808 0.10768979 0.099862956 0.019251898 0.14656498 0.109193705 0.043928713
0.07154994 0.15275498 0.1389878 0.10107425 0.11765441 0.11385988 0.09520196 0.058142208
0.09444769 0.031072693 0.11325178 0.13792664 0.16529283 0.06499701 0.09999696 -0.08489421
-0.09387956 0.021881541 0.0925614 -0.08812065 0.07668461 -0.20329736 0.13751404 0.04771811
0.1877715 -0.009218991 0.2918982 -0.057276472 -0.05805885 0.18245845 0.20253389 0.006456928
-0.31254274 -0.37206584 0.31941035 1.0262666 -0.22815306 0.1450701 0.6180764 0.43052307
0.024272906 0.14685254 0.23696303 -0.005497636 0.14793819 -0.040272407 -0.14960127 -0.09567939
-0.18810816 -0.33449888 -0.03160887 0.8558012 0.12344414 -0.15495072 -0.35796076 -0.37244424
-0.24604654 -0.18346259 -0.48391593 -0.47238302 -0.00954501 0.21566528 0.3592084 -0.23745583
0.15793142 0.16529392 0.29740635 0.06924426 0.0835837 -0.12373975 0.16359136 0.13418166
-0.073135436 -0.06945591 0.10368622 0.094262384 -0.11555138 0.12713434 0.15296666 0.24120802
-0.12258542 -0.083270736 -0.04853479 -0.07103113 -0.09782511 -0.12728515 -0.051901966 -0.09450905
-0.13417873 -0.08994361 -0.04745813 -0.11382907 -0.10041756 -0.067720234 -0.05161089 -0.09710681
-0.0030217932 0.115021996 -0.1678649 -0.124439634 -0.23548253 0.13703404 0.04434699 -0.2672896
0.46218517 0.38321927 -0.11812577 -0.38406083 0.06866038 -0.046065535 -0.21067686 -0.23620932
0.13661528 -0.16640942 0.05212826 -0.017514274 -0.39461416 -0.5190854 -0.20945796 -0.098955706
-0.15936624 0.16093549 -0.34863403 -0.03633603 -0.07031298 -0.27069533 -0.3406911 0.028009135
-0.029182956 -0.2650057 -0.4092576 -0.23319301 -0.2660094 -0.11608958 -0.36218122 0.3947429
0.051449038 -0.024460549 0.1984538 0.48919293 -0.029072287 0.23141187 0.8016157 0.43597806
-0.084509365 0.15304697 0.112046614 -0.06768203 0.07878711 -0.1265118 -0.07272716 -0.15469289
-0.13734737 0.0962257 -0.14290112 0.16933765 0.15455434 0.069269575 -0.15429282 -0.12083296
-0.15054975 -0.031492867 0.11709441 0.7316507 -0.15770566 0.015621191 0.09269373 0.06781981
-0.59329015 -0.614274 0.057957012 -0.3742773 0.3982717 0.085468076 -0.10455841 -0.6324948
-0.15217856 -0.09417713 -0.16198018 -0.12288896 -0.12930016 -0.0684902 -0.14286482 -0.06664821
-0.12605347 0.15105255 0.12483897 0.089150846 -0.09465282 0.16481431 -0.07709495 -0.1621782
0.12123752 -0.27916813 -0.43920323 -0.28566417 -0.055479564 0.24543244 -0.16867864 -0.4443949
0.3409704 -0.12977017 -0.7777752 -0.39070836 0.05064186 -0.17951748 -0.28628948 0.22470641
-0.10063473 0.23411056 0.1296599 0.060877442 -0.26218852 0.08718193 -0.13431413 -0.10563391
-0.6499372 -0.40974054 -0.46565711 -0.2052967 -0.45307294 0.02551996 -0.29233304 -0.09327728
-0.018668663 -0.19134176 -0.018599117 0.089187264 0.19981477 -0.044741843 -0.099696346 0.21919775
0.27591425 0.43790382 0.21855749 -0.017647734 -0.046783008 0.24614869 -0.023361113 0.34535033
00000000: 62d7 493d 203c 263c 1f59 f43d bd20 0c3e
00000010: ac38 ff3c e43e 1f3d 6f9e 16bd b463 e13d
00000020: 60ac 3ebb a7f1 04be 778c dc3d f384 cc3d
00000030: 28b6 9d3c 2115 163e f3a0 df3d 98ee 333d
00000040: c688 923d cd6b 1c3e d152 0e3e 0400 cf3d
00000050: ccf4 f03d 5e2f e93d 3ff9 c23d 8626 6e3d
00000060: ca6d c13d 298c fe3c 8df0 e73d a43c 0d3e
00000070: 8642 293e 271d 853d 35cb cc3d 04dd adbd
00000080: ed43 c0bd eb40 b33c d590 bd3d 9978 b4bd
00000090: d20c 9d3d 2f2d 50be 7bd0 0c3e 1174 433d
000000a0: 2c47 403e 400b 17bc ae73 953e bc9a 6abd
000000b0: 1ecf 6dbd 63d6 3a3e 0b65 4f3e a394 d33b
000000c0: 9a05 a0be 6a7f bebe c189 a33e b45c 833f
000000d0: f5a0 69be 428d 143e 413a 1e3f 856d dc3e
000000e0: f9d7 c63c 8360 163e 70a6 723e 8325 b4bb
000000f0: 1c7d 173e aef4 24bd 1331 19be 8ef3 c3bd
00000100: 6d9f 40be 7043 abbe 4d78 01bd ca15 5b3f
00000110: 48d0 fc3d 67ab 1ebe a246 b7be 03b1 bebe
00000120: a0f3 7bbe 9edd 3bbe d4c3 f7be 30dc f1be
00000130: ac62 1cbc 5cd7 5c3e 2aea b73e 9f27 73be
00000140: c6b8 213e cf42 293e a545 983e efcf 8d3d
00000150: ee2d ab3d 446b fdbd 7e84 273e eb66 093e
00000160: 08c8 95bd e63e 8ebd 7159 d43d a30c c13d
00000170: 34a6 ecbd 812f 023e 4ba3 1c3e 3cff 763e
00000180: 110e fbbd d989 aabd 6acc 46bd c578 91bd
00000190: 8858 c8bd 0a57 02be 2897 54bd f68d c1bd
000001a0: 2666 09be 5b34 b8bd 7563 42bd 371f e9bd
000001b0: b9a7 cdbd e8b0 8abd f165 53bd efdf c6bd
000001c0: 4709 46bb a790 eb3d c7e4 2bbe 35da febd
000001d0: 5522 71be a752 0c3e 30a5 353d 2fda 88be
000001e0: 89a3 ec3e 5135 c43e eceb f1bd 9fa3 c4be
000001f0: d09d 8c3d 37af 3cbd adbb 57be dbe0 71be
00000200: e0e4 0b3e 3b67 2abe 7184 553d 187a 8fbc
00000210: de0a cabe c8e2 04bf 267c 56be 4aa9 cabd
00000220: e730 23be 46cc 243e 2980 b2be 17d5 14bd
00000230: 4000 90bd 9498 8abe 106f aebe 6a73 e53c
00000240: 1811 efbc d4ae 87be 368a d1be 26ca 6ebe
00000250: 6232 88be 60c0 edbd d16f b9be be1b ca3e
00000260: 3abc 523d 7d61 c8bc 7937 4b3e 7f77 fa3e
00000270: 0129 eebc 3cf7 6c3e b036 4d3f 8438 df3e
00000280: 3f13 adbd 58b8 1c3e b278 e53d e09c 8abd
00000290: 235b a13d 4f8c 01be faf1 94bd d067 1ebe
000002a0: caa4 0cbe fb11 c53d ac54 12be d966 2d3e
000002b0: 7e43 1e3e 35dd 8d3d f0fe 1dbe 4577 f7bd
000002c0: b729 1abe aafe 00bd 32cf ef3d 764d 3b3f
000002d0: 987d 21be 06f0 7f3c 36d6 bd3d 1de5 8a3d
000002e0: dde1 17bf 1041 1dbf 5564 6d3d 46a1 bfbe
000002f0: 45ea cb3e e309 af3d b822 d6bd 2eeb 21bf
00000300: b2d4 1bbe f0df c0bd 22de 25be 35ad fbbd
00000310: 4367 04be 9744 8cbd 284b 12be db7e 88bd
00000320: 2914 01be 85ad 1a3e 93ab ff3d b894 b63d
00000330: 56d9 c1bd 15c5 283e f5e3 9dbd 0b12 26be
00000340: 604b f83d 20ef 8ebe 3fdf e0be 9342 92be
00000350: 8a3e 63bd a452 7b3e 18ba 2cbe ba87 e3be
00000360: ac93 ae3e 79e2 04be 471c 47bf ed0a c8be
00000370: d76d 4f3d 6ed3 37be 8994 92be 7019 663e
00000380: 9519 cebd aeba 6f3e 91c5 043e a05a 793d
00000390: 933d 86be 718c b23d a589 09be 9756 d8bd
000003a0: 4962 26bf 83c9 d1be 9c6a eebe 4c39 52be
000003b0: 2df9 e7be 3c0f d13c adac 95be 2908 bfbd
000003c0: 06ef 98bc 18ef 43be 2d5d 98bc d0a7 b63d
000003d0: 3e9c 4c3e 3943 37bd 992d ccbd 6075 603e
000003e0: a244 8d3e ee34 e03e 89cd 5f3e fb91 90bc
000003f0: 8a9f 3fbd 670e 7c3e ce5f bfbc c2d1 b03e

fc1.bias f4 [50]
-0.32310018 -0.17392963 -0.018565811 -0.3668799 -0.38524008 -0.14262187 -0.1367105 -0.22726002
0.10033429 0.0019273814 -0.02066628 -0.03896603 -0.12872954 -0.014419813 -0.37237275 -0.10807584
-0.011228759 -0.26088598 0.418276 -0.26693058 -0.4161937 -0.29784736 0.33962524 -0.01765406
0.20486265 -0.22456859 0.046379294 -0.383976 -0.15492254 -0.29833713 -0.21085426 -0.2718606
0.22780982 -0.1543749 -0.1202723 -0.21538655 0.04089556 -0.21358854 0.52102256 -0.08874654
0.29484275 0.088790245 -0.10489903 -0.16394924 0.51984704 0.044950493 -0.022196503 -0.15747824
0.016850755 -0.027283512
00000000: 636d a5be 9c1a 32be 5417 98bc afd7 bbbe
00000010: 303e c5be 780b 12be d6fd 0bbe dab6 68be
00000020: 107c cd3d 30a0 fc3a 554c a9bc d89a 1fbd
00000030: add1 03be 1441 6cbc a4a7 bebe de56 ddbd
00000040: d4f8 37bc d992 85be 4628 d63e 20ab 88be
00000050: 5717 d5be 737f 98be 5ce3 ad3e 3f9f 90bc
00000060: 84c7 513e 4ff5 65be 37f8 3d3d 8198 c4be
00000070: 04a4 1ebe a5bf 98be 2eea 57be 5031 8bbe
00000080: fa46 693e 7414 1ebe 5351 f6bd 4b8e 5cbe
00000090: 1a82 273d f4b6 5abe bc61 053f bfc0 b5bd
000000a0: a1f5 963e a9d7 b53d 4dd5 d6bd 4fe2 27be
000000b0: b214 053f 021e 383d 71d5 b5bc fa41 21be
000000c0: 980a 8a3c ac81 dfbc

fc2.weight f4 [10, 50]
0.16343112 -0.069303796 0.033386394 -0.23164017 -0.2983868 -0.17007634 -0.08564352 0.12478384
-0.15978001 0.20288564 -0.22003478 -0.54906094 -0.286197 -0.2514456 -0.21703239 -0.77777463
-0.5155461 0.032762773 -0.3743651 0.47399238 0.070060425 0.29353482 0.25385815 0.2665455
-0.57118815 0.3182264 -0.48416737 -0.07539155 -0.23845835 0.2237194 -0.05561155 -0.4852677
-0.39234665 -0.046335135 -0.00043038314 -0.26617447 -0.28318086 -0.09699799 0.36580455 -0.015874522
-0.05519256 0.37097013 -0.10127162 -0.15296532 -0.6192213 -0.47939384 -0.38546547 -0.26093698
-0.3042841 -0.24770631 -0.43595058 -0.43301076 0.09585351 -0.40823326 -0.5628712 -0.5606587
-0.0352037 -0.4396746 -0.4069543 -0.5777289 -0.41421318 -0.24696015 -0.43680486 -0.7496036
-0.14278367 -0.87308073 -0.35770062 -0.57628953 0.21896555 -0.4240789 -0.4576868 -0.23767236
0.37207833 -0.366995 0.33549353 -0.3053499 -0.82043684 0.29171005 -0.47703385 -0.20311083
-0.28257176 0.27213773 -0.044030428 -0.012482531 -0.64277476 -0.625791 0.28254324 -0.2614289
0.40641606 0.05614833 0.250343 -0.74951327 -0.7479167 -0.7347069 0.59883165 -0.44287252
-0.23580474 -0.5026017 0.40018755 -0.65049565 -0.45705834 0.031193467 0.21816224 0.1137668
0.12930387 0.062258057 0.12007804 0.2419194 -0.32870543 -0.109451026 -0.21775141 -0.36365744
-0.23673154 -0.38124788 0.075118534 -0.5919824 0.021477116 0.016734296 0.16007933 0.14211702
-0.24137604 -0.11733016 0.15564968 -0.38197368 -0.4400562 -0.12854673 -0.19742282 0.100705534
-0.16662955 0.044794273 -0.29116338 -0.4708552 -0.0040081255 0.020647438 -0.49093083 0.35236987
0.3897401 0.25882927 -0.13282855 0.12692401 0.370446 0.34336066 0.24878871 0.31726053
0.008482674 -0.28260502 0.13809556 -0.31275094 0.18899906 -0.20468022 0.1155618 0.12138383
0.2059246 -0.4478177 0.115164325 0.30921486 0.08960724 0.08731478 -0.44178548 0.17169109
-0.71025276 -0.20412074 0.10914002 0.2659678 0.11767049 0.34253344 -0.097693145 0.016737087
0.022046141 -0.095570944 0.22777069 -0.13679601 -0.3260323 -0.116166346 -0.26472694 -0.15705536
-0.33806965 -0.20441215 -0.17248924 -0.29632965 0.018715706 -0.21331945 0.16669242 0.08503027
-0.18230905 -0.07303065 -0.13951492 0.3111539 -0.10479471 -0.18218689 -0.27222213 -0.22587904
-0.1956594 -0.24168128 -0.45179626 -0.23467188 0.107082605 -0.31520492 -0.028578829 -0.062923715
-0.28478965 -0.14113349 -0.55232286 0.06239262 -0.12762867 -0.118252575 -0.04999897 -0.14893349
0.27533546 -0.33970088 0.27858517 0.15836054 -0.14450234 -0.570226 -0.6229715 -0.6515389
0.20266952 -0.2324188 -0.42911816 -0.07702455 -0.5659023 -0.5649992 -0.506082 -0.29727775
0.17366135 -0.23123989 0.25101295 -0.4620267 -0.008053936 -0.20632741 -0.49821615 -0.022296624
-0.35918942 -0.047808893 0.28591165 -0.3938833 0.18951695 -0.18327439 -0.4896521 -0.0068467455
0.20557544 -0.020684194 0.04854096 0.23994736 0.29551712 0.30141553 0.23958364 0.025925295
0.100334354 0.31956333 0.28753737 0.23175272 -0.35876554 -0.49760437 -0.5220344 0.16915599
00000000: 7d5a 273e 26ef 8dbd 2cc0 083d 1533 6dbe
00000010: 28c6 98be 7e28 2ebe df65 afbd ab8e ff3d
00000020: 5f9d 23be 41c1 4f3e cc50 61be 428f 0cbf
00000030: 6a88 92be 7abd 80be bd3d 5ebe 3d1c 47bf
00000040: d4fa 03bf 4232 063d c8ac bfbe 21af f23e
00000050: d77b 8f3d 324a 963e b2f9 813e a778 883e
00000060: 6339 12bf 92ee a23e c9e4 f7be e366 9abd
00000070: 6d2e 74be b316 653e f0c8 63bd 0275 f8be
00000080: a9e1 c8be e9c9 3dbd 0ca5 e1b9 0548 88be
00000090: 15fd 90be e2a6 c6bd bc4a bb3e 490b 82bc
000000a0: 9811 62bd ccef bd3e 7f67 cfbd f1a2 1cbe
000000b0: 4a85 1ebf 1c73 f5be bb5b c5be 8899 85be
000000c0: 20cb 9bbe b9a6 7dbe ea34 dfbe 96b3 ddbe
000000d0: d84e c43d f303 d1be 5418 10bf 5487 0fbf
000000e0: c131 10bd 071d e1be 505c d0be 0be6 13bf
000000f0: c013 d4be 1fe3 7cbe e3a4 dfbe 06e6 3fbf
00000100: e235 12be 3882 5fbf 8924 b7be b687 13bf
00000110: 8138 603e df20 d9be ed55 eabe 6260 73be
00000120: 0d81 be3e c5e6 bbbe cfc5 ab3e d256 9cbe
00000130: 2608 52bf 055b 953e c83d f4be 49fc 4fbe
00000140: 3fad 90be a355 8b3e 4059 34bd 8883 4cbc
00000150: e38c 24bf d733 20bf 82a9 903e 02da 85be
00000160: c415 d03e cbfb 653d f52c 803e 1ae0 3fbf
00000170: 7877 3fbf c015 3cbf 084d 193f 30c0 e2be
00000180: cc76 71be 81aa 00bf 62e5 cc3e e286 26bf
00000190: 8d03 eabe 7189 ff3c ec65 5f3e 91fe e83d
000001a0: 3c68 043e 4e02 7f3d 7aeb f53d b8b9 773e
000001b0: 144c a8be dc27 e0bd 3afa 5ebe 4f31 babe
000001c0: c169 72be ec32 c3be bfd7 993d 298c 17bf
000001d0: c7f0 af3c 5d16 893c d6eb 233e 2087 113e
000001e0: 482b 77be cc4a f0bd a162 1f3e 0e92 c3be
000001f0: 0c4f e1be c1a1 03be 3529 4abe b43e ce3d
00000200: f0a0 2abe 337a 373d 5e13 95be ef13 f1be
00000210: 9856 83bb d124 a93c 495b fbbe d369 b43e
00000220: 048c c73e 4585 843e 3504 08be 5ef8 013e
00000230: 19ab bd3e f8cc af3e 78c2 7e3e f96f a23e
00000240: eafa 0a3c 9bb1 90be ec68 0d3e e420 a0be
00000250: f888 413e b197 51be aaab ec3d 1698 f83d
00000260: e6dd 523e 5d48 e5be 46db eb3d 6951 9e3e
00000270: 0084 b73d 17d2 b23d b531 e2be cacf 2f3e
00000280: 20d3 35bf 0705 51be ce84 df3d ee2c 883e
00000290: 3afd f03d 8b60 af3e 5813 c8bd 371c 893c
000002a0: 1c9a b43c b3ba c3bd b83c 693e 4114 0cbe
000002b0: b5ed a6be 9fe8 edbd 4a8a 87be 1fd3 20be
000002c0: 7717 adbe 6b51 51be 05a1 30be 85b8 97be
000002d0: ae51 993c 6a70 5abe 6bb1 2a3e 5a24 ae3d
000002e0: 39af 3abe 1891 95bd 00dd 0ebe 904f 9f3e
000002f0: 9c9e d6bd 338f 3abe b360 8bbe d64c 67be
00000300: f05a 48be 4c7b 77be d751 e7be d34d 70be
00000310: 204e db3d 8a62 a1be 261e eabc 26de 80bd
00000320: f3cf 91be 4c85 10be 0865 0dbf 678f 7f3d
00000330: 17b1 02be 682e f2bd b8cb 4cbd 0582 18be
00000340: c5f8 8c3e 46ed adbe b7a2 8e3e 4429 223e
00000350: 6cf8 13be 55fa 11bf 0f7b 1fbf 41cb 26bf
00000360: 9988 4f3e 32ff 6dbe 60b5 dbbe 0cbf 9dbd
00000370: f9de 10bf caa3 10bf 978e 01bf ca34 98be
00000380: 48d4 313e 26ca 6cbe c584 803e c38e ecbe
00000390: a8f4 03bc 7e47 53be 3016 ffbe 69a7 b6bc
000003a0: ade7 b7be 42d3 43bd 0363 923e 12ab c9be
000003b0: bb10 423e 48ac 3bbe aeb3 fabe aa5a e0bb
000003c0: 5e82 523e e671 a9bc e3d2 463d c3b4 753e
000003d0: 054e 973e 2353 9a3e 6a55 753e 4961 d43c
000003e0: 197c cd3d ce9d a33e 1938 933e 9650 6d3e
000003f0: 1eb0 b7be 00c6 febe 0ca4 05bf 3a37 2d3e

fc2.bias f4 [10]
-0.29130203 0.9165127 -0.48262954 0.2513961 0.036321327 -0.18283264 -0.5127233 -0.08034024
0.116792396 -0.10346352
00000000: 8a25 95be 94a0 6a3f 381b f7be fdb6 803e
00000010: acc5 143d 7b38 3bbe d641 03bf 6c89 a4bd
00000020: da30 ef3d afe4 d3bd

exp_avg f4 [10, 1, 5, 5]
-0.0051029962 0.0051359693 0.0014411177 0.00024075744 0.000701989 -0.00020045222 0.0013249182 -1.1852176e-05
-2.1807366e-05 0.00012221407 -0.002817229 0.00030307236 8.986476e-08 6.165762e-06 0.0011730416 -0.0006104198
-0.0002430583 -0.0001272087 -3.0629937e-05 -0.00043356934 0.0022010913 -5.6634075e-05 -0.0005460182 7.771977e-05
-0.0062158215 2.1125808e-09 2.2154916e-09 1.9346011e-09 1.4322454e-09 9.811606e-10 2.1388245e-09 2.265745e-09
1.6572834e-09 9.478803e-10 7.4990714e-10 1.6758575e-09 1.6439449e-09 8.939369e-10 4.658068e-10 4.548545e-10
1.031893e-09 1.2402811e-09 1.0706238e-09 6.395591e-10 5.4517996e-10 7.1254236e-10 8.8113516e-10 7.8369616e-10
6.0737765e-10 3.667995e-10 -0.0070059607 -0.00926684 -0.0030979111 0.009070394 0.0503874 -0.014319924
-0.021341769 -0.014243968 0.009634145 0.02478256 -0.00021341909 0.0006297111 -0.0010972264 -0.0024709527
0.0004619616 0.0048164655 0.0048024743 0.011611692 0.006702423 0.0042112134 0.008886403 0.01483746
0.02845483 0.025016055 0.027748935 0.000927647 -0.006067461 0.011416992 0.01928206 0.013582294
-0.0016005168 -0.00418918 0.0008938969 0.01348111 0.009673619 -0.0008662349 -0.0001927258 0.0007954944
0.0001717568 -0.006739069 0.0002874679 -0.00019008138 -0.00016737472 -0.00033968844 -0.001086309 9.198836e-05
-0.0020828135 -0.003849898 -0.011821627 0.003522471 0.006659587 0.010039295 -0.004521246 0.0038660374
0.021583397 0.0023239986 -0.0003288958 -0.0011350429 0.015828867 -0.00320494 -0.0026179259 8.496689e-05
-0.009337974 -0.008792149 -0.026954742 -0.0030027046 0.0021950002 -0.007858468 0.0031879097 -0.023382194
0.027671842 0.021081222 0.016982058 0.042033814 -0.0061060684 7.6161506e-08 3.3869434e-09 3.2981302e-09
3.8100914e-09 3.7773624e-09 7.1075985e-05 1.5654708e-08 4.0727124e-09 4.0875006e-09 4.5421658e-09 8.594926e-05
5.6516e-05 9.419464e-09 4.693811e-09 4.550101e-09 2.6803002e-07 9.156233e-08 6.333569e-09 5.841756e-09
6.443943e-09 4.9095044e-09 6.1618306e-09 6.785931e-09 7.728906e-09 8.3635125e-09 2.0596338e-09 1.2634075e-09
5.618102e-10 2.341435e-10 1.0270031e-10 2.619134e-09 1.2531798e-09 1.9969122e-10 7.8038076e-11 7.717736e-11
2.7692877e-09 1.3087139e-09 3.2825664e-10 1.8695802e-10 4.3672424e-10 2.9000073e-09 1.97095e-09 1.1571449e-09
1.403286e-09 1.9077364e-09 2.6123328e-09 2.1916962e-09 2.2912692e-09 2.7108211e-09 2.6539144e-09 1.8816566e-09
1.8830482e-09 1.6132924e-09 1.0880152e-09 6.0017247e-10 2.629968e-09 2.6358797e-09 1.5380783e-09 6.9822154e-10
3.8364184e-10 2.8037035e-09 2.6229159e-09 1.6686287e-09 3.783946e-10 2.1899849e-10 2.486308e-09 2.1834559e-09
1.6971714e-09 1.0154203e-09 7.721654e-10 1.40233e-09 1.6527231e-09 2.0456163e-09 2.0485749e-09 1.562343e-09
0.00086274464 0.0033816353 0.005816327 0.013303267 0.039380156 -0.0002452386 0.00097496755 0.00040295458
0.009491222 0.032352217 -0.00014885682 0.00022530658 0.00072645745 0.02211446 0.054374397 0.0045023826
0.00032327505 -5.8098405e-05 0.012991093 0.07405543 0.016540302 0.01383161 0.013420817 0.027015757
0.07133993 -0.0015068473 0.015301235 0.012173936 0.0049097184 -0.005230262 -0.0044097737 0.02291722
0.011821388 0.0051992475 0.0022980927 -0.014588351 0.02918721 0.029377649 0.016050464 0.01348264
-0.02761513 0.01014174 0.014266175 -0.0018028371 0.011086222 -0.006664022 0.0023593977 0.008107463
0.010658688 0.033217352
00000000: 0937 a7bb a24b a83b e3e3 bc3a d573 7c39
00000010: af05 383a 7c30 52b9 e1a8 ad3a b5d8 46b7
00000020: f6ee b6b7 9726 0039 42a1 38bb afe5 9e39
00000030: adfb c033 7ee3 ce36 bfc0 993a 9404 20ba
00000040: 77dd 7eb9 5363 05b9 a578 00b8 b150 e3b9
00000050: 2f40 103b 608a 6db8 a922 0fba 7cfd a238
00000060: 17ae cbbb ea2c 1131 573f 1831 ddf1 0431
00000070: a8d8 c430 85d9 8630 99fa 1231 68b3 1b31
00000080: 7ac6 e330 9346 8230 0622 4e30 fe53 e630
00000090: 2bf1 e130 38b9 7530 3d0a 0030 140f fa2f
000000a0: 82d2 8d30 8376 aa30 3a25 9330 f8cc 2f30
000000b0: a1db 1530 b6dc 4330 6034 7230 b76b 5730
000000c0: 67f4 2630 71a6 c92f 4292 e5bb f2d3 17bc
000000d0: 5306 4bbb fd9b 143c 0563 4e3d 1d9e 6abc
000000e0: efd4 aebc 885f 69bc 88d8 1d3c cc04 cb3c
000000f0: 40c9 5fb9 3213 253a cfd0 8fba b5ef 21bb
00000100: 7033 f239 71d3 9d3b 135e 9d3b f73e 3e3c
00000110: 00a0 db3b 38fe 893b 4798 113c d118 733c
00000120: 1b1a e93c 78ee cc3c bc51 e33c 562d 733a
00000130: 8dd1 c6bb 560e 3b3c 69f5 9d3c 4588 5e3c
00000140: 6fc8 d1ba 6445 89bb 6854 6a3a e0df 5c3c
00000150: 197e 1e3c 0a14 63ba 7016 4ab9 ba88 503a
00000160: 9d19 3439 68d3 dcbb 4ab7 9639 9550 47b9
00000170: 4f81 2fb9 3618 b2b9 7b62 8eba e0e9 c038
00000180: d07f 08bb 924e 7cbb 7faf 41bc 42d9 663b
00000190: aa38 da3b db7b 243c f626 94bb 585d 7d3b
000001a0: aacf b03c 3a4e 183b a66f acb9 b8c5 94ba
000001b0: 8aab 813c f809 52bb 8291 2bbb 4030 b238
000001c0: 4dfe 18bc f20c 10bc 31d0 dcbc 06c9 44bb
000001d0: fed9 0f3b cec0 00bc 40ec 503b 048c bfbc
000001e0: 0fb0 e23c 87b2 ac3c f51d 8b3c a62b 2c3d
000001f0: 6a15 c8bb 3b8e a333 bdbf 6831 52a5 6231
00000200: ebe9 8231 08ca 8131 a10e 9538 1179 8632
00000210: f5ef 8b31 0972 8c31 5011 9c31 a83f b438
00000220: 980b 6d38 3ed3 2132 3347 a131 1d57 9c31
00000230: c4e5 8f34 eca0 c433 a99e d931 a1b8 c831
00000240: 8669 dd31 75b0 a831 09b8 d331 ae29 e931
00000250: 17c8 0432 1eaf 0f32 7689 0d31 33a4 ad30
00000260: e16d 1a30 c5b8 802f 22d7 e12e 4bfc 3331
00000270: 583c ac30 1590 5b2f 889b ab2e feb6 a92e
00000280: d34d 3e31 47de b330 0476 b42f 0190 4d2f
00000290: 7917 f02f 7849 4731 5271 0731 6b09 9f30
000002a0: bddd c030 4119 0331 a584 3331 ba9c 1631
000002b0: 6f74 1d31 4549 3a31 2860 3631 744e 0131
000002c0: ef66 0131 aeba dd30 2289 9530 62f9 2430
000002d0: e3ba 3431 e322 3531 5264 d330 f9ec 3f30
000002e0: cae8 d22f 46ab 4031 d33e 3431 a755 e530
000002f0: 4e06 d02f 98ca 702f 98db 2a31 c30b 1631
00000300: e941 e930 ed8e 8b30 4f40 5430 1abc c030
00000310: 0626 e330 dd92 0c31 e9c6 0c31 0fba d630
00000320: d029 623a 6d9e 5d3b e396 be3b f2f5 593c
00000330: 164d 213d 5e93 80b9 f794 7f3a a643 d339
00000340: 1281 1b3c c283 043d 7316 1cb9 4640 6c39
00000350: bc6f 3e3a 6229 b53c b0b7 5e3d b988 933b
00000360: 3e7d a939 b0ae 73b8 98d8 543c 60aa 973d
00000370: 877f 873c fa9d 623c fde2 5b3c 2650 dd3c
00000380: ab1a 923d 6881 c5ba 08b2 7a3c 3075 473c
00000390: b4e1 a03b 9e62 abbb dd7f 90bb e5bc bb3c
000003a0: 7fae 413c 735e aa3b 999b 163b fb03 6fbc
000003b0: 041a ef3c 65a9 f03c 437c 833c 4ae6 5c3c
000003c0: 2039 e2bc 8a29 263c adbc 693c 2d4d ecba
000003d0: fca2 353c de5d dabb 20a0 1a3b 2ad5 043c
000003e0: c7a1 2e3c eb0e 083d

exp_avg_sq f4 [10, 1, 5, 5]
0.0013007006 0.0002215765 3.991249e-05 1.4343768e-05 2.6145888e-05 0.00041303842 1.0603044e-05 1.7665961e-06
7.138044e-07 1.7155007e-06 0.00014559497 4.1313247e-06 5.076288e-07 3.240511e-07 1.955501e-06 0.00010859261
2.6325404e-06 6.258176e-07 1.0205331e-06 2.5758266e-06 0.00017134043 8.039207e-06 3.092217e-06 1.2764058e-05
6.726918e-05 1.7333391e-06 1.6877119e-06 9.4391356e-07 4.2369172e-07 1.9086325e-07 1.8284311e-06 1.7803355e-06
6.417294e-07 1.612538e-07 9.492367e-08 1.0450476e-06 7.996392e-07 1.7848564e-07 3.0932974e-08 3.0494398e-08
3.9380703e-07 4.2494955e-07 2.1402924e-07 7.3242184e-08 5.027224e-08 2.407083e-07 2.2595349e-07 1.2000505e-07
7.690186e-08 3.9030358e-08 0.00148533 0.0013623675 0.0015430083 0.0018982177 0.0025418429 0.0008094787
0.0004369306 0.00041384573 0.00073517923 0.0013324462 0.00027282588 4.9111688e-05 3.5648973e-05 8.256166e-05
0.00026213157 0.00016884475 4.4812823e-05 3.6790152e-05 2.7360393e-05 0.00015646654 0.0002587278 0.000111639914
0.00014352435 0.00020892931 0.0010753276 3.755536e-05 4.492358e-05 0.00012662372 0.00011809214 0.00014927091
8.01358e-06 1.1358059e-05 1.2077722e-05 2.5309326e-05 7.890097e-05 1.4374897e-06 2.4911344e-06 2.072766e-06
1.439033e-06 2.8685057e-05 7.1989473e-07 4.3891127e-06 1.5556023e-05 4.3981727e-06 2.7609402e-05 1.9601828e-05
5.3211417e-05 9.0927264e-05 0.0001348619 0.00037118074 0.00018481107 6.435355e-05 8.0822545e-05 0.000611161
0.001799024 3.21711e-05 7.176129e-06 0.00011881173 0.0013094823 0.0029103288 9.628971e-06 4.152761e-05
0.0007102667 0.0027469173 0.003898057 0.00018522059 0.0007347249 0.002431666 0.004070146 0.004059709
0.0009342747 0.0025838865 0.0039436994 0.004131407 0.0026559234 2.4277565e-06 3.2474532e-06 3.0022056e-06
3.7803086e-06 3.3274116e-06 5.692121e-06 4.6925156e-06 4.060992e-06 5.3361464e-06 5.688814e-06 8.8509005e-06
8.4691865e-06 6.2583417e-06 6.727782e-06 6.53537e-06 8.548553e-06 8.419289e-06 9.904319e-06 9.183825e-06
9.3719145e-06 8.722342e-06 9.910182e-06 1.0422857e-05 1.2081309e-05 9.989778e-06 5.6682455e-07 2.0130398e-07
3.7228688e-08 7.635955e-09 1.4950059e-09 9.0367797e-07 2.1648107e-07 6.2764154e-09 1.240507e-09 7.9588397e-10
1.0844669e-06 2.8654074e-07 2.3241048e-08 7.4286937e-09 3.02126e-08 1.3218225e-06 7.5479426e-07 2.9380396e-07
3.786513e-07 6.773512e-07 1.1659968e-06 9.924986e-07 1.107713e-06 1.4561908e-06 1.39535e-06 7.801033e-07
9.178195e-07 6.319307e-07 2.3595591e-07 6.24069e-08 1.5345615e-06 1.5964114e-06 5.351028e-07 8.263923e-08
2.1571307e-08 1.7658224e-06 1.5973643e-06 5.1522534e-07 2.9861894e-08 9.905371e-09 1.5790197e-06 1.300476e-06
6.3349853e-07 2.1323874e-07 1.7957818e-07 7.711278e-07 9.518664e-07 1.0535509e-06 9.243766e-07 6.983276e-07
2.7227692e-05 5.7925525e-05 0.0001694268 0.0008177214 0.001681763 2.7030048e-05 3.4855628e-05 6.841066e-05
0.00049294345 0.0015243359 4.2436304e-06 3.3304982e-06 3.3667343e-06 0.0001803562 0.0013765646 4.9346845e-06
1.0395654e-06 7.9085925e-07 0.00013818267 0.0013623396 5.032893e-05 4.09255e-05 4.0386323e-05 0.00030133576
0.0011617647 0.0013037006 0.00075225905 0.00036535057 0.00019796699 0.00018310206 0.001208811 0.0005724718
0.00028950674 7.393325e-05 0.00021125528 0.0016767547 0.00083145354 0.0005676956 0.00038539845 0.0010723493
0.0027219863 0.0023681724 0.002398946 0.0025177558 0.003800524 0.0038845346 0.0044293283 0.004566533
0.0048333905 0.004643037
00000000: 457c aa3a fd56 6839 b667 2738 04a6 7037
00000010: de53 db37 148d d839 bae3 3137 c81b ed35
00000020: 449c 3f35 2840 e635 daaa 1839 cf9f 8a36
00000030: fc43 0835 3ef9 ad34 403b 0336 37bc e338
00000040: b3aa 3036 dcfd 2735 40f9 8835 5ddc 2c36
00000050: d9a9 3339 22e0 0637 e283 4f36 3625 5637
00000060: de12 8d38 14a5 e835 5785 e235 3f61 7d35
00000070: bf77 e334 17f0 4c34 6a68 f535 ddf3 ee35
00000080: 4f43 2c35 1b25 2d34 d7d8 cb33 9043 8c35
00000090: caa6 5635 c2a5 3f34 2adb 0433 f2f8 0233
000000a0: 6d6c d334 9f24 e434 e9cf 6534 5149 9d33
000000b0: eaea 5733 b23a 8134 9f9d 7234 bdda 0034
000000c0: 3f25 a533 55a2 2733 68af c23a 7891 b23a
000000d0: c43e ca3a 9ecd f83a 0c95 263b 3233 543a
000000e0: d513 e539 6ff9 d839 0bb9 403a 7aa5 ae3a
000000f0: 120a 8f39 46fd 4d38 cb85 1538 f424 ad38
00000100: b46e 8939 eb0b 3139 67f5 3b38 204f 1a38
00000110: ff83 e537 2b11 2439 dca5 8739 3920 ea38
00000120: 067f 1639 0914 5b39 02f2 8c3a c384 1d38
00000130: 546c 3c38 4cc6 0439 3ca8 f738 9b85 1c39
00000140: 1072 0637 7e8e 3e37 6ca1 4a37 5d4f d437
00000150: a377 a538 c5ef c035 5d2d 2736 d919 0b36
00000160: cc24 c135 b1a0 f037 ca3e 4135 3146 9336
00000170: 4e7e 8237 0494 9336 bd9a e737 9b6e a437
00000180: 532f 5f38 34b0 be38 b769 0d39 099b c239
00000190: d8c9 4139 8df5 8638 467f a938 5236 203a
000001a0: 3acd eb3a 75ef 0638 7bca f036 902a f938
000001b0: efa2 ab3a 37bb 3e3b 1e8c 2137 ef2d 2e38
000001c0: 3131 3a3a a005 343b 8b76 7f3b c637 4239
000001d0: 8e9a 403a 965c 1f3b dc5e 853b 4f07 853b
000001e0: 1dea 743a 6c56 293b 263a 813b c160 873b
000001f0: 000f 2e3b 8aec 2236 d2ee 5936 8079 4936
00000200: 35b1 7d36 7f4c 5f36 f2fe be36 6774 9d36
00000210: a843 8836 260d b336 8ae2 be36 547e 1437
00000220: e116 0e37 bffe d136 35bf e136 674a db36
00000230: c16b 0f37 9240 0d37 ba2a 2637 3a14 1a37
00000240: 113c 1d37 2c56 1237 e843 2637 d4dd 2e37
00000250: d4b0 4a37 c599 2737 e327 1835 0426 5834
00000260: 60e5 1f33 492f 0332 d878 cd30 4794 7235
00000270: dd71 6834 efa7 d731 767e aa30 5bc5 5a30
00000280: 008e 9135 dcd5 9934 9ba3 c732 7b3f ff31
00000290: 1bc3 0133 7a69 b135 119d 4a35 1cbc 9d34
000002a0: 7049 cb34 38d3 3535 587f 9c35 fe35 8535
000002b0: bbac 9435 5672 c335 dc47 bb35 4a68 5135
000002c0: 1360 7635 f2a1 2935 115b 7d34 8e04 8633
000002d0: 22f7 cd35 4744 d635 fca3 0f35 6677 b133
000002e0: ce4b b932 3201 ed35 0565 d635 044e 0a35
000002f0: 8041 0033 482c 2a32 b4ee d335 048c ae35
00000300: b00d 2a35 9ef6 6434 13d2 4034 80ff 4e35
00000310: c383 7f35 bc67 8d35 ad22 7835 b574 3b35
00000320: 0667 e437 0ff5 7238 29a8 3139 5b5c 563a
00000330: 9a6e dc3a 96be e237 f231 1238 b277 8f38
00000340: e038 013a 3acc c73a 8264 8e36 8681 5f36
00000350: 0ef0 6136 001e 3d39 d86d b43a 9e94 a536
00000360: 3287 8b35 6f4b 5435 21e5 1039 8890 b23a
00000370: 4718 5338 6ca7 2b38 7c64 2938 9afc 9d39
00000380: 5b46 983a efe0 aa3a 4033 453a 868c bf39
00000390: 5c95 4f39 16ff 3f39 f770 9e3a ef11 163a
000003a0: f0c8 9739 9d0c 9b38 6884 5d39 8dc6 db3a
000003b0: e7f5 593a 68d1 143a 4e0f ca39 128e 8c3a
000003c0: 5a63 323b 5733 1b3b a337 1d3b ef00 253b
000003d0: 3612 793b ad93 7e3b e623 913b dba2 953b
000003e0: 6b61 9e3b 9e24 983b

exp_avg f4 [10]
0.00571267 2.9603753e-09 0.058045708 0.13614462 0.03167747 9.008655e-05 4.9736584e-09 3.9441472e-09
0.06639804 -0.03523574
00000000: 5931 bb3b 796f 4b31 56c1 6d3d 7f69 0b3e
00000010: 3cc0 013d d9ec bc38 c3e4 aa31 1685 8731
00000020: b2fb 873d 5a53 10bd

exp_avg_sq f4 [10]
0.009388851 2.6206885e-06 0.012719494 0.01656804 0.0059120688 4.6970043e-05 4.2301504e-06 3.8283147e-06
0.0024402877 0.009372139
00000000: b2d3 193c 16df 2f36 6d65 503c b3b9 873c
00000010: 07ba c13b b301 4538 b7f0 8d36 f974 8036
00000020: 3ced 1f3b 9a8d 193c

exp_avg f4 [20, 10, 5, 5]
9.569296e-11 6.2259836e-11 6.417938e-11 7.4690296e-11 9.341355e-11 3.511017e-11 4.7697957e-11 4.85178e-11
6.3170545e-11 6.1484755e-11 6.5619475e-11 4.8986093e-11 2.9556677e-11 6.081232e-11 6.098794e-11 7.5711395e-11
5.1493376e-11 5.1932743e-11 7.177095e-11 5.086644e-11 5.615401e-12 1.2197294e-11 2.6130655e-11 2.204284e-11
2.6035608e-11 9.805561e-12 2.7962648e-11 4.6867905e-11 3.488678e-11 2.486625e-11 4.1886862e-11 1.6956528e-11
2.4369987e-11 5.838792e-11 3.7372532e-11 3.2676088e-11 -7.627321e-12 1.6268646e-11 5.328312e-11 2.4585958e-11
5.5968867e-12 -1.5512416e-11 3.444364e-11 5.2916976e-11 9.060005e-12 3.9695556e-12 4.6718476e-11 4.576158e-11
3.267159e-11 1.15102095e-11 6.8914444e-11 5.1215244e-11 4.081092e-11 2.8344858e-11 3.587137e-11 2.1053879e-11
1.1109488e-11 2.4659434e-11 3.520856e-11 6.3388676e-11 3.215207e-11 2.1768231e-11 1.7769888e-11 2.7044101e-11
3.571817e-11 4.8704218e-11 8.3622255e-11 5.6229726e-11 3.392548e-11 3.8776992e-11 -4.5706308e-12 -9.636854e-13
2.7048001e-11 2.012914e-11 2.9360864e-11 2.7331365e-10 2.2618604e-10 1.5832566e-11 5.457369e-12 2.4557376e-10
2.7171895e-11 4.0403465e-11 2.4739513e-11 1.6895672e-11 3.6462354e-11 5.4284487e-11 2.5398239e-11 1.4890875e-11
2.4144863e-11 3.7664455e-11 4.3209485e-11 9.446788e-12 1.666675e-11 8.0541e-12 2.4301726e-11 1.3973258e-11
1.0433423e-14 4.5502365e-12 1.7059016e-11 2.2881311e-11 0.0 6.020999e-10 5.6034777e-10 1.2155182e-10
0.0 7.042303e-10 6.6338846e-10 4.5665098e-14 0.0 0.0 3.9627712e-10 2.828713e-13
0.0 0.0 0.0 2.1080613e-12 5.0247556e-13 8.8194584e-11 0.0 2.497967e-10
0.0 3.525374e-10 5.080667e-10 7.1834784e-14 0.0 2.589919e-11 3.356262e-11 2.2968828e-11
4.2796117e-11 4.555466e-11 1.1779664e-11 2.691736e-11 2.1838408e-11 1.7638332e-11 2.6432283e-11 1.0418146e-11
5.956411e-12 -7.976707e-12 1.9986358e-11 2.1837431e-11 3.2420934e-11 4.6136192e-11 4.4767186e-11 3.407854e-11
2.5771205e-11 3.7417607e-11 6.193169e-11 5.27057e-11 4.2938614e-11 2.4602462e-11 9.320435e-12 2.3837925e-11
4.335586e-11 1.4160999e-11 1.797137e-11 -2.1089706e-12 1.7416662e-11 -5.465365e-12 1.0549427e-11 2.2327314e-11
1.5629045e-11 -7.501005e-12 -1.1414258e-11 3.0648456e-11 2.678324e-11 3.925532e-11 3.4118586e-11 3.914987e-11
4.794985e-11 2.309367e-11 -1.6289027e-11 3.9649627e-11 4.4392143e-11 2.1955573e-11 2.1707523e-11 -2.4076119e-12
8.692425e-12 1.5085542e-11 0.0 7.222338e-12 7.0929573e-12 5.526635e-13 4.1694456e-12 9.405378e-12
9.985561e-12 9.222542e-12 -6.491131e-12 -4.509148e-12 1.4862578e-11 -2.0741356e-12 -5.2621865e-12 3.2929456e-12
-1.1555397e-12 1.3023497e-11 4.3299565e-14 -7.616259e-12 1.588532e-11 1.1895095e-11 2.7718562e-11 1.2229804e-11
7.114629e-11 5.202803e-11 3.32576e-11 3.5870706e-11 2.8816938e-11 1.855986e-11 2.7730143e-11 4.7386338e-11
2.7868189e-11 4.385635e-11 3.2591235e-11 7.66081e-11 1.9701142e-11 2.1627351e-11 5.7868554e-11 5.5142883e-11
1.1555112e-10 6.2876926e-11 6.053087e-11 6.163288e-11 6.858232e-11 4.0553994e-11 2.4529247e-11 3.5853e-11
3.2279745e-11 7.523416e-10 1.2336739e-09 1.0496797e-09 6.3255756e-10 1.2637252e-10 1.0647829e-09 8.3304763e-10
6.5673705e-10 6.364265e-10 2.7154737e-10 1.582244e-10 0.0 0.0 0.0 3.9573397e-11
0.0 0.0 0.0 4.5417148e-10 7.413182e-10 1.0544124e-09 1.2908664e-09 1.6873057e-10
8.920255e-12 1.15083665e-10 1.6158302e-09 1.0430284e-09 3.0986236e-10 -3.2939607e-10 3.261235e-09 7.7286766e-10
00000000: 596e d22e 2ce9 882e c721 8d2e e63e a42e
00000010: 276b cd2e 8a6a 1a2e 20c7 512e 3062 552e
00000020: dbe9 8a2e d734 872e 7b4c 902e 7071 572e
00000030: dcfd 012e 4bba 852e 281d 862e ba7d a62e
00000040: 6378 622e 1267 642e 74d3 9d2e 85b6 5f2e
00000050: 0993 c52c bb93 562d 01d9 e52d 10e4 c12d
00000060: fa02 e52d 5280 2c2d 49f6 f52d 9220 4e2e
00000070: 066f 192e d1b9 da2d 6a38 382e b526 952d
00000080: 555c d62d 7a65 802e bb5d 242e 01b6 0f2e
00000090: 662e 06ad bc19 8f2d 7657 6a2e a842 d82d
000000a0: 46ec c42c db72 88ad 177c 172e 38bb 682e
000000b0: a362 1f2d 94aa 8b2c 5478 4d2e f542 492e
000000c0: f1b0 0f2e 607d 4a2d 628b 972e 3d3f 612e
000000d0: 037d 332e f252 f92d 92c3 1d2e 1f31 b92d
000000e0: b070 432d 1ce8 d82d 50d9 1a2e a764 8b2e
000000f0: 0368 0d2e b379 bf2d 3b4e 9c2d e7e1 ed2d
00000100: 1617 1d2e 1334 562e 25e3 b72e 0b4d 772e
00000110: b234 152e 038b 2a2e 95d0 a0ac 6da0 87ab
00000120: afea ed2d cb0e b12d 6521 012e 7a41 962f
00000130: b6b1 782f c543 8b2d 9c03 c02c 6f01 872f
00000140: ab01 ef2d 42b2 312e 6e9c d92d ac9d 942d
00000150: f65c 202e e6be 6e2e c067 df2d 45fb 822d
00000160: 6661 d42d 68a6 252e 8e09 3e2e 8d30 262d
00000170: 2f9a 922d 71b0 0d2d 9fc2 d52d f6d1 752d
00000180: acf3 3b28 e318 a02c 7d0d 962d 2244 c92d
00000190: 0000 0000 0481 2530 f806 1a30 cca5 052f
000001a0: 0000 0000 cd93 4130 d059 3630 46a8 4d29
000001b0: 0000 0000 0000 0000 0cdb d92f 0d3e 9f2a
000001c0: 0000 0000 0000 0000 0000 0000 7557 142c
000001d0: 2e6f 0d2b 23f1 c12e 0000 0000 c353 892f
000001e0: 0000 0000 3acf c12f 04a8 0b30 efc1 a129
000001f0: 0000 0000 cbcf e32d 279c 132e 3409 ca2d
00000200: 2538 3c2e fd59 482e e43a 4f2d 82c4 ec2d
00000210: b917 c02d fe25 9b2d 3680 e82d 2947 372d
00000220: 9592 d12c e553 0cad 47cd af2d 8615 c02d
00000230: ba96 0e2e bce8 4a2e 5fe3 442e 06e1 152e
00000240: 98af e22d 7b90 242e 7130 882e 58cd 672e
00000250: 95d8 3c2e d267 d82d 82f7 232d 3cae d12d
00000260: 5cae 3e2e 781f 792d ed13 9e2d d667 14ac
00000270: d632 992d a24b c0ac 6596 392d a464 c42d
00000280: 7b79 892d 86f5 03ad 40cd 48ad 18cb 062e
00000290: 7f96 eb2d 90a5 2c2e 1d0e 162e d62e 2c2e
000002a0: bbe2 522e 5222 cb2d a147 8fad 8361 2e2e
000002b0: 1c3d 432e 8e1f c12d fff0 be2d ae6b 29ac
000002c0: 34eb 182d 9fb1 842d 0000 0000 0a1d fe2c
000002d0: ae8f f92c 9a8f 1b2b 07b3 922c 0f76 252d
000002e0: f8aa 2f2d a33e 222d e962 e4ac cba6 9eac
000002f0: 8dbb 822d 4ef4 11ac 9025 b9ac 6fb8 672c
00000300: b5a0 a2ab 9e1c 652d 0001 4329 95fc 05ad
00000310: 90ba 8b2d bf42 512d a7d0 f32d 2426 572d
00000320: cd73 9c2e 5bd2 642e bb44 122e d3c2 1d2e
00000330: fa79 fd2d 1741 a32d bbea f32d 4668 502e
00000340: 9521 f52d dce1 402e 7856 0f2e 8776 a82e
00000350: 074b ad2d 773c be2d 3382 7e2e 5e85 722e
00000360: 7f19 fe2e 9044 8a2e da1b 852e 3a88 872e
00000370: 6ad0 962e bd5b 322e f4c2 d72d e4ae 1d2e
00000380: c3f7 0d2e 55cd 4e30 0b8e a930 5244 9030
00000390: 48e0 2d30 b4f2 0a2f b857 9230 84fc 6430
000003a0: c385 3430 89f0 2e30 e548 952f 36f8 2d2f
000003b0: 0000 0000 0000 0000 0000 0000 af0b 2e2e
000003c0: 0000 0000 0000 0000 0000 0000 f4ae f92f
000003d0: a1c5 4b30 d7ea 9030 536a b130 6f85 392f
000003e0: 42ed 1c2d 5812 fd2e f913 de30 4d5a 8f30
000003f0: 4059 aa2f 6016 b5af 411c 6031 ba71 5430
