lightning_logs/version_9/checkpoints/epoch=2-step=12.ckpt (torch, 273474 bytes, 24 tensors)

conv1.weight f4 [10, 1, 5, 5]
0	0xbe4b5900	-0.1985817
1	0x3cb2a3c4	0.021806605
2	0x3e016b58	0.12638605
3	0xbe670568	-0.22560656
4	0x3dd02d5e	0.10164903
5	0xbd754c94	-0.059887484
6	0x3db6f0ca	0.089326456
7	0xbcd7501e	-0.02628332
8	0x3d39c2b4	0.0453517
9	0xbd9c876a	-0.07643016
10	0x3d2ddb7e	0.042445652
11	0xbda1df99	-0.07903976
12	0xbe1dd6db	-0.15413992
13	0xbc51e3cb	-0.012810658
14	0xbe1cb674	-0.15303975
15	0xbe10423f	-0.14087771
16	0xbe3eb6af	-0.18624376
17	0x3d8b12ac	0.06790671
18	0xbe666b5e	-0.22501895
19	0xbe236561	-0.15956642
20	0xbe32a8c2	-0.17447188
21	0xbe67b84d	-0.22628899
22	0xbd4243f4	-0.047428086
23	0xbe8ae615	-0.27128664
24	0x3dcc468b	0.099743925
25	0xbe66e8a2	-0.2254968
26	0x3dc698e1	0.09697128
27	0xbcdb1298	-0.026742265
28	0xbe02b87a	-0.12765685
29	0x3c9e0d42	0.019293431
30	0xbcdbca4e	-0.026829865
31	0x3dcecd97	0.10097807
32	0xbd1e24bf	-0.038609263
33	0xbe2d6140	-0.16931629
34	0xbd536297	-0.051607694
35	0xbe22f72f	-0.15914606
36	0xbcaac920	-0.020847857
37	0x3d9c7c0b	0.07640847
38	0x3c19d3a8	0.009388842
39	0xbe42e7c5	-0.19033726
40	0x3c07cdfb	0.008288856
41	0xbd8f25bb	-0.069896184
42	0xba104e38	-0.00055048196
43	0xbe654d53	-0.22392778
44	0xbe992a67	-0.29915163
45	0xbe38715d	-0.18011995
46	0xbe822b2d	-0.25423566
47	0x3dd45b9a	0.10369034
48	0xbb49e840	-0.0030808598
49	0x3ca4b2c6	0.020104777
50	0xbcef3ce0	-0.029203832
51	0xbdc47498	-0.09592551
52	0x3d9288b8	0.07154983
53	0xbe56cb76	-0.20976052
54	0xbdce0bdc	-0.10060856
55	0xbe6398de	-0.22226283
56	0xbd818fcf	-0.063262574
57	0xbe39d117	-0.18146168
58	0xbd342adb	-0.043986183
59	0xbe1c3f1f	-0.15258454
60	0x3d16d1d4	0.0368212
61	0xbe77a545	-0.24184139
62	0xbe6d00e6	-0.23144874
63	0xbe79a65d	-0.24379869
64	0x3d68d316	0.056841932
65	0xbd7badeb	-0.061445158
66	0x3d80d9ac	0.062915176
67	0xbe91de48	-0.284899
68	0xbea664e3	-0.32498845
69	0xbe8d48c9	-0.27594593
70	0xbe836b18	-0.25667644
71	0xbd3fe00c	-0.046844527
72	0xbd5db3a4	-0.054126397
73	0x3d3ba719	0.045813654
74	0xbe6ad4c5	-0.22932728
75	0xbe524940	-0.20535755
76	0x3d163a65	0.036676783
77	0xbe2193f1	-0.15779091
78	0x3d0b8b7d	0.034068573
79	0xbe0ebcb9	-0.1393918
80	0x3be79176	0.007066901
81	0xbe878ccf	-0.26474616
82	0xbe33d8f2	-0.17563227
83	0xbc8846b3	-0.016635275
84	0xbd06ea8c	-0.032938525
85	0xbe2a1186	-0.16608247
86	0x3d3d73f1	0.04625315
87	0x3d7d773e	0.061881296
88	0xbe529f5e	-0.20568606
89	0xbe29d48e	-0.1658499
90	0x3d756afb	0.059916478
91	0xbe12ccb4	-0.143359
92	0xbe09b728	-0.13448775
93	0xbe7ca9e0	-0.24674177
94	0xbe5dd629	-0.21663727
95	0xbdac7c05	-0.08422092
96	0xbdd69a5d	-0.10478661
97	0xbe56dee2	-0.2098346
98	0xbd7c50a2	-0.061600335
99	0xbe4eb307	-0.20185481
100	0xbe51c76e	-0.20486233
101	0xbe8664ec	-0.26248872
102	0xbe6a9998	-0.22910154
103	0xbe3dfbc3	-0.1855307
104	0x3e097339	0.1342286
105	0x3b6450e4	0.0034838254
106	0x3ca3fd16	0.020018142
107	0xbdc98238	-0.098392904
108	0xbe7ea4fe	-0.24867627
109	0xbe37f6a8	-0.17965186
110	0xbd64a28d	-0.055819083
111	0xbe744b8e	-0.23856947
112	0xbdb1c47a	-0.08680053
113	0xbe67f0fd	-0.22650523
114	0xbdf6b4d8	-0.12046212
115	0xbe6a8c33	-0.22905044
116	0xbde5e4dc	-0.11225292
117	0xbe7f6f67	-0.2494484
118	0xbe894980	-0.2681389
119	0xbe64edcf	-0.22356342
120	0xbe534f99	-0.20635833
121	0xbe77c5e5	-0.24196585
122	0x3d971e76	0.07378857
123	0xbe052860	-0.13003683
124	0x3db93765	0.09043769
125	0x3c12575e	0.008931963
126	0xbe8982d3	-0.26857623
127	0x3d954eb0	0.07290399
128	0xbdd5e73b	-0.10444494
129	0xbde6af8f	-0.11263954
130	0xbe4cf3b6	-0.20014843
131	0xbe827686	-0.2548105
132	0x3a110288	0.0005531688
133	0xbdba9330	-0.09110105
134	0x3d223e23	0.03961004
135	0xbe5df7aa	-0.21676508
136	0x3dccdea2	0.10003401
137	0xbe4e149c	-0.2012505
138	0xbdad9265	-0.08475188
139	0xbbf45b79	-0.0074571935
140	0x3d3e49bc	0.046457037
141	0x3ddef639	0.10886807
142	0x3e04442e	0.12916633
143	0xbe5bf5a6	-0.21480426
144	0xbc15abe5	-0.009135221
145	0xbe0c7e98	-0.13720167
146	0xbd964a77	-0.07338422
147	0xbe503f2a	-0.20336595
148	0x3df90af0	0.12160289
149	0xbe704d24	-0.23466927
150	0x3c6af733	0.014341163
151	0xbcccd22b	-0.02500256
152	0x3c139430	0.009007499
153	0xbe533530	-0.20625758
154	0x3e0c58e3	0.13705783
155	0xbca98812	-0.020694766
156	0xbd0512c1	-0.03248859
157	0xbe744c44	-0.23857218
158	0xbcc46476	-0.023973685
159	0xbe056d2b	-0.13029926
160	0xbe1e44c9	-0.15455927
161	0x3de4914b	0.11160525
162	0xbd6ce0ab	-0.057831448
163	0xbe58e4c0	-0.21181011
164	0xbe2387eb	-0.15969817
165	0xbd92d6f2	-0.07169904
166	0x3c10352c	0.00880174
167	0xbe1775bd	-0.14791007
168	0xbe5eae63	-0.21746211
169	0xbe388ea7	-0.18023168
170	0xbe56139b	-0.20905916
171	0xbce72c99	-0.028219508
172	0x3d63f947	0.05565765
173	0xbe98a4dd	-0.2981328
174	0xbd9d3573	-0.0767621
175	0x3a8ed99c	0.0010898593
176	0xbd838bff	-0.064231865
177	0xbe04f1d5	-0.12982877
178	0x3b894b2c	0.0041898694
179	0x3b88f3f6	0.004179473
180	0xbcc667ac	-0.024219356
181	0xbdc13bf1	-0.09435261
182	0xbde36616	-0.11103456
183	0xbd9fef96	-0.07809369
184	0xbe0d4131	-0.137944
185	0xbe24d86e	-0.16098186
186	0x3cdc66e0	0.026904523
187	0x3d945fb6	0.07244818
188	0xbdf4b52f	-0.119486205
189	0xbe1acbda	-0.15116826
190	0xbdd1141f	-0.10208916
191	0xbde89e4c	-0.11358318
192	0xbd514374	-0.05108972
193	0xbd2308b7	-0.039803233
194	0xbe93382d	-0.28753796
195	0xbe380347	-0.1797
196	0x3d884fa2	0.06655814
197	0xbca24efc	-0.019813053
198	0xbd819544	-0.06327298
199	0xbe34ff37	-0.17675482
200	0xbe926aee	-0.28597206
201	0xbe9a5c66	-0.3014862
202	0xbe2ecf18	-0.17071187
203	0xbd1bc229	-0.038026962
204	0x3d9bab73	0.07601061
205	0xbcfbea0e	-0.030751254
206	0xbe9791ec	-0.29603517
207	0xbe6b7127	-0.22992383
208	0xbe102ed6	-0.14080366
209	0x3e015b70	0.12632537
210	0xbdc62fb5	-0.09677068
211	0xbe2954af	-0.1653621
212	0x3c2636cb	0.0101449
213	0xbe42d661	-0.19027092
214	0xbe87fbcd	-0.26559296
215	0x3c1378cc	0.009000968
216	0xbe3050e6	-0.1721836
217	0xbdc644b0	-0.0968107
218	0xbe828c5e	-0.25497717
219	0x3d258cb0	0.040417373
220	0x3b571158	0.0032816734
221	0xbcdb1e10	-0.026747733
222	0xbe5be0be	-0.21472451
223	0xbeaf38b2	-0.34222943
224	0xbea44717	-0.32085487
225	0x3dfa673c	0.12226722
226	0x3da8d81a	0.08244343
227	0x3e2cfee7	0.16894113
228	0x3dca76d8	0.09885949
229	0x3d1b6586	0.037938617
230	0xbda9524c	-0.0826765
231	0xbe5a9973	-0.21347599
232	0xbe684a63	-0.22684626
233	0xbe7b8660	-0.24562979
234	0x3cb513e0	0.022104204
235	0xbe13a01c	-0.14416546
236	0xbd988902	-0.07448007
237	0xbe1b52e9	-0.15168346
238	0xbd69ef2c	-0.057112858
239	0xbe3b5f44	-0.1829806
240	0xbe7c8a4d	-0.24662133
241	0x3cc56f29	0.024100857
242	0xbdc6de86	-0.09710412
243	0x3db9b141	0.090670116
244	0xbe1b3db6	-0.1516026
245	0xbe597a61	-0.2123809
246	0xbd9c41f4	-0.07629767
247	0xbe093c88	-0.13401997
248	0xbdcc9644	-0.099895984
249	0xbe8bea77	-0.2732732

conv1.bias f4 [10]
0	0x3d2e1281	0.042498115
1	0xbe782d8f	-0.24236129
2	0xbce2b326	-0.027673315
3	0x3d403387	0.04692414
4	0x3d5d4de8	0.054029375
5	0xbe510bcd	-0.20414658
6	0x3d5bf1e2	0.053697474
7	0xbe489cbd	-0.19591041
8	0xbd90de15	-0.07073609
9	0x3e4ed7d0	0.20199513

conv2.weight f4 [20, 10, 5, 5]
0	0x3c5aac21	0.013346703
1	0x3e009140	0.12555408
2	0x3cf30601	0.029665949
3	0xbcd26fe9	-0.025688129
4	0xbd9a379f	-0.0753014
5	0x399aace0	0.0002950197
6	0x3dda21e2	0.10650994
7	0x3d51fd83	0.05126716
8	0xbd7d3e9a	-0.06182728
9	0xbdd0d616	-0.10197084
10	0xbc192cdc	-0.009349074
11	0x3cfbb958	0.030728027
12	0xbd83f8f6	-0.0644397
13	0xbe3fba9e	-0.18723533
14	0x3bef5d14	0.007304797
15	0xbd702b90	-0.058635294
16	0xbdb03418	-0.08603686
17	0xbe43df2f	-0.19128107
18	0x3d4b340a	0.049610175
19	0x3dbfc2ec	0.0936335
20	0xbe1e46db	-0.15456717
21	0xbd9556c4	-0.0729194
22	0x3e04d5f9	0.12972249
23	0x3dc8c42c	0.09803042
24	0xbce69e18	-0.028151557
25	0x3e09d451	0.13459899
26	0xbd676744	-0.056494966
27	0xbe162667	-0.14663087
28	0x3e495c9d	0.19664235
29	0x3da886b2	0.08228816
30	0xbddd02e3	-0.10791566
31	0xbd222f56	-0.039595924
32	0xbde49755	-0.11161677
33	0x3e0cee66	0.13762817
34	0xbc911863	-0.017711824
35	0xbe364a89	-0.1780187
36	0xbe17bbef	-0.14817785
37	0xbd705395	-0.05867346
38	0x3da6a9bd	0.08137844
39	0xbc9e5e95	-0.01933221
40	0xbe3be26e	-0.18348095
41	0xbe1e8aa6	-0.15482578
42	0xbd2846fa	-0.041083314
43	0x3e09a48d	0.13441677
44	0xbd285dc7	-0.041105058
45	0x3e097fa0	0.13427591
46	0x3d21612b	0.039399307
47	0x3d969ee6	0.07354526
48	0x3e72d47c	0.23713869
49	0xbd61f2bd	-0.055163134
50	0x3d5c70d2	0.05381853
51	0x3dd4b491	0.10386003
52	0xbe0d1b80	-0.13780022
53	0xbe36c242	-0.17847541
54	0x3d89d7e2	0.067306295
55	0x3d0e176a	0.0346903
56	0x3d1ed82b	0.038780373
57	0x3c7f1304	0.0155684985
58	0xbdb2e634	-0.08735314
59	0xbdb2a778	-0.087233484
60	0x3cb731f4	0.022362687
61	0xbd9aae58	-0.07552785
62	0xbe1bb5cc	-0.15206069
63	0xbe2942f3	-0.16529445
64	0x3dc3b82a	0.09556611
65	0x3dc5928c	0.09647092
66	0xbe066eaf	-0.1312816
67	0xbe3124ea	-0.17299238
68	0x3db6aea1	0.089200266
69	0x3dd4ea14	0.10396209
70	0xbdf10a50	-0.11769545
71	0xbd8e3f89	-0.06945712
72	0xbe07d204	-0.13263708
73	0x3e0d097c	0.13773149
74	0x3d9b14b9	0.07572312
75	0x3c8795f0	0.016550988
76	0x3d96add9	0.073573776
77	0xbdf98b35	-0.12184755
78	0xbe320505	-0.17384727
79	0x3d85be3e	0.065304264
80	0x3e01e5f5	0.12685378
81	0xbafac5c8	-0.001913243
82	0xbdd369f0	-0.1032294
83	0xbdcc58f9	-0.09977908
84	0x3cb64f2d	0.02225455
85	0x3df2c441	0.11853839
86	0x3d731f15	0.059355814
87	0xbd84a902	-0.06477548
88	0xbcdce456	-0.026964348
89	0x3dbe0622	0.092785135
90	0x3da04527	0.0782569
91	0xbd59b32b	-0.053149384
92	0xbd291c69	-0.04128686
93	0x3e2d9672	0.16951922
94	0x3dbbfdf4	0.09179297
95	0xbe1721ea	-0.14759031
96	0x3cced0e9	0.0252461
97	0x3db4cd5d	0.088282324
98	0x3e126b28	0.1429869
99	0x3d2fe192	0.04293973
100	0xbd5af4c8	-0.053456098
101	0xbd6784fd	-0.056523312
102	0xbe12fd37	-0.14354406
103	0xbe0101e9	-0.12598385
104	0xbd79c22f	-0.060976204
105	0x3da7503a	0.08169599
106	0x3d1d0c46	0.038341783
107	0x3d880348	0.06641251
108	0xbe2dbaf4	-0.16965848
109	0xbe2c4506	-0.16823205
110	0x3db97783	0.09055998
111	0x3e2bb6d0	0.16768956
112	0x3e1482ac	0.14502972
113	0xbe267e25	-0.16259058
114	0xbd17fdb4	-0.037107185
115	0x3dee7160	0.11642718
116	0x3d2379bb	0.039911013
117	0xbd85cf8d	-0.06533728
118	0xbe0fb557	-0.1403402
119	0x3dad3b0e	0.084585294
120	0xbdebac8f	-0.11507522
121	0xbdf5f427	-0.12009459
122	0xbd6b9e8b	-0.057524245
123	0xbcaf8313	-0.021424806
124	0x3dcdcc10	0.100486875
125	0x3cdeed76	0.02721284
126	0xbda1aeb3	-0.07894649
127	0xbd18f593	-0.037343573
128	0x3cc3d490	0.023905069
129	0x3dc9448a	0.09827526
130	0xbe3bddb9	-0.18346299
131	0xbde06a93	-0.109578274
132	0x3dcefa34	0.10106316
133	0xbd793ce4	-0.060849085
134	0xbd8aa82e	-0.06770359
135	0xbcc36179	-0.02385019
136	0xbd079d7f	-0.033109184
137	0xbcb32986	-0.021870386
138	0xbddaf301	-0.106908806
139	0xbd8393e0	-0.06424689
140	0xbd6fffd6	-0.058593594
141	0x3d4dcaf2	0.05024237
142	0x3cccb9fa	0.024991024
143	0x3e33b120	0.17548037
144	0x3dab9f4e	0.08379994
145	0x3da3afd8	0.07992524
146	0x3e3dd18c	0.18536967
147	0x3dc6ea4c	0.09712657
148	0x3bf28308	0.007400874
149	0xbd27d3e3	-0.040973555
150	0x3dcb80e0	0.0993669
151	0x3e16ef30	0.1473968
152	0xbe08437b	-0.13306992
153	0xbb644eaa	-0.0034836926
154	0x3d4786b1	0.048712436
155	0x3d828de7	0.06374722
156	0x3d233700	0.039847374
157	0xbd8927c4	-0.06697038
158	0xbcf4dde8	-0.02989097
159	0x3d0849b8	0.03327343
160	0x3d37b53e	0.04485058
161	0xbd9550c0	-0.072907925
162	0xbe3ba2f9	-0.18323888
163	0xbc2ca34a	-0.010536978
164	0x3d9a5df8	0.07537454
165	0xbc8dee32	-0.017325494
166	0xbe377cd2	-0.17918709
167	0xbe0d4fe2	-0.13800004
168	0x3cd3670e	0.025805976
169	0x3e612e05	0.21990211
170	0xbe3a6471	-0.18202378
171	0xbe2084d1	-0.15675665
172	0xbc3356c0	-0.010945976
173	0x3e03f139	0.12884988
174	0x3dcee637	0.10102504
175	0x3e29dccf	0.16588138
176	0x3dda0b7e	0.10646723
177	0x3b86287f	0.004094183
178	0x3e4f1b8b	0.2022535
179	0x3dc964c3	0.09833672
180	0xbd89ee54	-0.067349106
181	0x3ae09a26	0.0017135784
182	0xbcc4f95c	-0.024044685
183	0x3dbe3eb6	0.09289305
184	0x3c886a6c	0.016652308
185	0xbe2cbf79	-0.16869916
186	0xbe0a97f8	-0.13534534
187	0x3c0c3142	0.008556666
188	0x3dfe2e9c	0.12411234
189	0xbdc6f254	-0.09714189
190	0xbd0580f5	-0.032593686
191	0xbd9320a9	-0.07183964
192	0x3e047757	0.1293615
193	0x3dc05ab5	0.09392301
194	0xbdd57388	-0.104224265
195	0xbc92d919	-0.017925786
196	0x3df18655	0.117932
197	0x3d94d683	0.07267477
198	0xbd53300d	-0.051559497
199	0xbe1e6341	-0.1546755
200	0xbcfa0049	-0.030517714
201	0xbd682723	-0.05667795
202	0x3e072c22	0.13200429
203	0xbd629671	-0.055319253
204	0x3e5064e6	0.2035099
205	0x3d8a4bd2	0.06752743
206	0x3d961942	0.07329036
207	0x3d44be7b	0.04803322
208	0xbdf12e9c	-0.11776468
209	0xbc819328	-0.01581724
210	0xbce02076	-0.027359229
211	0xbde92f61	-0.1138599
212	0xbe0f5c94	-0.1400016
213	0x3c3bdb78	0.0114659
214	0x3da1b24e	0.07895337
215	0xbd603e00	-0.054746628
216	0xbe2eccc4	-0.170703
217	0xbd0fc538	-0.03510019
218	0xbd115371	-0.035479967
219	0xbdabf81a	-0.08396931
220	0xbe02dfec	-0.12780732
221	0xbd286a2b	-0.041116875
222	0x3e3ef35e	0.18647525
223	0xbd069e0e	-0.032865576
224	0xbda93f0b	-0.082639776
225	0x3e17d2f5	0.14826567
226	0x3e057935	0.13034518
227	0x3c86a868	0.016437724
228	0xbe2dd47b	-0.16975586
229	0xbda9b6a5	-0.0828679
230	0x3df4f0c0	0.11959982
231	0x3e1a8eca	0.15093532
232	0xbcf5fb77	-0.030027134
233	0xbe1f2d6c	-0.15544671
234	0xbe111925	-0.14169748
235	0x3d1dd154	0.03852971
236	0xbc98a8d8	-0.018635198
237	0xbdb80bea	-0.089866474
238	0xbda7c296	-0.08191411
239	0x3cadaf77	0.021201832
240	0xbd817e44	-0.063229114
241	0xbdfa084c	-0.12208614
242	0xbe23b7d1	-0.15988089
243	0xbb33c85e	-0.002743266
244	0x3df7c150	0.12097418
245	0xbe2507b8	-0.16116226
246	0xbd9bf779	-0.07615561
247	0xbe327aec	-0.17429703
248	0x3d87f2cc	0.06638107
249	0x3d9c6707	0.076368384
250	0x3c63c493	0.013901847
251	0xbdd8df04	-0.10589412
252	0x3bbce91c	0.0057650935
253	0xbd4b2a18	-0.04960069
254	0xbd85482c	-0.06507906
255	0xbbe2f402	-0.0069260607

conv2.bias f4 [20]
0	0x3d2e18f9	0.042504285
1	0xbdc50a03	-0.0962105
2	0xbdae5be4	-0.085136205
3	0xbdfa9197	-0.122348
4	0xbda024ae	-0.07819496
5	0xbd4df35f	-0.050280925
6	0xbd28055a	-0.04102073
7	0xbd633959	-0.055474613
8	0x3d965110	0.0733968
9	0xbe177e2d	-0.14794226
10	0xbdd3231f	-0.10309433
11	0xbe1a7ca5	-0.1508661
12	0x3d2ad7f2	0.041709848
13	0xbd7532ec	-0.059863016
14	0xbdec1fa7	-0.11529475
15	0xbcbf4908	-0.023350254
16	0xbd2b85b0	-0.04187554
17	0xbd23ad0e	-0.03995996
18	0xbddafaee	-0.10692392
19	0xbe0bfea0	-0.1367135

fc1.weight f4 [50, 320]
0	0xbdb06a0e	-0.08613978
1	0xbe0d6087	-0.13806354
2	0xbdd9ad80	-0.106287956
3	0x3cc4aad3	0.024007237
4	0xbe4588b2	-0.19290426
5	0xbc0e3451	-0.008679465
6	0x3e17ac0a	0.14811721
7	0x3c7184d7	0.014741144
8	0x3cc1e118	0.023666903
9	0x3d541fb9	0.051788066
10	0x3d906c59	0.07051916
11	0xbdcc8c4b	-0.09987696
12	0xbce8b09d	-0.028404528
13	0xbaa1f063	-0.0012354966
14	0xbdc4c51e	-0.096079096
15	0xbd0dd127	-0.03462329
16	0x3d3522a9	0.044222508
17	0x3db005c6	0.08594851
18	0x3dfb8a0c	0.1228219
19	0x3e08694c	0.13321418
20	0x3db8c9a4	0.09022835
21	0x3e158607	0.14601909
22	0x3dcca71e	0.099928126
23	0x3de5e3e7	0.112251095
24	0x3d8d974b	0.069136225
25	0x3d9fdd29	0.07805855
26	0x3dce7086	0.10080056
27	0x3dc249f9	0.094867654
28	0x3df75395	0.12076489
29	0x3d9758dd	0.07389996
30	0x3d954ce6	0.07290058
31	0x3d379488	0.044819385
32	0x3d86da48	0.065846026
33	0x3ddd2760	0.10798526
34	0xbd383906	-0.044976257
35	0x3d0f8d59	0.03504691
36	0x3d8f797a	0.07005592
37	0xbd613161	-0.054978732
38	0x3d7580a5	0.059937138
39	0x3e02ceb2	0.1277416
40	0x3dbd3c8e	0.092400655
41	0x3d1a0baa	0.03760878
42	0x3dcc0598	0.099620044
43	0x3d6812b7	0.056658473
44	0xbda266c1	-0.07929755
45	0x3d242898	0.040077776
46	0xbd1a2a34	-0.037637904
47	0x3d87d00c	0.06631479
48	0xbd5eda5e	-0.05440747
49	0xbdf23913	-0.11827292
50	0x3d3149bd	0.043283213
51	0xbd8de95d	-0.06929276
52	0xbd67a8fb	-0.056557637
53	0xbdc79f14	-0.097471386
54	0x3d2adf9e	0.041717164
55	0xbdd80d30	-0.1054939
56	0xbe03fdfa	-0.12889853
57	0xbd9d085d	-0.07667611
58	0xbda61e78	-0.0811128
59	0x3e0419a6	0.12900409
60	0xbd0b2a3c	-0.033975825
61	0xbdfba5cc	-0.122874826
62	0xbd58969b	-0.052878004
63	0xbd6eec44	-0.05833079
64	0xbda70eee	-0.081571445
65	0xbe14746b	-0.14497535
66	0xbe040756	-0.12893423
67	0x3dea887d	0.11451814
68	0xbd472bef	-0.048625883
69	0xbd76f4a8	-0.060291916
70	0xbdaddfc3	-0.08489945
71	0xbdfe480d	-0.12416086
72	0xbe0ea11b	-0.13928644
73	0xbdfa1547	-0.122110896
74	0xbdb7cd5b	-0.08974715
75	0xbda99288	-0.08279902
76	0xbd41f51e	-0.047352903
77	0xbe059e1f	-0.130486
78	0x3df47c01	0.11937714
79	0xbd2f5cdc	-0.042813167
80	0x3d225c44	0.039638773
81	0x3d775373	0.060382318
82	0x3d98b6e2	0.07456757
83	0x3dcea184	0.100894004
84	0x3e0f9bae	0.14024231
85	0x3dd007dc	0.10157749
86	0x3e02e048	0.12780869
87	0x3e0aa634	0.13539964
88	0x3e0944c4	0.13405138
89	0xbe10c020	-0.1413579
90	0xbe01bb25	-0.12669046
91	0x3db12d42	0.0865121
92	0x3db8197f	0.08989238
93	0x3dc24f15	0.0948774
94	0x3e0c6a5d	0.1371245
95	0x3e102cf8	0.14079654
96	0x3ccd5c13	0.025068318
97	0xbb80aed7	-0.0039270925
98	0x3d33c3ca	0.04388789
99	0x3d190df2	0.037366815
100	0x3e038f89	0.12847723
101	0x3e08230d	0.13294621
102	0x3e10bdb2	0.14134863
103	0x3d9b0aa1	0.07570387
104	0x3de1bedc	0.11022732
105	0x3e2b4666	0.16726074
106	0x3dd6cc29	0.10488159
107	0xbb9c2e4b	-0.0047662607
108	0x3dcc5364	0.09976843
109	0x3e12eb91	0.14347674
110	0xbcccfec5	-0.025023827
111	0x3ce57b2d	0.028012836
112	0x3e40dd05	0.18834312
113	0x3d9a9180	0.07547283
114	0x3e00adda	0.12566319
115	0x3deff738	0.11717075
116	0x3e53d038	0.20684898
117	0x3dc0e157	0.0941798
118	0x3d2f3cb7	0.04278251
119	0x3ded27cc	0.11579856
120	0x3e03e93c	0.1288194
121	0x3e0bb9a1	0.1364503
122	0x3daa4f45	0.08315901
123	0x3e3a55d9	0.18196811
124	0x3dec83a9	0.1154855
125	0x3d54681c	0.0518571
126	0x3dffcf1e	0.12490676
127	0x3dec7d90	0.11547387
128	0x3d40a4e7	0.047032263
129	0xbd4dfa39	-0.05028746
130	0xbd5500c3	-0.05200268
131	0xbdee2ef4	-0.11630049
132	0xbd3eeef5	-0.046614606
133	0x3e00a979	0.12564649
134	0x3cb526c2	0.022113208
135	0xbcb57752	-0.022151623
136	0x3dfce465	0.1234825
137	0x3d528c1c	0.05140315
138	0xbca5ab38	-0.020223245
139	0xbd5f813f	-0.054566618
140	0x3dfba6ff	0.12287711
141	0x3d693beb	0.056941908
142	0x3d3fb8cc	0.046807095
143	0xbc02de05	-0.007987504
144	0x3dc1e0fd	0.09466741
145	0x3dd124f1	0.10212124
146	0x3d882c52	0.066490784
147	0x3dc6224c	0.0967451
148	0x3de603e7	0.11231213
149	0x3d9aeb0d	0.07564364
150	0x3e16c2b3	0.1472271
151	0x3e1d6db2	0.15373877
152	0x3d93a3a6	0.07208948
153	0x3d9046db	0.070447646
154	0xbd16c533	-0.036809158
155	0xbd0046c1	-0.031317476
156	0x3d01f86b	0.03173105
157	0x3da4a96d	0.08040128
158	0x3e1ee9ac	0.15518826
159	0x3bc42b53	0.00598661
160	0xbdf29298	-0.11844367
161	0xbe13b2f0	-0.14423728
162	0x3e08e756	0.13369498
163	0x3e151a29	0.1456076
164	0xbdae07d5	-0.084975876
165	0xbdef7de2	-0.11693932
166	0xbd5fb00a	-0.054611243
167	0xbd6a5490	-0.05720955
168	0x3da83954	0.082140595
169	0xbd1a95c6	-0.03774049
170	0xbe06a121	-0.13147403
171	0xbdc5c6c6	-0.09657054
172	0x3e0cd72c	0.13753957
173	0xbdff7f34	-0.12475434
174	0xbddbf9ab	-0.1074098
175	0xbde9528b	-0.11392697
176	0xbe1403a7	-0.14454518
177	0xbcd11897	-0.02552442
178	0xbd9442b6	-0.072392866
179	0x3d3ce472	0.0461163
180	0x3dadd175	0.084872164
181	0xbb64b541	-0.0034898075
182	0xbe0469cb	-0.12930982
183	0xbb0eb7d3	-0.0021777048
184	0xbc0246cb	-0.007951449
185	0xbd951d5e	-0.07280992
186	0x3c048cb1	0.008090184
187	0xbc6ceef4	-0.014461268
188	0xbd7afadc	-0.061274394
189	0xbda69062	-0.081330076
190	0x3da89f62	0.08233525
191	0xbda146b7	-0.07874816
192	0x3e177f54	0.14794666
193	0x3e40ab98	0.18815458
194	0x3d3e6912	0.04648692
195	0x3c8ac321	0.016938748
196	0xbda7c070	-0.081910014
197	0x3e2f7f20	0.17138338
198	0x3d8e8aa5	0.06960038
199	0x3dd9d313	0.10635962
200	0x3d3473eb	0.04405586
201	0x3d04b8af	0.03240269
202	0x3d635526	0.055501126
203	0x3e2562a0	0.16150904
204	0x3d89c8c5	0.06727747
205	0x3dd85c68	0.105645
206	0x3d93154d	0.07181797
207	0x3e1189f4	0.14212781
208	0x3d35446b	0.0442547
209	0xb9c64cb8	-0.00037822663
210	0x3d8b5040	0.06802416
211	0x3e138ed7	0.14409958
212	0x3e057602	0.13033298
213	0x3d75dcbd	0.060024966
214	0x3cf6e6f0	0.030139416
215	0x3db5adfe	0.08871077
216	0x3d5a2fee	0.053268366
217	0x3e026608	0.12734234
218	0x3dce3679	0.100689836
219	0x3d2f2950	0.042764008
220	0xb9ec9f06	-0.0004513191
221	0x3d76966a	0.06020204
222	0x3da0bf5f	0.07849001
223	0x3d133022	0.035934575
224	0x3d9aaee5	0.0755289
225	0xbda2de66	-0.079525754
226	0x3d8e2839	0.069412656
227	0xbd299a5e	-0.04140698
228	0xbd4513f3	-0.04811473
229	0xbdb3dadb	-0.08781978
230	0x3d5d416f	0.05401748
231	0xbd989f37	-0.07452243
232	0xbd2f1b30	-0.042750537
233	0xbd92f2e1	-0.07175232
234	0xbd88aca0	-0.066735506
235	0xbdf54052	-0.11975159
236	0x3d0fbc4d	0.035091687
237	0xbde3b682	-0.11118795
238	0xbdb500e0	-0.088380575
239	0xbd25e379	-0.040500138
240	0x3ddffb15	0.10936562
241	0x3d9be267	0.07611542
242	0x3d81e00e	0.06341563
243	0xbcae5af8	-0.021283612
244	0x3d288123	0.04113878
245	0x3d202316	0.03909596
246	0x3d3d2f18	0.04618749
247	0x3cf0b8a0	0.029384911
248	0xbcf8b186	-0.030358087
249	0xbd98338b	-0.07431706
250	0x3ccd3616	0.025050204
251	0x3d9fcd62	0.078028455
252	0x3dd88904	0.10573009
253	0xbc6275dd	-0.013822046
254	0x3d99bf1c	0.07507154
255	0x3d8436db	0.06455775

fc1.bias f4 [50]
0	0x3e0208a4	0.12698609
1	0xbd6f6efa	-0.058455445
2	0xbd398e5b	-0.045301776
3	0xbd158bbd	-0.036510218
4	0x3b633ebb	0.0034674841
5	0xbd1e0fe6	-0.03858938
6	0xbc9f5794	-0.01945094
7	0x3d0cd500	0.03438282
8	0xbe1e8495	-0.15480264
9	0xbd889ad5	-0.06670157
10	0xbdb887c7	-0.090102725
11	0x3c66defc	0.01409125
12	0xbd2a35da	-0.041555263
13	0xbc79bbef	-0.015242561
14	0xbd7d131a	-0.061785795
15	0x3d79cf02	0.060988434
16	0xbd8bf245	-0.068333186
17	0xbdaa4e5b	-0.08315726
18	0xbe029357	-0.12751518
19	0xbe10ad2e	-0.14128563
20	0xbd8ad114	-0.0677816
21	0xbc53c825	-0.012926136
22	0x3d7ad87e	0.06124162
23	0x3d3148c3	0.04328228
24	0xbdf2a07a	-0.11847015
25	0xbd9a8fde	-0.07546972
26	0xbcaa051f	-0.020754395
27	0xbdbcf61e	-0.09226631
28	0x3dc6cf78	0.0970754
29	0x3e024b61	0.12724067
30	0xbdefb4b3	-0.117043875
31	0xbe197e9e	-0.14989707
32	0x3e1cd32e	0.15314934
33	0xbd9200cf	-0.071290605
34	0xbd764068	-0.060120016
35	0x3cf9d6d2	0.030497942
36	0xbe11b1ee	-0.14228031
37	0xbd0909f8	-0.033456773
38	0xbd290090	-0.041260302
39	0x3d794e93	0.06086595
40	0xbdb0d039	-0.08633465
41	0xbd15c09d	-0.036560643
42	0x3e19b86d	0.15011759
43	0xbd4e5d79	-0.05038211
44	0x3d7cce78	0.06172034
45	0x3d18ca3f	0.037302252
46	0xbc7225ea	-0.014779547
47	0xbd839c5b	-0.06426307
48	0x3cec901a	0.028877307
49	0xbc93d7c0	-0.018047214

fc2.weight f4 [10, 50]
0	0xbe4bd1a7	-0.19904195
1	0x3df5e7d6	0.1200711
2	0xbdf62eef	-0.120206706
3	0xbd9d6992	-0.076861516
4	0xbd561aaf	-0.05227154
5	0xbd99a015	-0.07501236
6	0xbdd6df7a	-0.104918435
7	0x3d2079de	0.03917872
8	0x3d88577b	0.066573106
9	0xbcaeae05	-0.021323213
10	0xbd8423f8	-0.06452173
11	0xbddd8948	-0.108172
12	0xbd9301bc	-0.07178065
13	0x3c8f5c59	0.01750009
14	0x3d745d97	0.059659567
15	0x3e2316b3	0.15926628
16	0xbe0b6f9d	-0.13616796
17	0x3dd720bf	0.10504293
18	0xbdc53454	-0.096291214
19	0xbe38ab60	-0.18034124
20	0xbe393ef7	-0.18090425
21	0xbdfa7b7a	-0.122305825
22	0xbde9b3db	-0.11411258
23	0xbd84838d	-0.06470404
24	0x3bab508c	0.005228108
25	0xbc3cf54f	-0.0115330955
26	0x3c950791	0.018192085
27	0xbe0ba874	-0.13638479
28	0xbe168715	-0.14699967
29	0x3dcc529c	0.09976694
30	0xbe39dfde	-0.18151805
31	0x3da723d6	0.08161132
32	0xbd7663e7	-0.060153868
33	0x3d2584b9	0.040409777
34	0xbc67bde6	-0.014144396
35	0xbd881c03	-0.06645968
36	0xbd889d48	-0.06670624
37	0x3c8e4994	0.01736907
38	0xbd3e75c4	-0.04649903
39	0x3e1d5d98	0.15367734
40	0xbdcd5df2	-0.10027684
41	0x3cb25abf	0.021771787
42	0xbc336636	-0.010949662
43	0x3e1b0eff	0.1514244
44	0x3e24d138	0.16095436
45	0x3e23e8c4	0.16006762
46	0x3dc9cb1b	0.098531924
47	0xbca51504	-0.020151623
48	0xbe51b0b8	-0.20477569
49	0x3c8a28ae	0.0168651
50	0x3e2dcb3c	0.16972059
51	0x3e023973	0.12717228
52	0x3d3d0ba1	0.04615367
53	0x3cd09359	0.025460886
54	0xbcd980a7	-0.026550604
55	0xbc607bac	-0.013701361
56	0x3b20e168	0.0024548415
57	0xbda478e4	-0.080308706
58	0xbccfce8a	-0.02536704
59	0x3cf1e92c	0.02953013
60	0xbcdca426	-0.02693374
61	0xbdc823c6	-0.09772448
62	0x3e2caafb	0.16862099
63	0xbdfe6f24	-0.12423542
64	0x3cb34410	0.02188304
65	0x3e5c332a	0.21503893
66	0xbcb9c964	-0.022679038
67	0xbc9d8283	-0.019227272
68	0x3dcda70f	0.100416295
69	0x3d63fc8f	0.05566078
70	0x3d80b4ad	0.06284461
71	0xbd60e064	-0.054901496
72	0x3df33166	0.118746564
73	0x3bd5c663	0.0065238937
74	0x3bb44c9b	0.005502296
75	0xbcf4dfb4	-0.029891826
76	0xbe03b939	-0.12863626
77	0xbda2a9c1	-0.07942534
78	0x3e163950	0.146703
79	0xbe33ec50	-0.17570615
80	0x3d97f071	0.074189074
81	0xbe873d43	-0.26413926
82	0x3ddafa94	0.10692325
83	0xbd026123	-0.031830918
84	0xbd94c8d3	-0.07264867
85	0xbe6c56b0	-0.23079944
86	0x3d78a200	0.06070137
87	0x3d07356c	0.03300993
88	0x3e254a24	0.16141564
89	0x3e128abb	0.14310734
90	0xbe3e7a77	-0.18601404
91	0x3e118217	0.14209782
92	0x3e824795	0.25445238
93	0xbe26911b	-0.16266291
94	0x3e00d406	0.1258088
95	0xba865b10	-0.0010250527
96	0x3c736516	0.014855644
97	0xbc3b06d0	-0.011415198
98	0xbe43db94	-0.19126731
99	0xbe21bc70	-0.1579454
100	0x3e4cebc0	0.20011806
101	0xbd646cb5	-0.055767734
102	0xbd28ef8f	-0.041244086
103	0xbd89d423	-0.06729915
104	0x3de52015	0.1118776
105	0xbe412d3a	-0.18864909
106	0xbe18a8d4	-0.14908153
107	0xbe016139	-0.12634744
108	0xba9bb7f4	-0.0011880384
109	0xbcad416c	-0.02114936
110	0xbe272e15	-0.16326173
111	0x3d82c55e	0.06385301
112	0x3def9d83	0.11699965
113	0x3dcc51d3	0.09976544
114	0xbdaf9c27	-0.085747056
115	0xbd40088a	-0.046883143
116	0xbd837987	-0.06419664
117	0xbe2b768f	-0.16744445
118	0x3d0e8d00	0.034802437
119	0xbc7c3c54	-0.015395243
120	0x3d23d1b6	0.039994918
121	0x3c044d1c	0.008075025
122	0x3cecc956	0.028904598
123	0xbd43456e	-0.047673635
124	0x3c4219a4	0.0118469335
125	0x3cf8a74c	0.03035321
126	0xbe9992b9	-0.29994753
127	0xbd82ee8b	-0.06393155
128	0x3dd55a2a	0.10417588
129	0xbd8dada6	-0.069178864
130	0xbd1873d4	-0.037219837
131	0xbe1884e7	-0.14894448
132	0xbe1aee1f	-0.15129898
133	0x3d5d4957	0.05402502
134	0x3e29aa0d	0.16568775
135	0x3d4ddf43	0.050261747
136	0x3d8af327	0.06784659
137	0x3dbb0fa4	0.091338426
138	0xbc55b11c	-0.013042714
139	0xbdbb1328	-0.09134513
140	0xbda9cce6	-0.082910344
141	0x3e168f44	0.14703089
142	0x3e2a752f	0.16646264
143	0x3db6626e	0.08905493
144	0xbb4aa76f	-0.0030922552
145	0x3dcd3898	0.1002056
146	0x3e6bcb7e	0.23026845
147	0x3c980ebe	0.018561717
148	0xbdce6b98	-0.10079116
149	0x3d152896	0.03641566
150	0x3dee6619	0.11640567
151	0xbd619771	-0.055076066
152	0x3df032dc	0.11728451
153	0xbd8f6a4e	-0.07002698
154	0x3c80e2d2	0.015733156
155	0x3dc7f745	0.0976396
156	0xbd169fee	-0.036773615
157	0x3da10d07	0.07863813
158	0xbd31bace	-0.04339104
159	0x3d981f7c	0.0742788
160	0x3d4610eb	0.048355978
161	0x3e216d6e	0.157644
162	0x3e0246c7	0.12722312
163	0x3e548fec	0.20758027
164	0xbd18914c	-0.03724794
165	0x3dbfbc29	0.093620606
166	0xbde276d0	-0.11057818
167	0x3cc2e29e	0.0237897
168	0x3c58d9f0	0.013235554
169	0xbd31cef4	-0.043410257
170	0xbcb1d4b9	-0.02170788
171	0x3e3ec297	0.18628918
172	0xbd8f10f3	-0.06985655
173	0x3df0c640	0.11756563
174	0xbdb11c8d	-0.08648024
175	0x3e1c1f4a	0.15246311
176	0x3de8f8dd	0.11375592
177	0x3dc8b69d	0.09800456
178	0xbe51ac42	-0.20475867
179	0x3da3e126	0.08001928
180	0x3e039ded	0.12853213
181	0xbc888a0d	-0.01666739
182	0x3dd42d8a	0.103602484
183	0x3dbb40f8	0.09143251
184	0xbc1cebb6	-0.009577682
185	0xbd29bf2a	-0.041442074
186	0xbcda5fac	-0.026656948
187	0xbe5ac17d	-0.21362872
188	0xbd134933	-0.03595848
189	0xbdfd0cc1	-0.12355948
190	0xbde26c50	-0.11055815
191	0xbc116759	-0.008874738
192	0x3ce43b7a	0.027860392
193	0x3d6f5d76	0.05843874
194	0xbd3fd9b3	-0.046838474
195	0x3b9aee9c	0.0047281515
196	0x3dabe578	0.08393377
197	0xbd5fbd1c	-0.054623708
198	0x3da4c1ad	0.08044753
199	0xbcbe012d	-0.02319392
200	0xbb200936	-0.0024419553
201	0x3d50fe44	0.051023737
202	0x3cedc968	0.029026702
203	0x3e26635c	0.1624884
204	0x3e822ea6	0.25426215
205	0x3df7f78a	0.12107761
206	0x3d4a1bde	0.049342982
207	0x3cd36d42	0.025808934
208	0xbe6fae15	-0.23406251
209	0xbe08959e	-0.13338324
210	0x3e083ce0	0.13304472
211	0xbda4b98d	-0.080432035
212	0x3e335f18	0.17516744
213	0x3b2f0ec6	0.0026711687
214	0xbd64ab9f	-0.055827733
215	0x3e876ea2	0.26451594
216	0xbe254d77	-0.16142832
217	0x3d8e59ee	0.069507465
218	0x3c47d67f	0.012197136
219	0xbe22146f	-0.15828107
220	0xbe149eaf	-0.14513658
221	0xbe671125	-0.22565134
222	0x3e10e5fb	0.1415023
223	0x3db7d74d	0.08976612
224	0xbdafcc37	-0.08583873
225	0x3e2f9be3	0.1714931
226	0x3df68451	0.12036956
227	0xbe0db7ad	-0.13839598
228	0x3e08f694	0.13375312
229	0xbd11b290	-0.03557068
230	0x3c51d514	0.012807149
231	0xbe3702f2	-0.17872217
232	0x3e549afb	0.20762245
233	0x3d622d8d	0.05521922
234	0x3ca7aaf7	0.020467265
235	0x3e69cac2	0.22831252
236	0xbd4a7818	-0.049430937
237	0xbdc9b706	-0.09849362
238	0xbbabc356	-0.0052417917
239	0x3dd7b025	0.10531644
240	0x3d275a14	0.04085739
241	0x3c7f3aa9	0.0155779505
242	0xbdc22e84	-0.094815284
243	0x3d38ac03	0.04508592
244	0x3ca6a238	0.020341024
245	0x3cba9f10	0.022780925
246	0x3e513f6a	0.20434347
247	0x3d2e87db	0.04261003
248	0x3e517ad2	0.20457008
249	0xbdf091e6	-0.11746578
250	0xbde45a3c	-0.11150023
251	0x3dc6d675	0.09708873
252	0x3d6a661d	0.05722629
253	0xbd64d9a4	-0.05587162
254	0xbde7c882	-0.11317541
255	0x3ddf49e5	0.10902766

fc2.bias f4 [10]
0	0x3db4f53c	0.08835837
1	0x3e0c3ee6	0.13695869
2	0xbcfa95f0	-0.030589074
3	0xbde2e38e	-0.11078559
4	0x3da3356f	0.07969176
5	0xbc331a84	-0.010931615
6	0xbde1fb0a	-0.1103421
7	0xbdb8b324	-0.09018543
8	0xbde300b9	-0.11084122
9	0x3d265c9f	0.040615674

exp_avg f4 [10, 1, 5, 5]
0	0x3a8c431b	0.0010701151
1	0x39d19940	0.00039977767
2	0xba154c95	-0.00056953105
3	0xbb29b4ae	-0.0025895047
4	0xbbab9d98	-0.0052372925
5	0x3a171bf4	0.0005764358
6	0x3aec589e	0.0018031781
7	0x3accf73f	0.001563765
8	0x3ab054b1	0.0013452974
9	0x39fb3eb2	0.00047921162
10	0x3b192507	0.0023368017
11	0x3b595be0	0.0033166334
12	0x3b37a0f9	0.0028019531
13	0x3b334ad4	0.0027357833
14	0x3b1107bf	0.0022129861
15	0x3b4f545f	0.0031635982
16	0x3b1ddc3d	0.002408757
17	0x3b24fe2d	0.0025175915
18	0x3b0dd7bb	0.0021643478
19	0x3b1a3acc	0.002353358
20	0x3b2296a9	0.0024809039
21	0x3b0b0fa8	0.0021219049
22	0x3b18318a	0.0023222887
23	0x3b16959b	0.0022977355
24	0x3b413777	0.0029482523
25	0x3b26b813	0.0025439307
26	0x3b701cab	0.0036638181
27	0x3b8742ab	0.0041278205
28	0x3b782965	0.003786647
29	0x3b5a8109	0.003334107
30	0x3b667174	0.0035162838
31	0x3b967650	0.0045917407
32	0x3b906fca	0.0044078575
33	0x3b82f47b	0.0039964295
34	0x3b401d97	0.0029314512
35	0x3b793458	0.0038025584
36	0x3b926d52	0.0044685984
37	0x3b8b2e0c	0.0042474326
38	0x3b65fa47	0.0035091804
39	0x3b02b46c	0.0019943966
40	0x3b5d9aa1	0.003381409
41	0x3b762070	0.0037555955
42	0x3b58e6ab	0.0033096473
43	0x3b179380	0.0023128688
44	0x3aba4f50	0.0014214311
45	0x3b1c43ce	0.0023844126
46	0x3b3408dc	0.00274711
47	0x3b3ece8b	0.0029114808
48	0x3b1e939f	0.0024196876
49	0x3b03ce34	0.002011192
50	0x3b718e83	0.0036858625
51	0x3b5199af	0.0031982472
52	0x3b14adab	0.0022686522
53	0x3a9e443b	0.0012074778
54	0x3a917bdb	0.0011099534
55	0x3b30abf9	0.0026957972
56	0x3b0f2a16	0.0021845154
57	0x3a8bea9d	0.0010674779
58	0x3a3e80b2	0.0007267102
59	0x3a5c253d	0.0008397883
60	0x3b3460f8	0.0027523618
61	0x3abc796d	0.001437945
62	0x39c3fe1e	0.0003738263
63	0x395c0522	0.00020982747
64	0x3a216270	0.0006156331
65	0x3b1493df	0.0022671146
66	0x3ac5f5e0	0.0015103184
67	0x3a01ede6	0.0004956409
68	0x390edbf4	0.00013624114
69	0x396224a2	0.00021566686
70	0x3ad4a72e	0.001622414
71	0x3ad29f8f	0.0016069281
72	0x3aa932a4	0.0012908769
73	0x3a702ec5	0.00091622426
74	0x3a50782d	0.0007952478
75	0x3af9615e	0.001902621
76	0x3b1d7234	0.002402437
77	0x3b2af114	0.0026083635
78	0x3b3bfc24	0.0028684223
79	0x3b28f873	0.0025782853
80	0x3b1a8964	0.0023580426
81	0x3b273bf1	0.0025517906
82	0x3b22402e	0.0024757492
83	0x3b0ed37e	0.002179354
84	0x3ae623dc	0.0017558294
85	0x3b4556bf	0.003011152
86	0x3b3cfef0	0.0028838478
87	0x3b14480b	0.0022625949
88	0x3a76b471	0.0009411043
89	0x3a21a556	0.00061662996
90	0x3b7018c8	0.0036635865
91	0x3b228b43	0.0024802245
92	0x3a9524d1	0.001137877
93	0x3998818c	0.0002908822
94	0x3936f701	0.00017448889
95	0x3b7a7f78	0.003822295
96	0x3b0afe49	0.0021208695
97	0x3a4f3c03	0.0007905366
98	0x39d8cc8b	0.00041351127
99	0x3989c2ea	0.000262759
100	0xb6ad4c28	-5.1646675e-06
101	0x387b6ca1	5.9944232e-05
102	0x3886a301	6.41998e-05
103	0x3a073164	0.0005157201
104	0x3a243e5f	0.00062653975
105	0x39a581e2	0.00031568023
106	0x38a9579a	8.074865e-05
107	0xb6f97dc9	-7.4354216e-06
108	0x38822f9a	6.2077495e-05
109	0x39e2b819	0.00043243243
110	0x398eab07	0.00027211776
111	0x3744ad17	1.1722811e-05
112	0x35d60c26	1.5947778e-06
113	0x38253908	3.939218e-05
114	0x397826ff	0.0002366565
115	0x38f44d3b	0.00011649212
116	0x3805224b	3.174161e-05
117	0x38589bb8	5.1643437e-05
118	0x38f68664	0.00011755226
119	0xb8747a98	-5.8288308e-05
120	0x38500dc7	4.9603896e-05
121	0xb569a980	-8.704592e-07
122	0x3798692c	1.8168786e-05
123	0xb9209f41	-0.00015318116
124	0xbb11e3ef	-0.0022261103
125	0x390c523e	0.00013382078
126	0x3929930f	0.0001617188
127	0x39a39c7f	0.0003120638
128	0x399de9b6	0.00030119502
129	0x39878e1a	0.0002585508
130	0x3850892c	4.9718816e-05
131	0x393a5c04	0.00017772621
132	0x3a0b866a	0.00053224585
133	0x39f86041	0.0004737396
134	0x39af18b4	0.00033397006
135	0x398b195d	0.00026531043
136	0x3a12ceca	0.0005600272
137	0x3a38bebc	0.00070474646
138	0x3a2b5807	0.00065362494
139	0x39ebd176	0.00044978753
140	0x3a2e707e	0.0006654336
141	0x3a57cbef	0.00082319876
142	0x3a5677e5	0.0008181318
143	0x3a1b9c9b	0.0005936117
144	0x39c2e895	0.0003717585
145	0x3a257f3e	0.0006313211
146	0x3a327bba	0.0006808598
147	0x3a148272	0.000566519
148	0x39e4a91e	0.0004361355
149	0x397c0fe9	0.0002403852
150	0xba9d3984	-0.001199529
151	0x3acd1ba7	0.00156485
152	0x3adf4d5a	0.0017036602
153	0x3a8e3d96	0.0010852094
154	0xbb1177be	-0.0022196616
155	0x3b35dded	0.0027750686
156	0x3b482e31	0.003054511
157	0x3b344f18	0.0027512964
158	0x3b29cbc2	0.0025908803
159	0x3ad10af9	0.0015948705
160	0x3b42eabd	0.0029741966
161	0x3b3ddc5b	0.0028970453
162	0x3b0ca4e8	0.0021460596
163	0x3ab92237	0.0014124577
164	0x3a8ac332	0.0010586737
165	0x3b2f747a	0.0026772306
166	0x3b14ce7b	0.002270608
167	0x3aa6f773	0.001273854
168	0x3a4e7550	0.00078757573
169	0x3a8ae5a7	0.0010597006
170	0x3b0c2c36	0.0021388656
171	0x3aee8f7b	0.001820072
172	0x3aad774e	0.0013234408
173	0x3a97a29b	0.0011568846
174	0x3b244a3b	0.002506866
175	0x3b1fd326	0.002438733
176	0x3b3d318c	0.0028868644
177	0x3b444842	0.0029950296
178	0x3b4df112	0.0031424207
179	0x3b335790	0.0027365424
180	0x3b25e3b1	0.0025312717
181	0x3b4917ce	0.0030684355
182	0x3b5ac110	0.0033379234
183	0x3b3dd1f8	0.0028964262
184	0x3b067610	0.0020517148
185	0x3b1c9908	0.0023894925
186	0x3b5bd558	0.003354391
187	0x3b62c578	0.0034602564
188	0x3b1899fc	0.0023285141
189	0x3a93de50	0.0011281464
190	0x3b28f3dd	0.002578012
191	0x3b42780b	0.0029673602
192	0x3b33604f	0.0027370637
193	0x3abc392b	0.0014360299
194	0x39cbebcc	0.0003889486
195	0x3b23c383	0.002498836
196	0x3b3e139d	0.002900339
197	0x3b123984	0.0022312114
198	0x3a975b6f	0.0011547635
199	0x39f85996	0.00047368993
200	0x39aace74	0.00032578746
201	0x38b96b24	8.841444e-05
202	0x396906b7	0.00022223113
203	0xb9211e08	-0.00015365344
204	0xbae387ac	-0.0017359159
205	0x39f91ef6	0.0004751605
206	0x399c468e	0.00029807206
207	0x39e048af	0.00042778763
208	0x3a0842b5	0.00051979284
209	0xb9f08ddb	-0.00045882058
210	0x3a757b4b	0.00093643804
211	0x3a11bb4b	0.000555922
212	0x3a183104	0.0005805644
213	0x3a18d93b	0.00058307097
214	0x3a6f5d8c	0.0009131066
215	0x3aede179	0.0018148861
216	0x3a63a7a9	0.0008684346
217	0x39d492dc	0.0004054521
218	0x3978665d	0.00023689256
219	0x39cd626e	0.00039173983
220	0x3b2548a3	0.0025220297
221	0x3ac7cd9f	0.0015243775
222	0x39b4e601	0.00034503642
223	0x389d6c0c	7.506469e-05
224	0x39629398	0.00021608023
225	0xbc5d6316	-0.013512393
226	0xbc715fff	-0.01473236
227	0xbc883ba2	-0.016629998
228	0xbc991d48	-0.01869072
229	0xbca579f3	-0.020199751
230	0xbae354e0	-0.001734402
231	0xbac032fa	-0.001466363
232	0xba99e0aa	-0.0011739929
233	0xbb0a5e8a	-0.0021113479
234	0xbb8b665a	-0.0042541446
235	0xb974f038	-0.00023359142
236	0x391e72aa	0.0001511077
237	0x391a778d	0.0001473112
238	0x39115364	0.00013859343
239	0x380968cb	3.276094e-05
240	0x3921419a	0.00015378595
241	0x395b3969	0.00020906854
242	0x39b4e2d1	0.00034501267
243	0x39ada413	0.00033119376
244	0x397f81de	0.00024367074
245	0xb8701c64	-5.72469e-05
246	0x390c4f15	0.00013380901
247	0x395e097f	0.00021175107
248	0x389618b4	7.157159e-05
249	0xb8d7c960	-0.00010289508

exp_avg_sq f4 [10, 1, 5, 5]
0	0x36b018e6	5.2481073e-06
1	0x3725d4c6	9.884307e-06
2	0x374b284d	1.2109126e-05
3	0x370b0336	8.285793e-06
4	0x371f27c5	9.486398e-06
5	0x3704cb62	7.915167e-06
6	0x373963d3	1.1050101e-05
7	0x37324715	1.0626177e-05
8	0x3701be13	7.733254e-06
9	0x36b8cce2	5.507479e-06
10	0x3709a635	8.204534e-06
11	0x370801d8	8.106661e-06
12	0x36c23e0c	5.7888738e-06
13	0x36a9f935	5.065604e-06
14	0x366957cf	3.4770817e-06
15	0x36998e50	4.5763227e-06
16	0x3683638b	3.9156926e-06
17	0x3690d69f	4.3165196e-06
18	0x3635d2aa	2.7093724e-06
19	0x36407e7c	2.8683853e-06
20	0x363a1480	2.7728092e-06
21	0x364376a6	2.9126327e-06
22	0x36671200	3.443216e-06
23	0x362aae08	2.5433274e-06
24	0x3699a2b5	4.578697e-06
25	0x36bb828d	5.5882324e-06
26	0x3735b7fb	1.0831277e-05
27	0x3756dd83	1.2806969e-05
28	0x3725dbb9	9.885925e-06
29	0x36fb7c4c	7.494853e-06
30	0x3727d5d5	1.0003762e-05
31	0x37848e6e	1.580195e-05
32	0x3776bf5d	1.4707298e-05
33	0x372b7db7	1.02216645e-05
34	0x36c056bb	5.7321427e-06
35	0x371f7693	9.504746e-06
36	0x375b9031	1.3086989e-05
37	0x375bb506	1.3095565e-05
38	0x370688fe	8.018918e-06
39	0x363ef0e8	2.8452432e-06
40	0x36ebb70d	7.0248557e-06
41	0x371723ca	9.008634e-06
42	0x3708c78b	8.152691e-06
43	0x36852c78	3.9688857e-06
44	0x35c7730c	1.4860138e-06
45	0x3685f801	3.9925803e-06
46	0x36c04858	5.730468e-06
47	0x36e12059	6.7092883e-06
48	0x36958e8d	4.457141e-06
49	0x36376def	2.7333115e-06
50	0x368a4ad0	4.12143e-06
51	0x36537675	3.1510401e-06
52	0x36029a55	1.9461343e-06
53	0x3561ab33	8.406816e-07
54	0x351eb578	5.912366e-07
55	0x3632641f	2.6582345e-06
56	0x35f8b02d	1.8528714e-06
57	0x3526d4fc	6.214975e-07
58	0x34ba8381	3.4740881e-07
59	0x34c3321a	3.6358034e-07
60	0x36240a04	2.4443734e-06
61	0x3561b541	8.408279e-07
62	0x33ad95c8	8.083185e-08
63	0x32a489a8	1.9154712e-08
64	0x3409848d	1.2807341e-07
65	0x35e92711	1.7371223e-06
66	0x3554ddd1	7.929894e-07
67	0x33e4efea	1.06607175e-07
68	0x32047887	7.710816e-09
69	0x32af4380	2.0403377e-08
70	0x358f7193	1.0687385e-06
71	0x357d6146	9.4391396e-07
72	0x3520b031	5.9861037e-07
73	0x34bfbd6f	3.5714353e-07
74	0x3483f1a2	2.4576462e-07
75	0x36100553	2.1460771e-06
76	0x366d2e94	3.5342864e-06
77	0x365068fa	3.105552e-06
78	0x36389841	2.750676e-06
79	0x35fb9c83	1.8746508e-06
80	0x367d0733	3.7704128e-06
81	0x36755d99	3.6562326e-06
82	0x363df1c9	2.8303932e-06
83	0x36046f1c	1.9734207e-06
84	0x35ad2785	1.2901006e-06
85	0x36927df7	4.3658033e-06
86	0x3686e666	4.020333e-06
87	0x361e31ab	2.3572745e-06
88	0x3528a539	6.282531e-07
89	0x347ea39d	2.3715116e-07
90	0x36a03175	4.774129e-06
91	0x3637e6ca	2.7403462e-06
92	0x355eeae8	8.304328e-07
93	0x33a95f13	7.88697e-08
94	0x32bce269	2.198904e-08
95	0x36674af2	3.4465306e-06
96	0x35f3aee0	1.8155806e-06
97	0x34d699fc	3.9972645e-07
98	0x33dca88d	1.02752075e-07
99	0x337af23b	5.842797e-08
100	0x319626f4	4.370003e-09
101	0x300cd239	5.123045e-10
102	0x30b0946a	1.2847867e-09
103	0x3327df58	3.9085847e-08
104	0x34a01db3	2.982393e-07
105	0x31ff936a	7.438236e-09
106	0x30bf8d1c	1.3937185e-09
107	0x2e54afa9	4.8359237e-11
108	0x31007a88	1.8696102e-09
109	0x33b0b1d0	8.2279826e-08
110	0x31989b60	4.4414463e-09
111	0x2eb1deb7	8.08859e-11
112	0x2c8aaee2	3.941612e-12
113	0x30895559	9.992319e-10
114	0x333f77a5	4.457947e-08
115	0x308e97f6	1.037505e-09
116	0x3079444b	9.068272e-10
117	0x30c2a3b1	1.4161882e-09
118	0x31ba75c9	5.426703e-09
119	0x34146db0	1.3823478e-07
120	0x313e481a	2.7689624e-09
121	0x31c9fbb8	5.878487e-09
122	0x3337a221	4.2755463e-08
123	0x3401cb2c	1.2087975e-07
124	0x3585d26b	9.970512e-07
125	0x328862c5	1.5877399e-08
126	0x32abd805	2.0005254e-08
127	0x3374ac7c	5.696755e-08
128	0x33bfa2cb	8.9237425e-08
129	0x33fd43a5	1.1793535e-07
130	0x318fa3a4	4.1804515e-09
131	0x32dde889	2.583353e-08
132	0x346db0cb	2.2136662e-07
133	0x347f57f7	2.3780727e-07
134	0x342d3d56	1.6134194e-07
135	0x33816500	6.0254024e-08
136	0x34acf813	3.2217994e-07
137	0x34df47a3	4.158911e-07
138	0x34dbe851	4.096096e-07
139	0x344f3b34	1.9299915e-07
140	0x34ba755d	3.4730593e-07
141	0x35219d93	6.0206474e-07
142	0x351e7c57	5.9040525e-07
143	0x3491d028	2.7159808e-07
144	0x33d1046a	9.733124e-08
145	0x34c19fe0	3.6065376e-07
146	0x34e183a9	4.200531e-07
147	0x349725ba	2.8153391e-07
148	0x340776b6	1.2616042e-07
149	0x32ab1bd0	1.9919668e-08
150	0x370c5af4	8.365827e-06
151	0x37125de1	8.724136e-06
152	0x3708b569	8.1484695e-06
153	0x36bd7737	5.6465174e-06
154	0x36e2d2e3	6.7598753e-06
155	0x3706f178	8.043244e-06
156	0x37043636	7.880435e-06
157	0x36b7f492	5.4822967e-06
158	0x3684cefa	3.958002e-06
159	0x3656e851	3.202371e-06
160	0x36d99bf9	6.4852616e-06
161	0x36e04801	6.6841026e-06
162	0x36653dd4	3.4159648e-06
163	0x35c38b80	1.4569232e-06
164	0x35902718	1.0740214e-06
165	0x36abec4a	5.123705e-06
166	0x36852aa8	3.9686747e-06
167	0x35e36a3c	1.6943736e-06
168	0x34f05876	4.4767847e-07
169	0x3530ab9f	6.581485e-07
170	0x3671e6a6	3.6046054e-06
171	0x364449e7	2.9249293e-06
172	0x35f6e4f5	1.8395064e-06
173	0x3552a581	7.8471936e-07
174	0x35f003cc	1.7882498e-06
175	0x368fb6bc	4.283005e-06
176	0x36d2cf57	6.2826252e-06
177	0x36f020ff	7.1563986e-06
178	0x36fcc1d7	7.532751e-06
179	0x36bacf6b	5.5673786e-06
180	0x36a76ee6	4.989898e-06
181	0x36f45875	7.2820644e-06
182	0x3716911f	8.974485e-06
183	0x36db8401	6.542076e-06
184	0x364bb649	3.0355461e-06
185	0x368e9829	4.2496436e-06
186	0x370d7b1a	8.432917e-06
187	0x371d7386	9.384827e-06
188	0x368fb1bd	4.2824236e-06
189	0x3562f855	8.455293e-07
190	0x3698c6af	4.553083e-06
191	0x36dc15b9	6.55904e-06
192	0x36c7a7f7	5.950216e-06
193	0x35f616de	1.8335083e-06
194	0x33dcf7e5	1.028964e-07
195	0x368c33a7	4.1783383e-06
196	0x36d14c03	6.2375343e-06
197	0x368a849c	4.1281583e-06
198	0x35a86491	1.2546244e-06
199	0x344cd9bd	1.9078193e-07
200	0x32a013fd	1.8635541e-08
201	0x315fe020	3.2578171e-09
202	0x333c578b	4.385178e-08
203	0x349dc4d6	2.9386746e-07
204	0x353c57f2	7.0163435e-07
205	0x33c5a2b5	9.2031236e-08
206	0x333cef32	4.3989708e-08
207	0x33f273fe	1.1290102e-07
208	0x348ad28f	2.5857705e-07
209	0x350823b1	5.0715886e-07
210	0x3498b33e	2.8442622e-07
211	0x342d2aea	1.6127493e-07
212	0x343a6f10	1.7363004e-07
213	0x343db1d5	1.7666692e-07
214	0x3452b303	1.9622898e-07
215	0x355844ae	8.056621e-07
216	0x34955165	2.7812635e-07
217	0x340348b1	1.222677e-07
218	0x335027e6	4.846506e-08
219	0x33090879	3.1905504e-08
220	0x359982fa	1.1437508e-06
221	0x35011e97	4.810076e-07
222	0x334249cf	4.5236273e-08
223	0x30f29ec4	1.7652941e-09
224	0x3229e080	9.88814e-09
225	0x37008af0	7.661743e-06
226	0x370531bb	7.9389965e-06
227	0x3719c521	9.165408e-06
228	0x37419274	1.1537795e-05
229	0x376b34c7	1.401938e-05
230	0x35a99b96	1.2636763e-06
231	0x34b8bf05	3.4411656e-07
232	0x342b15b6	1.5933514e-07
233	0x34bf3c9a	3.5620616e-07
234	0x35b74a49	1.3656182e-06
235	0x342c16a6	1.6026988e-07
236	0x33005d16	2.9886984e-08
237	0x32891070	1.5956374e-08
238	0x33593503	5.0572464e-08
239	0x343555c9	1.6888147e-07
240	0x32d35a3b	2.4604665e-08
241	0x32db9241	2.5561464e-08
242	0x33193602	3.567221e-08
243	0x335c22fa	5.1254553e-08
244	0x340898a8	1.2721523e-07
245	0x332036c4	3.7302712e-08
246	0x33563795	4.987631e-08
247	0x3331b492	4.137525e-08
248	0x33866fbb	6.260185e-08
249	0x3409df27	1.2840302e-07

exp_avg f4 [10]
0	0x38c588c0	9.419164e-05
1	0x3bc7799e	0.006087496
2	0x3c077844	0.00826842
3	0xbd14f35e	-0.036364906
4	0xbcc2a77e	-0.023761507
5	0x3a4d53a9	0.0007832596
6	0xbc94b732	-0.01815376
7	0x3b984adf	0.004647597
8	0x3b7d45a4	0.0038646245
9	0xbd245ac6	-0.04012563

exp_avg_sq f4 [10]
0	0x38730ef4	5.794964e-05
1	0x37d863f1	2.5795745e-05
2	0x37e90ce5	2.7781769e-05
3	0x38d8fc00	0.00010346621
4	0x384c5b0b	4.872218e-05
5	0x351b4e48	5.7855914e-07
6	0x388f49e4	6.8325346e-05
7	0x3786dff1	1.6078326e-05
8	0x3726a157	9.931936e-06
9	0x388d7e90	6.746978e-05
