lightning_logs/version_25/checkpoints/epoch=2-step=2814.ckpt (torch, 273474 bytes, 24 tensors)

conv1.weight f4 [10, 1, 5, 5]
000000 77 95 c6 bd 6f 28 16 be 35 d4 f9 bd d8 1b 64 be
       -0.09696477 -0.14663862 -0.121986784 -0.22276247
000010 62 16 64 be ab 54 0d 3d 14 6d ad be c0 ab 9b be
       -0.22274163 0.034504574 -0.33872283 -0.30404472
000020 17 d0 02 be 0c 04 35 be 25 63 6c be 61 d7 42 be
       -0.12774692 -0.17677325 -0.23084696 -0.19027473
000030 b3 62 fe bc 79 45 0d be f1 8d 48 be c0 04 6e bd
       -0.031052923 -0.13796033 -0.19585396 -0.05811
000040 f4 1c 02 be 6c 2a 8a be 1f f7 60 be 52 49 28 be
       -0.12706357 -0.2698549 -0.21969269 -0.1643422
000050 48 4a 8b bb 80 2f 50 bd 71 52 1b be 42 de b1 bd
       -0.0042507984 -0.05082655 -0.15168168 -0.086849704
000060 cb b6 8a be bd 28 b8 bd 71 94 8c bd b3 76 6f bb
       -0.27092585 -0.08992145 -0.068642505 -0.0036539256
000070 16 e1 8d be 1a 54 0b bd b9 07 8f be c2 6d b3 be
       -0.2771079 -0.034015752 -0.2793558 -0.35044676
000080 66 f7 35 bd 96 24 a1 be 6f 03 81 be ba d2 57 be
       -0.04442539 -0.31473225 -0.25197932 -0.2107648
000090 e9 39 2c bd 1c fb 12 be 0d 09 28 be e7 eb bc be
       -0.042047415 -0.14353603 -0.16409703 -0.3689873
0000a0 02 eb 95 be c5 0d 94 be 8a 84 f0 3a 16 ff 8a 3a
       -0.2928086 -0.28916755 0.0018350047 0.0010604586
0000b0 36 c8 2d be 6f 02 76 be f8 c0 3c bd 3c 9e bf bd
       -0.16970906 -0.24024366 -0.046082467 -0.09356353
0000c0 03 a4 ea bd 25 10 4f bd b6 57 b3 be 2d b3 15 3e
       -0.11457064 -0.050552506 -0.35027856 0.14619131
0000d0 9e 57 c5 3e 8b 24 29 bf 61 e9 a8 bf 2f 74 62 bf
       0.3854341 -0.66071385 -1.3196222 -0.8845853
0000e0 87 b6 62 be 00 24 9e 3a 60 ac 91 be cc 06 b6 bf
       -0.22139941 0.0012065172 -0.28451824 -1.4220824
0000f0 fb 79 ee be f5 34 80 be 98 77 aa bf a5 3a 64 bf
       -0.4657744 -0.25040403 -1.3317747 -0.89151984
000100 a2 41 d5 be 85 28 47 bf e7 70 97 bf ba 9b 35 bf
       -0.41651636 -0.777962 -1.183133 -0.70940745
000110 da 40 47 be 99 d8 81 bf 80 e0 41 bf 6d 70 b6 bf
       -0.19458333 -1.0144225 -0.75733185 -1.425306
000120 62 c3 9d bf ed e4 30 bf dc 6d d4 bd f3 db 8c 3d
       -1.2325251 -0.69099313 -0.103725165 0.068778895
000130 a6 cd 0a be 7e e8 86 3c 16 19 52 be 57 ba e0 bd
       -0.13555011 0.016468283 -0.20517382 -0.109730415
000140 40 4b ba be af ae 87 be 4b ea 0b be 23 6f 60 b9
       -0.36385536 -0.2650046 -0.13663594 -0.00021403706
000150 04 cc ad be 2a c7 6c bd cb 44 8e be 2d 39 a1 3b
       -0.33944714 -0.057807125 -0.2778686 0.004920146
000160 47 f8 97 be 8e a1 f0 bd a0 4b 92 bd b6 5b 29 be
       -0.29681608 -0.11749564 -0.071433306 -0.16538891
000170 2e ab 5a be b7 15 a2 be 79 2b 4a be 82 f1 bf bd
       -0.21354362 -0.31657192 -0.19743146 -0.09372236
000180 8d d0 3e be 28 e1 30 bd f2 13 16 be 2f 83 2f bd
       -0.18634243 -0.043183476 -0.14656046 -0.042849716
000190 e1 25 10 3f ae ed ce bd 8b bd 32 3d 92 48 08 bf
       0.563078 -0.101039276 0.043637794 -0.53235734
0001a0 15 23 8a bf 1c 67 92 3e 3a 11 5f be dc 5c 48 be
       -1.0791956 0.2859429 -0.21783915 -0.19566673
0001b0 02 a7 f9 be 5d 5c d2 3d 40 b0 03 3f 6c 03 c7 bd
       -0.4876023 0.10271523 0.5144081 -0.097174495
0001c0 eb e4 88 be 0a b5 5d bf 45 ff 2d bf d7 65 1f 3d
       -0.2673715 -0.8660437 -0.67967635 0.03891548
0001d0 8d 38 0a be 58 29 0f bf 5c 4d c7 bc 38 08 be bf
       -0.13498135 -0.5592246 -0.02432888 -1.4846258
0001e0 15 14 87 bd 14 28 18 bc a1 03 81 be 1d b4 c7 be
       -0.06595627 -0.009286899 -0.2519808 -0.39004603
0001f0 c4 7a 12 bf be b1 e4 3d b2 43 6a bd a4 6f 5e be
       -0.57218575 0.11166714 -0.057193466 -0.21722275
000200 00 cc d6 3d 1e 45 09 bc c2 ba dc bd da 89 48 3e
       0.10488129 -0.008378295 -0.10777809 0.19583836
000210 47 2d 20 be da 9b 61 bc 45 93 79 be 59 74 95 bd
       -0.15642272 -0.013770068 -0.24372585 -0.07297582
000220 27 18 f5 bd 55 5c f1 3d 43 29 1f 3f 7f a6 8b 3d
       -0.11967497 0.11785189 0.62172335 0.06818866
000230 9b da cf 3d d7 04 ae 3d 05 eb 3c 3e 03 32 b2 3e
       0.101491176 0.08497017 0.18449028 0.3480378
000240 32 d0 d3 3d af 72 4e 3d 2c 7a 6b bd 3e 55 3b be
       0.103424445 0.05040234 -0.05748956 -0.18294236
000250 c5 b5 50 be 6e a8 05 be 6d e7 3f bf 49 43 9c 3e
       -0.2038184 -0.13052532 -0.749625 0.30520085
000260 e8 b8 e8 3d bf 18 ed 3c 40 13 a9 3d 92 de e0 be
       0.11363393 0.028942464 0.08255625 -0.43919808
000270 30 3f 47 bd 9c c2 70 be bc b4 cd 3a ce 1e b1 3e
       -0.048644245 -0.23511738 0.0015694122 0.34593815
000280 d0 2e 2e bf 1d 8b 01 3e 1e e3 94 3d f4 6b fa 3d
       -0.6804018 0.12650724 0.07269882 0.12227622
000290 6f 04 4d be 6a 68 1d bf 6c e6 04 be 90 c7 04 be
       -0.20021223 -0.6148745 -0.12978524 -0.12966752
0002a0 a4 15 00 3f e7 d5 08 3d f6 45 1c 3e 18 47 36 bf
       0.5003302 0.03340712 0.15261063 -0.7120223
0002b0 53 83 a0 bf 83 ca 32 bf 41 8e ad bf 2c 6a 0b be
       -1.2540077 -0.6984026 -1.3559037 -0.1361472
0002c0 35 a5 b8 bd 0d a2 ca bd e1 da 2a 3d 6d 58 3c be
       -0.09015886 -0.0989419 0.041712645 -0.18393107
0002d0 5c eb 31 be b4 33 b2 bd f2 9e 81 3d 88 77 9b 3c
       -0.17374939 -0.08701268 0.063291445 0.018977895
0002e0 26 40 90 be 3c da 81 3d 57 94 95 be 61 df 76 be
       -0.2817394 0.06340453 -0.29214737 -0.2410865
0002f0 1e 4a 80 be a1 e4 55 bd da a6 14 be 6f ca a2 be
       -0.25056547 -0.05221999 -0.14516774 -0.3179507
000300 b6 77 71 be 70 0b 1e be 67 9a e9 bd 06 48 8d be
       -0.23580822 -0.1543405 -0.11406403 -0.27594012
000310 a1 bf 7d be 47 92 10 be bd 60 37 be ad a1 8e bd
       -0.24780132 -0.141183 -0.17907996 -0.06964431
000320 f3 3e d3 bc b9 f8 be bd a0 eb 3b be 2f 82 3d bd
       -0.025786852 -0.09324784 -0.18351603 -0.04626673
000330 c3 9a 5c bd e0 cf 02 be 28 7e bb be af 64 2a bd
       -0.05385853 -0.1277461 -0.36619687 -0.041599926
000340 1e 27 f7 3c d1 5d 59 be 86 6d 27 be 69 cb d6 bd
       0.03017002 -0.21227194 -0.16350374 -0.10488016
000350 9a 99 c6 bd 0a ba 3b 3d e8 52 93 bd 9d 22 83 be
       -0.09697266 0.045831718 -0.071935475 -0.25612345
000360 f2 c6 46 be a4 63 11 be 50 d0 6b be d6 ca a4 be
       -0.19411829 -0.14198166 -0.23028684 -0.32186002
000370 eb 2c ad bd 51 c4 82 3c b6 d5 e7 bd 42 65 45 be
       -0.08455833 0.015962752 -0.11320059 -0.19276908
000380 1a e1 a5 3c 5b 78 e6 be 98 0e 29 be 5a 35 ab bd
       0.020248938 -0.450137 -0.16509473 -0.083597854
000390 f1 9b 97 be 9a 75 b1 be 46 17 cb be 17 19 ac be
       -0.2961116 -0.34660035 -0.39666194 -0.33612892
0003a0 2f ad 35 be 9d 87 53 bd 2a ad 47 be 70 e2 b0 be
       -0.17741846 -0.051643003 -0.1949965 -0.34547758
0003b0 6b c3 ab 3c 19 9a 35 bc cb 1f 3b be f2 5f c9 bd
       0.020967206 -0.011084103 -0.18273847 -0.09832753
0003c0 84 bb b4 bd f6 46 95 be 30 35 0d be f9 42 63 be
       -0.08824828 -0.291557 -0.1378982 -0.22193517
0003d0 eb 4b 87 be 27 1c 14 bc ee e3 be be 09 f6 48 be
       -0.26425108 -0.009039915 -0.37283272 -0.19625105
0003e0 24 c0 a8 bd ae 87 7c be
       -0.08239773 -0.24661133

conv1.bias f4 [10]
000000 1f be 75 be 91 d4 9e be 66 f3 21 bf 21 c6 83 be
       -0.23998307 -0.3102155 -0.6326202 -0.25737098
000010 9e 66 23 bf 87 cc da be 55 cd 23 be 7c 57 0b be
       -0.63828456 -0.42734167 -0.15996297 -0.13607591
000020 57 32 87 be f1 f0 d3 bd
       -0.26405594 -0.1034869

conv2.weight f4 [20, 10, 5, 5]
000000 df c0 ac bd 07 07 1a be 66 ba a9 bd 10 dc 0a be
       -0.08435225 -0.15041743 -0.08287506 -0.1356051
000010 6c 3c 0f be 82 8c a5 bd 2e a2 1c be 39 69 e5 bd
       -0.13987893 -0.0808344 -0.15296242 -0.1120171
000020 ee 1b 0e be b9 1e ba bd de 73 8e bd ab 0f bd bd
       -0.13877842 -0.09087891 -0.06955694 -0.09231504
000030 a0 29 f3 bd 8d 06 d4 bd d1 ca 86 bd 09 02 2e be
       -0.11873174 -0.10352812 -0.06581653 -0.16992964
000040 77 b1 f9 bd f6 1d df bd b8 c0 00 be 6a 3f c7 bd
       -0.12192052 -0.108943865 -0.12573516 -0.09728892
000050 da 90 24 be b0 9b a4 bd d3 26 e1 bd 41 73 17 be
       -0.16070881 -0.080375075 -0.10993733 -0.1479006
000060 a9 79 a4 bd cd 45 25 be f5 c9 03 be 95 2c c5 bd
       -0.08031017 -0.16139908 -0.12870009 -0.09627644
000070 2c 24 48 be c0 41 ff 3d ba e0 35 be cb 51 1a be
       -0.19545048 0.12463713 -0.17761508 -0.15070264
000080 96 1e ef bd 11 e0 16 be 0e f8 fb 3d a0 42 6b bd
       -0.11675756 -0.14733912 0.12303172 -0.057436585
000090 16 05 f7 bd 6c bf 39 be d9 20 92 bd 2a 39 4c 3e
       -0.12061517 -0.18139428 -0.071351714 0.19943681
0000a0 13 c5 15 be 89 c3 12 be e0 c9 44 be a1 9e a2 bd
       -0.14625959 -0.14332403 -0.19217634 -0.07940412
0000b0 59 cf f0 3d e5 bc 2c be 80 38 e2 bd 34 7a 2c be
       0.117582984 -0.16868933 -0.11045933 -0.16843492
0000c0 62 2e bb bd 16 27 bd 3d 4c cf a9 be 59 4b 6c bd
       -0.09139706 0.09235971 -0.33165967 -0.057689045
0000d0 e8 8f 13 3f 6f 04 f8 bd e2 de d0 bd c5 db 50 3f
       0.5764146 -0.12110221 -0.101987615 0.8158534
0000e0 e7 c0 03 3f 89 a2 ec be b3 01 ed be 27 01 38 be
       0.5146622 -0.46217754 -0.4629036 -0.1796919
0000f0 f0 48 8a be e4 5f 00 be 64 18 d7 be 75 82 79 bd
       -0.27008772 -0.1253658 -0.42010796 -0.06091543
000100 a1 61 15 be 4b 87 05 bf e2 9c 3e 3e 4c 23 19 3e
       -0.14588024 -0.52159566 0.18614534 0.14954871
000110 1f d1 38 be 53 0f 51 be 04 f7 3a bf 37 c4 38 bd
       -0.18048523 -0.20416002 -0.73033166 -0.045109
000120 5c b2 f4 3d b5 12 ba 3e 8b 77 f8 3d 8a ac ca bd
       0.11948082 0.36342397 0.12132176 -0.098961905
000130 53 8c 10 be af 23 f3 bd 82 fa 97 3d ed 84 42 be
       -0.1411603 -0.118720405 0.074208274 -0.1899602
000140 d5 7b 36 be 38 4d 38 be b4 e6 04 be ff c0 0e be
       -0.17820676 -0.17998207 -0.12978631 -0.1394081
000150 29 a9 2a 3e f7 a3 8a bd fe 1b ef bd f5 8f 16 be
       0.16666092 -0.06769555 -0.11675261 -0.14703353
000160 7f 22 19 be 2d bf 78 bd 12 64 09 be bc e5 36 be
       -0.14954565 -0.060729194 -0.1341708 -0.17861074
000170 a1 a4 a8 bd c8 fc 03 3d 28 c6 61 be a7 e0 a5 bd
       -0.082345255 0.032223493 -0.22048247 -0.0809949
000180 42 de f7 bd c4 0b a3 bd 1f 21 0b be 91 19 f4 3d
       -0.12102939 -0.079612285 -0.13586853 0.11918939
000190 18 23 2f bf 0f 63 e4 3b a2 53 f7 3e b3 d7 bd be
       -0.68412924 0.0069698165 0.48305994 -0.37078628
0001a0 e3 16 07 bf 3e 1e 70 bf 4e 74 df be 12 62 09 bf
       -0.527693 -0.93796146 -0.4364342 -0.5366527
0001b0 5f 08 ee be 73 b5 2e be 74 bb 25 bf ef bd 13 bf
       -0.46490762 -0.17061405 -0.64739156 -0.5771169
0001c0 3d d8 71 bf 87 1b dc be 8c 03 0e bf 47 cd 83 be
       -0.9447058 -0.42989752 -0.5547416 -0.25742552
0001d0 56 c0 f4 be 59 7b 35 bf 25 48 81 be 55 8e 48 bf
       -0.4780299 -0.7089134 -0.25250354 -0.7834218
0001e0 f9 35 52 bd 9a 57 e2 bd f5 bd 63 bf c9 69 0b bd
       -0.051321004 -0.11051865 -0.88961726 -0.03403643
0001f0 ea bc 7b 3f ff 3b 56 bf b0 a1 41 bf 41 51 39 bf
       0.98335135 -0.83685297 -0.7563734 -0.7238961
000200 04 94 2f bf 18 46 08 bf 16 2c 7b bf f0 07 80 bf
       -0.6858523 -0.53231955 -0.98114145 -1.0002422
000210 50 77 1c bf b4 94 30 bf 0e e8 0e bf e0 cb 29 bf
       -0.61119556 -0.689769 -0.5582284 -0.66326714
000220 05 e2 51 be 67 53 50 bf a6 ec 12 bf 4b f9 14 bf
       -0.20496376 -0.8137726 -0.57392347 -0.5819289
000230 82 16 91 bf e5 7e 35 bf 5e 34 05 bf ed 86 03 bf
       -1.1334994 -0.7089675 -0.5203303 -0.51377755
000240 c2 8d dd be ef 7e 1b bf 5f 22 60 bf 13 ec 29 bf
       -0.43272215 -0.6074056 -0.87552446 -0.66375846
000250 c7 01 e2 be ef 95 71 be 52 6b 8b 3e 55 63 b2 be
       -0.4414198 -0.23592351 0.27230316 -0.3484141
000260 9e 5f 23 bf 75 7e 00 3e c7 cf 6d 3e ad ce 61 3e
       -0.63817775 0.1254824 0.23223792 0.22051497
000270 04 81 32 bf 03 34 2f bf f2 b5 5d bf 7f 65 73 bf
       -0.6972811 -0.6843874 -0.8660575 -0.95076746
000280 04 6d 96 bf f4 b0 cb be 8f 4e e1 be 3f c7 47 bf
       -1.1752019 -0.39783442 -0.44005248 -0.780384
000290 0c d8 db be 13 16 83 bf 5c 38 d5 be 3d 3e 75 be
       -0.42938268 -1.0241112 -0.4164456 -0.23949523
0002a0 58 ce 94 be ac 14 e4 be 58 e2 87 bf f2 a6 e8 be
       -0.29063678 -0.4454702 -1.061595 -0.4543987
0002b0 7d ef ef be b9 b8 4d be d0 6e f7 be 87 7a 90 3d
       -0.46862403 -0.20089997 -0.4832673 0.0705462
0002c0 f5 7f 16 3d ee 97 d0 3d 7a d2 15 be b3 12 bb bd
       0.036743123 0.10185228 -0.14631072 -0.09134426
0002d0 df 80 31 be 83 e9 24 be ba 24 c1 bd bb 08 ea bd
       -0.17334317 -0.16104703 -0.09430833 -0.114274465
0002e0 db a9 11 3d 56 15 d9 bd dd 36 f5 bd 5e af e5 bd
       0.035562377 -0.10599773 -0.11973355 -0.11215089
0002f0 d2 66 3f bc bd a6 c0 bd 5b e6 03 be 9d 7c 2b be
       -0.011682229 -0.09406803 -0.12880842 -0.16746755
000300 78 76 cc bd 4f cf 5c bd c1 ec 10 be a7 47 16 be
       -0.099835336 -0.053908642 -0.14152814 -0.1467577
000310 da 61 e6 bd be 09 e1 bd 67 0c 46 bd bd c5 7e bd
       -0.112491325 -0.10988186 -0.04835167 -0.062200297
000320 29 01 84 3d 8b 6e 1c be 00 f0 35 be 5e 4f e2 bd
       0.06445534 -0.15276544 -0.17767334 -0.11050294
000330 94 f4 22 3e 0a 4e 21 be f9 b9 c4 bd 53 38 dc bd
       0.15913612 -0.15752426 -0.09605784 -0.107529305
000340 11 62 0f be de ca 8a 3d b4 b2 28 be fa 7a f9 bd
       -0.14002253 0.06776975 -0.1647442 -0.12181659
000350 32 fa d1 bd 3e 4e 0c 3e c9 0c 2f be 0a 1d a5 bd
       -0.10252799 0.13701722 -0.17094721 -0.080621794
000360 7c 4a 6a bd f5 80 25 be ed 8b 00 be 69 f7 d5 3d
       -0.05719994 -0.16162474 -0.12553377 0.1044758
000370 19 4b 2c be 1b 71 9e bd 1e 46 05 be 63 0f 58 3e
       -0.16825522 -0.07736417 -0.13015029 0.2109962
000380 d1 c0 12 3e f0 13 d5 bd 2e 0b ef bd 28 6b 17 be
       0.14331366 -0.104041934 -0.11672054 -0.1478697
000390 d8 fb 31 be dd 18 04 3e 21 39 bc bd 56 9d 1e be
       -0.17381227 0.1290011 -0.09190584 -0.15489706
0003a0 72 c5 f5 bd 85 ac 1b bd ae c6 29 3e 48 cf 02 be
       -0.1200055 -0.038006324 0.16579697 -0.12774384
0003b0 2b 7c 0b be eb 9a de bd 9c 52 15 be e9 70 46 be
       -0.13621585 -0.10869392 -0.14582294 -0.1937901
0003c0 79 b3 ff bd 22 85 1c be 5d 2f 04 be 70 fc 55 be
       -0.124854036 -0.15285161 -0.12908693 -0.20897079
0003d0 4c a9 cb 3d 72 51 08 be 9c 81 b9 bd 19 5b d8 bd
       0.099444 -0.13312319 -0.09057924 -0.105642505
0003e0 0b d5 3c be a1 29 d4 3d c1 29 87 3d 97 5a 07 be
       -0.18440644 0.103595026 0.06599761 -0.13218151
0003f0 13 64 5f be 67 cb 18 be 4b 20 fa bd 37 3d d3 bd
       -0.21815519 -0.14921342 -0.12213191 -0.1031441

conv2.bias f4 [20]
000000 28 13 12 bf e7 dd 15 be d7 64 dd bd 73 1b 9f be
       -0.5706048 -0.1463543 -0.10810249 -0.3107563
000010 a3 cf 85 bf e6 0e b3 be 83 64 75 be 10 54 74 3e
       -1.0453991 -0.34972304 -0.23964123 0.23860192
000020 56 b5 1b be 77 2e cd 3e 8e 8f d4 bd 14 f1 c2 bd
       -0.15205893 0.40074512 -0.103789434 -0.09518638
000030 7b dd db bd bc b4 16 be 4b 75 44 be 9f 26 de be
       -0.107356034 -0.14717382 -0.19185369 -0.4338884
000040 88 b2 0c be c5 ce a1 bd ff 1f 0f 3e e8 eb ac be
       -0.1373998 -0.07900766 0.1397705 -0.33773732

fc1.weight f4 [50, 320]
000000 85 02 53 3f 93 6c b9 3e 4a 81 00 3f d8 99 07 be
       0.8242572 0.36215648 0.5019728 -0.1324228
000010 51 7b fc be ec 39 55 bf 2c 6e be bd e5 5f 1a be
       -0.49312833 -0.83291507 -0.09298357 -0.15075643
000020 94 00 03 bf b6 73 91 3f 4f 39 81 bd 5a ba eb 3d
       -0.5117276 1.1363437 -0.06309759 0.11510153
000030 08 0b 1c 3f a7 c6 4e 3f 48 9c 8b be bd c5 5c 3f
       0.6095433 0.8077187 -0.2726767 0.86239225
000040 1e 04 95 3f 83 aa 33 3f 94 c5 db be b6 67 86 3e
       1.1641881 0.70182055 -0.42924178 0.26251
000050 98 86 26 3f 1b 55 a4 be 5e 33 39 bf 8a 98 87 3e
       0.65049124 -0.3209618 -0.72344005 0.26483566
000060 da c9 ea be 49 7e a2 bf a5 11 3a bf 47 44 89 bf
       -0.45857126 -1.2694789 -0.72683173 -1.0723962
000070 d1 85 a6 bf 09 eb ce bf 94 36 08 c0 ad 2d d7 3d
       -1.3009588 -1.6165477 -2.1283312 0.10506759
000080 5a be c1 3e 94 1b b6 be 8a 58 bf bf 5b a3 c5 3e
       0.3784054 -0.35567915 -1.4948895 0.38601193
000090 24 47 2c 3e b6 73 1d 3f e2 95 65 3f 72 d3 1a be
       0.16824013 0.61504686 0.8968183 -0.15119722
0000a0 95 dd 0b be fa 50 17 bf 9a ec 89 be fd 6c 8e bc
       -0.13658746 -0.59107935 -0.26938325 -0.017385954
0000b0 0b 9a 00 c0 b9 03 a3 bf 4c 5d 9d 3d b8 e0 60 3f
       -2.009402 -1.2735511 0.076838106 0.87842894
0000c0 6b 74 86 bf 0d 2f 0c 3d 94 59 9d bf ab d6 a1 bf
       -1.0504278 0.03422456 -1.2292962 -1.2643636
0000d0 71 9c 08 3f ad 1c 9c 3e f8 16 dc 3e 84 8b a8 be
       0.5336371 0.30490628 0.42986274 -0.32918942
0000e0 0b a1 1a 3f 22 ea 07 bf 72 b2 15 bf a5 d4 99 bf
       0.6040198 -0.53091633 -0.5847541 -1.2018019
0000f0 a3 c6 eb 3c 5d 93 96 3c 5a e3 9e bf d2 e7 23 bf
       0.02878124 0.018380815 -1.2413132 -0.64025605
000100 69 b2 86 be 4b 54 49 3e 37 35 90 bd d7 a2 bb bd
       -0.2630799 0.19661061 -0.070414 -0.091619186
000110 ac b1 09 bf 61 70 22 bf 4d e0 0c be c7 48 28 bd
       -0.5378673 -0.63452727 -0.13757439 -0.04108503
000120 80 d6 ac be d7 69 bd be fe e9 57 be e4 b7 39 3c
       -0.337574 -0.36994812 -0.21085355 0.011335347
000130 06 32 05 be e4 da 01 be dd ed ea bd 23 aa 95 3c
       -0.13007364 -0.12681156 -0.1147115 0.018269604
000140 10 9e b2 bd b4 2a d5 bd f3 a0 02 be 32 b0 bf 3c
       -0.08721554 -0.104085356 -0.1275671 0.023399446
000150 b8 00 32 be 57 f5 0f be 63 33 2b 3e 40 df 39 3e
       -0.17383087 -0.14058433 0.16718821 0.1815157
000160 94 d7 91 bd e4 e0 99 bd e1 6a d8 bd 3a 6d e9 bd
       -0.071211964 -0.075135976 -0.105672605 -0.113977864
000170 c6 f1 10 be f0 c0 23 3d 4f 8e d2 3c b0 aa ab be
       -0.14154729 0.03997892 0.025702624 -0.33528662
000180 f3 a6 4c 3e ad 95 f0 be 33 14 bf bf 5f 16 b3 be
       0.19985561 -0.46989194 -1.4928039 -0.34978005
000190 ff aa 1b be 78 41 7f be d0 1f 17 40 58 85 3c bf
       -0.15201949 -0.24927318 2.3613167 -0.73640966
0001a0 b0 ab 47 3e fe 04 12 3f 64 b3 92 3f cb 7f cb 3f
       0.19499087 0.5703887 1.1460996 1.5898374
0001b0 e2 7b d0 bf 92 a1 d2 3e 60 fe 3b bf 34 11 8d 3f
       -1.6287806 0.41138893 -0.7343502 1.1020875
0001c0 3c 4d e2 3d 75 8f 17 bf a4 45 42 bf 9e 29 3f bf
       0.110498875 -0.59203273 -0.75887513 -0.7467288
0001d0 2e 05 4e be 81 b3 09 3f bb 5f d8 be 71 3f ce bf
       -0.20119163 0.53789526 -0.42260537 -1.6113111
0001e0 20 28 13 3f c2 e1 90 bf c5 e2 2a bf 30 83 8c bf
       0.574831 -1.1318896 -0.6675227 -1.0977535
0001f0 8c 05 81 3f a2 24 ff be a0 e9 fa 3d 72 f0 6b be
       1.0079818 -0.49832636 0.12251592 -0.23040941
000200 5d b4 d9 bd da 55 41 be 28 26 3c bd 90 3d 90 bd
       -0.10630105 -0.18880406 -0.045934826 -0.07042992
000210 85 4e b1 bc 76 b9 0a be e6 40 00 be 56 85 17 be
       -0.021643886 -0.1354731 -0.12524757 -0.14796957
000220 3f b5 34 be cd 0b d1 bd e4 3f 0b bd 4c 7a df bd
       -0.17647265 -0.10207329 -0.033996478 -0.10911998
000230 91 2d 1c be e8 70 43 bd e6 3c 89 bd 6e 4f c9 bd
       -0.15251757 -0.047715098 -0.067010686 -0.09829603
000240 33 b6 ea be 72 82 74 3f 41 aa d4 3f 79 65 96 3e
       -0.45842132 0.95511544 1.6614457 0.29374292
000250 17 1c 53 3f c6 89 97 3e 49 05 94 bf b8 49 64 3f
       0.82464737 0.295973 -1.1564113 0.89174986
000260 ad 3e 19 3f 1b 8f a8 be 66 1a 81 bf 06 01 92 be
       0.5986126 -0.3292168 -1.0086181 -0.28516406
000270 1b bc 5c 3f 7a e8 18 40 e6 e5 7e 3f da 6d 80 3e
       0.86224526 2.3891892 0.9956955 0.2508381
000280 46 da a7 3d f9 fe 4b 3d 8f d4 ae 3d 5a dc db 3d
       0.08195929 0.049803708 0.08536636 0.10735388
000290 5b 2b f3 3d 99 e9 18 3e 38 a2 aa 3d 5b e8 9e 3d
       0.11873504 0.1493286 0.08331722 0.07759162
0002a0 00 dd c6 3d 75 72 9b 3d 68 17 02 3e f0 3f 85 3d
       0.09710121 0.0759019 0.12704241 0.06506336
0002b0 c8 3b fe 3d bf fb 23 3e fd f9 48 3d e4 a7 27 3e
       0.12413746 0.16014002 0.049066532 0.16372639
0002c0 37 a8 08 3e fc 74 be be ba b2 24 bf f9 53 81 bd
       0.13345419 -0.37198627 -0.64335215 -0.06314845
0002d0 21 8a f3 3e 4f b6 11 3f 64 3f d2 3d ff e9 ac be
       0.47566321 0.56918806 0.10265997 -0.33772275
0002e0 4c a2 0a 3d bd b0 f0 be 26 36 c1 bf 24 57 ad 3f
       0.033846185 -0.4700984 -1.509465 1.3542218
0002f0 22 d1 6f be c0 74 9f bf e9 7d a1 3c 9d 51 17 3f
       -0.23419622 -1.2457504 0.019713359 0.59108907
000300 38 37 1a bd 52 31 b9 3b 42 24 a0 bd 08 47 59 bd
       -0.037650317 0.0056516314 -0.07819416 -0.053046256
000310 5e 40 a7 bd 3e 76 93 bb 75 51 24 be fa e4 bd bd
       -0.08166574 -0.0045001796 -0.16046698 -0.092721894
000320 bf d4 56 bd c9 cb 3c 3d ba b5 da bd 77 80 31 be
       -0.052448984 0.046092782 -0.10679193 -0.17334162
000330 aa 05 0b 3d 43 da 03 be 71 54 a7 3b 97 83 10 be
       0.03394095 -0.12876229 0.0051065017 -0.14112698
000340 08 01 d6 3c 04 f6 b5 bc 2c a2 4c 3d b0 15 08 3d
       0.026123539 -0.022212036 0.049959347 0.033223808
000350 14 9e 42 3d b0 58 fb 3c b8 72 ea bc 28 df b2 3b
       0.047514036 0.030681938 -0.028619155 0.005458731
000360 aa 5b 9f bc 8e 57 3c 3d e4 50 3b bc 9e 2b 48 3d
       -0.019452889 0.045981936 -0.01143286 0.04886972
000370 ec f4 15 bd 40 6c 99 bb 2a 2e 2c 3d 80 d0 f2 bb
       -0.03661053 -0.004682094 0.042036213 -0.007410109
000380 55 56 78 3c 31 cd 8e 3d 7b d5 6d 3e c3 40 34 3e
       0.015157302 0.06972731 0.23225968 0.1760283
000390 c7 61 05 3e 14 b6 fa 3d 9e 77 13 3e 72 9e 42 3e
       0.1302558 0.1224176 0.14401099 0.19005755
0003a0 48 8c 6e bb 37 7f a6 3d 3f 34 de 3d 30 53 08 3e
       -0.0036399532 0.08129733 0.10849809 0.13312984
0003b0 2b 7e 37 3e 12 68 3a 3e aa 32 19 3e 8b 34 ef 3e
       0.17919223 0.18203762 0.14960733 0.46719775
0003c0 47 48 f9 be d0 4e cc bd eb 2f ba 3d ef 1c 69 3d
       -0.48687956 -0.0997597 0.09091171 0.05691236
0003d0 92 dc 8a be 88 c9 c8 3c 94 68 0b 3e 54 71 db 3d
       -0.27121407 0.02451016 0.13614112 0.10714975
0003e0 bb db f5 bd 16 a9 3e 3d 09 71 f6 3d 55 c1 9f bd
       -0.12004801 0.04654797 0.120332785 -0.07800547
0003f0 ac 35 79 be 2d b2 40 be b9 63 18 3e 92 9c a7 bd
       -0.2433688 -0.18817969 0.14881791 -0.0818416

fc1.bias f4 [50]
000000 b1 37 e3 3e 88 f7 43 bf d7 62 a0 3e ca 5e 2b be
       0.44378427 -0.7654958 0.3132541 -0.16735378
000010 68 4c a8 bf 3b ca ad 3e 9a 16 e3 be 81 07 de bd
       -1.3148317 0.33943352 -0.4435318 -0.10841275
000020 7a 5b d0 3e 42 0e b9 bf 28 b9 4e 3f f1 0f 39 c0
       0.4069479 -1.4457476 0.80751276 -2.891598
000030 5d 81 9b be a7 8c ff bd 11 bc 33 be c5 ab f1 bf
       -0.30372134 -0.12477999 -0.1755221 -1.8880545
000040 60 d6 b1 3e 96 ff ed 3e e3 b1 b3 bf 0c 46 39 bf
       0.34733868 0.4648406 -1.4038662 -0.7237251
000050 dd f1 4b bd a7 6a 97 bf 59 3c 95 be 10 99 26 3e
       -0.049791206 -1.1829423 -0.29147604 0.16269326
000060 65 9c ec 3e 14 a5 42 3f f8 ba a6 bf 7d 81 4b 3e
       0.4621307 0.7603314 -1.3025808 0.19873615
000070 b3 3e bc be 8a a3 52 be 97 fc 35 c0 f3 53 c7 3e
       -0.36766586 -0.20570198 -2.8435419 0.38931236
000080 74 ed 3e bf fa 46 da be ab 57 eb be 7d 8f ca be
       -0.74581075 -0.42632276 -0.45965323 -0.39562598
000090 a8 25 94 bf 39 6a 96 bf 1f 6e 3d 3f 8b f1 88 3f
       -1.1573992 -1.1751167 0.73996156 1.0698713
0000a0 4e c2 ac bf 23 c9 b2 be 03 90 96 3d 3b 17 e7 bd
       -1.3496797 -0.3491908 0.07351687 -0.11283728
0000b0 b4 55 c2 bf ea 33 90 be 3c 0a ac bd 46 c1 c2 bd
       -1.5182405 -0.28164607 -0.084003896 -0.0950952
0000c0 7f b1 42 3f 93 da 7b 3e
       0.7605209 0.24595098

fc2.weight f4 [10, 50]
000000 96 12 25 bf 6f c4 ad be 47 07 8c be e8 c8 2e 3e
       -0.64481485 -0.3393893 -0.27349302 0.17068827
000010 f2 7e 2e bc 72 e2 71 3e 44 8f 0f bd fb ed eb be
       -0.010650383 0.23621538 -0.035048738 -0.46080002
000020 32 8f e4 3e b8 ac 8e 3e 73 35 55 3e 13 95 5c bf
       0.446405 0.2786615 0.2082117 -0.8616497
000030 7b 79 48 be fa 19 5a be 2d 07 be be fb c8 dd be
       -0.19577591 -0.21298972 -0.3711485 -0.43317398
000040 2b aa b2 3e ec c2 67 be 87 1d 15 bf 38 89 2d 3e
       0.34895453 -0.2263295 -0.5824818 0.16946876
000050 ad 04 a5 3b 18 4c 1c be 67 07 19 bd 8b fb dd be
       0.005035958 -0.15263402 -0.037360575 -0.43355975
000060 8e d0 c7 be af e6 39 be 56 9f 49 3e 8f 1a 89 bd
       -0.39026302 -0.18154405 0.19689688 -0.06694519
000070 8b 27 17 be 05 d9 be bd ac b2 21 be 23 70 0f bf
       -0.14761178 -0.09318737 -0.15790814 -0.5603048
000080 18 c4 86 3d ac 64 6b bd bc 27 c5 3d 20 0a 83 bc
       0.06580371 -0.057469055 0.09626719 -0.015996039
000090 f0 67 81 be 92 94 cc 3e ee dd 80 3e 62 43 b0 3e
       -0.2527461 0.399571 0.2516932 0.3442641
0000a0 0a 61 c2 be 80 8c 93 be 02 84 cc be f4 a1 19 bd
       -0.3796466 -0.2881813 -0.39944464 -0.037507966
0000b0 a0 57 36 bd 8d b4 8f be ff af 29 bf 8d 15 63 be
       -0.04451716 -0.28067437 -0.66284174 -0.2217619
0000c0 e7 3f 83 be 7e c6 03 be 9c cc 98 3e 85 9c e0 bd
       -0.2563469 -0.12868688 0.29843605 -0.10967354
0000d0 a4 20 a1 3e 94 f6 52 bf 4e c6 80 bf 84 73 c1 be
       0.31470215 -0.824075 -1.0060518 -0.37783444
0000e0 1b 1c 86 bf 9a d5 1d bf 37 ba 83 bf 9a e7 b0 bd
       -1.0477327 -0.61654055 -1.0291203 -0.086379245
0000f0 e3 5d 81 be cb 28 dc bf d5 35 d9 be 3a 12 fa bb
       -0.25266942 -1.7199949 -0.42423883 -0.0076315673
000100 35 0e 6a be 53 61 3d be 74 56 81 be 83 b3 d4 3d
       -0.22856982 -0.18494157 -0.2526127 0.10385802
000110 2a bd c0 be 5b 33 3d be cd eb d8 be 43 db 6b be
       -0.3764432 -0.18476622 -0.42367402 -0.2303286
000120 56 e0 7a bd 56 6e 10 bf a0 bf 69 3e 98 75 82 3e
       -0.0612491 -0.5641836 0.22827005 0.25480342
000130 f7 c3 0a 3e 51 7e 9a 3d 3e 99 0d bf c4 6b 03 3e
       0.13551317 0.07543624 -0.55311954 0.12834078
000140 dd 48 52 bf be ac 5d 3e 9b 8a d9 bd a6 9d aa 3d
       -0.8214243 0.21647927 -0.1062214 0.0833085
000150 da 5e 61 be 5d 82 62 3e c8 08 e4 be 86 a2 db be
       -0.22008839 0.22120042 -0.4453795 -0.42897433
000160 cf e6 b1 be e1 59 0e 3e 2f c3 0b bf 8a 57 df be
       -0.34746405 0.13901474 -0.545947 -0.43621475
000170 20 f3 18 bf 3b 92 5e be 89 59 20 bf 74 3e 97 be
       -0.5974598 -0.2173547 -0.6263662 -0.29539835
000180 d9 fd b5 bd ea 48 ed be d1 f0 88 3e 49 35 90 be
       -0.08886308 -0.46344692 0.26746228 -0.28165653
000190 2d 1a 48 be da 79 f0 bd ff 30 00 3d 8d b0 5d be
       -0.19541235 -0.11741991 0.031296726 -0.2164938
0001a0 a5 63 17 bf f1 2d 95 3e 0e 8c be be c8 3e 3c be
       -0.5913642 0.29136613 -0.37216228 -0.18383324
0001b0 15 22 3a be 9c a9 00 3f 4d cf 51 bd 67 1b 02 be
       -0.18177064 0.50258803 -0.051223088 -0.12705766
0001c0 1a a1 82 be d5 e5 48 be 95 bb 8c be 39 3b 9d be
       -0.25513536 -0.19618924 -0.27486864 -0.30709246
0001d0 ca 20 12 be df 44 44 3e 87 7e 83 be ce e9 8d 3e
       -0.1427032 0.19166897 -0.2568247 0.2771744
0001e0 14 6b 3f 3e ef cb a3 be 7c 17 e1 bd e3 66 18 be
       0.18693191 -0.31991526 -0.109908074 -0.14882998
0001f0 d3 1d 79 bd 20 24 a0 be c8 f4 62 3e fd 17 14 3e
       -0.06081946 -0.3127756 0.22163689 0.14462276
000200 7f 82 e7 3c 0e 3c 6e 3e 07 ef c6 be 03 fc 94 be
       0.028260468 0.23265097 -0.38854238 -0.2909852
000210 c4 ff ce 3e 01 90 c9 be 18 01 1b be c2 16 db 3e
       0.4042951 -0.3936768 -0.15137136 0.427908
000220 ea ba 0a bf c7 29 23 bf 8d 65 08 be 70 14 01 be
       -0.5419146 -0.6373562 -0.13319989 -0.12605453
000230 21 39 99 be 80 8d 15 3e df 75 20 3d 0b 48 4a be
       -0.29926398 0.14604759 0.03917491 -0.19754045
000240 f2 78 f0 3a f9 55 0b 3e b8 48 22 bc 59 90 d7 3d
       0.0018346591 0.13607015 -0.009905033 0.10525579
000250 fa 13 7a be 58 2c 19 be 1a 72 38 be e1 75 a7 3e
       -0.24421683 -0.14958322 -0.18012276 0.32707122
000260 e9 68 ce be 5a e0 4d 3e 67 dd 31 bc 12 65 d2 bd
       -0.40314415 0.20105115 -0.010856009 -0.10273184
000270 13 5b bd be 4c 9d ba bc 43 dc 2f 3d ec 3f 11 be
       -0.36983547 -0.022780083 0.042934667 -0.1418454
000280 fc f6 b6 bd 5d a1 a9 be be 7e b7 be 4c 7d 7c be
       -0.08933827 -0.33130923 -0.35838884 -0.24657172
000290 b0 ff 32 be d9 09 31 3e 19 f1 78 be 22 a3 8e be
       -0.1748035 0.17288913 -0.24310721 -0.27858835
0002a0 73 6a 80 3e ea 8c 8e 3e 2d b5 9a be 3e 77 ab 3d
       0.25081214 0.27841884 -0.3021635 0.08372353
0002b0 6f c4 ac bd 90 66 24 be c0 34 d4 3d 68 60 8b be
       -0.08435904 -0.1605475 0.10361624 -0.2722199
0002c0 d3 30 58 3e da 0b cf 3d f4 f7 0e be f8 1c 27 ba
       0.21112375 0.101096824 -0.13961774 -0.0006374861
0002d0 d7 1a a8 be f3 87 80 be 53 77 8c 3d de 32 ef be
       -0.32832977 -0.2510372 0.06858697 -0.46718496
0002e0 2f 2a 3b be dd e6 25 3d c4 59 1c bf ca 48 8c be
       -0.1827781 0.04050337 -0.6107447 -0.27399284
0002f0 fc b5 84 be 2c 5e 15 be d9 59 ce 3d 83 91 59 be
       -0.25920093 -0.14586705 0.10075731 -0.21246915
000300 a5 e5 8e be e4 8e 0a 3d 8e ee 33 3e a5 80 a3 3e
       -0.2790958 0.033827677 0.1757147 0.31934085
000310 31 d5 38 3e 59 3c 5d 3e b4 16 84 be 37 9c 6c bd
       0.18050076 0.21605052 -0.2579857 -0.057766166
000320 7a 5d d1 3c bc 3c f2 be cd 06 95 3e fb 2a eb be
       0.025557268 -0.47311962 0.2910675 -0.4593123
000330 2b 38 ef bc b8 af bc bd 32 ce 19 bf 12 70 b4 be
       -0.029201588 -0.09213203 -0.60080254 -0.35241753
000340 ec e2 2b be 5b f5 ab bd fd b1 6a be f9 cd 4f bf
       -0.16785783 -0.08396407 -0.2291946 -0.81173664
000350 a6 b4 87 3e 36 0d 36 3d 1f e7 29 3e bb 22 41 bf
       0.2650501 0.044446193 0.16592072 -0.7544362
000360 09 a3 6a be 4e e8 a2 be f6 26 8a 3d 5a 1a 97 3e
       -0.22913755 -0.3181786 0.067457125 0.29512292
000370 7a 7f c1 3e f4 76 e6 bd 55 d4 66 bd 6f 04 2b 3e
       0.3779257 -0.11253157 -0.05635484 0.1670091
000380 57 90 47 bd c9 cc b4 be 0d 02 9e be 73 f8 3b be
       -0.048721638 -0.3531249 -0.3086094 -0.18356495
000390 57 e8 da 3e c0 15 72 be 75 e0 7f bd 13 33 03 3e
       0.42755386 -0.2364111 -0.06246992 0.12812452
0003a0 db 44 b4 bd c0 47 3c be ab 99 be be b0 a1 1b be
       -0.08802196 -0.18386745 -0.37226614 -0.15198398
0003b0 cc 41 df be d8 6a 28 bf 6b e0 0a bf ac 87 85 3b
       -0.43604887 -0.6578803 -0.54248685 0.0040750112
0003c0 1d c4 8c be 71 d2 9e be fe 12 e0 3d 78 33 55 3e
       -0.27493373 -0.3101993 0.109411225 0.20820415
0003d0 02 a6 a6 be 50 ac cf 3c bb 35 2a 3e 2d 7a 05 be
       -0.3254853 0.02535072 0.16622059 -0.13034888
0003e0 91 5c 8f be 13 fc 87 3e 20 0e 88 be 8b ac 35 bb
       -0.2800031 0.26559505 -0.26573277 -0.0027721252
0003f0 c1 6a 65 bd 43 97 82 3e 7c 44 74 3e 8b 19 f9 be
       -0.05601001 0.2550603 0.2385425 -0.486523

fc2.bias f4 [10]
000000 d5 5a 1a 3e 3e 15 54 3e bb 9d 14 be 03 e9 06 3e
       0.15073712 0.20711228 -0.14513294 0.13174824
000010 5e 94 a5 be 39 3e a0 3e e5 2c 13 bf 59 61 4f bf
       -0.32339758 0.31297472 -0.5749038 -0.81007916
000020 56 e5 52 3f b1 ea 96 3e
       0.8238119 0.2947593

exp_avg f4 [10, 1, 5, 5]
000000 04 00 00 00 04 00 00 00 04 00 00 00 04 00 00 00
       6e-45 6e-45 6e-45 6e-45
000010 04 00 00 00 04 00 00 00 04 00 00 00 04 00 00 00
       6e-45 6e-45 6e-45 6e-45
000020 04 00 00 00 04 00 00 00 04 00 00 00 04 00 00 00
       6e-45 6e-45 6e-45 6e-45
000030 04 00 00 00 04 00 00 00 04 00 00 00 04 00 00 00
       6e-45 6e-45 6e-45 6e-45
000040 04 00 00 00 04 00 00 00 04 00 00 00 04 00 00 00
       6e-45 6e-45 6e-45 6e-45
000050 04 00 00 00 04 00 00 00 04 00 00 00 04 00 00 00
       6e-45 6e-45 6e-45 6e-45
000060 04 00 00 00 04 00 00 00 04 00 00 00 04 00 00 00
       6e-45 6e-45 6e-45 6e-45
000070 04 00 00 00 04 00 00 00 04 00 00 00 04 00 00 00
       6e-45 6e-45 6e-45 6e-45
000080 04 00 00 00 04 00 00 00 04 00 00 00 04 00 00 00
       6e-45 6e-45 6e-45 6e-45
000090 04 00 00 00 04 00 00 00 04 00 00 00 04 00 00 00
       6e-45 6e-45 6e-45 6e-45
0000a0 04 00 00 00 04 00 00 00 04 00 00 00 04 00 00 00
       6e-45 6e-45 6e-45 6e-45
0000b0 04 00 00 00 04 00 00 00 04 00 00 00 04 00 00 00
       6e-45 6e-45 6e-45 6e-45
0000c0 04 00 00 00 04 00 00 00 59 84 9f 07 9a 6b a4 08
       6e-45 6e-45 2.4001448e-34 9.895688e-34
0000d0 7a 63 8e 08 46 55 a8 07 08 52 70 06 86 bf eb 06
       8.569701e-34 2.532795e-34 4.519925e-35 8.8678594e-35
0000e0 77 f3 62 08 c4 3e 29 08 b5 aa 60 06 4a 1b 13 83
       6.8295593e-34 5.093037e-34 4.2255133e-35 -4.3230744e-37
0000f0 0b 1e 8a 84 04 38 11 06 3e 77 21 06 d3 0a ef 84
       -3.2471234e-36 2.7312623e-35 3.036834e-35 -5.619857e-36
000100 1c d3 a0 85 0d b1 fa 01 e5 03 64 01 5d 7c 86 01
       -1.5123877e-35 9.208955e-38 4.187978e-38 4.940228e-38
000110 a5 98 03 00 f7 c1 1b 84 0f 4d b9 05 50 0e 04 02
       3.30265e-40 -1.8309227e-36 1.7425623e-35 9.701936e-38
000120 67 55 1f 02 6f 00 c7 03 29 2b b7 06 04 00 00 00
       1.1705984e-37 1.1696268e-36 6.890037e-35 6e-45
000130 04 00 00 00 04 00 00 00 04 00 00 00 04 00 00 00
       6e-45 6e-45 6e-45 6e-45
000140 04 00 00 00 04 00 00 00 04 00 00 00 04 00 00 00
       6e-45 6e-45 6e-45 6e-45
000150 04 00 00 00 04 00 00 80 04 00 00 00 04 00 00 00
       6e-45 -6e-45 6e-45 6e-45
000160 04 00 00 00 04 00 00 00 04 00 00 00 04 00 00 00
       6e-45 6e-45 6e-45 6e-45
000170 04 00 00 00 04 00 00 00 04 00 00 00 04 00 00 00
       6e-45 6e-45 6e-45 6e-45
000180 04 00 00 00 04 00 00 00 04 00 00 00 04 00 00 00
       6e-45 6e-45 6e-45 6e-45
000190 a2 c7 ce 3d 2a 3a 3d 3d 86 fd 9d 3c a8 f7 bf b9
       0.10096671 0.046198048 0.019285928 -0.00036614877
0001a0 33 29 bb 3b c2 98 b4 3d 80 10 4f 3c 40 22 17 3c
       0.0057116984 0.08818199 0.012638211 0.009224474
0001b0 4e c9 8b b8 c5 9a 0a 3a e6 43 5a 3d 82 1e fd bb
       -6.6655324e-05 0.00052873447 0.05328741 -0.007724584
0001c0 ae 2e 16 3a cc 65 8d 36 3a 74 2f b8 26 55 6a 3c
       0.0005729002 4.213978e-06 -4.1831496e-05 0.0143025275
0001d0 ce 22 b8 bc a6 97 e6 b9 39 a1 01 ba 60 ab 0d b8
       -0.022477534 -0.00043982005 -0.00049449835 -3.3776625e-05
0001e0 a7 d0 28 3d 83 90 4f 3c c2 3b 19 3b 4e 69 a6 ba
       0.04121461 0.012668732 0.0023381566 -0.0012696178
0001f0 da 15 d9 bb b7 c8 3a bc 59 29 89 3d a8 0d 7e 3d
       -0.0066249194 -0.011400393 0.066973396 0.062024742
000200 3c fa 06 3d 25 c4 a9 3d 1f 8c 99 bd 62 29 22 bd
       0.032953486 0.08289365 -0.07497429 -0.039590247
000210 32 df 94 bc 0d 06 a5 3c c2 1a f2 3c 74 eb b4 bd
       -0.018172834 0.020144487 0.029553775 -0.088339716
000220 84 cc 16 bd 38 a4 9b bb bd 7c 89 3c 48 4d bf ba
       -0.036816135 -0.004749801 0.016783113 -0.0014595175
000230 dc a3 1e bd 26 ad f5 3c 26 a7 ba 3c 2b 28 8f 3c
       -0.038730487 0.02998979 0.02278478 0.017475208
000240 a8 76 ed 3c 14 23 80 bb 74 32 6c bc 78 9b 43 3c
       0.028987244 -0.0039104316 -0.014416326 0.011938922
000250 37 cb 3a 3c 9f 8f 40 3d d0 cf d3 3a c7 8b a7 3c
       0.011400989 0.047011968 0.0016159955 0.020452393
000260 e6 6d 03 3d f6 23 86 bb 22 e0 50 bd 13 ae 49 bb
       0.03208723 -0.0040936423 -0.050995 -0.0030773922
000270 80 e6 a1 bc c8 fd db ba a8 e5 cd bc b8 c5 a8 bd
       -0.019763231 -0.0016784007 -0.025133923 -0.08240837
000280 9d d5 4d bb 1e f0 38 bc a1 8a bf bb 1b ba dd bc
       -0.003140784 -0.011287717 -0.0058453833 -0.027066281
000290 2c 40 b4 bd 0e 36 bc ba f7 ed 78 bb ef af be ba
       -0.08801302 -0.0014359371 -0.0037983635 -0.0014548282
0002a0 50 cd 91 bc d5 93 47 bd 58 08 94 b9 62 a4 43 ba
       -0.017798096 -0.048724968 -0.00028234976 -0.00074631546
0002b0 51 72 6c ba 94 79 82 ba e2 12 ab ba 04 00 00 00
       -0.000901972 -0.0009954446 -0.0013051892 6e-45
0002c0 04 00 00 00 04 00 00 00 04 00 00 00 04 00 00 00
       6e-45 6e-45 6e-45 6e-45
0002d0 04 00 00 00 04 00 00 00 04 00 00 00 04 00 00 00
       6e-45 6e-45 6e-45 6e-45
0002e0 04 00 00 00 04 00 00 00 04 00 00 00 04 00 00 00
       6e-45 6e-45 6e-45 6e-45
0002f0 04 00 00 00 04 00 00 00 04 00 00 00 04 00 00 00
       6e-45 6e-45 6e-45 6e-45
000300 04 00 00 00 04 00 00 00 04 00 00 00 04 00 00 00
       6e-45 6e-45 6e-45 6e-45
000310 04 00 00 00 04 00 00 00 04 00 00 00 04 00 00 00
       6e-45 6e-45 6e-45 6e-45
000320 04 00 00 00 04 00 00 00 04 00 00 00 04 00 00 00
       6e-45 6e-45 6e-45 6e-45
000330 04 00 00 00 04 00 00 00 04 00 00 00 04 00 00 00
       6e-45 6e-45 6e-45 6e-45
000340 04 00 00 00 04 00 00 00 04 00 00 00 04 00 00 00
       6e-45 6e-45 6e-45 6e-45
000350 04 00 00 00 04 00 00 00 04 00 00 00 04 00 00 00
       6e-45 6e-45 6e-45 6e-45
000360 04 00 00 00 04 00 00 00 04 00 00 00 04 00 00 00
       6e-45 6e-45 6e-45 6e-45
000370 04 00 00 00 04 00 00 00 04 00 00 00 04 00 00 00
       6e-45 6e-45 6e-45 6e-45
000380 04 00 00 00 04 00 00 00 04 00 00 80 04 00 00 80
       6e-45 6e-45 -6e-45 -6e-45
000390 04 00 00 00 04 00 00 00 04 00 00 80 04 00 00 80
       6e-45 6e-45 -6e-45 -6e-45
0003a0 04 00 00 00 04 00 00 00 04 00 00 00 04 00 00 80
       6e-45 6e-45 6e-45 -6e-45
0003b0 04 00 00 80 04 00 00 80 04 00 00 00 04 00 00 00
       -6e-45 -6e-45 6e-45 6e-45
0003c0 04 00 00 80 04 00 00 00 04 00 00 00 04 00 00 00
       -6e-45 6e-45 6e-45 6e-45
0003d0 04 00 00 80 04 00 00 80 04 00 00 00 04 00 00 00
       -6e-45 -6e-45 6e-45 6e-45
0003e0 04 00 00 80 04 00 00 00
       -6e-45 6e-45

exp_avg_sq f4 [10, 1, 5, 5]
000000 92 cc 42 32 8d a3 bf 31 19 ec a1 31 f3 85 c6 31
       1.13388e-08 5.577425e-09 4.712558e-09 5.7777867e-09
000010 7f 9f 82 31 28 bd 84 32 66 30 c3 31 f3 93 84 31
       3.8016306e-09 1.545284e-08 5.680749e-09 3.8585255e-09
000020 01 ba 48 31 dc f7 a3 30 40 3e a9 32 89 d4 56 32
       2.9209561e-09 1.1930257e-09 1.9702497e-08 1.2504764e-08
000030 97 5b fc 31 ee e6 5a 31 5e 0a d9 30 ee d6 3e 33
       7.344578e-09 3.1854444e-09 1.5791775e-09 4.44333e-08
000040 61 89 f0 32 49 da 25 32 60 b1 8e 31 c0 25 dd 30
       2.800215e-08 9.653896e-09 4.152909e-09 1.6090596e-09
000050 42 5d 88 33 b7 14 34 33 73 c2 9a 32 b8 cc f8 31
       6.349957e-08 4.1928356e-08 1.8016385e-08 7.241024e-09
000060 47 f8 14 31 d7 06 be 31 ab fa 42 31 47 62 98 30
       2.1677964e-09 5.5305054e-09 2.8373204e-09 1.1087388e-09
000070 7d 21 f7 2f 7b 27 9e 30 29 58 cc 31 df d5 91 31
       4.4952833e-10 1.1507234e-09 5.947204e-09 4.2443697e-09
000080 88 ef 69 31 cb b0 e5 30 c2 7d fa 30 03 d6 ac 31
       3.404212e-09 1.671219e-09 1.8225637e-09 5.030189e-09
000090 c0 5b ce 31 93 7b 12 32 69 1e db 31 0c bf 3b 31
       6.00582e-09 8.526416e-09 6.377196e-09 2.732068e-09
0000a0 62 e8 71 31 66 dd dc 31 e8 58 90 32 3e 8e 8e 32
       3.520221e-09 6.428013e-09 1.6804236e-08 1.659566e-08
0000b0 9e e0 67 32 c5 89 9b 31 da 8e 3b 32 15 09 ae 32
       1.3497042e-08 4.5267563e-09 1.0917313e-08 2.0260396e-08
0000c0 6d 64 d4 32 22 9f a1 32 c7 43 9e 3b e4 85 14 3c
       2.4725717e-08 1.8815232e-08 0.004829857 0.009065125
0000d0 2c 11 f4 3b c9 81 8b 3a cf 25 c9 38 46 7b 37 3a
       0.007448336 0.0010643537 9.591469e-05 0.0006999265
0000e0 b0 68 40 3b 00 1f 13 3b 53 2e 3d 39 0a 14 11 36
       0.0029359274 0.0022448897 0.00018041702 2.1618348e-06
0000f0 f8 82 03 38 e7 ef 01 39 5d f9 12 38 5b 87 cc 36
       3.1354808e-05 0.00012391769 3.504135e-05 6.095431e-06
000100 a3 25 35 36 09 d3 f4 35 ec fa 33 36 a2 47 af 35
       2.699301e-06 1.8240836e-06 2.6819134e-06 1.3059364e-06
000110 dd 20 fa 35 00 1b e6 37 0a 77 cf 37 6e 77 69 36
       1.8636016e-06 2.743071e-05 2.4731755e-05 3.4789223e-06
000120 28 71 38 36 ee 56 3f 38 44 8f 0f 3a f9 24 e9 2f
       2.7484002e-06 4.561891e-05 0.00054763653 4.2408724e-10
000130 47 40 33 2e f8 b6 88 2f b4 9c c3 2f 87 4c e8 2f
       4.0756978e-11 2.4868263e-10 3.5581638e-10 4.225493e-10
000140 19 ca b0 2d 32 47 2a 2d 57 90 0a 2f 24 c8 df 2e
       2.0098633e-11 9.67919e-12 1.2602307e-10 1.0176418e-10
000150 5e a4 56 2f 19 16 08 2f fb 4a f7 2d c9 85 e2 2f
       1.9521582e-10 1.2376979e-10 2.8113947e-11 4.120422e-10
000160 21 a7 b3 2f 5a 74 67 30 3c 9c e0 30 17 bb d6 30
       3.2678663e-10 8.4202656e-10 1.634255e-09 1.5623723e-09
000170 b3 a2 7c 30 96 e6 93 2f 64 3b e9 30 8c 4b 00 31
       9.1908275e-10 2.6902985e-10 1.6969861e-09 1.8669395e-09
000180 9b 37 3b 31 85 7a 5c 31 30 3e 89 31 be e2 05 32
       2.724369e-09 3.2083858e-09 3.9942947e-09 7.793174e-09
000190 04 0c f9 3d cb fd ba 3d ee 16 fb 3c 8f b4 54 3b
       0.12160495 0.091304384 0.030650582 0.0032456254
0001a0 e1 1c 11 3a 1d bc 02 3e 98 8f 47 3d 13 f4 9b 3b
       0.00055356143 0.12767072 0.048720926 0.0047593205
0001b0 17 16 7b 39 9e c2 51 39 b2 29 b7 3d 32 4f 94 3c
       0.00023945454 0.00020004294 0.089434996 0.01810417
0001c0 cd 1e 07 3a 84 0a 38 38 ca 90 4d 38 d9 30 53 3d
       0.0005154431 4.3878812e-05 4.9010654e-05 0.051560257
0001d0 6a aa 2b 3c 35 fa 93 39 d4 da 0b 39 8a 01 f2 38
       0.010477642 0.00028224444 0.00013337593 0.00011539746
0001e0 32 2d 29 3d 7f d2 63 3c 45 87 06 3b 72 fe 85 3a
       0.041302867 0.013905167 0.0020527404 0.0010222925
0001f0 15 20 e0 3a 4f ae 9a 3d a2 0f 9c 3d 88 7c a4 3d
       0.0017099405 0.07552778 0.07620169 0.08031565
000200 cb 43 d5 3d 34 8b ea 3d b8 26 a2 3d 86 22 c1 3d
       0.10413321 0.11452332 0.07917541 0.09430413
000210 40 c2 e0 3d f7 bc 0a 3e 85 94 09 3e 0a 1f b7 3d
       0.1097455 0.13548647 0.13435562 0.08941467
000220 92 08 f5 3d b8 8f 23 3e f5 fd 43 3e c9 74 25 3e
       0.11964525 0.15972793 0.19139846 0.16157831
000230 1f bf c8 3d 26 d0 02 3e e6 39 22 3e 2e d0 37 3e
       0.098020785 0.12774715 0.15842399 0.17950508
000240 f2 f6 1e 3e b8 42 c0 3d a2 65 e6 3d db 76 05 3e
       0.1552389 0.093877256 0.11249854 0.13033621
000250 2c 1f 0b 3e 37 55 fa 3d 16 1e 43 3c 02 a0 be 3c
       0.1358611 0.12223285 0.0119090285 0.023269657
000260 40 eb 0e 3d 0d 22 77 3d 94 ed ad 3d 9d 79 bd 3b
       0.03489232 0.060335208 0.0849258 0.0057823197
000270 43 4f 51 3c 18 b8 e4 3c 73 42 77 3d 05 6c b7 3d
       0.012775245 0.027919814 0.060366105 0.0895615
000280 a4 68 7c 3a 72 46 63 3b 21 bb 83 3c 7e 0c 0d 3d
       0.000962863 0.003467944 0.016080441 0.03443574
000290 43 9f 46 3d 72 ea 96 39 06 7e 3f 3a c1 9d 7b 3b
       0.048491728 0.00028784905 0.0007304851 0.003839359
0002a0 12 c8 27 3c 22 ec 84 3c f9 5c 07 3b 34 49 a4 39
       0.010240572 0.016225878 0.0020654781 0.00031335058
0002b0 8f 88 b1 39 dc b7 fd 39 0f 67 38 3a 42 39 9b 33
       0.00033861815 0.00048392906 0.00070344 7.228165e-08
0002c0 db 14 c8 33 7e 50 ce 33 85 8e b3 33 ab 93 46 33
       9.317019e-08 9.607264e-08 8.361261e-08 4.623477e-08
0002d0 03 0e d5 33 1b 04 ca 33 a4 a4 a2 33 65 f4 6a 33
       9.921134e-08 9.407105e-08 7.573661e-08 5.4704646e-08
0002e0 84 3e 13 33 a1 7a b3 33 61 90 04 33 50 5e 9f 32
       3.4282962e-08 8.357643e-08 3.0864957e-08 1.8552925e-08
0002f0 bc 01 ce 32 92 68 6e 33 cf d5 01 33 1d 51 ab 31
       2.3982345e-08 5.55088e-08 3.022961e-08 4.9859765e-09
000300 db 7e 11 32 fb b0 10 33 fe f9 bd 33 58 ca 52 32
       8.468954e-09 3.3688575e-08 8.8464716e-08 1.2269616e-08
000310 9f a9 8c 31 7e c3 49 32 47 9c 5a 33 5e 1f ce 33
       4.09382e-09 1.174419e-08 5.0899214e-08 9.598328e-08
000320 fc a1 b9 31 85 ee 94 31 2f 95 bd 31 86 18 dd 32
       5.402624e-09 4.3344834e-09 5.517584e-09 2.5738938e-08
000330 41 ed 08 33 a7 1c d0 30 c4 cf 13 31 93 e3 b6 32
       3.188075e-08 1.5142135e-09 2.1509416e-09 2.1291077e-08
000340 c4 72 3d 33 42 31 c4 32 23 0e c8 30 aa 91 e5 31
       4.410937e-08 2.2839803e-08 1.4555933e-09 6.6813373e-09
000350 3a 6b fb 32 b3 96 47 33 56 55 cb 32 7a 0c 43 31
       2.9269007e-08 4.647036e-08 2.3671117e-08 2.8383327e-09
000360 99 65 29 32 4d b8 d5 32 40 80 d3 32 c0 56 64 32
       9.860195e-09 2.4880274e-08 2.4621954e-08 1.3291071e-08
000370 5c 4e b4 31 37 64 98 32 82 05 bb 32 b0 4f 85 32
       5.247598e-09 1.7740701e-08 2.177217e-08 1.5519475e-08
000380 1b ee 72 32 01 d3 18 33 f7 f9 f3 30 87 7a e1 31
       1.4140393e-08 3.5582165e-08 1.7751621e-09 6.5622916e-09
000390 a2 90 98 32 95 b9 46 33 2e 44 74 30 b0 b8 81 30
       1.77609e-08 4.6269253e-08 8.886357e-10 9.438477e-10
0003a0 cc 1f 2d 32 fe e3 1c 33 95 9b 61 33 86 cc 53 31
       1.0077155e-08 3.6528938e-08 5.2528396e-08 3.08208e-09
0003b0 e7 1e 0d 32 55 eb ec 32 93 5b 31 33 8b 4e 60 33
       8.214307e-09 2.7581033e-08 4.129431e-08 5.22255e-08
0003c0 17 88 6a 33 0b d8 65 32 89 40 03 33 cf f6 08 33
       5.4606144e-08 1.3378677e-08 3.055951e-08 3.188944e-08
0003d0 29 33 ad 32 db ed 86 35 f8 c2 ce 32 2e fd 01 33
       2.0163116e-08 1.0053003e-06 2.4070218e-08 3.026542e-08
0003e0 1a 85 03 33 3b c3 80 33
       3.062187e-08 5.995977e-08

exp_avg f4 [10]
000000 04 00 00 00 04 00 00 00 96 99 9d 08 04 00 00 00
       6e-45 6e-45 9.485202e-34 6e-45
000010 c8 84 cb 3d 8e ef 86 3d d9 4c 16 bd 04 00 00 00
       0.099374354 0.0658866 -0.03669438 6e-45
000020 04 00 00 00 04 00 00 00
       6e-45 6e-45

exp_avg_sq f4 [10]
000000 4c a9 9f 33 3f f6 a4 32 6f 34 6a 3c 05 b9 93 32
       7.4348094e-08 1.9204093e-08 0.014294728 1.719719e-08
000010 84 06 21 3e f0 c3 8c 3e 8b 39 2d 3e 2e b1 12 35
       0.15725142 0.27493238 0.16916482 5.464707e-07
000020 82 61 a1 33 d4 32 b9 39
       7.514883e-08 0.0003532382

exp_avg f4 [20, 10, 5, 5]
000000 04 00 00 00 04 00 00 00 04 00 00 00 04 00 00 00
       6e-45 6e-45 6e-45 6e-45
000010 04 00 00 00 04 00 00 00 04 00 00 00 04 00 00 00
       6e-45 6e-45 6e-45 6e-45
000020 04 00 00 00 04 00 00 00 04 00 00 00 04 00 00 00
       6e-45 6e-45 6e-45 6e-45
000030 04 00 00 00 04 00 00 00 04 00 00 00 04 00 00 00
       6e-45 6e-45 6e-45 6e-45
000040 04 00 00 00 04 00 00 00 04 00 00 00 04 00 00 00
       6e-45 6e-45 6e-45 6e-45
000050 04 00 00 00 04 00 00 00 04 00 00 00 04 00 00 00
       6e-45 6e-45 6e-45 6e-45
000060 04 00 00 00 04 00 00 00 04 00 00 00 04 00 00 00
       6e-45 6e-45 6e-45 6e-45
000070 04 00 00 00 04 00 00 80 04 00 00 00 04 00 00 00
       6e-45 -6e-45 6e-45 6e-45
000080 04 00 00 00 04 00 00 00 04 00 00 80 04 00 00 00
       6e-45 6e-45 -6e-45 6e-45
000090 04 00 00 00 04 00 00 00 04 00 00 00 04 00 00 80
       6e-45 6e-45 6e-45 -6e-45
0000a0 04 00 00 00 04 00 00 00 04 00 00 00 04 00 00 00
       6e-45 6e-45 6e-45 6e-45
0000b0 04 00 00 80 04 00 00 00 04 00 00 00 04 00 00 00
       -6e-45 6e-45 6e-45 6e-45
0000c0 04 00 00 00 04 00 00 80 04 00 00 00 04 00 00 00
       6e-45 -6e-45 6e-45 6e-45
0000d0 04 00 00 00 04 00 00 00 04 00 00 00 03 1f 0b 81
       6e-45 6e-45 6e-45 -2.5552518e-38
0000e0 04 00 00 80 04 00 00 00 04 00 00 00 04 00 00 80
       -6e-45 6e-45 6e-45 -6e-45
0000f0 04 00 00 00 04 00 00 00 04 00 00 00 04 00 00 80
       6e-45 6e-45 6e-45 -6e-45
000100 04 00 00 80 04 00 00 00 04 00 00 80 04 00 00 80
       -6e-45 6e-45 -6e-45 -6e-45
000110 04 00 00 80 04 00 00 80 04 00 00 00 04 00 00 00
       -6e-45 -6e-45 6e-45 6e-45
000120 04 00 00 80 04 00 00 80 04 00 00 00 04 00 00 00
       -6e-45 -6e-45 6e-45 6e-45
000130 04 00 00 00 04 00 00 00 04 00 00 80 04 00 00 00
       6e-45 6e-45 -6e-45 6e-45
000140 04 00 00 00 04 00 00 00 04 00 00 00 04 00 00 00
       6e-45 6e-45 6e-45 6e-45
000150 04 00 00 80 04 00 00 00 04 00 00 00 04 00 00 00
       -6e-45 6e-45 6e-45 6e-45
000160 04 00 00 00 04 00 00 00 04 00 00 00 04 00 00 00
       6e-45 6e-45 6e-45 6e-45
000170 04 00 00 00 04 00 00 00 04 00 00 00 04 00 00 00
       6e-45 6e-45 6e-45 6e-45
000180 04 00 00 00 04 00 00 00 04 00 00 00 04 00 00 80
       6e-45 6e-45 6e-45 -6e-45
000190 04 00 00 00 04 00 00 80 04 00 00 80 04 00 00 80
       6e-45 -6e-45 -6e-45 -6e-45
0001a0 04 00 00 00 04 00 00 00 f9 4e 4c 80 04 00 00 80
       6e-45 6e-45 -7.007828e-39 -6e-45
0001b0 04 00 00 00 04 00 00 00 04 00 00 00 04 00 00 00
       6e-45 6e-45 6e-45 6e-45
0001c0 04 00 00 00 04 00 00 00 04 00 00 00 04 00 00 00
       6e-45 6e-45 6e-45 6e-45
0001d0 04 00 00 00 04 00 00 00 04 00 00 80 04 00 00 80
       6e-45 6e-45 -6e-45 -6e-45
0001e0 04 00 00 80 04 00 00 00 04 00 00 00 04 00 00 80
       -6e-45 6e-45 6e-45 -6e-45
0001f0 04 00 00 80 51 0b 45 80 04 00 00 80 04 00 00 00
       -6e-45 -6.340709e-39 -6e-45 6e-45
000200 04 00 00 00 04 00 00 00 04 00 00 00 04 00 00 00
       6e-45 6e-45 6e-45 6e-45
000210 04 00 00 00 04 00 00 00 04 00 00 80 04 00 00 00
       6e-45 6e-45 -6e-45 6e-45
000220 04 00 00 00 04 00 00 00 04 00 00 00 04 00 00 80
       6e-45 6e-45 6e-45 -6e-45
000230 04 00 00 00 04 00 00 00 04 00 00 00 04 00 00 80
       6e-45 6e-45 6e-45 -6e-45
000240 04 00 00 80 04 00 00 00 04 00 00 00 04 00 00 80
       -6e-45 6e-45 6e-45 -6e-45
000250 04 00 00 80 04 00 00 00 f6 c9 19 81 04 00 00 80
       -6e-45 6e-45 -2.8246562e-38 -6e-45
000260 04 00 00 80 56 37 8a 80 c1 f1 59 80 e4 74 ce 80
       -6e-45 -1.2693149e-38 -8.260084e-39 -1.8960045e-38
000270 04 00 00 80 04 00 00 00 04 00 00 00 04 00 00 00
       -6e-45 6e-45 6e-45 6e-45
000280 81 de 02 80 04 00 00 00 04 00 00 00 04 00 00 00
       -2.6349e-40 6e-45 6e-45 6e-45
000290 04 00 00 00 04 00 00 00 04 00 00 00 04 00 00 00
       6e-45 6e-45 6e-45 6e-45
0002a0 04 00 00 00 04 00 00 00 04 00 00 00 04 00 00 00
       6e-45 6e-45 6e-45 6e-45
0002b0 04 00 00 00 04 00 00 00 04 00 00 00 04 00 00 80
       6e-45 6e-45 6e-45 -6e-45
0002c0 04 00 00 80 04 00 00 80 04 00 00 00 04 00 00 00
       -6e-45 -6e-45 6e-45 6e-45
0002d0 04 00 00 00 04 00 00 00 04 00 00 00 04 00 00 00
       6e-45 6e-45 6e-45 6e-45
0002e0 04 00 00 80 04 00 00 00 04 00 00 00 04 00 00 00
       -6e-45 6e-45 6e-45 6e-45
0002f0 04 00 00 80 04 00 00 00 04 00 00 00 04 00 00 00
       -6e-45 6e-45 6e-45 6e-45
000300 04 00 00 00 04 00 00 00 04 00 00 00 04 00 00 00
       6e-45 6e-45 6e-45 6e-45
000310 04 00 00 00 04 00 00 00 04 00 00 00 04 00 00 00
       6e-45 6e-45 6e-45 6e-45
000320 04 00 00 80 04 00 00 00 04 00 00 00 04 00 00 00
       -6e-45 6e-45 6e-45 6e-45
000330 04 00 00 80 04 00 00 00 04 00 00 00 04 00 00 00
       -6e-45 6e-45 6e-45 6e-45
000340 04 00 00 00 04 00 00 80 04 00 00 00 04 00 00 00
       6e-45 -6e-45 6e-45 6e-45
000350 04 00 00 00 04 00 00 80 04 00 00 00 04 00 00 00
       6e-45 -6e-45 6e-45 6e-45
000360 04 00 00 00 04 00 00 00 04 00 00 00 04 00 00 80
       6e-45 6e-45 6e-45 -6e-45
000370 04 00 00 00 04 00 00 00 04 00 00 00 04 00 00 80
       6e-45 6e-45 6e-45 -6e-45
000380 04 00 00 80 04 00 00 00 04 00 00 00 04 00 00 00
       -6e-45 6e-45 6e-45 6e-45
000390 04 00 00 00 04 00 00 00 04 00 00 00 04 00 00 00
       6e-45 6e-45 6e-45 6e-45
0003a0 04 00 00 00 04 00 00 00 04 00 00 00 04 00 00 00
       6e-45 6e-45 6e-45 6e-45
0003b0 04 00 00 00 04 00 00 00 04 00 00 00 04 00 00 00
       6e-45 6e-45 6e-45 6e-45
0003c0 04 00 00 00 04 00 00 00 04 00 00 00 04 00 00 00
       6e-45 6e-45 6e-45 6e-45
0003d0 04 00 00 00 04 00 00 00 04 00 00 00 04 00 00 00
       6e-45 6e-45 6e-45 6e-45
0003e0 04 00 00 00 04 00 00 80 04 00 00 80 04 00 00 00
       6e-45 -6e-45 -6e-45 6e-45
0003f0 04 00 00 00 04 00 00 00 04 00 00 00 04 00 00 00
       6e-45 6e-45 6e-45 6e-45
