AVR/d/checkpoints/epoch=0-step=90.ckpt (torch, 629375 bytes, 24 tensors)

conv1.weight f4 [10, 1, 3, 3]
0	0xbddd9453	-0.10819306
1	0xbe5ca489	-0.2154714
2	0xbeaa39b4	-0.3324715
3	0xbd3701c0	-0.044679403
4	0x3d5c58fc	0.0537958
5	0xbedbe948	-0.42951417
6	0xbd9c5c32	-0.07634772
7	0xbe0eab1b	-0.13932459
8	0xbda12b6a	-0.07869609
9	0xbecd3b41	-0.4008427
10	0x3d795f8a	0.06088213
11	0x3e99ed8d	0.3006405
12	0xbeabc304	-0.33547223
13	0x3e0f87a2	0.14016584
14	0xbd0a92d6	-0.03383144
15	0x3e466666	0.19375
16	0xbd9fe244	-0.078068286
17	0x3e414f97	0.18878017
18	0xbea8b4f6	-0.32950562
19	0xbeee437c	-0.46535861
20	0x3e60eeb9	0.21966065
21	0xbf06c115	-0.5263837
22	0x3d6cf9a1	0.057855252
23	0x3ea6edbc	0.32603252
24	0xbe60ebfd	-0.21965022
25	0xbd68b52d	-0.056813408
26	0x3d4bb8cb	0.04973678
27	0xbe139189	-0.14410986
28	0xbf063a9f	-0.524332
29	0xbeee259c	-0.4651307
30	0x3ed00d9a	0.40635377
31	0x3e924397	0.28567192
32	0x3e6dff51	0.23241927
33	0x3d6512c4	0.0559261
34	0xbd72e01c	-0.05929576
35	0x3ca0bde0	0.01962179
36	0x3ed55ec3	0.4167386
37	0x3e0a518d	0.13507672
38	0x3e8d45b8	0.27592254
39	0x3d882114	0.06646934
40	0xbd510020	-0.05102551
41	0x3ebe0648	0.37114167
42	0x3e0165cd	0.1263649
43	0xbcb343e4	-0.021882959
44	0xbf2d6e23	-0.6774618
45	0xbeadd06b	-0.33948073
46	0xbe138455	-0.1440595
47	0x3d80f0bc	0.062959164
48	0xbeaa89d6	-0.33308285
49	0xbede1468	-0.43374944
50	0xbd3abd3d	-0.045590628
51	0xbee3caa8	-0.44490552
52	0xbe3a306c	-0.18182534
53	0x3e9f9b56	0.311732
54	0x3ee247e9	0.44195488
55	0x3daa214b	0.083071314
56	0x3ec07c87	0.37595007
57	0x3dff1a94	0.12456241
58	0xbe4845e5	-0.19557913
59	0x3e5d483b	0.21609585
60	0x3ee306ef	0.44341227
61	0x3e553811	0.20822169
62	0x3d7c74f2	0.061634965
63	0x3e300970	0.171911
64	0xbc474cbb	-0.01216429
65	0xbd2a0738	-0.04151079
66	0x3d132024	0.035919324
67	0xbe557ed1	-0.20849158
68	0x3d3e81fb	0.046510678
69	0x3e468121	0.19385196
70	0xbec895cb	-0.39176783
71	0xbec3cfb3	-0.382444
72	0xbf37aad7	-0.71745056
73	0xbe19fa71	-0.15036942
74	0x3ebe58c1	0.3717709
75	0xbedb3267	-0.4281189
76	0x3e635480	0.22200203
77	0x3cebbc55	0.028776327
78	0xbeb1d668	-0.3473389
79	0xbcf6460c	-0.030062698
80	0x3ec4fae4	0.38472664
81	0xbf20d418	-0.6282363
82	0xbf4a231d	-0.7895983
83	0xbe97b4e4	-0.29630196
84	0x3e8f05f7	0.27934238
85	0x3dd8be95	0.10583226
86	0xbe4a9509	-0.19783415
87	0x3ef36ae0	0.47542477
88	0xbd6856a4	-0.056723252
89	0x3ebb9886	0.36639804

conv1.bias f4 [10]
0	0xbe80dc7b	-0.25168213
1	0xbeb99634	-0.36247408
2	0xbda98d23	-0.08278873
3	0xbe5167a6	-0.20449695
4	0x3db04503	0.08606913
5	0xbe5952bc	-0.21222967
6	0xbd38881e	-0.045051686
7	0x3e0bd1ab	0.136542
8	0xbe9618e6	-0.2931587
9	0xbdbdae4f	-0.09261762

conv2.weight f4 [20, 10, 3, 3]
0	0xbda73775	-0.081648745
1	0x3dab0243	0.08350041
2	0x3dc198db	0.09452983
3	0x3cfe5efc	0.031051151
4	0xbd2863b2	-0.0411107
5	0xbda1f2ac	-0.07907614
6	0xbd497d1c	-0.04919158
7	0x3d895e73	0.06707468
8	0xbd98f723	-0.074690126
9	0xbe84ae2b	-0.2591413
10	0xbe7f8a31	-0.2495506
11	0xbe1ed013	-0.15509062
12	0xbe2ee902	-0.17081073
13	0xbe4884c9	-0.19581904
14	0x3cc0ce2f	0.023535816
15	0xbe2f50f3	-0.17120723
16	0xbdfa74e4	-0.12229326
17	0xbbb7c465	-0.005608129
18	0xbe24730d	-0.16059513
19	0xbd7347c3	-0.05939461
20	0xbd5f8306	-0.054568313
21	0xbe0e4e4e	-0.13897058
22	0xbd8b0d07	-0.06789594
23	0xbe1f5a10	-0.155617
24	0xbe1a9e1e	-0.1509938
25	0xbc101c59	-0.008795821
26	0xbe312bbf	-0.17301844
27	0xbddbe770	-0.107375026
28	0xbe71bce1	-0.23607208
29	0xbdea8180	-0.114504814
30	0xbe28ef40	-0.16497517
31	0xbdb8f6a9	-0.09031422
32	0xbe4706d7	-0.19436203
33	0xbe0b0d67	-0.13579331
34	0xbd167b09	-0.03673843
35	0xbb2c9508	-0.0026333947
36	0xbe21981b	-0.1578068
37	0xbe414f3f	-0.18877886
38	0xbdb68bca	-0.089133814
39	0xbe08be79	-0.1335391
40	0xbe0d98a9	-0.13827766
41	0xbdc1f919	-0.0947134
42	0xbdde334d	-0.108496286
43	0xbcdf69c5	-0.027272115
44	0xbdeeb403	-0.11655428
45	0xbe334389	-0.17506231
46	0xbe06708c	-0.1312887
47	0x3c1b4421	0.009476692
48	0xbe19ba34	-0.15012437
49	0xbd7ddc5c	-0.06197773
50	0xbcf1e6f0	-0.029529065
51	0xbe3d09c2	-0.18460754
52	0xbccb8b79	-0.02484678
53	0xbe1af18f	-0.1513121
54	0xbe06a4fe	-0.13148877
55	0xbe329729	-0.17440476
56	0xbd0721f4	-0.032991365
57	0xbe6d1a68	-0.23154604
58	0xbe045495	-0.1292289
59	0xbe2d2af5	-0.16910918
60	0xbd4b5f19	-0.04965124
61	0xbe3fa5e2	-0.18715623
62	0xbde1577f	-0.11003017
63	0xbd648478	-0.055790395
64	0xbe604527	-0.2190138
65	0xbd30b169	-0.04313794
66	0xbe0fd7d4	-0.14047176
67	0xbd643c2a	-0.05572144
68	0xbd5950a3	-0.053055417
69	0xbdb4b2fe	-0.088232026
70	0xbe5e9152	-0.21735123
71	0xbcec2c77	-0.028829796
72	0xbe106a35	-0.14103015
73	0xbe1e56e4	-0.15462834
74	0x3b3d6dad	0.0028904483
75	0xbe1ff1f3	-0.1561964
76	0xbe0c6b79	-0.13712873
77	0x3dc6fa19	0.09715671
78	0xbe2a79d0	-0.1664803
79	0xbde88bac	-0.11354765
80	0x3d36a9bd	0.04459547
81	0xbdf12b58	-0.11775845
82	0xbdfaa057	-0.12237614
83	0xbe68710a	-0.22699371
84	0xbd030e6d	-0.03199618
85	0xbe8317da	-0.25604135
86	0xbe0ed625	-0.13948877
87	0xbd7ef210	-0.062242568
88	0xbd9293d2	-0.07157101
89	0xbe4ae92a	-0.19815508
90	0x3e4f20d9	0.20227374
91	0x3d893eb7	0.06701415
92	0xbdd06706	-0.101759
93	0xbdd7d759	-0.10539121
94	0x3c1aa170	0.009437904
95	0xbcdf08fc	-0.027225964
96	0x3d0182fa	0.03161905
97	0x3d9d0e5f	0.07668757
98	0x3babf5a0	0.0052477866
99	0xbbffab1a	-0.0078023793
100	0xbe560d62	-0.20903543
101	0xbd5886f2	-0.05286307
102	0x3b394a9c	0.002827323
103	0xbe00535d	-0.125318
104	0xbe5f986a	-0.21835485
105	0x3d287e56	0.04113611
106	0xbd7fb79e	-0.06243097
107	0xbe584987	-0.21121798
108	0xbd3ecb74	-0.046580747
109	0xbdfc3e3c	-0.12316558
110	0xbe10cabd	-0.14139839
111	0xbd655b95	-0.055995543
112	0xbe3678a9	-0.17819466
113	0xbe2f4d89	-0.17119421
114	0xbd5324aa	-0.051548637
115	0xbd36449d	-0.04449903
116	0xbe1ee765	-0.15517958
117	0xbde60859	-0.11232061
118	0xbdfe2abb	-0.12410494
119	0xbde027a8	-0.10945064
120	0xbd958ce2	-0.07302262
121	0x3b883246	0.0041563837
122	0xbe03cf2c	-0.12871999
123	0x3c9f9b5e	0.019483265
124	0xbe822acf	-0.25423285
125	0xbd166c06	-0.036724113
126	0xbdb7f245	-0.08981756
127	0xbcf06e56	-0.029349487
128	0xbe2e9888	-0.17050374
129	0x3ad79e2a	0.0016450335
130	0xbe3aebab	-0.18253963
131	0xbe0626bc	-0.13100713
132	0xbe0a3a21	-0.13498737
133	0xbcc1bc39	-0.023649322
134	0xbdb017d8	-0.08598298
135	0xbc764a9d	-0.015032438
136	0xbe4531b3	-0.1925724
137	0xbd855ab7	-0.06511443
138	0xbdf2c704	-0.118543655
139	0xbe0cae9f	-0.13738488
140	0xbd002d94	-0.031293467
141	0xbd3ce90e	-0.046120696
142	0xbe2aabad	-0.16667052
143	0xbe3fb33a	-0.18720713
144	0x3bac7225	0.0052626305
145	0xbe3d2c6a	-0.18473974
146	0xbe19d740	-0.15023518
147	0xbd338beb	-0.043834608
148	0xbe2fbdbc	-0.17162222
149	0xbe4f625f	-0.2025237
150	0xbe0a7fa6	-0.13525257
151	0xbcafbd5e	-0.021452602
152	0xbe208e7f	-0.15679358
153	0xbe35d96b	-0.1775872
154	0xbe4e9983	-0.20175748
155	0xbe2ac272	-0.16675738
156	0xbd59a487	-0.05313542
157	0xbd69f6b3	-0.057120036
158	0xbe54250a	-0.20717254
159	0xbe47cec2	-0.19512466
160	0xbdd4b374	-0.103857905
161	0xbda7a507	-0.08185773
162	0xbe2cc951	-0.16873671
163	0xbe4c0366	-0.19923171
164	0xbe4bb6ee	-0.19894001
165	0xbbcd1166	-0.0062581776
166	0xbdbd4319	-0.092413135
167	0xbe4b0a28	-0.19828093
168	0xbda408fc	-0.08009526
169	0xbdfa26a4	-0.12214401
170	0xbe1e0d27	-0.15434705
171	0x3cf793cf	0.030221848
172	0xbd1ebd95	-0.03875502
173	0xbc49f787	-0.0123270815
174	0xbe66ac0e	-0.22526571
175	0xbe920648	-0.28520417
176	0xbe112ac6	-0.14176473
177	0xbdba8a79	-0.09108443
178	0xbde573d4	-0.11203733
179	0xbe6ba959	-0.2301382
180	0x3daafe75	0.08349315
181	0xbd77aa5d	-0.060465205
182	0x3db24051	0.08703674
183	0xbd5c37a0	-0.053763986
184	0x3d85fa89	0.065419264
185	0x3b620e80	0.0034493506
186	0xbd243414	-0.040088728
187	0xbd7db9d8	-0.061944813
188	0xbd97075f	-0.07374453
189	0xbe638f40	-0.22222614
190	0xbe30e8cb	-0.17276303
191	0xbd85eb39	-0.06539006
192	0xbe6b44ce	-0.22975466
193	0xbd6023e9	-0.054721747
194	0xbe1c550d	-0.1526682
195	0xbd52275e	-0.051307075
196	0xbe2d7fe9	-0.16943325
197	0xbe31085e	-0.17288348
198	0xbe1bcf33	-0.15215759
199	0xbe017c0d	-0.12644978
200	0xbe8bc7c0	-0.27300835
201	0xbdd3b1f0	-0.10336673
202	0xbe0ce18e	-0.13757917
203	0xbe55072f	-0.20803522
204	0xbe03ce80	-0.12871742
205	0xbe3a22d5	-0.1817735
206	0xbe614bee	-0.22001621
207	0xbc589223	-0.013218435
208	0xbe4c8363	-0.19971995
209	0xbe27573d	-0.16341873
210	0xbdb88382	-0.09009458
211	0xbdf2accd	-0.118493654
212	0xbd358660	-0.044317603
213	0xbd67ebb9	-0.056621287
214	0xbe27cacb	-0.16385953
215	0xbd023f92	-0.031798907
216	0xbe3ed0e8	-0.18634379
217	0xbcd1a615	-0.02559189
218	0xbe69e31a	-0.22840539
219	0xbe333f1b	-0.17504542
220	0xbdda42f4	-0.106573015
221	0xbe68ff67	-0.22753678
222	0xbdc705fe	-0.0971794
223	0xbdc27563	-0.09495046
224	0xbe28cf29	-0.16485275
225	0xbe04fab3	-0.12986259
226	0xbe41ad92	-0.18913868
227	0xbe24a5e5	-0.16078909
228	0xbd9ba832	-0.0760044
229	0xbda8821c	-0.082279414
230	0xbe5cb8d4	-0.21554881
231	0xbe18124f	-0.14850734
232	0xbddb5583	-0.107096694
233	0xbd879958	-0.06621045
234	0xbe4a1dad	-0.19737883
235	0xbd2f9906	-0.042870544
236	0xbd98d3e5	-0.07462291
237	0xbcfef0a6	-0.03112061
238	0xbd83b600	-0.06431198
239	0xbe5c3f44	-0.21508509
240	0xbdf40c08	-0.11916357
241	0xbe3379f3	-0.17526989
242	0xbe6f018f	-0.23340438
243	0xbdcb413b	-0.09924551
244	0xbd8163a5	-0.06317834
245	0xbda7b0d4	-0.08188024
246	0xbe008f99	-0.12554778
247	0xbe6e1485	-0.23250015
248	0xbe55f2d9	-0.2089342
249	0xbddfc45b	-0.10926124
250	0xbe2f77e1	-0.17135574
251	0xbe5db9c7	-0.216529
252	0xbe174199	-0.14771117
253	0xbd0a8030	-0.033813655
254	0xbd7245b1	-0.059148494
255	0xbd68e037	-0.056854453

conv2.bias f4 [20]
0	0xbe1d26f0	-0.15346885
1	0xbcbecd64	-0.023291297
2	0xbd843071	-0.06454552
3	0xbe22be72	-0.15892962
4	0xbdddba97	-0.10826605
5	0xbe38a0dd	-0.18030114
6	0xbdeca618	-0.11555117
7	0xbded0659	-0.11573476
8	0xbe19d948	-0.15024292
9	0xbe3df2e7	-0.18549691
10	0xbe3c209d	-0.18371816
11	0xbe705ee3	-0.23473696
12	0x3ccdce96	0.025122922
13	0xbcd07166	-0.025444698
14	0xbe325c78	-0.17418087
15	0xbe0a616e	-0.13513729
16	0xbe2d32e0	-0.16913939
17	0xbe0429b6	-0.12906536
18	0xbde28098	-0.110596836
19	0xbd938dfc	-0.07204816

fc1.weight f4 [50, 980]
0	0xbdb4f77a	-0.08836265
1	0xbdb9cbbc	-0.090720624
2	0xbd7c9054	-0.06166108
3	0xbd90b5e7	-0.07065945
4	0xbdc2b990	-0.095080495
5	0xbde57d05	-0.11205486
6	0xbdc1f928	-0.09471351
7	0xbda8a69d	-0.08234904
8	0xbda5ca5a	-0.08095236
9	0xbd98d844	-0.074631244
10	0xbdd0d9e1	-0.10197807
11	0x3e1d7780	0.15377617
12	0xbdd460ab	-0.103700005
13	0xbda6b519	-0.081400104
14	0xbd9f7789	-0.077864714
15	0xbdb6b4d8	-0.08921212
16	0xbdc6828a	-0.09692867
17	0xbdf9acb8	-0.121911466
18	0x3d502f63	0.05082644
19	0xbdfd4b90	-0.12367928
20	0xbdab561c	-0.083660334
21	0x3d03774b	0.03209619
22	0xbdbdb564	-0.09263113
23	0xbdf016aa	-0.11723073
24	0xbdc21750	-0.09477103
25	0xbda3888d	-0.07985029
26	0xbdd3ae8f	-0.10336029
27	0xbdc99d87	-0.09844499
28	0x3da58b98	0.08083266
29	0x3e464691	0.19362856
30	0xbdb76468	-0.08954698
31	0xbe07e5d3	-0.13271265
32	0xbe0fc512	-0.1404002
33	0xbddea57d	-0.10871408
34	0xbd96b98d	-0.0735961
35	0xbde5c1a5	-0.112185754
36	0xbdb47743	-0.0881181
37	0xbdf0256c	-0.11725888
38	0xbe04198d	-0.12900372
39	0xbdd78f5f	-0.10525393
40	0xbe0541f5	-0.13013442
41	0xbddf4116	-0.10901086
42	0xbde87b1e	-0.11351608
43	0xbd9948b7	-0.074845724
44	0xbdb85336	-0.09000246
45	0xbdc6a637	-0.09699672
46	0xbd9dee0d	-0.0771142
47	0xbd99449c	-0.07483789
48	0xbde01d1b	-0.109430514
49	0xbcaa0e35	-0.020758728
50	0xbd89b134	-0.06723252
51	0xbd887cbd	-0.06664417
52	0x3d3437b9	0.043998454
53	0xbd945e73	-0.07244577
54	0x3c87e15a	0.016586948
55	0xbca38c9d	-0.01996451
56	0x3e2eabc6	0.17057714
57	0x3de2a16b	0.11065944
58	0x3e43bc21	0.19114734
59	0x3e1cc0ef	0.15307973
60	0xbdf47d0a	-0.11937912
61	0x3e273513	0.1632884
62	0xbccd6dd6	-0.025076788
63	0xbdf43234	-0.11923638
64	0x3e4159eb	0.18881957
65	0x3e385771	0.18002106
66	0x3d5131a4	0.05107273
67	0xbdabd910	-0.08391011
68	0x3e0cf338	0.13764656
69	0xbdc8d069	-0.09805376
70	0xbd8415bc	-0.06449458
71	0xbda49b0b	-0.080373846
72	0x3e3bb783	0.18331723
73	0x3e2505d7	0.16115509
74	0xbd9c14a4	-0.076211244
75	0xbd70cde1	-0.05879009
76	0xbd909be5	-0.070609845
77	0xbc9e0bd2	-0.019292746
78	0xbdbadd6f	-0.09124266
79	0xbdae43bb	-0.08509012
80	0x3e14a16c	0.14514703
81	0xbd342cf6	-0.04398819
82	0xbc21481a	-0.0098438505
83	0xbd6ff8c2	-0.058586843
84	0x3d628bea	0.055309214
85	0x3e0dbdd6	0.13841948
86	0xbd913fb4	-0.070922285
87	0x3e1371cb	0.14398877
88	0x3e0e0574	0.13869268
89	0xbdd80bc1	-0.10549117
90	0xbcc57ca1	-0.02410728
91	0x3c8be7df	0.017078338
92	0xbd8af3bd	-0.06784771
93	0xbd4a6616	-0.049413763
94	0x3d87b470	0.066262126
95	0xbcc6d828	-0.024272993
96	0xbda442a2	-0.08020522
97	0xbd4d1f37	-0.050078597
98	0x3dd4ad39	0.10384602
99	0x3e025005	0.12725838
100	0x3e50aa1c	0.20377392
101	0xbc26ec1c	-0.010188129
102	0xbd7aea3d	-0.061258543
103	0x3e553aeb	0.20823257
104	0x3e147049	0.14495958
105	0x3dd0c602	0.10194017
106	0x3debebb8	0.11519569
107	0x3e1c6ff0	0.15277076
108	0x3e4556d9	0.19271411
109	0xbcea8a38	-0.028630361
110	0x3d793175	0.06083818
111	0x3e6d69d9	0.23184909
112	0x3d13aa2a	0.036050953
113	0x3e2a0344	0.16602808
114	0x3e4c6f05	0.19964226
115	0x3e584d1c	0.21123165
116	0x3e301db1	0.17198826
117	0x3e504c51	0.20341612
118	0x3e111417	0.1416782
119	0x3db399fb	0.08769604
120	0x3cc1ce6a	0.023657996
121	0x3d8020f8	0.06256288
122	0x3e3f7923	0.18698554
123	0x3deb29e2	0.11482598
124	0x3e588c77	0.21147333
125	0x3dd6f5b0	0.1049608
126	0x3e4a9207	0.19782268
127	0x3c98e473	0.01866362
128	0xbccaebb2	-0.024770591
129	0x3e0ec72d	0.13943167
130	0x3e641922	0.22275212
131	0x3e731f86	0.23742494
132	0x3e0019dd	0.12509866
133	0x3e2241d6	0.15845427
134	0xbd9c55ab	-0.07633527
135	0x3e439945	0.19101436
136	0x3d76ca4b	0.060251515
137	0xbccc51ae	-0.024941292
138	0x3e0ed99c	0.13950199
139	0x3de212ce	0.11038743
140	0x3e209e26	0.15685329
141	0x3e80742c	0.25088632
142	0x3c6ee8ab	0.01458184
143	0xba02cc09	-0.000498951
144	0x3e64b52f	0.22334741
145	0x3e121bda	0.14268437
146	0x3de621b2	0.112368956
147	0xbd2f7415	-0.042835314
148	0x3cd3aae8	0.02583833
149	0x3ca76a9e	0.020436581
150	0xbe096cfc	-0.1342048
151	0x3bc13738	0.005896475
152	0x3c865f58	0.016402885
153	0xbce24281	-0.027619602
154	0x3db8a3e5	0.090156354
155	0x3c443a38	0.011976771
156	0x3c40fd4c	0.011779141
157	0xbb623de0	-0.0034521744
158	0xbdf89475	-0.12137691
159	0xbdc0d142	-0.09414913
160	0x3bc4e808	0.0060091056
161	0x3deef248	0.11667305
162	0xbc8d7ed0	-0.017272383
163	0x3c4ceb00	0.0125072
164	0xbdb679fb	-0.08909985
165	0xbca3a1f2	-0.019974682
166	0xbce5ae3b	-0.028037181
167	0x3c3b0474	0.011414636
168	0x3deeda15	0.116626896
169	0x3beba4c0	0.0071912706
170	0x3b4f1860	0.0031600222
171	0xbc3d8088	-0.011566289
172	0xbb1af490	-0.0023644306
173	0x3cc34f7a	0.023841608
174	0x3c1c0498	0.00952258
175	0x3d9e58bc	0.077317685
176	0xbddb1b4f	-0.10698568
177	0xbb1077f0	-0.0022044145
178	0xbcfa48bb	-0.030552259
179	0xbdd82ea1	-0.10555769
180	0xbdcccb8d	-0.09999762
181	0x3c007a70	0.007841691
182	0xbd6fe67d	-0.05856942
183	0xbb153750	-0.0022768565
184	0x3dcbc38d	0.09949408
185	0xbca75292	-0.020425115
186	0x3cc40464	0.023927875
187	0xbd9d8997	-0.07692259
188	0x3ca2cce8	0.019873098
189	0x3e047c40	0.12938023
190	0xbcb8393a	-0.022488225
191	0xbcb3e9c7	-0.02196206
192	0xbc7a651e	-0.015282897
193	0x3bffb470	0.0078034922
194	0x3cd29022	0.025703494
195	0x3cf8eee4	0.03038735
196	0xbcd8d277	-0.026467545
197	0xbcf8861e	-0.03033739
198	0xbcb07500	-0.021540165
199	0xbd32dff1	-0.0436706
200	0xbd42e227	-0.047578957
201	0xbd880eab	-0.06643423
202	0xbc173131	-0.009228037
203	0xbcbd7cc2	-0.023130778
204	0xbdf5acdd	-0.11995862
205	0xbdd3af64	-0.103361875
206	0x3e170914	0.14749557
207	0xbde01b97	-0.10942762
208	0xbdd2ee37	-0.10299342
209	0xbc31f4d6	-0.010861596
210	0xbce56479	-0.02800201
211	0xbdd1e228	-0.10248214
212	0xbe00f35b	-0.12592833
213	0xbe168372	-0.1469858
214	0x3d81e95c	0.06343338
215	0xbdfa819b	-0.122317515
216	0xbcf751e2	-0.030190412
217	0x3d44726c	0.047960684
218	0xbdff8a07	-0.124774985
219	0xbdf53a4c	-0.1197401
220	0xbdbe941d	-0.09305594
221	0x3e37f9ea	0.17966428
222	0xbdf4c5fd	-0.11951826
223	0x3e1f0724	0.15530068
224	0x3beab5e5	0.007162797
225	0xbdd3ec5b	-0.103478156
226	0xbd742b3e	-0.05961155
227	0xbdeb9a92	-0.11504091
228	0x3c36be25	0.011153732
229	0xbe0aebe5	-0.13566549
230	0xbdc83ea4	-0.09777573
231	0xbd6e1ac7	-0.058131006
232	0xbd99e8b4	-0.07515088
233	0xbe10267d	-0.14077182
234	0xbe00aa5a	-0.12564984
235	0x3dd0b774	0.10191241
236	0xbe0d0083	-0.13769726
237	0xbd6bf354	-0.057605103
238	0x3b4e6dca	0.0031498545
239	0xbd2534b8	-0.04033348
240	0xbd9379bd	-0.07200954
241	0xbe163de7	-0.14672051
242	0xbe0a1bdc	-0.1348719
243	0xbd36e06c	-0.04464762
244	0xbc776f64	-0.015102241
245	0xb95dad00	-0.0002114065
246	0xbbf4bb88	-0.0074686445
247	0x3c801df0	0.015639275
248	0x3e09d571	0.13460328
249	0xbdd767f2	-0.10517873
250	0xbdf26252	-0.11835159
251	0x3e0377ce	0.1283867
252	0x3c0bf2f8	0.008541815
253	0x3e0a3d25	0.13499887
254	0x3dcc8e64	0.09988096
255	0x3defa346	0.11701064

fc1.bias f4 [50]
0	0x3e1dab3f	0.15397356
1	0xbdb92dfd	-0.09041975
2	0x3cdaaae0	0.026692808
3	0x3dacb220	0.08432412
4	0x3e1b4896	0.15164408
5	0xbe0f1e29	-0.13976349
6	0xbe39a7b7	-0.18130384
7	0xbdfb8523	-0.12281253
8	0x3df4ed0b	0.11959275
9	0xbdb60d63	-0.08889272
10	0xbe0bf06c	-0.13665932
11	0xbdbbc0e5	-0.09167651
12	0xbdbe57f0	-0.092941165
13	0x3e0d9dda	0.13829747
14	0xbde5c2c9	-0.11218793
15	0xbe199c59	-0.15001048
16	0xbe04b790	-0.12960649
17	0xbcd65653	-0.02616421
18	0x3c85b091	0.016319545
19	0xbd19202b	-0.037384193
20	0xbe4986f3	-0.19680385
21	0x3de677a3	0.11253288
22	0x3cead321	0.028665127
23	0xbe0fa0f9	-0.1402625
24	0x3d4bb815	0.0497361
25	0x3c2a74ca	0.010403821
26	0x3d9d30a0	0.0767529
27	0xbe0047a7	-0.12527333
28	0xbe98de9e	-0.29857343
29	0xbe1d0146	-0.15332517
30	0x3d5bfa97	0.053705778
31	0xbde3b73a	-0.11118932
32	0xbd061784	-0.03273727
33	0x3c9d9e72	0.019240592
34	0xbd759f08	-0.059966117
35	0xbc23c846	-0.009996479
36	0x3c9737c0	0.0184592
37	0x3df953aa	0.12174161
38	0xbe1da1b4	-0.15393716
39	0xbe1227d3	-0.14273004
40	0x3dc6e2ea	0.09711249
41	0xbe250a7a	-0.16117278
42	0xbdbfe5cb	-0.093700014
43	0xbd975f0d	-0.073911764
44	0x3d0792e1	0.03309906
45	0x3e0a54f3	0.13508968
46	0x3d7e8152	0.06213505
47	0xbdceb493	-0.100930355
48	0x3cfdd1cd	0.03098383
49	0x3e068707	0.13137446

fc2.weight f4 [10, 50]
0	0xbda44e8f	-0.08022796
1	0x3ea34141	0.31885722
2	0xbe31ad72	-0.1735132
3	0x3d90d002	0.07070924
4	0xbd901377	-0.070349626
5	0x3b9ac1d3	0.0047228127
6	0xbdf16373	-0.117865466
7	0xbef51eb9	-0.47875002
8	0x3dda8b25	0.10671071
9	0x3e7050b2	0.23468283
10	0xbd93bea8	-0.07214099
11	0x3e941d0d	0.28928414
12	0x3e06a56f	0.13149045
13	0xbe4851d4	-0.19562465
14	0x3c1733be	0.009228645
15	0xbe13e978	-0.1444453
16	0xbe245bb3	-0.16050605
17	0x3e28179c	0.16415256
18	0x3e5cb9db	0.21555273
19	0x3d2b60a0	0.041840196
20	0x3eb977af	0.36224124
21	0xbcd8f72e	-0.026485052
22	0x3e7431df	0.2384715
23	0x3d29e596	0.041478716
24	0xbee24c2b	-0.44198737
25	0xbe46da04	-0.19419104
26	0xbed12d8d	-0.40855065
27	0xbbf4f819	-0.0074758646
28	0x3c31829f	0.010834365
29	0xbe1092bf	-0.14118479
30	0x3e593d8e	0.21214887
31	0xbec2a572	-0.3801685
32	0x3dcdc414	0.100471646
33	0xbe6d81b8	-0.23194015
34	0xbebac573	-0.36478767
35	0x3dfad4ce	0.122476205
36	0xbe4c440b	-0.19947831
37	0xbeb8bfaa	-0.36083728
38	0xbc8d28fe	-0.01723146
39	0xbdf0578f	-0.117354505
40	0x3e03ddfc	0.12877649
41	0xbd90892c	-0.070574135
42	0xbca8e493	-0.020616805
43	0xbe4322a1	-0.19056179
44	0x3de10b7d	0.10988519
45	0xbea89000	-0.32922363
46	0xbea9b7da	-0.3314808
47	0x3e4e5b9f	0.20152138
48	0xbe94027c	-0.28908145
49	0xbd957923	-0.072984956
50	0xbe95ea1e	-0.2928018
51	0x3e13edeb	0.14446227
52	0xbeb93163	-0.36170492
53	0xbed730ef	-0.4202952
54	0x3f16a6cc	0.5884826
55	0x3d63b525	0.055592675
56	0x3dc0de31	0.0941738
57	0x3e9e4f83	0.30920038
58	0x3e4b069d	0.19826742
59	0xbd48b84c	-0.049003884
60	0x3e9b4269	0.30324104
61	0xbf039813	-0.5140392
62	0xbec4760b	-0.3837131
63	0x3da47008	0.08029181
64	0xbe34eced	-0.17668505
65	0xbc98739d	-0.018609816
66	0xbd8699de	-0.065723166
67	0xbe47e83d	-0.19522186
68	0x3d01a491	0.031651083
69	0x3dabf666	0.08396606
70	0xbeb10cec	-0.3458017
71	0xbdf2e789	-0.11860568
72	0xbe04dee6	-0.12975654
73	0x3d3dcad1	0.046336
74	0xbe685fe0	-0.22692823
75	0xbe8aa510	-0.27079058
76	0xbef7d845	-0.48407188
77	0xbe48008f	-0.19531463
78	0xbdbbbfe2	-0.09167458
79	0xbe649af2	-0.22324732
80	0xbeea5070	-0.45764494
81	0x3e3de8b8	0.18545806
82	0xbed0aea1	-0.4075823
83	0xbe523a98	-0.20530164
84	0x3e97837a	0.29592496
85	0xbe81c56b	-0.2534593
86	0xbe486b2a	-0.1957213
87	0xbf1d09a0	-0.6134281
88	0xbe9005f3	-0.2812954
89	0x3e40e95f	0.18839024
90	0xbe8dd137	-0.2769868
91	0xbd7f475e	-0.06232392
92	0xbe81f234	-0.253801
93	0xbe6bdae9	-0.23032726
94	0xbea0b9fa	-0.3139189
95	0x3d9a04f4	0.07520476
96	0x3ecd9dc7	0.40159437
97	0x3dcd38da	0.10020609
98	0x3e13dd6b	0.14439933
99	0xbd5593ae	-0.05214279
100	0xbddf997c	-0.10917947
101	0x3c023cc7	0.007949061
102	0xbdd58e04	-0.10427478
103	0x3e91a922	0.2844935
104	0xbed4ae1e	-0.4153909
105	0xbcb48db8	-0.022040233
106	0xbe9a5db6	-0.3014962
107	0xbe27e7fb	-0.16397087
108	0x3d9a4881	0.0753336
109	0x3cdf8a7e	0.027287718
110	0x3e97648f	0.29568908
111	0xbe325786	-0.174162
112	0x3e1f3268	0.15546572
113	0xbd99dd35	-0.07512895
114	0xbcf47ead	-0.02984556
115	0xbc382f52	-0.011241751
116	0x3c04ef22	0.008113654
117	0xbd57118c	-0.05250697
118	0x3e56c73c	0.2097444
119	0xbcffc974	-0.03122399
120	0xbe849269	-0.25892952
121	0xbdb80c90	-0.08986771
122	0x3ea52bc9	0.32259968
123	0xbeb7592c	-0.3581022
124	0xbe3fae1f	-0.18718766
125	0x3e862bab	0.2620519
126	0xbb97a5ec	-0.0046279337
127	0x3d0633bf	0.032764193
128	0xbdc15c6a	-0.09441455
129	0xbd518aad	-0.051157642
130	0xbe7e532a	-0.24836412
131	0xbe2d6a72	-0.16935137
132	0xbe8ffd7e	-0.28123087
133	0xbe8d2f30	-0.27575064
134	0x3ef09c17	0.46994087
135	0x3e5d9264	0.21637875
136	0xbdad32d5	-0.08456961
137	0xbe916051	-0.28393796
138	0x3c6e46a2	0.014543207
139	0xbeaa128e	-0.3321728
140	0xbe3b9529	-0.18318619
141	0xbe25e048	-0.16198838
142	0xbde74c08	-0.11293799
143	0xbd2cf178	-0.04222247
144	0xbddd301f	-0.10800194
145	0x3e95685a	0.29181176
146	0x3eac971a	0.3370903
147	0xbb89c8c2	-0.0042048404
148	0xbed39f12	-0.413323
149	0xbe70db2d	-0.23521109
150	0xbe4a85e0	-0.19777632
151	0xbe8ba2ee	-0.27272743
152	0x3e1941c9	0.14966501
153	0x3e732829	0.23745789
154	0xbe0654b0	-0.13118243
155	0xbe2f5f2c	-0.17126149
156	0xbe02d6b5	-0.12777217
157	0xbe7f1520	-0.24910402
158	0xbe352ca1	-0.17692806
159	0xbd4c41de	-0.049867503
160	0x3e1c3b7a	0.15257064
161	0x3c11802a	0.008880654
162	0x3d964290	0.073369145
163	0x3ebec0df	0.37256524
164	0x3e352d83	0.17693143
165	0xbdba01b2	-0.090823546
166	0x3e56e2b6	0.20984921
167	0xbdee188e	-0.11625777
168	0xbc1a40a2	-0.009414824
169	0x3b26d5ca	0.0025457018
170	0xbee2301e	-0.44177336
171	0xbf30cfe1	-0.690672
172	0xbd7109e8	-0.058847338
173	0xbcbb261b	-0.022845319
174	0xbb424f36	-0.0029649264
175	0xbd22a303	-0.03970624
176	0xbdff2c1d	-0.12459586
177	0xbe21353c	-0.15742964
178	0xbe16af54	-0.1471532
179	0xbd6d49ba	-0.05793164
180	0x3e96995a	0.29413873
181	0xbc3f8d7d	-0.011691448
182	0x3cbffd9b	0.023436358
183	0x3e5edb77	0.21763407
184	0xbde54df0	-0.11196506
185	0x3e47554b	0.1946613
186	0xbe096226	-0.13416347
187	0xbe26c644	-0.1628657
188	0xbe8f97a5	-0.28045383
189	0xbd950109	-0.07275588
190	0x3deecda8	0.116603196
191	0xbc8db269	-0.017296987
192	0x3a8c0e11	0.0010685344
193	0x3db08bfb	0.08620449
194	0x3e3a52e2	0.1819568
195	0x3ba9a6d0	0.0051773563
196	0x3e3317b0	0.17489505
197	0xbb1b1c3b	-0.002366795
198	0xbe79e7d1	-0.24404837
199	0xbe9c7d79	-0.30564478
200	0xbe81c5ef	-0.25346324
201	0x3e8180d0	0.2529359
202	0xbe03f0f6	-0.12884888
203	0xbe8842c2	-0.26613432
204	0xbdc8e2ea	-0.098089054
205	0x3e02df59	0.12780513
206	0xbe933b86	-0.2875635
207	0xbe81b97f	-0.25336835
208	0x3d7e5fd4	0.062103108
209	0xbe1b4109	-0.15161528
210	0xbd3f0d73	-0.046643686
211	0xbe4704dc	-0.19435447
212	0xbe7b6f82	-0.24554256
213	0xbe8df380	-0.27724838
214	0x3d3fe1d1	0.046846215
215	0xbe35ad75	-0.1774195
216	0xbe409c24	-0.18809563
217	0xbc454694	-0.012040753
218	0xbebfd30b	-0.374657
219	0xbe16b22f	-0.14716409
220	0xbe1fba37	-0.15598379
221	0x3e394fd2	0.18096855
222	0xbd68268f	-0.056677397
223	0xbac5006d	-0.0015030034
224	0x3e3e4be0	0.18583632
225	0x3d3f5365	0.04671039
226	0x3e8e1417	0.27749702
227	0x3d247cb2	0.04015798
228	0x3d417495	0.047230322
229	0xbe9eaa78	-0.30989432
230	0xbd09224a	-0.033479966
231	0x3dd271a6	0.10275583
232	0xbe74b16a	-0.23895803
233	0xbe32b93b	-0.17453472
234	0xbd1a4a9f	-0.03766882
235	0xbebf13d2	-0.3731981
236	0x3e32d5d1	0.17464377
237	0x3ebbb082	0.36658102
238	0xbc5c346a	-0.013440231
239	0xbe6d9565	-0.2320152
240	0xbe7df634	-0.2480095
241	0x3ddc14db	0.10746165
242	0xbe0b5a45	-0.13608654
243	0xbc07a210	-0.008278385
244	0xbf10618d	-0.5639885
245	0x3e165075	0.1467913
246	0xbd2e6aaa	-0.04258219
247	0xbe9e26e0	-0.30889034
248	0xbe3059b8	-0.17221725
249	0xbe879d15	-0.26487032
250	0x3d8f56bc	0.06998965
251	0xbc7827ee	-0.015146239
252	0x3e8fefdf	0.28112695
253	0xbd985167	-0.07437401
254	0xbe428f0b	-0.18999879
255	0xbd92657d	-0.071482636

fc2.bias f4 [10]
0	0xbe81b86d	-0.25336018
1	0x3e0d7b5c	0.13816589
2	0xbe24d6ee	-0.16097614
3	0x3e117ec1	0.14208509
4	0x3e4c7839	0.19967736
5	0x3d5cb468	0.053882986
6	0xbd07b45c	-0.03313099
7	0xbdf62961	-0.12019611
8	0x3d1a0603	0.03760339
9	0x3e200689	0.15627493

exp_avg f4 [10, 1, 3, 3]
0	0x2dc5e1de	2.2496612e-11
1	0x2d99177b	1.7404514e-11
2	0x2c3e93f1	2.7082748e-12
3	0x306b2e0a	8.555793e-10
4	0x30faae1e	1.8239381e-09
5	0x2e243748	3.7338382e-11
6	0x317d5bf8	3.6868624e-09
7	0x316d48f3	3.4529506e-09
8	0x30495807	7.324847e-10
9	0xb86b9e46	-5.617577e-05
10	0x3b199d2f	0.0023439636
11	0x3cb4e424	0.022081442
12	0x3b881e92	0.004154035
13	0x3c927fc4	0.017883189
14	0x3ce8a3c8	0.02839841
15	0x3caf1440	0.02137196
16	0x3ce69dea	0.028151471
17	0x3cd54f5a	0.026038814
18	0x3a912dc4	0.0011076261
19	0x3c018d60	0.007907242
20	0x3d11ab4f	0.035563763
21	0x3a617fb7	0.00086021
22	0x3c8a15ba	0.016856063
23	0x3d4861d3	0.048921417
24	0x3c884218	0.016633078
25	0x3d0e60b3	0.03476019
26	0x3d4807ca	0.048835553
27	0x3c07c94c	0.008287739
28	0x3aa65ae0	0.0012691878
29	0xbb1b779d	-0.0023722418
30	0xbc4673f3	-0.012112605
31	0xbc86a41d	-0.016435677
32	0xbc6f527a	-0.014607066
33	0xbc1c68e5	-0.009546493
34	0xbc83c298	-0.016084
35	0xbc5c339a	-0.013440037
36	0xbc3546e3	-0.011064264
37	0xbbab28ae	-0.0052233553
38	0xbbbe28a5	-0.005803185
39	0xbbbacc30	-0.0057006106
40	0x3bd2fbb6	0.0064386977
41	0xbc0df5b0	-0.0086645335
42	0xbc17b35f	-0.009259074
43	0x3b3e3a30	0.0029026382
44	0x3ab05d1a	0.0013455481
45	0x39fa34dc	0.000477231
46	0x3a7fb9b8	0.0009755152
47	0x3c0801c9	0.008301207
48	0x3855cb1d	5.097232e-05
49	0x398cbb60	0.00026842486
50	0x3bd9a399	0.006641817
51	0x39ff4104	0.0004868583
52	0x3a8b1eab	0.0010613998
53	0x3c01208a	0.007881293
54	0x3b57095a	0.003281197
55	0x3c5e0f8f	0.013553514
56	0x3c30c49b	0.010789062
57	0x3ac47a28	0.0014990019
58	0x3c6b672a	0.014367858
59	0x3c8b7602	0.017024044
60	0x3c05aa50	0.008158281
61	0x3c53e20f	0.012932315
62	0x3c994b89	0.018712776
63	0x3c346dda	0.011012519
64	0x3c02c516	0.007981559
65	0xbb6b7061	-0.0035925137
66	0x3c04830a	0.008087883
67	0x3ba886b1	0.0051430096
68	0x38c3d600	9.338185e-05
69	0xb9eacc10	-0.00044783996
70	0x3b8705f3	0.0041205822
71	0x3b07b2ac	0.0020705862
72	0x3a7be502	0.0009609015
73	0x3b0e5314	0.0021717
74	0x3ca4f7f9	0.020137774
75	0x3a5d5f70	0.0008444702
76	0x3be1a8d8	0.006886583
77	0x3d0dc2c4	0.03460957
78	0x3c17df9b	0.00926962
79	0x3cde0936	0.027104001
80	0x3d2ee411	0.04269797
81	0x3bac0fdb	0.0052509136
82	0x3a5d3ef0	0.00084398594
83	0xbb6f6ba5	-0.0036532667
84	0x3b887aa2	0.0041650096
85	0xbc2dbb8c	-0.010603797
86	0xbcb7cd68	-0.022436813
87	0xbca6d1dd	-0.020363742
88	0xbd06f370	-0.032947004
89	0xbd0626ed	-0.032751966

exp_avg_sq f4 [10, 1, 3, 3]
0	0x27044f95	1.8361821e-15
1	0x269e62a2	1.0990187e-15
2	0x23f57239	2.6611328e-17
3	0x2c5beecf	3.1254337e-12
4	0x2d60ff85	1.27896626e-11
5	0x27b63d43	5.0581568e-15
6	0x2e4fe429	4.7268998e-11
7	0x2e28d43c	3.838728e-11
8	0x2c08faf4	1.946607e-12
9	0x372f945a	1.0465354e-05
10	0x38bc9dcf	8.993933e-05
11	0x3943ad6f	0.00018661258
12	0x3819ce12	3.666996e-05
13	0x392b2f7f	0.00016325524
14	0x394f6a56	0.00019780672
15	0x38ea62f4	0.00011176421
16	0x394e8c4d	0.00019697957
17	0x392f5cff	0.00016723944
18	0x3645ac21	2.945548e-06
19	0x3828ba3a	4.022776e-05
20	0x39a938da	0.0003227655
21	0x35fbb48c	1.8753503e-06
22	0x38dc9f57	0.00010520097
23	0x39f502ba	0.00046732073
24	0x3854a86e	5.07016e-05
25	0x399384ea	0.00028137054
26	0x39f186ed	0.0004606763
27	0x38e457ad	0.00010888218
28	0x3833a36f	4.2829135e-05
29	0x38c839ce	9.54751e-05
30	0x39e21114	0.00043118803
31	0x39c11428	0.00036826846
32	0x39dfb9b1	0.00042672225
33	0x3a15d232	0.00057152205
34	0x3a0cf480	0.00053770095
35	0x39fcf19e	0.00048245204
36	0x390342dd	0.00012518042
37	0x38f099fa	0.00011472772
38	0x38fb65f8	0.00011987606
39	0x38e3a000	0.00010854006
40	0x38c2b2a4	9.283915e-05
41	0x38d28cdf	0.000100398196
42	0x38afc2ee	8.380959e-05
43	0x38a6ee55	7.9598896e-05
44	0x388d3de9	6.7349356e-05
45	0x3693efee	4.408873e-06
46	0x3789911c	1.6399244e-05
47	0x38cd0b4b	9.777265e-05
48	0x3529070f	6.296768e-07
49	0x37151bb3	8.887541e-06
50	0x38ec8733	0.0001127854
51	0x36077972	2.0187258e-06
52	0x3838576f	4.3950447e-05
53	0x394bc2a3	0.00019432096
54	0x3969e4a5	0.00022305788
55	0x3974e565	0.0002335511
56	0x395ad067	0.00020867736
57	0x3990ccb8	0.00027618348
58	0x397a74f9	0.00023885434
59	0x393ed3c9	0.00018198708
60	0x39630ec6	0.0002165391
61	0x395bc964	0.00020960491
62	0x391b75c8	0.00014825829
63	0x39010ffb	0.00012308352
64	0x38a67516	7.937306e-05
65	0x382f5511	4.1802476e-05
66	0x39059904	0.00012740871
67	0x387e62a6	6.0650193e-05
68	0x3818cc42	3.6429854e-05
69	0x39074c5b	0.00012903048
70	0x38022f64	3.103855e-05
71	0x376f7f0c	1.42750905e-05
72	0x3639a004	2.766029e-06
73	0x38e49074	0.00010898794
74	0x3a08e6ee	0.00052223995
75	0x375126f4	1.246644e-05
76	0x39834819	0.00025039984
77	0x3a5c50b8	0.0008404362
78	0x389e2806	7.541482e-05
79	0x3a0474f2	0.00050528266
80	0x3a81385e	0.0009858718
81	0x37fdb002	3.024191e-05
82	0x37139a90	8.79787e-06
83	0x3881f96d	6.1976585e-05
84	0x3960b2eb	0.00021428957
85	0x391dd15c	0.00015050679
86	0x3964965f	0.00021799792
87	0x3a0bcc49	0.000533287
88	0x39d738f4	0.0004105043
89	0x3a15a265	0.00057080976

exp_avg f4 [10]
0	0x30bb61c3	1.3633826e-09
1	0x3d12e2a7	0.035860684
2	0x3d88e29e	0.06683849
3	0xbcaed9f8	-0.02134417
4	0xbd97b318	-0.07407206
5	0x3c1a8290	0.009430543
6	0x3cc16112	0.023605857
7	0xbd854ace	-0.065084085
8	0x3d6fcdeb	0.058545988
9	0xbd1edd33	-0.03878517

exp_avg_sq f4 [10]
0	0x2d06576a	7.636428e-12
1	0x397885b4	0.00023700931
2	0x3afa95ae	0.0019118094
3	0x3a61e9f9	0.00086179335
4	0x3aa86e82	0.0012850317
5	0x398d318a	0.00026930525
6	0x3a115cd9	0.00055451464
7	0x3a825d1d	0.0009945963
8	0x3aaaf640	0.0013043359
9	0x3a90c2f8	0.0011044433

exp_avg f4 [20, 10, 3, 3]
0	0x00000000	0.0
1	0x00000000	0.0
2	0x00000000	0.0
3	0x00000000	0.0
4	0x00000000	0.0
5	0x00000000	0.0
6	0x00000000	0.0
7	0x00000000	0.0
8	0x00000000	0.0
9	0x34897582	2.5603737e-07
10	0x3416c37d	1.4040957e-07
11	0x33a671e5	7.750695e-08
12	0x34995e34	2.8567013e-07
13	0x34804150	2.388938e-07
14	0x341b9162	1.448839e-07
15	0x34e1f688	4.208889e-07
16	0x34d00d0e	3.8752518e-07
17	0x34a44ff9	3.0605568e-07
18	0x341bdf44	1.4516723e-07
19	0x34067d12	1.2525223e-07
20	0x3402051b	1.2109051e-07
21	0x34113c2f	1.3526072e-07
22	0x34105dff	1.344524e-07
23	0x33e73cc3	1.0767828e-07
24	0x34229bc2	1.514409e-07
25	0x341c13dd	1.4535858e-07
26	0x33dcae71	1.0276279e-07
27	0x33933335	6.8545354e-08
28	0x338211ea	6.056855e-08
29	0x335eb728	5.1854983e-08
30	0x33df2780	1.0391432e-07
31	0x33a3fe40	7.636527e-08
32	0x334f9345	4.8329884e-08
33	0x34023964	1.2128072e-07
34	0x340e56e6	1.3256394e-07
35	0x33f88a25	1.1573528e-07
36	0x34ffce72	4.764766e-07
37	0x34ae0c5d	3.241902e-07
38	0x348514f0	2.4788415e-07
39	0x34f7ec6c	4.6179355e-07
40	0x34c2f1cb	3.6311243e-07
41	0x34b057a5	3.2846324e-07
42	0x350cb7fb	5.242179e-07
43	0x35094a74	5.114482e-07
44	0x34df18f5	4.1555145e-07
45	0x33268355	3.8769333e-08
46	0x3306f3f1	3.142117e-08
47	0x322c6400	1.0034455e-08
48	0x334989f5	4.692443e-08
49	0x334c8b16	4.762395e-08
50	0x32c985f9	2.3460403e-08
51	0x33c0dd94	8.9810015e-08
52	0x33bad326	8.6997076e-08
53	0x32dc78e3	2.5666344e-08
54	0x34b9cf4c	3.4609764e-07
55	0x3463286e	2.115573e-07
56	0x33ef221c	1.1135509e-07
57	0x34c027b8	3.5791686e-07
58	0x349b646d	2.894407e-07
59	0x34405091	1.7910703e-07
60	0x34f22f8d	4.511061e-07
61	0x34e42db2	4.2501557e-07
62	0x34a4c41e	3.0690074e-07
63	0x35af7baa	1.3074507e-06
64	0x3595db4e	1.1165191e-06
65	0x359459a6	1.105295e-06
66	0x35ab122a	1.2745779e-06
67	0x35967226	1.1209092e-06
68	0x3599f1f3	1.1469805e-06
69	0x35a850e8	1.2540522e-06
70	0x359b752e	1.1582504e-06
71	0x35a3feef	1.2218642e-06
72	0x33640cf3	5.3097164e-08
73	0x3200adba	7.490081e-09
74	0xb2834364	-1.5281053e-08
75	0x330e6d87	3.3161566e-08
76	0x33222c21	3.77587e-08
77	0xb2056c07	-7.7661815e-09
78	0x3345cc0b	4.6053213e-08
79	0x33026cc7	3.0366916e-08
80	0x32e1c416	2.6282617e-08
81	0x329107ee	1.6883828e-08
82	0x3288c25d	1.592087e-08
83	0x328bfdb4	1.62971e-08
84	0x333814ff	4.2859934e-08
85	0x32e75d3d	2.693434e-08
86	0x32ce676e	2.402859e-08
87	0x334f2a77	4.8234565e-08
88	0x33123d99	3.4049297e-08
89	0x334cd663	4.7692435e-08
90	0xaf2d9977	-1.578878e-10
91	0x00000000	0.0
92	0x00000000	0.0
93	0x00000000	0.0
94	0x00000000	0.0
95	0x00000000	0.0
96	0x00000000	0.0
97	0x00000000	0.0
98	0x00000000	0.0
99	0x34fbab74	4.6877142e-07
100	0x34cfd0e1	3.8708734e-07
101	0x34e1cd6d	4.2058983e-07
102	0x3510ecb6	5.398864e-07
103	0x34f1b3e1	4.5020627e-07
104	0x34be07e8	3.539601e-07
105	0x34fe83e8	4.740716e-07
106	0x34f8575f	4.625717e-07
107	0x3487a5bd	2.52663e-07
108	0x3477ac24	2.3066292e-07
109	0x3457b315	2.0088585e-07
110	0x3454aab2	1.9806137e-07
111	0x3454727c	1.9785688e-07
112	0x342b23cb	1.5938637e-07
113	0x344cadac	1.9062162e-07
114	0x344b5786	1.8937689e-07
115	0x34581cec	2.012709e-07
116	0x340b5e4c	1.2979689e-07
117	0x3356b565	4.9990735e-08
118	0x339f0f35	7.4067806e-08
119	0x339bf631	7.262532e-08
120	0x33a2258c	7.5505426e-08
121	0x3395c27c	6.97373e-08
122	0x331d9fcc	3.6699745e-08
123	0x336a93ad	5.461668e-08
124	0x33a30898	7.591842e-08
125	0x3326ed22	3.8865558e-08
126	0x3536997b	6.8023627e-07
127	0x352c8fd7	6.428431e-07
128	0x3520433f	5.97025e-07
129	0x353232a8	6.638388e-07
130	0x35260605	6.184858e-07
131	0x350f37dd	5.3352943e-07
132	0x35304fae	6.568106e-07
133	0x3544a97b	7.3262316e-07
134	0x3507f566	5.064852e-07
135	0x3407e8b4	1.2657512e-07
136	0x33c9ab2e	9.390929e-08
137	0x342b11c3	1.5932078e-07
138	0x33dcdd97	1.0284855e-07
139	0x33b8aaaf	8.599215e-08
140	0x338cea3d	6.561866e-08
141	0x3423d120	1.5256637e-07
142	0x34094500	1.2784221e-07
143	0x3397a78a	7.0619606e-08
144	0x35550722	7.9359063e-07
145	0x352616a8	6.187279e-07
146	0x3534da67	6.737304e-07
147	0x3547007c	7.413398e-07
148	0x352d4bab	6.4557634e-07
149	0x35122faf	5.4458627e-07
150	0x3553360e	7.8682285e-07
151	0x3551fb96	7.8224673e-07
152	0x34f9adc6	4.65063e-07
153	0x35c81d0f	1.4909618e-06
154	0x35f04b66	1.7903337e-06
155	0x35b45752	1.3436459e-06
156	0x35ea86d6	1.7473601e-06
157	0x360888c6	2.0345192e-06
158	0x35e34100	1.6931735e-06
159	0x35d5f022	1.5939625e-06
160	0x35fa6482	1.8655703e-06
161	0x35da7550	1.6276408e-06
162	0x33e284e2	1.0548116e-07
163	0x333b3173	4.3584304e-08
164	0x33c2a7f4	9.0643795e-08
165	0x33a65083	7.7446224e-08
166	0x32c9346b	2.3423317e-08
167	0x339dbae5	7.344878e-08
168	0x3385bd78	6.227759e-08
169	0x339448f1	6.905055e-08
170	0x33499fe4	4.694438e-08
171	0x33a41066	7.639828e-08
172	0x337e863c	5.926107e-08
173	0x3340282a	4.4740013e-08
174	0x338d6ccc	6.585614e-08
175	0x33a3093d	7.5919594e-08
176	0x3346623a	4.6189804e-08
177	0x33a44d74	7.650934e-08
178	0x339e9b98	7.385751e-08
179	0x33562c1c	4.9865875e-08
180	0x00000000	0.0
181	0x00000000	0.0
182	0x00000000	0.0
183	0x00000000	0.0
184	0x00000000	0.0
185	0x00000000	0.0
186	0x00000000	0.0
187	0x00000000	0.0
188	0x00000000	0.0
189	0x34ef97d6	4.4627694e-07
190	0x35557927	7.9524983e-07
191	0x354c03d6	7.6001504e-07
192	0x352f8145	6.538069e-07
193	0x355e6c72	8.2859253e-07
194	0x353455fb	6.7180343e-07
195	0x352eef66	6.516842e-07
196	0x3515ed96	5.585256e-07
197	0x34d6d4af	4.0015354e-07
198	0x348ba924	2.6013834e-07
199	0x34c48304	3.660317e-07
200	0x34604dbf	2.088991e-07
201	0x34a32161	3.0385402e-07
202	0x34b803e5	3.4275504e-07
203	0x3444c877	1.8326851e-07
204	0x34831335	2.4414626e-07
205	0x3479431e	2.3214349e-07
206	0x3442358b	1.8087137e-07
207	0x33de9333	1.0364456e-07
208	0x340d8502	1.3180036e-07
209	0x343413bd	1.6770987e-07
210	0x34351a18	1.6866431e-07
211	0x343219a7	1.6586874e-07
212	0x3421fcc1	1.5086245e-07
213	0x341a159a	1.4350226e-07
214	0x34043032	1.2310991e-07
215	0x33e6ca8a	1.0747051e-07
216	0x35393bbd	6.90048e-07
217	0x35731774	9.0558683e-07
218	0x3583eb27	9.828699e-07
219	0x355ff84c	8.3435293e-07
220	0x357d1e6e	9.4294126e-07
221	0x3574ed53	9.1242435e-07
222	0x356a89aa	8.737212e-07
223	0x35601358	8.347465e-07
224	0x3544ec1e	7.3359286e-07
225	0x340fd39a	1.3394893e-07
226	0x3488ac5a	2.5457376e-07
227	0x34220ea7	1.5092756e-07
228	0x3421ca1c	1.506782e-07
229	0x34681ac7	2.1616425e-07
230	0x3403a926	1.2261862e-07
231	0x342c47b4	1.6044834e-07
232	0x346333c2	2.1159852e-07
233	0x34487293	1.8668133e-07
234	0x353ff221	7.150539e-07
235	0x35837cca	9.796579e-07
236	0x35839380	9.803189e-07
237	0x356f521b	8.915392e-07
238	0x357ccb4f	9.417317e-07
239	0x355b257d	8.163841e-07
240	0x355f617c	8.321583e-07
241	0x3555da31	7.9666194e-07
242	0x3540b47c	7.1788213e-07
243	0x36048d69	1.9751844e-06
244	0x35f8ffb7	1.8551863e-06
245	0x35ee86ce	1.7771615e-06
246	0x360798e9	2.0205573e-06
247	0x3600b388	1.9177987e-06
248	0x35efde5e	1.7871605e-06
249	0x35f0ec16	1.7950103e-06
250	0x35eac65b	1.7492088e-06
251	0x35cf40e7	1.5441591e-06
252	0x337ad3b7	5.8400214e-08
253	0x346e0c08	2.2169854e-07
254	0x33b7700e	8.541984e-08
255	0x33ea215d	1.0902543e-07

exp_avg_sq f4 [20, 10, 3, 3]
0	0x00000000	0.0
1	0x00000000	0.0
2	0x00000000	0.0
3	0x00000000	0.0
4	0x00000000	0.0
5	0x00000000	0.0
6	0x00000000	0.0
7	0x00000000	0.0
8	0x00000000	0.0
9	0x34d82c59	4.0265402e-07
10	0x34097593	1.2801893e-07
11	0x342380f2	1.5227468e-07
12	0x35183acc	5.6709973e-07
13	0x350cd378	5.246179e-07
14	0x34e6afe0	4.2968804e-07
15	0x35d5169c	1.5876317e-06
16	0x35dce2d1	1.645729e-06
17	0x358f5425	1.067882e-06
18	0x33e03a68	1.0441437e-07
19	0x33d8fa2d	1.01037905e-07
20	0x33ecb6fa	1.10228896e-07
21	0x33c5c94e	9.2101445e-08
22	0x3442aaf7	1.8129855e-07
23	0x33dd9bfa	1.03194864e-07
24	0x345716ab	2.0031682e-07
25	0x345f8b0a	2.0819076e-07
26	0x34046b45	1.2332482e-07
27	0x32e2aca2	2.6388367e-08
28	0x32a83395	1.958123e-08
29	0x32820902	1.5138088e-08
30	0x33a83d72	7.8342865e-08
31	0x335c92dc	5.135631e-08
32	0x32cc475b	2.3781174e-08
33	0x34463d4d	1.8462488e-07
34	0x3467599e	2.1546154e-07
35	0x341bc0df	1.4505666e-07
36	0x35a83046	1.2531025e-06
37	0x35109a50	5.3868735e-07
38	0x34ff4f9e	4.755538e-07
39	0x35b088a2	1.3152787e-06
40	0x355c09b2	8.1970495e-07
41	0x35571381	8.0122123e-07
42	0x36192d35	2.282509e-06
43	0x3609df76	2.0544662e-06
44	0x35e7979a	1.7254963e-06
45	0x322400ec	9.546266e-09
46	0x32b980e3	2.1595445e-08
47	0x33033c51	3.055567e-08
48	0x3289fd73	1.6064154e-08
49	0x329071ed	1.6815614e-08
50	0x32470b29	1.1585862e-08
51	0x339566f8	6.957083e-08
52	0x338c4b89	6.532998e-08
53	0x32a17fbb	1.8800952e-08
54	0x351c87b2	5.831199e-07
55	0x348bcdb6	2.6040442e-07
56	0x34893c5a	2.556215e-07
57	0x3564405d	8.503028e-07
58	0x35304195	6.5660544e-07
59	0x34e42358	4.2494025e-07
60	0x35e44577	1.7007541e-06
61	0x35cd1e85	1.5282573e-06
62	0x3595b2e3	1.1153428e-06
63	0x3702ac47	7.788715e-06
64	0x36b67bf8	5.4384545e-06
65	0x36b9aaab	5.533298e-06
66	0x36fdc1eb	7.5625626e-06
67	0x36c16855	5.763994e-06
68	0x36d28836	6.2743447e-06
69	0x370076ad	7.657026e-06
70	0x36dfb99a	6.6675248e-06
71	0x36ffbb87	7.6214233e-06
72	0x329c9e08	1.8232654e-08
73	0x2fbc686a	3.4271191e-10
74	0x32ad1fef	2.0154372e-08
75	0x31ddae55	6.451766e-09
76	0x33057b83	3.107881e-08
77	0x32e164d5	2.62393e-08
78	0x331ce7f4	3.653254e-08
79	0x3395813e	6.961862e-08
80	0x331e3b79	3.684133e-08
81	0x3117f9d6	2.2115407e-09
82	0x30c5cd30	1.4391954e-09
83	0x30a073f8	1.1674492e-09
84	0x329bdbdc	1.8144355e-08
85	0x31a8c93d	4.9123217e-09
86	0x32051f10	7.748682e-09
87	0x32a05d52	1.8668889e-08
88	0x3259b714	1.267269e-08
89	0x32878f86	1.5781335e-08
90	0x29cba93f	9.0443705e-14
91	0x00000000	0.0
92	0x00000000	0.0
93	0x00000000	0.0
94	0x00000000	0.0
95	0x00000000	0.0
96	0x00000000	0.0
97	0x00000000	0.0
98	0x00000000	0.0
99	0x36180567	2.265291e-06
100	0x358c3ada	1.0447941e-06
101	0x354eef58	7.708927e-07
102	0x3634683d	2.6882765e-06
103	0x359b0354	1.1549369e-06
104	0x35112665	5.407258e-07
105	0x3619a737	2.2896108e-06
106	0x3599c1e4	1.1455818e-06
107	0x34b22dd5	3.318843e-07
108	0x34b2281f	3.3184276e-07
109	0x34468b9d	1.8490978e-07
110	0x344ea0e3	1.9243775e-07
111	0x34ba2047	3.4668685e-07
112	0x3413f90e	1.3781047e-07
113	0x34210d92	1.499923e-07
114	0x348e957a	2.655832e-07
115	0x345ca995	2.055079e-07
116	0x33c8765d	9.334756e-08
117	0x333a1363	4.3324132e-08
118	0x33012c0d	3.0075217e-08
119	0x33000eff	2.981596e-08
120	0x3386ed89	6.2830686e-08
121	0x332b71fb	3.9917705e-08
122	0x32640133	1.3271619e-08
123	0x3314bef6	3.4632613e-08
124	0x32f939bf	2.9013675e-08
125	0x32855cf1	1.5525503e-08
126	0x3689a3b6	4.1019766e-06
127	0x363f1c38	2.8477643e-06
128	0x35ee9196	1.7774753e-06
129	0x36939816	4.3986465e-06
130	0x36375ab7	2.7321928e-06
131	0x35c4b54b	1.4655901e-06
132	0x3681f7fc	3.8733688e-06
133	0x366b4332	3.5056842e-06
134	0x35c1b042	1.4430918e-06
135	0x34133560	1.370986e-07
136	0x33268c08	3.8777245e-08
137	0x33cc8618	9.523882e-08
138	0x33e9ee68	1.0893274e-07
139	0x3329ade0	3.9506517e-08
140	0x32c05f39	2.2395044e-08
141	0x341383ed	1.3738436e-07
142	0x33a442f2	7.6490224e-08
143	0x32ff3e2b	2.9714178e-08
144	0x36d72476	6.411744e-06
145	0x3648859f	2.98801e-06
146	0x360b0f6a	2.0721586e-06
147	0x36bc3e78	5.610109e-06
148	0x363b5b7b	2.791842e-06
149	0x35b96e6b	1.381571e-06
150	0x36b86e79	5.496488e-06
151	0x367ca14d	3.7644816e-06
152	0x35a9cc8f	1.2651016e-06
153	0x375b91c5	1.3087357e-05
154	0x37aab5b6	2.0350195e-05
155	0x374f24ff	1.2346775e-05
156	0x37a57238	1.972272e-05
157	0x37eaeb8d	2.800466e-05
158	0x3798fa38	1.823633e-05
159	0x3783723e	1.5669615e-05
160	0x37c74d73	2.3758714e-05
161	0x378f368b	1.7072327e-05
162	0x33d86651	1.0076895e-07
163	0x324a3dd6	1.1772007e-08
164	0x333117db	4.123272e-08
165	0x33d77b0a	1.0034098e-07
166	0x3202e974	7.620077e-09
167	0x33102b70	3.356712e-08
168	0x3337f456	4.283023e-08
169	0x32b0ca3c	2.0581062e-08
170	0x32668612	1.3418246e-08
171	0x337b83d6	5.8560396e-08
172	0x3335b4c6	4.230676e-08
173	0x3283e6d4	1.5355376e-08
174	0x32a0150f	1.8636028e-08
175	0x32c3fe3d	2.2816602e-08
176	0x32a72340	1.9457389e-08
177	0x32fd6cb1	2.9502504e-08
178	0x3337fbe9	4.283712e-08
179	0x32aa3c03	1.9817895e-08
180	0x00000000	0.0
181	0x00000000	0.0
182	0x00000000	0.0
183	0x00000000	0.0
184	0x00000000	0.0
185	0x00000000	0.0
186	0x00000000	0.0
187	0x00000000	0.0
188	0x00000000	0.0
189	0x359a322f	1.14885e-06
190	0x366d7d14	3.5388557e-06
191	0x364f077b	3.0849758e-06
192	0x361d3956	2.3428197e-06
193	0x36861f14	3.997129e-06
194	0x3623f516	2.4431552e-06
195	0x362a8462	2.540903e-06
196	0x360249d2	1.9414479e-06
197	0x357920a7	9.2807244e-07
198	0x34c6b0f1	3.7009116e-07
199	0x3532c107	6.659106e-07
200	0x345da41b	2.064193e-07
201	0x35187118	5.6788986e-07
202	0x35350b19	6.7443904e-07
203	0x3433ad7e	1.673379e-07
204	0x34dccce8	4.1127282e-07
205	0x34a41194	3.056017e-07
206	0x3434ef41	1.6850846e-07
207	0x33e1cff4	1.05152054e-07
208	0x3427ba0a	1.5620768e-07
209	0x342d1668	1.6120032e-07
210	0x344cf300	1.9087383e-07
211	0x34401849	1.7890228e-07
212	0x34152067	1.3888494e-07
213	0x340d7b2f	1.3176462e-07
214	0x33bfc03c	8.929098e-08
215	0x3389cfa6	6.417331e-08
216	0x3627b6c4	2.4991323e-06
217	0x36930e15	4.3825808e-06
218	0x369fa717	4.758021e-06
219	0x367ebaad	3.795761e-06
220	0x36ae04a4	5.1861443e-06
221	0x36938561	4.3964687e-06
222	0x368fd03d	4.2859742e-06
223	0x368345ae	3.912216e-06
224	0x363f7282	2.852787e-06
225	0x3420e0bc	1.4982919e-07
226	0x34bfc766	3.5721604e-07
227	0x33dc08dd	1.02461605e-07
228	0x343f174b	1.7796735e-07
229	0x34b38080	3.3434844e-07
230	0x33d15849	9.74838e-08
231	0x343c817d	1.7555972e-07
232	0x349c37f6	2.909798e-07
233	0x3446d9f3	1.8519476e-07
234	0x363fa878	2.855928e-06
235	0x36a96a6d	5.048982e-06
236	0x3694c767	4.433957e-06
237	0x369df2a8	4.7072135e-06
238	0x36aaf7b9	5.0952335e-06
239	0x365ef271	3.3221697e-06
240	0x3687f194	4.051437e-06
241	0x366279c7	3.3747508e-06
242	0x3626e09c	2.4866667e-06
243	0x37841719	1.5746382e-05
244	0x3773c8e4	1.4530702e-05
245	0x37616c02	1.3436193e-05
246	0x378b3ad6	1.6597489e-05
247	0x37853edb	1.5884105e-05
248	0x3763d497	1.3579752e-05
249	0x3772d341	1.447351e-05
250	0x376f7449	1.4272585e-05
251	0x37366537	1.0871611e-05
252	0x333bb7d2	4.3706514e-08
253	0x34b8a71b	3.4394256e-07
254	0x336e95eb	5.5550043e-08
255	0x33fc60ef	1.17522966e-07

exp_avg f4 [20]
0	0x36794adc	3.7147465e-06
1	0x36ebb41b	7.024513e-06
2	0x36dabf82	6.5192007e-06
3	0x34631949	2.1150221e-07
4	0x36c5a769	5.8905466e-06
5	0x33372aca	4.2646924e-08
6	0x33475ccc	4.6417696e-08
7	0x353183f5	6.612966e-07
8	0x3d88692c	0.06660685
9	0x32b335cf	2.0862812e-08
10	0x3629d3b8	2.53062e-06
11	0x33d1ab14	9.76344e-08
12	0xbd20410e	-0.03912454
13	0x3c862096	0.01637296
14	0x34c3171b	3.6338392e-07
15	0x357f8bd5	9.5198385e-07
16	0x30fdef0c	1.8476114e-09
17	0x36c74d3e	5.9396543e-06
18	0x36cab757	6.0414127e-06
19	0x36ae1ef8	5.1892093e-06

exp_avg_sq f4 [20]
0	0x388389c6	6.272229e-05
1	0x39a02488	0.00030544796
2	0x393d2bda	0.0001804078
3	0x347425d1	2.2738028e-07
4	0x38b4c56a	8.61984e-05
5	0x3283a78b	1.5326597e-08
6	0x32ec54d6	2.7512595e-08
7	0x364a619f	3.0157169e-06
8	0x3a77e9ec	0.00094571593
9	0x31bef7bd	5.5578924e-09
10	0x37f963f9	2.9729666e-05
11	0x33d9720d	1.0125596e-07
12	0x3b25f951	0.0025325606
13	0x3b0fdeeb	0.0021952938
14	0x33fe3fd6	1.18394084e-07
15	0x376801ae	1.3828669e-05
16	0x2e3fb5d1	4.3589857e-11
17	0x38cd689a	9.794645e-05
18	0x3930820b	0.00016833113
19	0x3925a5cb	0.00015797389
